carl/envs/mario/pcg_smb_env/toadgan/generators/v1/TOAD_GAN_6-3/generators.pth (torch_old, 762839 bytes, 56 tensors)

weight f4 [64, 7, 3, 3]
-0.020608159 -0.002950903 -0.04624427 -0.003456462 -0.050206088 -0.006496171 -0.012915525 0.07411728
0.015152398 0.0051616305 -0.030649826 -0.02784505 0.046295144 0.021311568 -0.0720848 0.121903054
-0.0183883 0.059919704 0.026968163 -0.010422645 -0.026252529 -0.00082668907 -0.023524638 -0.021452747
-0.095315106 0.033994824 0.124861956 0.00037012526 0.025243882 0.014945734 -0.00078902114 0.008839464
0.016176904 0.10357643 0.033558663 -0.11064921 0.030796668 0.049914964 -0.016118126 -0.074369796
0.022565905 0.05553015 0.14100303 0.00029578828 0.01708598 0.0018335788 -0.07562259 -0.03552074
0.026239254 -0.025922053 -0.010867408 0.06598179 -0.06720478 0.022871803 0.039400343 -0.005064022
-0.034827784 0.0038087897 0.028841102 0.016581487 -0.10760421 -0.026154384 -0.009129157 0.043653212
0.03330148 0.06925136 -0.0074579935 0.07333936 0.07809315 0.056385253 0.044834815 -0.12728296
0.05052113 0.0028036986 -0.04219618 -0.0036636356 0.03880326 -0.0013973897 -0.06036058 0.05015504
0.03460439 0.050401937 0.071191914 -0.119276315 0.010232704 -0.050659396 -0.023602452 0.03751734
-0.01548617 -0.0134929 0.05989745 -0.03778967 0.041064817 0.013431105 -0.0062039983 -0.029018829
0.027122917 0.073353626 0.05202119 -0.101905994 0.018749077 -0.02507441 -0.025470829 0.006350448
-0.039553355 0.039617736 0.05938049 -0.053530492 -0.10089206 -0.035896964 -0.11025353 0.045931507
-0.0046744505 0.04106002 -0.023854638 0.010178308 -0.05478298 0.004393246 0.0905697 -0.02322719
-0.034152284 -0.012637837 0.0043565673 0.042905785 0.03138194 0.04443841 0.01838081 -0.036743008
0.07374372 -0.02769203 0.0014070916 -0.026875649 -0.012028584 -0.02396136 0.059231076 -0.013739303
0.045388255 -0.00345894 0.006701196 -0.002827897 -0.017460529 -0.03095813 -0.042594317 0.043805696
0.0063981926 0.016549468 0.17414601 -0.03384342 0.014197405 0.011537637 0.007759649 0.045039136
-0.00317056 -0.024739916 -0.0057881544 0.19168141 0.01941702 -0.0077819666 -0.0331935 0.02092839
0.008710276 -0.0013896187 -0.044889398 0.04037702 -0.009130512 -0.042587034 -0.024231553 0.045312814
0.01872731 0.006471716 -0.058293957 0.0018426247 0.06628844 0.23029321 -0.01615505 -0.031891394
-0.028300902 -0.031103443 0.025743973 -0.04379775 -0.015273217 -0.03872061 -0.0558876 0.024226554
0.0039126305 -0.04526662 0.062229473 -0.022364119 0.035672132 0.01946081 0.031037897 0.07704732
-0.0034978022 0.020913336 0.028517839 -0.029831568 -0.023026003 0.019610113 -0.0021860928 -0.00073504384
0.07626099 0.049624555 -0.035339266 -0.07727403 0.0014503394 -0.0077190157 -0.0075923335 -0.040187266
-0.032990113 -0.053723227 0.016694264 0.032266233 0.091049984 -0.026501313 -0.026548296 -0.00037684097
0.06946258 0.035712704 -0.12707877 -0.045858756 0.019751037 0.024768217 0.048827253 -0.036582887
0.021470895 0.07444941 -0.037078146 0.2472466 -0.004597995 0.023591213 -0.0020492182 -0.004234394
0.030817 -0.0069704126 -0.040737685 -0.07667689 0.0013513422 -0.010947777 0.043961816 -0.012504384
0.02352695 0.0048804185 0.019434629 -0.033615805 -0.084966026 -0.055868555 0.01482324 -0.018853312
0.027501347 -0.006611495 0.03541421 -0.0072746873 -0.084028006 0.045652878 -0.062590204 0.02626711
00000000: 71d2 a8bc f063 41bb a26a 3dbd cf85 62bb
00000010: e6a4 4dbd d5dd d4bb a39b 53bc cdca 973d
00000020: c341 783c e522 a93b 5815 fbbc 4d1b e4bc
00000030: fa9f 3d3d 9995 ae3c 32a1 93bd 4fa8 f93d
00000040: 0fa3 96bc 5d6e 753d 56ec dc3c bec3 2abc
00000050: 8b0f d7bc 2ab6 58ba beb6 c0bc acbd afbc
00000060: 9134 c3bd 283e 0b3d a0b7 ff3d 5f0d c239
00000070: 42cc ce3c f4de 743c 50d6 4eba 66d3 103c
00000080: 6d85 843c e11f d43d cf74 093d 0e9c e2bd
00000090: 4b49 fc3c a273 4c3d 290a 84bc 314f 98bd
000000a0: 22dc b83c 9573 633d 1963 103e 0814 9b39
000000b0: e6f7 8b3c b254 f03a 04e0 9abd 327e 11bd
000000c0: b4f3 d63c 7c5a d4bc 360d 32bc 7621 873d
000000d0: a9a2 89bd a65d bb3c 4162 213d 18f0 a5bb
000000e0: 94a7 0ebd e39c 793b 2d44 ec3c e6d5 873c
000000f0: 995f dcbd b841 d6bc 7692 15bc b6cd 323d
00000100: 2267 083d a8d3 8d3d 2f62 f4bb f232 963d
00000110: 4def 9f3d 39f4 663d b6a4 373d 7756 02be
00000120: 3fef 4e3d 42be 373b e7d5 2cbd 9b19 70bb
00000130: 2bf0 1e3d 9e28 b7ba a83c 77bd 5f6f 4d3d
00000140: 55bd 0d3d 4372 4e3d 11cd 913d 2447 f4bd
00000150: 12a7 273c 3a80 4fbd ee59 c1bc c8ab 193d
00000160: b4b9 7dbc 5311 5dbc 0757 753d 57c9 1abd
00000170: 9533 283d 230e 5c3c e94a cbbb e5b8 edbc
00000180: e130 de3c 6d3a 963d 2c14 553d 17b4 d0bd
00000190: aa97 993c d968 cdbc 33a8 d0bc 6b17 d03b
000001a0: b302 22bd 3546 223d f538 733d ca42 5bbd
000001b0: 7fa0 cebd b208 13bd 9acc e1bd ad22 3c3d
000001c0: 222c 99bb 8d2e 283d cd6a c3bc ebc2 263c
000001d0: 1e64 60bd 38f5 8f3b 9b7c b93d f346 bebc
000001e0: 44e3 0bbd ee0e 4fbc 89c1 8e3b fabd 2f3d
000001f0: 598a 003d 0d05 363d 5a93 963c d67f 16bd
00000200: f306 973d 65da e2bc 296e b83a 522a dcbc
00000210: 8a13 45bc 9d4a c4bc 499c 723d d01a 61bc
00000220: 09e9 393d 62af 62bb b595 db3b 3d54 39bb
00000230: 6209 8fbc e79b fdbc 6177 2ebd 9a6d 333d
00000240: eea7 d13b c092 873c 5553 323e 669f 0abd
00000250: 3c9c 683c 5b08 3d3c a744 fe3b f57a 383d
00000260: 2cc9 4fbb 5dab cabc 8faa bdbb 2248 443e
00000270: 7110 9f3c deff febb e8f5 07bd 0472 ab3c
00000280: 8cb5 0e3c de23 b6ba f2dd 37bd 6062 253d
00000290: 2598 15bc be6f 2ebd 4081 c6bc ee99 393d
000002a0: 046a 993c b010 d43b a5c5 6ebd 3a84 f13a
000002b0: 3cc2 873d fcd1 6b3e 9857 84bc 8da0 02bd
000002c0: 4bd7 e7bc a6cc febc 06e5 d23c 4565 33bd
000002d0: 843c 7abc 8199 1ebd 65ea 64bd c476 c63c
000002e0: 8635 803b 7e69 39bd 55e4 7e3d f534 b7bc
000002f0: f11c 123d 476c 9f3c 3043 fe3c fcca 9d3d
00000300: 623b 65bb 7252 ab3c 3e9e e93c 5561 f4bc
00000310: 07a1 bcbc 63a5 a03c 8d44 0fbb f5af 40ba
00000320: b92e 9c3d 1e43 4b3d e8bf 10bd d941 9ebd
00000330: 5119 be3a ccef fcbb 1cc9 f8bb 679b 24bd
00000340: a420 07bd e30c 5cbd 69c2 883c 9929 043d
00000350: 6a78 ba3d 4819 d9bc d07b d9bc bd92 c5b9
00000360: 6642 8e3d 7c47 123d f020 02be 64d6 3bbd
00000370: edcc a13c b7e6 ca3c 16ff 473d f0d7 15bd
00000380: bbe3 af3c ef78 983d 41df 17bd 362e 7d3e
00000390: c7aa 96bb 5c42 c13c 2d4c 06bb acc0 8abb
000003a0: ef73 fc3c 0f68 e4bb 8fdc 26bd c608 9dbd
000003b0: 851f b13a 4e5e 33bc 4e11 343d 30df 4cbc
000003c0: 97bb c03c ebeb 9f3b 5f35 9f3c bab0 09bd
000003d0: ab02 aebd 6dd6 64bd 2ddd 723c 4372 9abc
000003e0: 814a e13c 3da5 d8bb 7e0e 113d 8060 eebb
000003f0: e016 acbd 83fe 3a3d 4b2f 80bd 1f2e d73c

bias f4 [64]
0.05543172 0.08503504 -0.03444624 -0.070663996 0.11598977 0.1360663 0.10082519 -0.15716426
0.020185651 -0.08930553 0.10259807 -0.092936054 0.10798797 -0.010472958 -0.086971484 -0.00532417
-0.02641786 0.050400104 -0.043838784 0.09321421 -0.07375766 -0.06601572 0.13188922 0.07740632
-0.06506507 -0.019871654 0.09383253 0.1131755 -0.065723486 -0.04000035 0.0660245 0.121158436
-0.15766573 0.029812356 0.090379424 -0.033273958 0.02886757 0.08817444 -0.0011512102 -0.02772631
-0.1551141 -0.03179607 0.12225485 0.047279388 -0.10865001 0.08216337 -0.017239733 0.13599408
0.022007955 -0.010193113 0.020316001 -0.058878247 -0.054027375 0.012532584 0.044761322 0.042474374
-0.03259586 0.013892752 0.036878027 0.11610069 0.029889343 -0.05715016 -0.008252024 -0.08402806
00000000: 5f0c 633d da26 ae3d 8017 0dbd 49b8 90bd
00000010: 0b8c ed3d f754 0b3e 707d ce3d abef 20be
00000020: 615c a53c d1e5 b6bd f01e d23d 4255 bebd
00000030: cc28 dd3d c596 2bbc 1b1e b2bd 6076 aebb
00000040: 456a d8bc 5770 4e3d 4c90 33bd 17e7 be3d
00000050: 420e 97bd 4033 87bd f80d 073e 3487 9e3d
00000060: d640 85bd e1c9 a2bc 452b c03d 8ec8 e73d
00000070: 099a 86bd 68d7 23bd da37 873d ea21 f83d
00000080: 2073 21be 0b39 f43c d918 b93d 464a 08bd
00000090: af7b ec3c cd94 b43d 34e4 96ba 4922 e3bc
000000a0: 3bd6 1ebe 993c 02bd c060 fa3d 08a8 413d
000000b0: e583 debd 4545 a83d 573a 8dbc 0842 0b3e
000000c0: 074a b43c 0401 27bc be6d a63c 512a 71bd
000000d0: cf4b 5dbd 7855 4d3c a657 373d 9cf9 2d3d
000000e0: 3d83 05bd 6d9e 633c 6a0d 173d 33c6 ed3d
000000f0: 7fda f43c 4916 6abd 7f33 07bc e716 acbd

weight f4 [64]
1.029276 0.95276403 0.9860803 0.89308435 0.8682756 1.0342153 0.97607666 1.0100672
1.0179218 1.0777744 0.9626671 0.94338053 1.0417252 1.0049158 0.9915725 1.0754937
0.9259194 1.019245 0.9435103 0.93883204 0.9530961 1.0754467 0.8992651 1.0207349
0.9741842 1.0338782 0.90203613 0.93735635 1.112243 1.1965847 0.95656157 0.9559773
0.98682487 0.99836725 0.98096246 1.0132967 0.9865131 1.0761247 0.9407072 0.93725246
1.064165 1.016012 1.1206119 0.93276525 0.95183814 0.96985805 1.0572075 1.0343437
1.1477234 1.0082915 0.9023011 0.90193766 0.9359906 0.9939633 1.0063348 0.9331822
0.94625354 0.9174331 0.983071 0.97552186 0.930138 0.98915833 0.9750324 0.95604634
00000000: 51bf 833f 58e8 733f c26f 7c3f 2da1 643f
00000010: 4f47 5e3f 2b61 843f 29e0 793f e249 813f
00000020: 434b 823f 83f4 893f 5a71 763f 6381 713f
00000030: 4057 853f 15a1 803f b2d7 7d3f c7a9 893f
00000040: 0e09 6d3f 9f76 823f e489 713f 4c57 703f
00000050: 1bfe 733f 3da8 893f 3d36 663f 71a7 823f
00000060: 2364 793f 1f56 843f d7eb 663f 96f6 6f3f
00000070: fb5d 8e3f b029 993f 38e1 743f eeba 743f
00000080: 8ea0 7c3f ff94 7f3f 5b20 7b3f b5b3 813f
00000090: 1f8c 7c3f 74be 893f 30d2 703f c7ef 6f3f
000000a0: 8f36 883f ae0c 823f 3670 8f3f b4c9 6e3f
000000b0: aaab 733f 9e48 783f 9352 873f 6065 843f
000000c0: 9ae8 923f b20f 813f 34fd 663f 63e5 663f
000000d0: 149d 6f3f 6174 7e3f 94cf 803f 07e5 6e3f
000000e0: ac3d 723f e5dc 6a3f 8baa 7b3f cdbb 793f
000000f0: 861d 6e3f 7b39 7d3f b99b 793f 74bf 743f

bias f4 [64]
-0.2371949 -0.2056587 -0.12486665 -0.1677165 -0.14921106 -0.14877962 -0.16277494 -0.056771554
-0.21308666 -0.12912153 -0.21593402 -0.14562084 -0.12023833 -0.14237754 -0.11211054 -0.07621213
-0.19076137 -0.09514129 -0.1608943 -0.15626405 -0.21144097 -0.17037775 -0.13687053 -0.19477136
-0.21290067 -0.087777026 -0.13217288 -0.184638 -0.11262663 -0.15234952 -0.19067422 -0.16535792
-0.19725615 -0.032457016 -0.14858249 -0.08474352 -0.2495433 -0.08085852 -0.17291929 -0.29707822
-0.12184145 -0.15621012 -0.14475887 -0.20666726 -0.156912 -0.20403515 -0.21698327 -0.12706026
-0.22030945 -0.154554 -0.21517108 -0.13253132 -0.07417403 -0.15830381 -0.21157067 -0.33828723
-0.2360341 -0.12854017 -0.23612435 -0.26099545 -0.17721012 -0.24349967 -0.1327942 -0.12951581
00000000: 38e3 72be 3298 52be 16ba ffbd e0bd 2bbe
00000010: c9ca 18be af59 18be 79ae 26be 4a89 68bd
00000020: 6433 5abe 6f38 04be cf1d 5dbe a11d 15be
00000030: 833f f6bd 6bcb 11be 369a e5bd 1b15 9cbd
00000040: f356 43be 70d9 c2bd 7ac1 24be af03 20be
00000050: fb83 58be 8177 2ebe ca27 0cbe 2572 47be
00000060: a202 5abe 71c4 b3bd 5458 07be be11 3dbe
00000070: caa8 e6bd 8301 1cbe 1a40 43be 9653 29be
00000080: 84fd 49be a6f1 04bd 0226 18be 038e adbd
00000090: 4788 7fbe 2799 a5bd c111 31be a31a 98be
000000a0: 0388 f9bd 8cf5 1fbe ab3b 14be 95a0 53be
000000b0: 8aad 20be 97ee 50be dd30 5ebe 161c 02be
000000c0: cd98 61be 6743 1ebe cf55 5cbe 4ab6 07be
000000d0: 8ee8 97bd 651a 22be fba5 58be fc33 adbe
000000e0: ecb2 71be 09a0 03be 95ca 71be 32a1 85be
000000f0: 9276 35be fa57 79be 34fb 07be cb9f 04be

running_mean f4 [64]
0.05692799 0.08660308 -0.036128867 -0.07559305 0.11627683 0.13780795 0.10462656 -0.16028409
0.01423229 -0.08330513 0.10203623 -0.098370925 0.10662885 -0.005547219 -0.090791926 -0.008759857
-0.02771289 0.05006056 -0.04692127 0.08999095 -0.07566416 -0.07165167 0.13082889 0.07719688
-0.061069123 -0.017041402 0.09573701 0.108647935 -0.066591814 -0.030426588 0.068209834 0.12993741
-0.15874848 0.025305036 0.088637374 -0.038133737 0.03491877 0.09496428 0.004262615 -0.024154073
-0.15182546 -0.03564927 0.11825957 0.049670607 -0.10926203 0.09012029 -0.021011965 0.14086634
0.017376969 -0.013906642 0.0129764695 -0.058087267 -0.050047215 0.014360513 0.045245383 0.04401603
-0.034128424 0.013298724 0.041322615 0.11211513 0.026995856 -0.054667342 0.000955556 -0.07506779
00000000: 532d 693d f55c b13d ddfb 13bd 87d0 9abd
00000010: 8c22 ee3d 871d 0d3e 7346 d63d 8321 24be
00000020: 8d2e 693c e19b aabd 5ff8 d03d b276 c9bd
00000030: 3a60 da3d 72c5 b5bb 1ef1 b9bd 8185 0fbc
00000040: 2506 e3bc 4d0c 4d3d 8530 40bd 2d4d b83d
00000050: d0f5 9abd 1cbe 92bd 02f8 053e 6619 9e3d
00000060: 9e23 7abd 699a 8bbc c411 c43d cf82 de3d
00000070: 4a61 88bd 2e41 f9bc 99b1 8b3d 500e 053e
00000080: f68e 22be 824c cf3c 8387 b53d 1f32 1cbd
00000090: fc06 0f3d a27c c23d 68ad 8b3b c3de c5bc
000000a0: 2278 1bbe f804 12bd 1332 f23d 6873 4b3d
000000b0: c5c4 dfbd fd90 b83d 4921 acbc 443f 103e
000000c0: 255a 8e3c afd8 63bc 429b 543c eaec 6dbd
000000d0: 4ffe 4cbd 5b48 6b3c 3953 393d 274a 343d
000000e0: 3fca 0bbd e4e2 593c e741 293d 9e9c e53d
000000f0: 6a26 dd3c ddea 5fbd 477e 7a3a 24bd 99bd

running_var f4 [64]
0.097304836 0.10896038 0.11526866 0.09760116 0.098309435 0.10763255 0.10642367 0.1122391
0.10770382 0.104104124 0.10780529 0.09835766 0.11543538 0.10203173 0.09791056 0.1024858
0.113048986 0.10634037 0.10379669 0.11284726 0.10784809 0.11037612 0.10714821 0.108746685
0.09701697 0.08884279 0.105615124 0.10377468 0.10816035 0.11925481 0.108550236 0.09787875
0.097816065 0.0971936 0.10900813 0.095223255 0.10032523 0.112189 0.09761873 0.0952729
0.12678485 0.106442414 0.10983928 0.08910517 0.112385914 0.10758524 0.103232324 0.11481769
0.10110559 0.108135976 0.100759804 0.10362145 0.09743381 0.0975062 0.098305486 0.095040485
0.10271077 0.104526535 0.10821292 0.093638346 0.109567046 0.118144765 0.10821649 0.10868782
00000000: c247 c73d 9f26 df3d fa11 ec3d 1ee3 c73d
00000010: 7556 c93d 746e dc3d a7f4 d93d 9ddd e53d
00000020: d293 dc3d 8b34 d53d 05c9 dc3d be6f c93d
00000030: 6269 ec3d 03f6 d03d 5585 c83d 13e4 d13d
00000040: 3a86 e73d fbc8 d93d 5c93 d43d 771c e73d
00000050: 76df dc3d e00c e23d 8570 db3d 95b6 de3d
00000060: d5b0 c63d 35f3 b53d be4c d83d d287 d43d
00000070: 2c83 dd3d de3b f43d 964f de3d a774 c83d
00000080: ca53 c83d 700d c73d a83f df3d 6904 c33d
00000090: 5077 cd3d 59c3 e53d 54ec c73d 701e c33d
000000a0: e3d3 013e 7bfe d93d 6bf3 e03d c57c b63d
000000b0: 962a e63d a655 dc3d 786b d33d 8925 eb3d
000000c0: 7310 cf3d 6576 dd3d 285b ce3d 7c37 d43d
000000d0: 618b c73d 55b1 c73d 6354 c93d 96a4 c23d
000000e0: 065a d23d 0212 d63d bc9e dd3d 76c5 bf3d
000000f0: b064 e03d e2f5 f13d 9ba0 dd3d b897 de3d

weight f4 [64, 64, 3, 3]
0.03731574 0.029594764 -0.059088137 0.020768827 0.0707778 0.07508284 0.015528764 0.00074050867
-0.024445785 -0.04506375 -0.025433298 -0.10991218 -0.05372233 -0.025929056 0.004310052 -0.029973716
-0.0017667856 0.0007225395 -0.10324235 -0.0572235 -0.10697518 -0.012172788 -0.020181239 -0.107474186
-0.068700925 -0.024986483 -0.07400011 -0.054231144 -0.066472255 -0.062477265 -0.025566071 -0.00301064
-0.071707055 -0.044871293 0.026924388 -0.02125958 -0.046537194 0.0043180897 -0.036663182 -0.010429469
0.04769137 0.04206416 0.011979673 0.023030903 0.047087032 -0.0889145 -0.010696507 -0.05866559
0.042185906 0.104602665 -0.0074668964 0.09098732 0.13013323 0.03013065 0.022249807 -0.10214739
-0.044686314 0.009673676 0.026696194 -0.039663136 0.081384175 0.06136315 -0.046771917 0.045294352
-0.02780785 -0.08102448 0.07793943 0.02230047 -0.020848475 0.06988847 0.025255581 -0.009037176
-0.056804158 -0.020338062 -0.014756985 0.012163394 0.042585846 0.04448948 0.1134547 0.016769787
0.013559201 -0.008723343 -0.050032463 -0.07492924 0.073759444 0.050152708 -0.0025405686 0.06720383
0.09208293 0.035556726 0.037543472 -0.063243166 -0.009975009 0.06501007 0.08750354 0.051393043
0.007309623 -0.0012809177 0.04173367 -0.035866544 -0.021289194 -0.02630363 0.07656832 -0.006498172
-0.035019726 0.013734302 0.04076505 0.032876555 0.0026173722 -0.007883402 -0.11572035 0.08459466
-0.03967588 -0.046757776 0.06938867 0.055080183 -0.00029425474 -0.09759163 -0.047326293 -0.108013995
-0.012109372 -0.0462273 -0.09115225 0.06328582 0.06945578 -0.06674449 -0.048735715 0.038023174
0.0016521608 -0.012041041 -0.0075744544 -0.009852206 -0.0040906267 -0.025424413 0.010666351 -0.05613067
0.061633047 -0.07220498 -0.02279685 -0.015507972 0.0023503632 -0.05317879 0.04406663 0.0135637885
0.021340588 0.015879562 -0.07846872 0.09565406 0.0140603455 -0.013075056 0.040857222 0.056623418
0.06109461 0.0032930542 0.011723288 0.023845844 0.03392439 0.040796984 0.061698873 0.05567214
0.029428286 0.025540585 -0.018329492 0.03562937 -0.023248568 -0.025588902 0.043097172 0.07121762
-0.013370656 -0.009232869 0.023831535 -0.049172122 -0.019133909 -0.03868365 -0.0044305013 -0.101341784
-0.048131403 -0.019616177 -0.011494829 -0.073084496 0.0070190323 -0.00011970883 0.018442314 0.09453019
0.0650665 0.023084506 0.012682904 0.04946759 -0.025484253 0.048782595 -0.107487634 -0.062021013
-0.0033838532 -0.027112886 -0.022297041 0.03046556 0.05798193 -0.0047098384 -0.004648096 0.023940181
-0.03186841 0.04610648 0.048167594 -0.039703462 0.041376647 0.02696297 -0.054543614 -0.050462075
-0.029568823 0.03204182 0.013564282 0.038838033 -0.018390479 -0.006353262 -0.009936823 0.04170179
-0.06286696 -0.020296492 -0.11702859 -0.061084 -0.055890713 -0.03837963 -0.0019927016 -0.0027467979
-0.03777594 0.018871712 -0.09738557 -0.09851506 -0.0629433 0.04142625 0.057836276 0.028197592
0.04580801 0.09804996 -0.033526774 0.040843114 -0.06520968 -0.052632112 -0.040694498 -0.036075372
-0.058195226 0.017854832 -0.04308098 0.0903801 -0.0870466 0.0048036994 0.011142021 0.02630529
-0.0049379566 0.016796447 0.033216465 0.006776792 -0.0432803 -0.007873281 -0.013454883 0.03373304
00000000: 64d8 183d b870 f23c 6706 72bd 6323 aa3c
00000010: f4f3 903d 08c5 993d 5b6c 7e3c b21e 423a
00000020: 8742 c8bc c494 38bd 7e59 d0bc a319 e1bd
00000030: f20b 5cbd 2c69 d4bc 563b 8d3b 708b f5bc
00000040: 7d93 e7ba ce68 3d3a ba70 d3bd 3063 6abd
00000050: ce15 dbbd 6070 47bc 2053 a5bc 6d1b dcbd
00000060: 12b3 8cbd 74b0 ccbc 5f8d 97bd 7a21 5ebd
00000070: 9b22 88bd 29e8 7fbd f06f d1bc 284e 45bb
00000080: 26db 92bd f6ca 37bd 8990 dc3c 9228 aebc
00000090: c99d 3ebd c37e 8d3b 222c 16bd 5de0 2abc
000000a0: 0758 433d 784b 2c3d 6446 443c 4eab bc3c
000000b0: 55de 403d ce18 b6bd 6740 2fbc 544b 70bd
000000c0: 21cb 2c3d ec39 d63d deac f4bb 8f57 ba3d
000000d0: a541 053e 8ed4 f63c 3a45 b63c a732 d1bd
000000e0: ff08 37bd 577e 1e3c fab1 da3c d075 22bd
000000f0: bfac a63d ed57 7b3d e993 3fbd 9286 393d
00000100: 4acd e3bc 2af0 a5bd b59e 9f3d 7aaf b63c
00000110: 6cca aabc b021 8f3d cbe4 ce3c aa10 14bc
00000120: 7aab 68bd 029c a6bc 48c7 71bc f948 473c
00000130: 7f6e 2e3d 9a3a 363d f05a e83d cb60 893c
00000140: 6927 5e3c 5aec 0ebc d7ee 4cbd 8074 99bd
00000150: 310f 973d ed6c 4d3d ab7f 26bb 29a2 893d
00000160: fa95 bc3d eea3 113d 2fc7 193d a285 81bd
00000170: 386e 23bc 0024 853d 0e35 b33d 8381 523d
00000180: 9085 ef3b 77e4 a7ba edf0 2a3d cce8 12bd
00000190: ad66 aebc b67a d7bc dacf 9c3d 9eee d4bb
000001a0: d870 0fbd d605 613c 41f9 263d 91a9 063d
000001b0: 3888 2b3b 6229 01bc cafe ecbd f73f ad3d
000001c0: 2d83 22bd 1585 3fbd a61b 8e3d c29b 613d
000001d0: 3446 9ab9 1fde c7bd 37d9 41bd 7136 ddbd
000001e0: 6366 46bc d658 3dbd 08ae babd ff9b 813d
000001f0: d53e 8e3d 56b1 88bd 1a9f 47bd 30be 1b3d
00000200: 518d d83a c947 45bc 2133 f8bb 266b 21bc
00000210: aa0a 86bb dc46 d0bc ebc1 2e3c 46e9 65bd
00000220: ef72 7c3d 34e0 93bd 76c0 babc 2615 7ebc
00000230: 8d08 1a3b 01d2 59bd 367f 343d a73a 5e3c
00000240: 75d2 ae3c db15 823c 35b4 a0bd 47e6 c33d
00000250: 5d5d 663c c238 56bc e759 273d f5ed 673d
00000260: 573e 7a3d 48d0 573b 0913 403c 5c58 c33c
00000270: 4df4 0a3d bd1a 273d f5b7 7c3d 7808 643d
00000280: 9713 f13c 7d3a d13c bb27 96bc 1af0 113d
00000290: c873 bebc d19f d1bc a986 303d 8bda 913d
000002a0: 9910 5bbc 7645 17bc 5a3a c33c b568 49bd
000002b0: b7be 9cbc bf72 1ebd bd2d 91bb 488c cfbd
000002c0: 6f25 45bd 1bb2 a0bc cf54 3cbc 53ad 95bd
000002d0: e9ff e53b 300c fbb8 5614 973c 0b99 c13d
000002e0: 9641 853d b81b bd3c f4cb 4f3c 879e 4a3d
000002f0: 5ac4 d0bc 42d0 473d 7a22 dcbd bf09 7ebd
00000300: a3c3 5dbb d81b debc 49a8 b6bc e992 f93c
00000310: 767e 6d3d fd54 9abb 0e4f 98bb 331e c43c
00000320: 7388 02bd 26da 3c3d 624b 453d 19a0 22bd
00000330: 8f7a 293d 72e1 dc3c 2069 5fbd 52b1 4ebd
00000340: 513a f2bc 493e 033d b93c 5e3c a114 1f3d
00000350: a1a7 96bc 062f d0bb 0ece 22bc 7fcf 2a3d
00000360: 65c0 80bd d444 a6bc afac efbd 3733 7abd
00000370: a9ed 64bd f533 1dbd fc97 02bb 9f03 34bb
00000380: f2ba 1abd d998 9a3c 1672 c7bd 44c2 c9bd
00000390: 6be8 80bd 92ae 293d bbe5 6c3d a3fe e63c
000003a0: 2ea1 3b3d 6bce c83d 5f53 09bd 1c4b 273d
000003b0: a78c 85bd c594 57bd 46af 26bd c5c3 13bd
000003c0: 1e5e 6ebd 4c44 923c af75 30bd 3419 b93d
000003d0: 7d45 b2bd 5a68 9d3b 068d 363c 317e d73c
000003e0: 95ce a1bb b498 893c fd0d 083d da0f de3b
000003f0: af46 31bd effe 00bc df71 5cbc a82b 0a3d

bias f4 [64]
0.01336023 0.0340671 -0.023418859 -0.032586414 0.033894636 -0.064217 -0.037372842 0.026523862
-0.07929447 -0.1036871 -0.015075472 0.021106495 -0.021367697 0.027428962 0.0015097754 0.021707712
-0.020021982 0.043061964 0.0227926 0.027085757 0.0131063955 0.019401487 0.023085633 -0.011640768
-0.011564079 -0.12132154 0.0003577465 -1.9545922e-05 0.033301286 0.030117212 0.024194013 -0.04432671
-0.03144853 -0.062332503 -0.10070009 -0.09302367 -0.0074946065 0.008723822 -0.03559352 -0.035668265
-0.06759799 -0.07044596 -0.08096725 -0.0480924 -0.03668437 -0.04572532 -0.06812124 0.0018821046
0.05343849 0.09976059 -0.03008373 0.027487261 0.057013277 0.024840815 -0.1561707 0.06797694
0.0058376896 -0.06334343 -0.025813207 0.01880864 0.036947075 -0.01977111 0.025413403 0.045824405
00000000: dee4 5a3c f289 0b3d e8d8 bfbc 5579 05bd
00000010: 1ad5 0a3d 3484 83bd 4414 19bd 9248 d93c
00000020: 2465 a2bd e759 d4bd 1dff 76bc 87e7 ac3c
00000030: 4f0b afbc b4b2 e03c a8e3 c53a 5fd4 b13c
00000040: 2405 a4bc be61 303d 8cb7 ba3c f3e2 dd3c
00000050: 35bc 563c deef 9e3c 151e bd3c ebb8 3ebc
00000060: 4377 3dbc 6d77 f8bd ec8f bb39 8cf6 a3b7
00000070: ee66 083d 5fb8 f63c 8632 c63c ed8f 35bd
00000080: 2cd0 00bd 5e50 7fbd d93b cebd 3283 bebd
00000090: 5195 f5bb 5dee 0e3c 83ca 11bd e318 12bd
000000a0: d170 8abd f945 90bd 28d2 a5bd 89fc 44bd
000000b0: 5a42 16bd 794a 3bbd 2683 8bbd f3b0 f63a
000000c0: 51e2 5a3d 484f cc3d 2872 f6bc f72c e13c
000000d0: c186 693d f77e cb3c 36eb 1fbe 7e37 8b3d
000000e0: 174a bf3b 33ba 81bd 3876 d3bc 9414 9a3c
000000f0: d155 173d 06f7 a1bc c52f d03c 5fb2 3b3d

weight f4 [64]
1.2929757 1.3679866 1.3414782 1.1593406 1.3106166 1.256797 1.1623485 1.2133218
1.4669718 1.514579 1.1573321 1.2419376 1.163046 1.1793599 1.1995819 1.2148422
1.2357941 1.2657135 1.2972326 1.2059444 1.1183296 1.2828888 1.2328538 1.191051
1.2950817 1.4340296 1.1610808 1.136018 1.2724898 1.2366126 1.2290274 1.1529542
1.2422154 1.3003064 1.2455739 1.4068426 1.2191737 1.2265644 1.3645136 1.4145257
1.2190835 1.2399911 1.2641422 1.1203103 1.1682266 1.1401165 1.2279785 1.3546059
1.2455674 1.2277663 1.2843574 1.3328336 1.3429905 1.2111851 1.5490578 1.2237825
1.2848552 1.2908452 1.3017521 1.2909192 1.1684456 1.2490704 1.2515774 1.167598
00000000: 3a80 a53f 2f1a af3f 8fb5 ab3f 4665 943f
00000010: 49c2 a73f b9de a03f d6c7 943f 214e 9b3f
00000020: bbc5 bb3f badd c13f 7523 943f d0f7 9e3f
00000030: b1de 943f 44f5 963f e68b 993f f37f 9b3f
00000040: 802e 9e3f e602 a23f b80b a63f 635c 9a3f
00000050: 6d25 8f3f b335 a43f 27ce 9d3f 5c74 983f
00000060: 3dc5 a53f 488e b73f 4c9e 943f 0a69 913f
00000070: f2e0 a23f 5249 9e3f c550 9d3f 0194 933f
00000080: ea00 9f3f 7170 a63f f76e 9f3f 6b13 b43f
00000090: e20d 9c3f 1000 9d3f 62a8 ae3f 2e0f b53f
000000a0: ee0a 9c3f 07b8 9e3f 69cf a13f 5466 8f3f
000000b0: 7388 953f 56ef 913f 662e 9d3f ba63 ad3f
000000c0: c16e 9f3f 7227 9d3f d365 a43f 4b9a aa3f
000000d0: 1de7 ab3f 1d08 9b3f 8747 c63f e8a4 9c3f
000000e0: 2376 a43f 6a3a a53f d09f a63f d73c a53f
000000f0: a08f 953f 8ae1 9f3f b033 a03f da73 953f

bias f4 [64]
0.07011624 0.098613285 0.021878913 0.05677483 0.102355324 0.10332596 0.05827009 0.067799464
-0.015606784 -0.018134495 0.043854747 0.045954306 0.04524023 0.018881511 0.05308685 0.028543282
0.031544868 0.024844538 0.038733438 0.08387929 0.08429475 0.059659995 0.03218486 0.03817564
0.040881965 0.09140509 0.0326606 0.019452158 -0.06681833 0.026340524 0.0025756983 0.054795783
-0.055638686 -0.022436313 0.09433667 0.115467004 0.026432475 0.038972307 0.07194126 0.140009
0.089650035 0.0065540615 0.040011156 0.020994041 -0.0024968989 -0.060128298 0.11825204 0.049482547
0.07772338 -0.0095836725 0.06331223 0.11317784 -0.034124784 0.0036930123 0.10428829 0.02684173
0.017204411 0.14645764 0.1101994 0.036024336 0.045880422 0.11413043 0.059868608 0.0604936
00000000: 1a99 8f3d c3f5 c93d 683b b33c b98c 683d
00000010: ab9f d13d 909c d33d 9eac 6e3d 72da 8a3d
00000020: 99b3 7fbc cb8e 94bc 09a1 333d 953a 3c3d
00000030: d24d 393d 66ad 9a3c 9971 593d 9ad3 e93c
00000040: 3135 013d c686 cb3c f4a6 1e3d e8c8 ab3d
00000050: baa2 ac3d 0a5e 743d 46d4 033d 0f5e 1c3d
00000060: d973 273d 9832 bb3d 1fc7 053d 225a 9f3c
00000070: 0cd8 88bd 15c8 d73c 0ccd 283b 8b71 603d
00000080: 64e5 63bd 5ccc b7bc 9633 c13d f779 ec3d
00000090: eb88 d83c 6da1 1f3d f055 933d 855e 0f3e
000000a0: 709a b73d 74c3 d63b bde2 233d b2fb ab3c
000000b0: 03a3 23bb 1749 76bd 202e f23d 36ae 4a3d
000000c0: 6f2d 9f3d d604 1dbc d8a9 813d c9c9 e73d
000000d0: 6ec6 0bbd 7706 723b 1995 d53d 30e3 db3c
000000e0: 44f0 8c3c fef8 153e 39b0 e13d 418e 133d
000000f0: 1ced 3b3d 37bd e93d c938 753d 23c8 773d

running_mean f4 [64]
-1.124645 -1.443982 -2.0192196 -1.4061154 0.8768935 0.8924647 -0.73190403 0.44128844
-2.0639658 -2.209882 1.2820612 -0.37342656 -1.3764005 -1.300737 -1.3423841 -1.9044034
1.2530432 -1.1412607 0.47927043 -1.2491338 0.030669693 0.4095542 -1.8985565 0.76311255
0.227176 -2.6395094 1.2056514 -1.9782901 0.21298578 -0.3540874 1.228602 -0.7476328
-1.3564616 -1.3315948 -1.930236 -2.9067833 1.1100011 0.6608747 0.23271617 -2.083229
-1.1978368 -0.20790498 -2.978251 -0.3170479 1.0361788 -1.1020557 -1.5590428 -0.89700735
1.5730317 0.020761639 1.3102304 -1.0313704 -0.09909666 1.0437691 -3.4980483 0.35082412
-0.5631551 0.16000701 0.79754 -0.38785195 0.9057149 0.06411759 -0.23212159 0.59762794
00000000: 5ef4 8fbf 67d4 b8bf e53a 01c0 97fb b3bf
00000010: 187c 603f 9178 643f 105e 3bbf 8ff0 e13e
00000020: 0418 04c0 b56e 0dc0 951a a43f c431 bfbe
00000030: e42d b0bf 8d7e a6bf 3ed3 abbf 7ec3 f3bf
00000040: b863 a03f d514 92bf ef62 f53e 9ee3 9fbf
00000050: 023f fb3c 17b1 d13e e603 f3bf 585b 433f
00000060: d3a0 683e b9ed 28c0 c952 9a3f 9c38 fdbf
00000070: f218 5a3e f24a b5be d542 9d3f dd64 3fbf
00000080: 89a0 adbf b371 aabf f911 f7bf bd08 3ac0
00000090: 8414 8e3f 162f 293f 264d 6e3e a053 05c0
000000a0: b752 99bf 0be5 54be aa9b 3ec0 1a54 a2be
000000b0: 82a1 843f 2910 8dbf b78e c7bf 46a2 65bf
000000c0: 1a59 c93f 5014 aa3c a1b5 a73f f203 84bf
000000d0: 31f3 cabd 3a9a 853f 06e0 5fc0 389f b33e
000000e0: ef2a 10bf e1d8 233e 952b 4c3f 8894 c6be
000000f0: efdc 673f 1550 833d 48b1 6dbe 25fe 183f

running_var f4 [64]
1.764504 1.79654 1.2981795 1.1109059 1.2681199 1.6871846 1.6553404 1.4505758
1.4339876 1.4895371 1.5472268 1.4948733 1.1638875 1.5648122 1.710242 1.3635035
1.5154016 1.7636896 1.950199 1.8313267 1.2978007 1.2459329 1.8356708 1.6086869
1.6477934 1.7630062 1.8138585 1.5569898 1.7311187 1.7689397 1.9474679 1.5633098
1.7401159 1.0198033 1.8419791 1.5673811 1.9674013 1.6372669 1.5616025 1.4166028
1.4248487 1.4248852 2.1621325 1.4062637 1.6321738 1.3060755 2.1124234 0.99986774
1.6243821 1.138679 2.1868877 1.8152721 0.90326685 1.5734136 2.0055048 1.333972
1.5862178 1.5305736 1.4411232 1.276061 1.5359762 1.3654811 2.1360729 1.4629502
00000000: 44db e13f 06f5 e53f bf2a a63f 2a32 8e3f
00000010: c151 a23f aaf5 d73f 32e2 d33f 78ac b93f
00000020: e88c b73f 27a9 be3f 870b c63f 0258 bf3f
00000030: 44fa 943f c44b c83f 36e9 da3f 4887 ae3f
00000040: aef8 c13f 95c0 e13f 1fa0 f93f ea68 ea3f
00000050: 551e a63f bb7a 9f3f 43f7 ea3f 74e9 cd3f
00000060: e5ea d23f 30aa e13f 842c e83f 714b c73f
00000070: 4c95 dd3f 9e6c e23f a146 f93f 891a c83f
00000080: 1ebc de3f ea88 823f f9c5 eb3f f29f c83f
00000090: ced3 fb3f f691 d13f 97e2 c73f 3e53 b53f
000000a0: 7161 b63f a362 b63f 6160 0a40 7300 b43f
000000b0: 12eb d03f 7b2d a73f f231 0740 55f7 7f3f
000000c0: c1eb cf3f 3cc0 913f f8f5 0b40 d65a e83f
000000d0: 7f3c 673f 9e65 c93f 315a 0040 98bf aa3f
000000e0: 2f09 cb3f d6e9 c33f ba76 b83f f855 a33f
000000f0: de9a c43f 16c8 ae3f 6bb5 0840 f441 bb3f

weight f4 [7, 64, 3, 3]
-0.047531996 -0.021722436 -0.16724543 -0.007157735 0.030955264 -0.12349666 -0.014954724 -0.037631508
-0.18848999 -0.03565289 -0.06831513 -0.14438334 0.0452164 -0.038645547 -0.046331313 -0.020534644
-0.03836477 -0.06871159 -0.09916615 0.019829212 0.08369663 -0.012048449 -0.046054345 -0.07135034
-0.10212991 0.14366688 0.16573517 0.013629706 0.1370442 -0.02801169 0.031529315 0.04295343
-0.07303552 -0.1270347 -0.070809394 -0.13863555 -0.006183231 -0.017520426 -0.007339549 0.0034752828
0.017323138 0.069507316 0.116740234 0.026432166 -0.08212299 0.069479026 0.028170172 0.018617643
0.0456351 -0.0067643304 0.008654497 -0.15648921 0.05333765 0.10180944 0.009818352 0.031688794
0.06310486 -0.1291343 -0.037371915 -0.051223747 -0.19694275 -0.03518104 -0.035869025 -0.049160045
-0.022848014 -0.0010898985 0.0022617604 -0.07995807 0.06280229 -0.14428605 -0.15370351 -0.08690923
0.0056116898 -0.0338298 -0.0110049 -0.23805448 0.059114803 -0.1368867 -0.02390941 0.024309363
0.047262907 -0.14002666 0.112646215 0.007023775 -0.13737008 0.012668475 0.085545935 0.13963458
0.1240426 0.12468587 0.094377056 -0.004254131 0.12999633 0.0631606 0.051540494 0.02742408
0.11138544 -0.0812217 -0.1316004 -0.08008407 0.070009634 0.013042768 -0.03905747 0.0257032
-0.05220312 -0.05722185 -0.09818542 0.11883638 -0.065871425 0.06639152 -0.01947395 -0.06742873
0.05353245 -0.04749811 -0.07761829 0.06023671 0.039815098 0.065095395 -0.037708484 -0.081107825
-0.085968874 -0.043812342 0.020611098 -0.12822807 -0.00750382 -0.03573826 -0.10281568 -0.013764877
-0.063207366 0.049973186 -0.0036445307 -0.07366265 0.025499877 -0.034129497 -0.19563128 -0.02459164
0.06947665 -0.047487658 0.043027088 0.01838209 -0.10375741 -0.017589496 0.10616927 -0.07984972
-0.0776327 0.02321065 -0.10707364 0.0464134 -0.043440413 -0.011358152 -0.03502443 0.00863102
-0.028494246 0.029795185 -0.009082846 0.06519609 0.115346774 -0.0124173155 -0.09916129 -0.011259919
-0.008474005 -0.03674035 0.03152425 -0.042837404 0.027431073 -0.043444425 -0.019249337 0.011167773
0.02441913 0.035698116 0.13443176 0.0017104563 0.051082548 -0.0310503 -0.021491349 -0.0905347
-0.041124232 -0.12766558 -0.027323307 -0.15290298 -0.052497275 0.037331548 0.038646735 0.062285177
0.018648548 0.046847392 0.059589263 -0.034981158 -0.12255977 0.08901166 0.03579204 -0.08718028
0.08156138 -0.082343765 -0.075794265 -0.013973742 0.11137628 -0.13817649 -0.09751884 -0.03275013
-0.13903835 -0.06968061 -0.08193003 -0.17421369 -0.089055456 -0.08580053 -0.12194089 -0.13206434
-0.16272499 -0.023687309 -0.07149101 -0.094475396 -0.006799973 -0.1818368 -0.14960392 -0.046073683
0.17650531 -0.011125252 0.024750812 0.09350862 0.004779595 -0.02333423 0.0445038 0.026131423
-0.31732422 -0.09636944 -0.1260892 -0.12498489 -0.19580795 -0.09575102 -0.042803016 0.14813572
0.16669433 0.13046993 -0.10346439 0.10319437 0.12830701 -0.095437385 -0.13049345 -0.026996689
-0.09143282 -0.16074905 -0.0306915 -0.063747585 -0.06358063 -0.19840868 0.10876424 0.0017953592
0.047138866 -0.05532699 0.07397888 -0.052287634 0.032137208 -0.05706203 -0.06582509 -0.029477939
00000000: e9b0 42bd 40f3 b1bc 6342 2bbe 6f8b eabb
00000010: e595 fd3c d1eb fcbd a904 75bc 7f23 1abd
00000020: 8503 41be c408 12bd cee8 8bbd 3ad9 13be
00000030: d534 393d cb4a 1ebd e7c5 3dbd 4538 a8bc
00000040: 6124 1dbd a9b8 8cbd 9f17 cbbd df70 a23c
00000050: 2469 ab3d dc66 45bc 7ba3 3cbd 2120 92bd
00000060: 7c29 d1bd 691d 133e 7bb6 293e 214f 5f3c
00000070: 5155 0c3e c678 e5bc e224 013d f0ef 2f3d
00000080: a693 95bd 6215 02be 8404 91bd 7af6 0dbe
00000090: b39c cabb ff86 8fbc 9980 f0bb 92c1 633b
000000a0: 41e9 8d3c da59 8e3d 8115 ef3d 4588 d83c
000000b0: 1930 a8bd 054b 8e3d 22c5 e63c 0784 983c
000000c0: dfeb 3a3d 51a7 ddbb 97cb 0d3c b53e 20be
000000d0: 9478 5a3d 7881 d03d 27dd 203c 1ccc 013d
000000e0: 1f3d 813d c83b 04be 4b13 19bd fecf 51bd
000000f0: 5cab 49be ff19 10bd 66eb 12bd 0b5c 49bd
00000100: c22b bbbc edda 8eba 0b3a 143b 0ec1 a3bd
00000110: 7d9e 803d b9bf 13be 7464 1dbe 77fd b1bd
00000120: 44e2 b73b 1e91 0abd e54d 34bc 8ec4 73be
00000130: 5d22 723d 072c 0cbe abdd c3bc 6e24 c73c
00000140: c096 413d 2663 0fbe 0fb3 e63d b227 e63b
00000150: beaa 0cbe 6f8f 4f3c b532 af3d 5efc 0e3e
00000160: 0c0a fe3d 4e5b ff3d c248 c13d 3d66 8bbb
00000170: c21d 053e 585a 813d 201c 533d 77a8 e03c
00000180: 0d1e e43d 9057 a6bd 41c2 06be 1e03 a4bd
00000190: 3661 8f3d 56b1 553c bafa 1fbd 848f d23c
000001a0: f0d2 55bd 7561 6abd 7015 c9bd 7d60 f33d
000001b0: 99e7 86bd 47f8 873d d587 9fbc 1318 8abd
000001c0: d844 5b3d 618d 42bd 57f6 9ebd c5ba 763d
000001d0: 2815 233d bc50 853d 3674 1abd dc1b a6bd
000001e0: 7310 b0bd 9274 33bd 9bd8 a83c 384e 03be
000001f0: 9be2 f5bb 4862 12bd 0791 d2bd 1486 61bc
00000200: dd72 81bd afb0 4c3d 14d9 6ebb 72dc 96bd
00000210: 1ee5 d03c 5fcb 0bbd 9153 48be 6874 c9bc
00000220: c649 8e3d 6b82 42bd 2c3d 303d 0996 963c
00000230: c47e d4bd d917 90bc 466f d93d 4088 a3bd
00000240: e5fd 9ebd 4324 be3c 6d49 dbbd fa1b 3e3d
00000250: 93ee 31bd 8b17 3abc c775 0fbd 1f69 0d3c
00000260: c46c e9bc 0815 f43c 38d0 14bc 8785 853d
00000270: ee3a ec3d ff71 4bbc 1315 cbbd 867b 38bc
00000280: 8ed6 0abc 0d7d 16bd 921f 013d 4676 2fbd
00000290: 21b7 e03c c8f2 31bd c9b0 9dbc 09f9 363c
000002a0: a10a c83c 3038 123d 7ba8 093e 6431 e03a
000002b0: ef3b 513d 335d febc a00e b0bc 426a b9bd
000002c0: e271 28bd c4ba 02be 21d5 dfbc 9992 1cbe
000002d0: 6207 57bd f7e8 183d 0a4c 1e3d be1e 7f3d
000002e0: d7c4 983c 0de3 3f3d df13 743d 6748 0fbd
000002f0: 9e00 fbbd bf4b b63d ad9a 123d 938b b2bd
00000300: a709 a73d d9a3 a8bd 063a 9bbd 1ff2 64bc
00000310: 3f19 e43d 237e 0dbe f5b7 c7bd 0025 06bd
00000320: 1260 0ebe b5b4 8ebd eeca a7bd 1365 32be
00000330: b562 b6bd 30b8 afbd 25bc f9bd e03b 07be
00000340: 61a1 26be e30b c2bc e169 92bd 517c c1bd
00000350: 4fd2 debb 6d33 3abe c531 19be c2b7 3cbd
00000360: cfbd 343e b046 36bc 37c2 ca3c 7381 bf3d
00000370: 269e 9c3b 6d27 bfbc 9e49 363d 9111 d63c
00000380: 5278 a2be 575d c5bd 871d 01be 14f8 ffbd
00000390: e181 48be 1c19 c4bd 3752 2fbd e4b0 173e
000003a0: ebb1 2a3e e999 053e 23e5 d3bd 9257 d33d
000003b0: ea62 033e ad74 c3bd 13a0 05be 2928 ddbc
000003c0: 2141 bbbd 669b 24be be6c fbbc 188e 82bd
000003d0: 9036 82bd a52b 4bbe c9bf de3d 4252 eb3a
000003e0: af14 413d 8e9e 62bd 3d82 973d 8f2b 56bd
000003f0: 4ea2 033d e0b9 69bd 4ecf 86bd b87b f1bc

bias f4 [7]
-0.054922596 0.024179244 0.01901079 -0.012569756 -0.037464146 -0.0761628 0.0048930906
00000000: 84f6 60bd 8d13 c63c 84bc 9b3c 61f1 4dbc
00000010: 0174 19bd 3efb 9bbd 3856 a03b

weight f4 [64, 7, 3, 3]
0.047187928 0.021667983 -0.095765024 0.029889727 -0.020098541 -0.028638184 -0.012014178 -0.032104675
-8.4204024e-05 0.019206267 0.11194262 0.03193109 0.0044841226 0.017360955 -0.020939117 -0.03956004
0.005982001 -0.045121573 -0.047691226 -0.0076111425 0.044950828 0.08900524 0.0031745976 -0.0067998106
0.026167164 -0.062398802 -0.012184357 -0.03130236 -0.15437877 0.027120944 -0.01052024 -0.04597743
-0.0057242196 0.014810139 -0.03115675 -0.026143374 -0.14918683 -0.06895946 -0.090698846 -0.013977036
0.00092758227 -0.008064814 0.03618351 0.0124506485 -0.027645992 -0.058339998 0.04108309 0.0052488702
-0.022973115 0.023967689 0.04487457 -0.026151594 -0.009076445 -0.05748199 0.0077200555 -0.06557365
-0.04761071 -0.002546279 -0.007916586 -0.01099227 -0.032141395 -0.038894437 0.040040817 0.051925447
0.035190225 0.05795415 -0.074813716 -0.043224744 0.010817635 0.030975347 -0.012206049 0.028955381
-0.009698658 -0.037411828 0.026253881 0.023765452 0.034417607 0.034326907 0.02568005 0.02001033
-0.06107797 0.028239077 0.028965395 0.03836334 0.097408354 0.022768414 0.0035370602 0.0021124885
-0.03796584 -0.0049739173 0.011293783 -0.020118346 0.012448016 0.046118047 0.06364991 0.012427233
-0.17681453 -0.06279006 0.024681069 -0.016966484 -0.032912113 -0.07350365 0.002123696 -0.0053341207
-0.0033263636 0.024603212 -0.020261593 0.044223174 0.051538117 0.019554453 -0.011078892 -0.012263835
-0.0031904997 0.030324321 -0.04567483 -0.03759446 -0.048277307 0.07230972 0.0027762323 -0.06941914
-0.016523499 -0.06800418 0.021437433 -0.029050896 -0.032551352 0.022395851 0.032967493 -0.098143764
-0.060627222 -0.02464147 0.00040754967 0.06224024 -0.02863258 0.0055849995 -0.0059152734 -0.029643554
0.001615749 -0.0006391742 0.0005088996 0.012813513 -0.031299837 0.010322315 0.016043033 0.04201045
-0.015069546 0.010324366 -0.008891803 0.01988602 0.02784227 0.07165272 -0.00460928 0.014654117
0.023329895 0.041924056 0.0051611704 -0.03567793 -0.0027103873 -0.046522472 0.0443364 0.05871548
-0.059481025 -0.0082046455 0.06615991 -0.007692075 0.0077182655 0.05191516 -0.008731424 0.01384923
-0.04302964 -0.051985215 -0.035116073 -0.07015456 0.012121485 0.08615957 -0.025191354 0.015931368
0.014334099 0.04240858 -0.021887463 -0.015890261 0.024885977 -0.015265896 -0.03476928 0.06398706
-0.012673533 0.027320554 0.03211007 -0.030564927 0.05843418 -0.029036703 -0.084431514 0.024006817
-0.0060078558 -0.014579212 -0.020659395 0.01895592 0.050893467 0.011949534 -0.009078517 0.010564755
-0.051619273 -0.01153835 0.038662244 -0.0039636935 -0.0047798865 -0.013327941 0.01989211 -0.016846737
-0.0036988866 -0.037943725 -0.0058362684 -0.011710412 -0.021407515 0.06712201 0.037964232 -0.016446784
-0.05402512 -0.021563293 -0.015714267 0.012309762 -0.015049851 0.039805647 0.037154872 -0.017125027
-0.016352296 0.1445761 0.013886151 0.06766318 0.13457443 0.0025386803 0.034994606 0.07142978
-0.024195902 -0.070383035 0.030895932 -0.046724632 -0.025137158 0.027505215 -0.030838061 0.01645249
0.0017131157 -0.037059985 -0.013217615 -0.112782575 -0.059762757 -0.008936652 0.02163547 0.03011993
-0.0018179964 0.050682522 0.031466033 0.0119189285 0.053770076 0.07942001 0.017022299 -0.0027028604
00000000: 2148 413d 0e81 b13c 7420 c4bd 4ddb f43c
00000010: b2a5 a4bc a09a eabc 1dd7 44bc 3180 03bd
00000020: b196 b0b8 7656 9d3c 2c42 e53d 2dca 023d
00000030: 8cef 923b 9038 8e3c 8388 abbc b509 22bd
00000040: a904 c43b 66d1 38bd e057 43bd e466 f9bb
00000050: 5c1e 383d 6148 b63d e90c 503b f2d0 debb
00000060: 855c d63c e395 7fbd e6a0 47bc e736 00bd
00000070: 7815 1ebe be2c de3c 165d 2cbc d452 3cbd
00000080: 3c92 bbbb 3aa6 723c 713c ffbc a12a d6bc
00000090: 6fc4 18be 9e3a 8dbd 51c0 b9bd f0ff 64bc
000000a0: fe28 733a 4822 04bc 2935 143d cefd 4b3c
000000b0: d979 e2bc ecf5 6ebd be46 283d b7fe ab3b
000000c0: 1d32 bcbc e357 c43c 66ce 373d de3b d6bc
000000d0: 5fb5 14bc 3c72 6bbd 85f8 fc3b 7a4b 86bd
000000e0: 7303 43bd 79df 26bb 91b4 01bc ec18 34bc
000000f0: b2a6 03bd c64f 1fbd d701 243d c7af 543d
00000100: a023 103d 5561 6d3d ef37 99bd 6e0c 31bd
00000110: 733c 313c 03c0 fd3c e1fb 47bc d633 ed3c
00000120: 1fe7 1ebc 253d 19bd 6112 d73c c4af c23c
00000130: 7af9 0c3d 5f9a 0c3d f85e d23c b4ec a33c
00000140: e52c 7abd a355 e73c d648 ed3c e122 1d3d
00000150: 087e c73d d384 ba3c 06ce 673b ad71 0a3b
00000160: 1282 1bbd 3efc a2bb 8f09 393c 3bcf a4bc
00000170: c3f2 4b3c 47e6 3c3d e25a 823d 989b 4b3c
00000180: de0e 35be 1398 80bd f42f ca3c 4cfd 8abc
00000190: dace 06bd 1589 96bd b52d 0b3b d9c9 aebb
000001a0: 1fff 59bb ad8c c93c a4fb a5bc 5c23 353d
000001b0: a219 533d a930 a03c 3e84 35bc 41ee 48bc
000001c0: b417 51bb b66a f83c 8815 3bbd a6fc 19bd
000001d0: 6dbe 45bd 1e17 943d 73f1 353b 9f2b 8ebd
000001e0: 4a5c 87bc c745 8bbd 8e9d af3c 25fc edbc
000001f0: 9154 05bd 8177 b73c ec08 073d 99ff c8bd
00000200: 4054 78bd e8dc c9bc 64ac d539 9fef 7e3d
00000210: df8e eabc 5f02 b73b e9d4 c1bb 0ad7 f2bc
00000220: 8ac7 d33a 418e 27ba ad67 053a c5ef 513c
00000230: 4234 00bd ed1e 293c ae6c 833c 2613 2c3d
00000240: 42e6 76bc 8827 293c edae 11bc 02e8 a23c
00000250: 7915 e43c a9be 923d 7109 97bb d217 703c
00000260: 561e bf3c 8fb8 2b3d 091f a93b 0523 12bd
00000270: c1a0 31bb 598e 3ebd 169a 353d a57f 703d
00000280: 60a2 73bd c76c 06bc d97e 873d cd0d fcbb
00000290: 81e9 fc3b fea4 543d 3f0e 0fbc e1e7 623c
000002a0: d93f 30bd 73ee 54bd dfd5 0fbd 32ad 8fbd
000002b0: 3199 463c 6e74 b03d 195e cebc 8082 823c
000002c0: 92d9 6a3c 9fb4 2d3d 564d b3bc 4b2c 82bc
000002d0: addd cb3c cf1d 7abc 3c6a 0ebd a60b 833d
000002e0: a6a4 4fbc 5bcf df3c d985 033d 4c63 fabc
000002f0: ae58 6f3d 61de edbc 6eea acbd f2a9 c43c
00000300: 8cdd c4bb a6dd 6ebc e43d a9bc 7249 9b3c
00000310: ab75 503d fac7 433c 0fbe 14bc cb17 2d3c
00000320: bb6e 53bd 590b 3dbc 4d5c 1e3d dfe1 81bb
00000330: 98a0 9cbb 705d 5abc c7f4 a23c 2b02 8abc
00000340: 0569 72bb e16a 1bbd 2b3e bfbb 07dd 3fbc
00000350: d05e afbc 4477 893d 6280 1b3d 68bb 86bc
00000360: 7249 5dbd 81a5 b0bc 35bb 80bc e2ae 493c
00000370: a693 76bc 3f0b 233d b52f 183d c949 8cbc
00000380: 40f5 85bc c20b 143e bd82 633c fe92 8a3d
00000390: e1cd 093e fd5f 263b 8156 0f3d c749 923d
000003a0: 7c36 c6bc fb24 90bd 7719 fd3c 5462 3fbd
000003b0: 71ec cdbc 9e52 e13c 1aa0 fcbc 5fc7 863c
000003c0: a08a e03a 36cc 17bd b28e 58bc 8dfa e6bd
000003d0: cbc9 74bd 096b 12bc df3c b13c 12be f63c
000003e0: d649 eeba 7a98 4f3d 87e2 003d 9c47 433c
000003f0: 033e 5c3d f5a6 a23d 5972 8b3c 7922 31bb

bias f4 [64]
-0.06276251 -0.04651969 0.082099445 -0.074542955 -0.098048426 0.0010420646 0.04999593 0.015007888
0.08299323 0.050504312 -0.108365126 0.09821623 0.078191236 0.0022896796 0.025802828 0.09329532
-0.14116403 0.030322146 -0.028786585 -0.050056368 0.018804986 -0.110372625 -0.0009788077 -0.029844355
-0.07851016 0.05091708 -0.06496792 0.070994124 0.06943469 0.06109462 -0.12778416 -0.0692892
0.070358776 0.015491269 0.034356013 0.0094622215 0.108945906 0.045180514 -0.056096107 0.025984576
-0.016303618 0.011571988 0.043078344 0.08332909 0.091282286 -0.2027909 0.06356939 -0.0794879
-0.060357627 -0.05442558 0.104195386 -0.06530222 0.10112145 -0.043554984 -0.06909333 -0.009014888
-0.03279982 -0.14239551 -0.046744194 0.16056918 0.09631572 -0.034267798 0.01493597 0.07887608
00000000: a189 80bd 6e8b 3ebd c123 a83d faa9 98bd
00000010: 9dcd c8bd e395 883a 88c8 4c3d a5e3 753c
00000020: 5bf8 a93d 9cdd 4e3d 89ee ddbd 9725 c93d
00000030: ba22 a03d 730e 163b 7460 d33c 9e11 bf3d
00000040: 4e8d 10be 2666 f83c d8d1 ebbc e807 4dbd
00000050: ea0c 9a3c 0b0b e2bd 564b 80ba 267c f4bc
00000060: efc9 a0bd 6e8e 503d e70d 85bd 5e65 913d
00000070: c633 8e3d 5a3e 7a3d dad9 02be 7fe7 8dbd
00000080: 4318 903d 17cf 7d3c e4b8 0c3d 6f07 1b3c
00000090: 081f df3d 340f 393d 08c5 65bd 9bdd d43c
000000a0: 2a8f 85bc 7098 3d3c eb72 303d 71a8 aa3d
000000b0: 35f2 ba3d 6ba8 4fbe ab30 823d 8dca a2bd
000000c0: 8f39 77bd 5bed 5ebd 6464 d53d 2cbd 85bd
000000d0: c318 cf3d b666 32bd ce80 8dbd 2eb3 13bc
000000e0: 1b59 06bd 21d0 11be d776 3fbd 3f6c 243e
000000f0: 2d41 c53d 645c 0cbd 00b6 743c c889 a13d

weight f4 [64]
0.9760144 1.021279 0.8920923 1.032662 0.9489517 0.9697653 0.9540554 1.0515766
0.88857067 0.9073546 0.9771208 0.98201793 0.8880011 1.1061891 1.0383795 0.9316988
1.15911 0.96683383 1.0192832 0.87164176 0.91453636 1.0272547 0.97976625 0.989761
1.0150839 1.0154203 1.080234 1.0168673 0.9126358 0.93654054 0.97133946 0.9810794
0.93552446 0.9204058 0.957785 0.99838036 0.96458155 1.0499667 0.9710088 1.0015223
0.94105434 1.0447036 0.9237112 0.9731392 1.0594277 0.941228 0.9709533 0.9496944
1.0176101 1.0897125 0.8996245 1.0337013 0.9642324 0.998421 0.95296955 0.9794336
1.0138216 0.9543583 0.8633225 1.0226572 0.9286769 0.99511576 1.0591428 0.9822044
00000000: 14dc 793f 45b9 823f 2960 643f 452e 843f
00000010: 80ee 723f 8a42 783f fa3c 743f 109a 863f
00000020: 5e79 633f 6448 683f 9724 7a3f 8765 7b3f
00000030: 0a54 633f 9b97 8d3f 9fe9 843f d083 6e3f
00000040: b75d 943f 6c82 773f df77 823f ea23 5f3f
00000050: 0e1f 6a3f 157d 833f f6d1 7a3f fa60 7d3f
00000060: 45ee 813f 4bf9 813f 1c45 8a3f b528 823f
00000070: 80a2 693f 1fc1 6f3f b4a9 783f 0528 7b3f
00000080: 887e 6f3f b79f 6b3f 6631 753f db95 7f3f
00000090: d1ee 763f 4f65 863f 0894 783f e231 803f
000000a0: f0e8 703f d9b8 853f 5678 6c3f a71f 793f
000000b0: 549b 873f 51f4 703f 6590 783f 2c1f 733f
000000c0: 0c41 823f b37b 8b3f cb4d 663f 5350 843f
000000d0: efd7 763f 8598 7f3f d0f5 733f 29bc 7a3f
000000e0: e8c4 813f d350 743f b402 5d3f 6ee6 823f
000000f0: c5bd 6d3f e8bf 7e3f fe91 873f bf71 7b3f

bias f4 [64]
-0.013848231 -0.05110086 -0.2751663 -0.33600503 -0.17860126 -0.22599359 -0.14607994 -0.34502605
-0.2254905 -0.034769576 -0.38613838 -0.05519313 -0.24666373 -0.40675393 -0.22466189 -0.011043836
-0.5015562 -0.23026182 -0.36019042 -0.2913943 -0.34247574 -0.30041128 -0.15851982 -0.30018026
-0.30051583 -0.33931625 0.061988913 -0.10665897 -0.22268052 -0.24983342 -0.10773474 -0.17236234
-0.28901538 -0.06880495 -0.23602183 -0.34500998 -0.24167135 -0.27231094 -0.14854366 -0.092307575
-0.13149913 -0.063564576 -0.24444616 -0.33690763 -0.21647009 -0.17569251 -0.30105534 -0.28046036
-0.3000437 -0.131521 -0.24170065 -0.3880028 -0.021273887 -0.17380258 -0.16682786 -0.17185324
-0.2786749 -0.25476423 -0.28387114 -0.34621078 -0.10216579 -0.27022344 -0.26084262 -0.2545947
00000000: b1e3 62bc 234f 51bd 99e2 8cbe da08 acbe
00000010: 40e3 36be dd6a 67be fb95 15be 41a7 b0be
00000020: fbe6 66be 8b6a 0ebd eeb3 c5be 3112 62bd
00000030: 6b95 7cbe 0d42 d0be c40d 66be 35f1 34bc
00000040: fd65 00bf c1c9 6bbe e16a b8be a231 95be
00000050: fb58 afbe 82cf 99be 0553 22be 3ab1 99be
00000060: 36dd 99be dcba adbe 16e8 7d3d 0570 dabd
00000070: 5d06 64be 55d4 7fbe 08a4 dcbd c17f 30be
00000080: d3f9 93be 9ce9 8cbd b5af 71be 26a5 b0be
00000090: b278 77be 576c 8bbe d41b 18be c10b bdbd
000000a0: b5a7 06be 252e 82bd 1850 7abe 287f acbe
000000b0: 56aa 5dbe bde8 33be ed23 9abe 8098 8fbe
000000c0: 549f 99be 71ad 06be 6080 77be 4ea8 c6be
000000d0: 9346 aebc 4ef9 31be ecd4 2abe 4cfa 2fbe
000000e0: 7aae 8ebe 7570 82be 8f57 91be 8a42 b1be
000000f0: 4c3c d1bd ba5a 8abe 2a8d 85be 3d5a 82be

running_mean f4 [64]
-0.043946926 -0.021749716 0.09632987 -0.09140533 -0.1638088 -0.065366775 0.02537464 -0.036665473
0.05776805 0.101729706 -0.1679754 0.1390027 0.13209015 -0.032931373 -0.0085914275 0.110775165
-0.16323705 -0.03391225 -0.059794944 -0.09413106 0.04681362 -0.13588414 -0.011767299 -0.03716047
-0.20591973 0.042245504 -0.013115466 -0.059635695 0.13291802 0.05226572 -0.0883102 -0.10213663
0.044799328 0.060330328 0.030402102 -0.09733202 0.088830605 -0.010611626 -0.10436304 -0.0028700687
-0.080516554 0.15600596 -0.040842988 0.06000802 0.005119819 -0.28733823 0.07449379 -0.10050002
-0.15998408 -0.08379175 0.05597998 -0.09745656 0.18184261 -0.02472439 0.00045453728 -0.060685903
-0.067320086 -0.17774425 -0.086304754 0.16279113 0.16638078 -0.08857233 -0.054256395 0.039437804
00000000: b101 34bd 762c b2bc 9848 c53d b832 bbbd
00000010: 7ebd 27be 04df 85bd 7ade cf3c 892e 16bd
00000020: 319e 6c3d aa57 d03d be01 2cbe b956 0e3e
00000030: a442 073e 0ce3 06bd 0fc3 0cbc 17de e23d
00000040: 9d27 27be 92e7 0abd 8beb 74bd c9c7 c0bd
00000050: a3bf 3f3d 3625 0bbe a1cb 40bc 9435 18bd
00000060: 9fdc 52be 9f09 2d3d 40e2 56bc 8f44 74bd
00000070: a91b 083e 9414 563d fadb b4bd 022d d1bd
00000080: 807f 373d ef1c 773d d40d f93c 0356 c7bd
00000090: d2ec b53d 63dc 2dbc 4abc d5bd c317 3cbb
000000a0: dde5 a4bd 07c0 1f3e fa4a 27bd f8ca 753d
000000b0: 28c4 a73b ff1d 93be 3390 983d f4d2 cdbd
000000c0: ded2 23be 029b abbd 434b 653d 4e97 c7bd
000000d0: f334 3a3e ce8a cabc f64e ee39 c891 78bd
000000e0: 1ddf 89bd 9702 36be 8cc0 b0bd b8b2 263e
000000f0: b95f 2a3e 6965 b5bd f43b 5ebd 8989 213d

running_var f4 [64]
0.0063328673 0.0021960868 0.0013035656 0.0020793525 0.0046771793 0.0021552683 0.003042728 0.0017184098
0.0018786747 0.0054718438 0.002108437 0.0028706251 0.004638308 0.0022505564 0.0028071415 0.003052646
0.002080068 0.0019269406 0.0009690659 0.0029600454 0.0018209706 0.0019135543 0.002093675 0.0020979044
0.0057777544 0.0012326022 0.005317504 0.007562446 0.0037805156 0.0025219794 0.0034524212 0.0031826016
0.0026536563 0.0032061934 0.0011198035 0.0067343656 0.0032719434 0.002482401 0.0029409463 0.005701289
0.00241788 0.006890003 0.0051616696 0.0018514685 0.0023595612 0.004812547 0.0035084598 0.0016144845
0.005619538 0.0019933542 0.0027440225 0.0013114513 0.0056188153 0.0039047303 0.0031671717 0.0015168114
0.0010122653 0.001737684 0.0022002072 0.00073467573 0.0026531988 0.0037107153 0.002704324 0.002060264
00000000: f183 cf3b 39ec 0f3b 67dc aa3a bf45 083b
00000010: 0643 993b 673f 0d3b 8168 473b 443c e13a
00000020: dd3d f63a 274d b33b b42d 0a3b 1921 3c3b
00000030: f3fc 973b 127e 133b 05f8 373b e70e 483b
00000040: c051 083b 6691 fc3a e908 7e3a 52fd 413b
00000050: a2ad ee3a 3ad0 fa3a 0a36 093b ff7c 093b
00000060: 5153 bd3b 448f a13a 753e ae3b 65ce f73b
00000070: 87c2 773b cb47 253b 0442 623b 3293 503b
00000080: f7e8 2d3b 001f 523b 5fc6 923a f4ab dc3b
00000090: 1a6e 563b c7af 223b e4bc 403b e1d1 ba3b
000000a0: 4c75 1e3b 89c5 e13b 3923 a93b f9ac f23a
000000b0: dea2 1a3b 92b2 9d3b 30ee 653b 1c9d d33a
000000c0: 1a24 b83b efa2 023b 0fd5 333b 01e5 ab3a
000000d0: 0a1e b83b 81e6 7f3b 5390 4f3b bfcf c63a
000000e0: fdad 843a 00c3 e33a 5a31 103b 4197 403a
000000f0: 4ae1 2d3b 792f 733b 073b 313b 7f05 073b
