carl/envs/mario/pcg_smb_env/toadgan/generators/v1/TOAD_GAN_8-1/generators.pth (torch_old, 891975 bytes, 56 tensors)

weight f4 [64, 14, 3, 3]
000000 16 26 51 bc 4a 90 a8 3d 40 a5 91 bc bc 2b a9 3d
       -0.012765428 0.08230646 -0.017778993 0.08260295
000010 6e 7c 3c bb d3 e2 d9 bc 9c 2b 8d 3d c5 ac d9 bc
       -0.002876069 -0.026597416 0.068930835 -0.02657164
000020 7c aa 3a bd 29 d2 20 bd b5 e8 1e bd d0 d9 c4 bd
       -0.045572743 -0.039262924 -0.038796145 -0.09611857
000030 5e 0c 10 bd 66 cb a2 3c e8 1e 55 bd fb ff 5c ba
       -0.035168044 0.019872379 -0.052031428 -0.0008430478
000040 52 91 62 3b c5 cf 2f bc 1a 92 e1 bd 6e bf fe 3c
       0.003457148 -0.010730688 -0.11014195 0.03109714
000050 e4 ec f2 3c 4d 63 89 3d fb 5f 70 bd 31 1a 34 bd
       0.029653974 0.06708393 -0.058685284 -0.04397029
000060 60 9c e8 bc f8 d1 76 3c 0d da 46 3d 9b aa 0e 3e
       -0.028394878 0.015064709 0.048547793 0.13932268
000070 86 af c6 bd a6 fc 99 bb a3 b8 8d 3b cd 64 91 ba
       -0.09701447 -0.0046993075 0.004324989 -0.0011092663
000080 62 7b 58 3d 21 ba 1a 3c 96 6c 69 bc 65 3c e2 bb
       0.052852042 0.009443791 -0.01424708 -0.0069041722
000090 fa c8 dc 3c e3 fd cb 3d 11 f6 68 3d 43 bc 34 bc
       0.026951302 0.099605344 0.056875292 -0.011031213
0000a0 cf 63 bc 3c f6 ab 87 bc aa 25 34 3c 9c 64 58 bd
       0.022996811 -0.01656149 0.010995308 -0.052830324
0000b0 76 85 8b bd 62 95 83 3d ea ce 38 3d 8f da 09 be
       -0.06812565 0.06424977 0.045119204 -0.1346228
0000c0 af 83 b3 3d f5 ed a1 3c 45 92 20 bd 40 a3 70 ba
       0.08765351 0.019766787 -0.039201993 -0.00091795996
0000d0 d2 fa 6e 3c bb 6d 9e bc 63 25 bb 3d 09 63 66 3d
       0.014586167 -0.019339433 0.0913799 0.05624679
0000e0 ca 19 4a 3d 65 9e f4 bc 5d 89 14 3d 5d 8e 78 3c
       0.049341 -0.029860685 0.036263812 0.015170661
0000f0 66 a2 b6 bc 1e 73 63 3d 03 e4 42 bc ee c1 a9 3d
       -0.022294234 0.055529706 -0.011895183 0.08288942
000100 d1 12 19 3c 0d 47 70 bd 08 4d 97 bc 36 9c 1c bc
       0.009342865 -0.05866151 -0.018469349 -0.009558728
000110 2c 0b 7c bd 93 f4 15 bd 4c c1 a9 bb a4 76 b5 3c
       -0.06153409 -0.036610197 -0.0051805135 0.022151299
000120 96 d3 f4 3a 38 36 aa bd dc 94 e3 bc 96 61 46 bc
       0.001867878 -0.08311123 -0.027780943 -0.012108227
000130 31 27 f6 bc 3a 5e 8b bd 9a 4c 67 3c 5c e7 05 bd
       -0.030047985 -0.06805082 0.014117384 -0.032691345
000140 62 62 10 3d cb 18 07 be 03 72 e5 3c 7b f4 33 bc
       0.035250075 -0.13193052 0.028008467 -0.010983582
000150 89 3a 1c 3d af 42 e5 3c bc 70 c9 bc e2 4c b5 3c
       0.03814176 0.027985899 -0.024589889 0.022131387
000160 40 75 c2 bb b5 52 3b bd dd 44 1e bd 1e 1a 28 bb
       -0.0059343874 -0.045733172 -0.038639892 -0.0025650333
000170 fa 10 64 bb 89 72 48 3d 76 c0 55 3c 0b 3d c3 bb
       -0.0034800158 0.048937354 0.013046375 -0.0059582046
000180 8b be fe 3a 59 f5 c2 bb 50 35 88 b9 73 04 98 bb
       0.0019435448 -0.005949658 -0.00025979662 -0.0046392023
000190 d7 10 12 3e e5 06 94 3b 25 61 6e 3d 05 82 95 3c
       0.14264236 0.0045174235 0.058198113 0.018250475
0001a0 56 8b 87 3c 8f 79 51 3d 13 36 b8 39 91 e9 c1 3b
       0.016545933 0.051141318 0.00035135503 0.005917736
0001b0 66 4d 04 be f7 62 70 bd 66 19 10 3d bb 7d a3 bc
       -0.1292015 -0.05868813 0.03518047 -0.019957414
0001c0 70 0e 1c 3d 99 cb 8d 3c 77 7d c2 bc 6c c3 0e bd
       0.038099706 0.017308997 -0.023741467 -0.034854338
0001d0 cb 8e 8b bd 7e 26 7a bc 54 62 52 3c c3 79 03 bd
       -0.06814345 -0.015267966 0.012840826 -0.032098543
0001e0 41 b8 80 bb e6 2a da 3c 9e 4e b7 bb 81 bd 92 bb
       -0.003928215 0.026631784 -0.0055940887 -0.004478157
0001f0 52 9e 9d 3d 7f 2d a6 bd 01 49 ff 3c e4 bf a7 bc
       0.07696213 -0.081141464 0.03116274 -0.020477243
000200 42 fc 00 bd 5b 74 4a bd 7c 55 f1 3c 16 3d a4 3d
       -0.03149057 -0.04942737 0.029459707 0.08019464
000210 52 30 b7 3d d2 b0 28 3c b2 ec 78 bd fe 96 c9 3d
       0.08944763 0.0102960635 -0.060772605 0.098432526
000220 40 ba ff 3c b6 51 07 bd fc 4e 3d bd b4 1c 8c bc
       0.03121674 -0.03303691 -0.046217903 -0.01710353
000230 8f 53 7d 3d 47 72 f4 3b d4 2e 2a bd 36 c3 14 3c
       0.061847266 0.007459912 -0.041548565 0.009079745
000240 45 a9 e4 3a f6 d1 3e 3c 2c 4e f8 bc b6 24 40 3d
       0.0017445466 0.011646738 -0.030310713 0.04691001
000250 ab a8 46 3d 77 3e 8a bc 94 13 1e 3d 57 34 4e bd
       0.048500698 -0.016875489 0.03859289 -0.050342884
000260 bb c1 91 3c 66 e1 61 bb be 76 5d bc 35 9b a4 3c
       0.017792573 -0.0034466623 -0.01351708 0.02009354
000270 85 1e 30 ba 57 71 3e bd 68 58 fe 3c 70 8b 20 bc
       -0.0006718415 -0.046494808 0.031048015 -0.0097988695
000280 41 17 45 39 73 8c 66 3d 33 82 4f bb c1 03 4d 3b
       0.00018796047 0.056286287 -0.0031663298 0.0031282755
000290 38 99 10 3d dc 6b d8 3c cb 37 0c bd 9d 08 96 bd
       0.03530237 0.026418619 -0.034232896 -0.073258616
0002a0 98 25 2f 3d cc fd db 3d c0 a4 8e 3d ed 4d ea ba
       0.04276046 0.10741767 0.06965017 -0.0017876007
0002b0 23 39 c2 bc ee 8d 33 3d 12 96 8a bd f5 0a e6 3c
       -0.023708886 0.043836527 -0.06766905 0.028081397
0002c0 19 5e 27 bd cf a1 77 bd 13 c5 99 3d d1 46 e8 bc
       -0.040861223 -0.060457047 0.07508292 -0.02835408
0002d0 9c 93 22 bd fb 5b 48 bc 55 d4 0a bc 90 a6 06 bd
       -0.039691553 -0.012228961 -0.008473475 -0.03287369
0002e0 49 93 1e 3d ff 98 ac bd ee 3e 5b bb e3 2e 62 be
       0.03871468 -0.08427619 -0.0033454257 -0.22088198
0002f0 e6 af 81 bd 56 d9 41 3d 08 48 24 bd 25 ae 55 3c
       -0.06332378 0.04732641 -0.040107757 0.013042008
000300 d5 a2 aa 3c 64 db 21 3c 39 9b 7f bd d0 07 19 3c
       0.020829597 0.009878967 -0.06240389 0.009340242
000310 75 04 4b 3d db 58 16 be 48 c1 74 bc 79 bb a2 3c
       0.049564797 -0.14682333 -0.01493866 0.019864785
000320 ea 78 1b 3c a9 15 a5 bc 33 e5 5c 3c 13 53 2b ba
       0.009489277 -0.02015193 0.01348238 -0.00065355113
000330 3b ac b8 3c f1 09 d0 3d 7b e1 d1 bd 3a 0f 35 3c
       0.022543063 0.10158146 -0.10248085 0.011050994
000340 31 45 c4 bc 41 5a 05 3d 04 6f 33 3c ea 55 16 bc
       -0.023958774 0.032556776 0.010951761 -0.009175757
000350 4e 56 94 3c ea 4f 18 3d ee 58 02 3e 10 80 14 bd
       0.01810756 0.037185587 0.12729236 -0.036254942
000360 4e bb 7c 3c 9c 32 ff bc cd 00 01 3c da 96 f1 bc
       0.015425516 -0.031152062 0.007873726 -0.029490877
000370 7e ba a6 bb 28 01 1c 3b 56 99 55 bc 40 96 2f bd
       -0.0050881496 0.00238044 -0.013037046 -0.0428679
000380 73 c2 84 3c 97 46 0d 3d f6 7a 75 bd fc 0e a8 3c
       0.016206002 0.034491148 -0.059931718 0.020514958
000390 4b 8b 61 bd f1 87 a4 bd f6 69 13 3d 8a 3b 94 3d
       -0.05506448 -0.08033741 0.035989724 0.07237919
0003a0 d1 73 9c bd fb fa 1d bd a0 ff 17 3d 83 b0 01 3c
       -0.07639278 -0.03856943 0.037109017 0.007915619
0003b0 8a 3a 18 3d 72 a9 95 3d 48 5a ae ba dc 84 d1 bc
       0.037165202 0.0730771 -0.0013302052 -0.025576048
0003c0 b7 b5 51 bd 4e 77 c4 bd 98 a2 5d 3d 3e 8b 47 bd
       -0.051198687 -0.09593068 0.05411014 -0.048716776
0003d0 b1 d0 ae 3c 60 e0 43 3d 30 c4 21 bd 1c b6 7e 3c
       0.021339746 0.047821403 -0.03949374 0.015546348
0003e0 4b b4 1a 3a 98 ee c6 3d 27 b3 4e 3b 7f 84 48 3c
       0.00059014995 0.09713477 0.0031539889 0.012238621
0003f0 d9 bd 8e bd 54 ca aa 3d 70 6f 24 3d 16 7c e3 bb
       -0.06969804 0.08339372 0.040145338 -0.0069422824

bias f4 [64]
000000 79 51 8d 3d 9c 11 37 bd 33 9e 32 3d b9 3d 74 3b
       0.06900305 -0.044694528 0.0436079 0.0037268235
000010 a1 84 88 3d 26 63 d6 bc 08 74 a0 3d 3b a4 0a 3d
       0.06665922 -0.026170325 0.07834631 0.03384803
000020 00 34 0b 3e 99 b8 a8 bd 8b c2 8d bd 80 8d 95 3d
       0.13594055 -0.08238334 -0.06921872 0.073023796
000030 4f 74 ca bb 82 ab 88 3d 1e c0 32 bd 4b 1e a9 3d
       -0.006178416 0.066733375 -0.04364025 0.08257731
000040 82 e8 00 3d c8 b4 c1 bc 7c bf d3 bd a3 61 56 3d
       0.031471737 -0.023645774 -0.10339257 0.052339207
000050 1e 78 c9 3d 98 b1 3b 3b 44 c7 4f 3d 4f 08 88 3d
       0.09837364 0.002863979 0.050727144 0.0664221
000060 0b 20 a8 bb 34 32 8d 3d e8 cc 4d 3d 3e 80 89 3d
       -0.005130773 0.06894341 0.050244242 0.067139134
000070 24 c9 84 3d c7 08 78 3d 77 cb 25 3d 43 f6 a1 3d
       0.06483677 0.060555246 0.040477242 0.07908299
000080 e8 bc 53 bd cf 12 87 bd 8f 87 27 3d c4 b1 43 bd
       -0.051693827 -0.06595384 0.040900763 -0.047776952
000090 b0 f6 59 3d 3a 1e aa bd 08 b8 a8 bb 0d 59 04 3d
       0.053213775 -0.083065465 -0.0051488914 0.032311488
0000a0 c1 20 a9 bd 9b 36 07 3c e5 b0 97 3d 40 39 de bd
       -0.082582004 0.008252765 0.07406787 -0.10850763
0000b0 ce 25 8d 3d e3 43 e6 bc 70 f1 23 bd dd 9b 85 bd
       0.06891976 -0.028108543 -0.040025175 -0.06523869
0000c0 4a 90 03 bd eb 01 a5 bd 9c 06 66 3d 5d 13 32 3d
       -0.032120027 -0.080570064 0.056158647 0.043475498
0000d0 c0 34 53 bd 55 d3 0b 3e dd a9 c3 bc b6 fc 2a 3d
       -0.05156398 0.13654836 -0.023884708 0.04174491
0000e0 2f 26 ae 3a 30 da a2 bd c6 94 fb 3c fb 8e 39 3c
       0.0013286526 -0.07951772 0.03071059 0.011325593
0000f0 05 35 17 bd ce 9c 47 bd 27 44 8d 3c 0d 5c 8a bd
       -0.036915798 -0.048733525 0.017244412 -0.067558385

weight f4 [64]
000000 8c c3 70 3f e8 fe 6e 3f 47 c7 6f 3f ba 23 7b 3f
       0.9404838 0.93357706 0.9366345 0.9810139
000010 05 95 6c 3f 41 d2 5f 3f dc 0c 6a 3f 51 cb 58 3f
       0.92414886 0.87430197 0.9142587 0.84685236
000020 24 68 73 3f a1 4e 77 3f 45 fd 5f 3f 43 3d 80 3f
       0.9508078 0.96604353 0.87495834 1.0018696
000030 8a 89 69 3f 9c 53 7a 3f 70 00 75 3f 24 89 5e 3f
       0.9122549 0.9778383 0.9570379 0.8692801
000040 24 67 75 3f 44 44 79 3f d3 dc 85 3f 6d 45 7a 3f
       0.95860505 0.9736979 1.0458015 0.97762185
000050 4e cd 68 3f 2e 30 74 3f b1 1c 8c 3f 21 38 85 3f
       0.9093827 0.95386016 1.0946256 1.0407754
000060 5f 69 6c 3f b1 87 71 3f 3f 2d 6b 3f 5a e2 66 3f
       0.92348284 0.94347674 0.91865915 0.90189135
000070 a6 bc 7a 3f f3 58 85 3f ec 44 70 3f 5e d9 8b 3f
       0.97944105 1.041777 0.93855166 1.092571
000080 a6 6c 86 3f fd d2 77 3f 57 4f 73 3f 04 13 78 3f
       1.0501907 0.9680632 0.9504294 0.96904016
000090 e3 58 70 3f b5 f2 75 3f 90 5b 98 3f fd 57 76 3f
       0.9388563 0.96073467 1.1902943 0.9622801
0000a0 56 f5 85 3f bb 32 7f 3f a9 06 63 3f c3 e0 96 3f
       1.0465496 0.99686784 0.8868204 1.1787342
0000b0 31 52 6f 3f cc 2a 74 3f 6f 0f 5b 3f 07 e4 81 3f
       0.9348479 0.953778 0.85570425 1.0147713
0000c0 84 a9 68 3f d8 e3 87 3f 29 bc 7b 3f 15 2e 70 3f
       0.9088366 1.0616407 0.98333985 0.93820316
0000d0 4b e5 7f 3f 56 80 90 3f b1 dd 70 3f a9 dc 84 3f
       0.9995925 1.1289165 0.94088274 1.037984
0000e0 12 dd 65 3f d6 51 81 3f 47 00 82 3f 22 19 70 3f
       0.8979045 1.0103099 1.0156335 0.9378835
0000f0 10 ce 96 3f f8 3d 85 3f b1 fa 84 3f 2b 36 87 3f
       1.1781635 1.0409536 1.0389005 1.0563406

bias f4 [64]
000000 9c 8b 28 be f6 f6 80 be 64 c6 75 be 25 d4 90 be
       -0.16459507 -0.25188416 -0.24001461 -0.28286853
000010 9a 67 6a be b4 0d 50 be 53 8c 30 be a3 c5 72 be
       -0.22891083 -0.20317727 -0.1724103 -0.23708205
000020 b4 cf 38 be 0a bb 03 be d4 03 a7 be d8 f7 6f be
       -0.18047982 -0.12864318 -0.32620108 -0.23434389
000030 2d 48 98 be ae 17 7f be a2 5b 48 be 9d a4 53 be
       -0.29742566 -0.24911377 -0.19566205 -0.20668264
000040 32 1c 97 be af fe 59 be 04 0b 74 be b8 29 86 be
       -0.295137 -0.2128856 -0.23832327 -0.26203704
000050 ab cf 8a be ee 55 82 be b4 24 5b be d5 9e 90 be
       -0.27111563 -0.25456184 -0.2140072 -0.2824618
000060 8f b4 73 be 24 37 5e be 8a 47 7b be a3 78 4c be
       -0.23799346 -0.21700722 -0.24539009 -0.19967894
000070 01 fb 56 be 40 ac 53 be 5b b4 65 be 06 94 d7 bd
       -0.20994188 -0.20671177 -0.22432081 -0.1052628
000080 8a a0 a0 be cc a6 69 be e0 20 19 be aa bb 55 be
       -0.31372482 -0.22817534 -0.14953947 -0.2087237
000090 ee 19 3c be 4f fb 52 be 8e 66 52 be e8 da 8e be
       -0.18369266 -0.20603679 -0.20546934 -0.27901387
0000a0 46 2c 8a be ca 1f 57 be 33 d2 4f be 4b b0 6d be
       -0.26986903 -0.2100822 -0.20295028 -0.23211782
0000b0 9a 34 59 be 11 83 ae bd 2c b7 28 be 0c c6 12 be
       -0.21211472 -0.08521093 -0.16476125 -0.14333361
0000c0 0b a6 de bd 2a 8e 47 be 87 2e 59 be 05 18 42 be
       -0.10871514 -0.19487825 -0.21209155 -0.18954475
0000d0 e4 30 6d be 46 7f 56 be 89 99 6e be 6b 14 4a be
       -0.23163182 -0.20946988 -0.23300757 -0.19734351
0000e0 c7 2c 4c be 3f 57 7f be e3 fc d5 bd 7b bc 8a be
       -0.19938956 -0.24935625 -0.10448625 -0.27096924
0000f0 62 5e 81 be 25 03 94 be 39 90 81 be cd 2a 64 be
       -0.2526732 -0.2890865 -0.25305346 -0.22281952

running_mean f4 [64]
000000 2a 13 7f 3d 30 db 02 bd 5e 15 20 3d d4 59 14 bc
       0.062274136 -0.031947315 0.039082877 -0.00905462
000010 b2 57 89 3d 56 b3 ca bc 81 f1 ab 3d 78 7b 0f 3d
       0.0670618 -0.024743717 0.083956726 0.03502986
000020 d2 89 0d 3e 65 ca a8 bd fc 15 8b bd 5b cb 9d 3d
       0.13822106 -0.08241729 -0.067913026 0.077048026
000030 3b c6 e3 bb 22 8f 7a 3d 23 94 30 bd 24 17 a8 3d
       -0.006951121 0.06117166 -0.043110024 0.08207539
000040 ce 5b 02 3d 4f 68 fd bc 98 e4 d8 bd e5 d8 4b 3d
       0.031825833 -0.030933527 -0.10590476 0.049767394
000050 7a 0e bd 3d 8c b0 8d 3a 18 58 40 3d b4 c0 7e 3d
       0.09231277 0.0010810061 0.046959013 0.062195495
000060 81 ce 1b 3c cd c0 97 3d ee d3 48 3d e4 71 98 3d
       0.009509684 0.07409821 0.049030237 0.07443598
000070 c3 34 8b 3d 6a e7 6e 3d 6b af 47 3d ee d9 b1 3d
       0.06797173 0.058326162 0.048751276 0.08684145
000080 57 a8 5c bd 9a 6a 90 bd 91 61 17 3d 4c 8a 41 bd
       -0.05387148 -0.07051583 0.03695828 -0.04725103
000090 15 e3 72 3d 50 57 a0 bd b5 8c 05 bc c2 a1 14 3d
       0.059298594 -0.078291535 -0.008151223 0.036287077
0000a0 d8 be af bd 13 64 ba b9 67 56 8a 3d e2 15 dc bd
       -0.085813224 -0.00035551246 0.06754761 -0.10746361
0000b0 94 57 8c 3d 02 7b fc bc da 1f 15 bd b5 16 78 bd
       0.06852642 -0.030820373 -0.03640733 -0.06056853
0000c0 0b d2 e1 bc 1a 33 9f bd 73 aa 73 3d a3 26 26 3d
       -0.027565977 -0.07773419 0.059488725 0.04056419
0000d0 f5 37 61 bd 2f c8 11 3e dc 4e e1 bc 43 1f 2a 3d
       -0.054985005 0.1423652 -0.027503423 0.04153372
0000e0 96 c4 9a bb 9d fe ad bd ac bc b7 3c b4 86 31 3c
       -0.004723142 -0.08495829 0.022428833 0.010835338
0000f0 5a 03 1b bd 3b 38 27 bd 51 51 80 3c 14 f8 6d bd
       -0.037844993 -0.04082511 0.015663775 -0.058097914

running_var f4 [64]
000000 36 ae 4f 3e a2 31 5e 3e 39 2b 62 3e c1 45 82 3e
       0.202813 0.21698621 0.220868 0.25443843
000010 fc 6b 52 3e b9 ed 58 3e 6f 97 58 3e 76 d4 40 3e
       0.20549005 0.21184434 0.21151517 0.18831047
000020 f9 46 73 3e e2 18 59 3e 2e c0 54 3e c9 ac 45 3e
       0.23757543 0.21200898 0.20776436 0.19304194
000030 a1 ae 49 3e 4a b8 69 3e c3 43 52 3e ad bf 4f 3e
       0.19695522 0.22824207 0.20533662 0.20287962
000040 7e bb 4d 3e 69 1f 60 3e e3 d8 5e 3e fa 8a 6b 3e
       0.20091054 0.21886982 0.21762423 0.23002234
000050 d3 82 3e 3e 54 14 62 3e 67 47 65 3e c0 d5 5b 3e
       0.18604593 0.22078067 0.22390519 0.21468258
000060 f1 21 57 3e ac 53 4d 3e 7d 91 57 3e 0e 59 3f 3e
       0.21009041 0.2005145 0.21051593 0.18686315
000070 ef 38 6d 3e e5 51 51 3e 28 10 59 3e ca 9b 5f 3e
       0.2316625 0.20441397 0.2119757 0.21836773
000080 eb 03 6c 3e 11 33 51 3e a0 f6 68 3e 59 b6 4e 3e
       0.2304837 0.20429637 0.2275033 0.20186748
000090 07 cb 53 3e 52 33 3a 3e 46 8a 73 3e 33 75 62 3e
       0.20682918 0.1818364 0.23783216 0.2211502
0000a0 93 8f 77 3e 8f c3 58 3e 84 6d 44 3e 51 ec 81 3e
       0.24175863 0.2116835 0.19182402 0.25375608
0000b0 80 b7 54 3e fd a5 53 3e 7d 77 3b 3e 3f e4 79 3e
       0.20773125 0.20668788 0.183073 0.24403475
0000c0 34 4b 55 3e c1 ca 6e 3e 04 9f 4c 3e 22 77 68 3e
       0.20829469 0.23319532 0.19982535 0.22701696
0000d0 23 06 59 3e 75 f8 76 3e f5 3f 51 3e f4 7d 78 3e
       0.21193747 0.24118216 0.20434554 0.24266797
0000e0 4e d0 60 3e 2f 0c 76 3e 24 dd 51 3e da d9 43 3e
       0.21954462 0.24028085 0.20494515 0.19126073
0000f0 cf 0f 7b 3e ba db 6b 3e 35 a3 81 3e 56 79 62 3e
       0.24517749 0.23033038 0.2531983 0.22116598

weight f4 [64, 64, 3, 3]
000000 96 22 21 ba e6 65 ef bc df 7e 0e 3c 92 c9 3e 3d
       -0.00061468163 -0.029223394 0.008697241 0.04657895
000010 e2 9e f2 3c 4f a7 54 3d 42 a7 2f 3c 65 83 c0 3c
       0.029616777 0.05191737 0.01072103 0.023500154
000020 8c e5 73 3d 45 f0 37 bd 3f e2 a9 3c 8e 35 7d 3d
       0.059545085 -0.044906873 0.020737765 0.06181865
000030 19 01 45 3b fc 3d 04 3d a6 bb b0 bb 82 b9 1d bd
       0.0030060469 0.032285675 -0.005393463 -0.038506992
000040 bd 73 be bc 92 0a 9c bc 89 b2 f1 bc a9 bb 69 bd
       -0.023248548 -0.019048009 -0.029504078 -0.057063732
000050 80 ea 2a bd 6a 61 3c 3d ae 33 3f bd 12 19 80 bb
       -0.041727543 0.04599134 -0.046680145 -0.0039092386
000060 6a 7a d6 3b be 79 2b bd 97 a1 04 3d ef 4b a4 3c
       0.0065453546 -0.04186415 0.032380667 0.02005574
000070 ce 8b 2f bd 28 6a 37 3c ec eb ff 3c 17 15 83 bd
       -0.042857938 0.011194743 0.031240426 -0.06400507
000080 20 86 3b 3d 16 22 d0 bb ba 19 2d bd c9 e9 a6 3c
       0.04578221 -0.0063517196 -0.042260863 0.02037515
000090 7e ad 4c 3c 82 56 04 bd f4 09 bd 3c fb 0a 18 3c
       0.012492536 -0.032309063 0.023076035 0.009279962
0000a0 51 1f ff 3c e5 5c 4c 3d db 75 0b 3e a4 f7 a2 3d
       0.031142863 0.04989328 0.13619177 0.0795739
0000b0 32 e2 54 3d af 8a 77 bd a7 1f 5d 3c be 4f b1 bd
       0.05197353 -0.060434993 0.013496316 -0.08657788
0000c0 15 8c b6 3c 2f 24 15 3c a7 6b 94 3d 82 c6 a1 bd
       0.022283593 0.009102865 0.072470956 -0.078991905
0000d0 5b 43 e1 bc 41 6c 99 bc c0 2f 17 bd 86 56 5c bd
       -0.027497938 -0.018728377 -0.036910772 -0.053793453
0000e0 f0 95 2f bd ac c5 c5 bb 8e a2 b6 bc 4e 2f 08 bd
       -0.0428676 -0.006035527 -0.022294309 -0.03324824
0000f0 3c 2e ef bc 2d b1 8f 3d 11 8d a6 3d 17 1b 87 3c
       -0.029196851 0.070162155 0.08132375 0.01649241
000100 c1 9c 84 3c a9 15 1f bd 17 10 cd 3c 05 e9 ee bc
       0.016188027 -0.038839016 0.025032086 -0.029163847
000110 97 23 38 3d f0 7f 82 3c 1a 17 11 ba af 81 52 bd
       0.044955816 0.015930146 -0.00055347534 -0.051393207
000120 44 b5 ba bc 41 a3 4a 3c cc 4c 27 bd 88 a5 de bc
       -0.022791512 0.012368024 -0.040844724 -0.02717854
000130 93 b3 62 bd 18 9f 4d 3d cb 8b c6 bc 55 0b 1f bd
       -0.055347037 0.05020055 -0.02423658 -0.038829166
000140 af 72 29 bd c5 c6 2e 3c 77 c2 8b bc 87 16 ed 39
       -0.041369136 0.010667508 -0.017060502 0.00045220947
000150 a5 0f 5c 3d 99 d8 f1 3c bb 9a ed 3c 18 36 b0 bd
       0.053725857 0.029522227 0.029004445 -0.086040676
000160 07 d5 47 3c 31 e6 80 bd 27 51 47 bd 7e b9 8d bc
       0.012196786 -0.062939055 -0.048661377 -0.017300364
000170 1a f1 34 bd 09 64 15 3d 5d 87 97 bc f9 e8 82 bd
       -0.044175245 0.036472354 -0.018497163 -0.06392092
000180 f5 36 50 3d 89 fa 3b 3d b2 18 5c 3d c1 4e f8 3c
       0.05083366 0.045893226 0.05373449 0.03031099
000190 6e db 58 3d 5b 4b 22 3d d6 69 fd 3c 04 bc 6a 3d
       0.05294364 0.039622646 0.030934256 0.057308212
0001a0 f7 41 bc 3d de 88 ca 3c 23 45 7e 3d 86 68 83 3d
       0.09192269 0.024723466 0.062077653 0.06416421
0001b0 06 0e cd 3b 52 9b 36 bd 7d 51 07 bd 32 76 9f 3d
       0.0062577752 -0.04458172 -0.033036698 0.07786216
0001c0 98 46 83 3d 30 31 a5 3d 02 35 77 3d 51 7c 34 3d
       0.06409949 0.080660224 0.060353287 0.04406387
0001d0 79 54 18 3d 3c b5 4e 3d 77 d4 04 bd 2d 8c 63 bb
       0.037189934 0.050465807 -0.032429185 -0.0034721002
0001e0 6b 11 26 3d 10 1a ae bc 25 6a bc 3d d9 c5 61 bc
       0.040543955 -0.021252662 0.09199933 -0.013780081
0001f0 79 8d 3f bd 24 8c 8b bc 68 c8 f7 bc bd a5 da bc
       -0.04676578 -0.017034598 -0.030246928 -0.026690358
000200 be 1e e0 3c e4 63 eb 3c f7 bd 77 3d 2f d3 36 3c
       0.027358409 0.028734155 0.0604839 0.0111587485
000210 84 07 31 3c 16 c8 fa 3c 58 03 2c bd d5 05 a3 3c
       0.0108050145 0.030612987 -0.041995376 0.019900242
000220 58 cc 81 bc 84 02 65 bc 04 61 4a bc d2 91 9c 3c
       -0.015844509 -0.013977651 -0.012352232 0.019112501
000230 22 dc 2e 3c 00 75 b8 3d cb cd e0 3b da 03 f4 3b
       0.010672601 0.09006691 0.00686047 0.007446748
000240 fe d0 8c bd c1 27 c9 bc d6 de 3a bd 73 25 a9 3c
       -0.068757996 -0.024555089 -0.04562267 0.02064774
000250 4a b1 ac 3a f8 20 14 b9 49 dc 56 bd a7 e6 30 bd
       0.0013175395 -0.00014126662 -0.052456174 -0.043188717
000260 2c 53 aa bd 6e 0e 0a bd 6c 82 60 3d 91 80 99 bc
       -0.08316645 -0.033705167 0.05481188 -0.018738063
000270 b4 2b c5 3c 31 8d 5a 3d be 37 86 3d b9 bf ec 3c
       0.02406869 0.053357307 0.06553601 0.028900014
000280 e8 2e fc 3d d2 07 8f 3d 59 24 a2 bd 4a c4 e7 3c
       0.12313634 0.069839135 -0.07917089 0.02829184
000290 d4 4b de 3b 55 0c 30 3d ab 5c c4 3d 33 1f aa bc
       0.0067839418 0.04298051 0.095879875 -0.02076683
0002a0 ea 48 27 bd 97 f6 00 bc 9a ce 24 bc 1b 56 f2 bc
       -0.04084102 -0.007871292 -0.010059023 -0.029582074
0002b0 2a ab 22 bc 78 74 ff 3c a5 77 c8 3d 38 cd ee bc
       -0.009928504 0.031183466 0.097884454 -0.02915059
0002c0 08 ad d7 3c 3b 36 03 bd 40 6c 24 bc 15 ca 80 3d
       0.026327625 -0.03203414 -0.010035574 0.06288544
0002d0 df 01 3a bc ae b1 3a 3d 94 ef 9c bc 19 21 b1 3c
       -0.011352985 0.045579605 -0.019157209 0.021622228
0002e0 6f 26 84 bb 3c 59 45 bc 26 89 3f 3d 72 13 82 bd
       -0.004032902 -0.012045201 0.046761654 -0.06351365
0002f0 b6 e2 10 3e 4d 7b c0 3b 26 39 2c bc d7 d9 17 3d
       0.14148983 0.0058740736 -0.010511672 0.037072983
000300 fa 07 ac 3c b8 86 12 3d fa 76 34 3d 2a 79 86 3c
       0.020999897 0.03577301 0.044058777 0.016415197
000310 ee ff 0c 3d b7 ae ec bc ed 06 a7 3c b3 ed b1 bc
       0.03442376 -0.028891904 0.020389045 -0.02171979
000320 6e 80 ab 3d 6a c9 87 3d e1 ca 81 3d e0 0a 01 3e
       0.083741054 0.066302136 0.06337524 0.12601805
000330 9b 53 d4 bc c0 42 c6 3d c2 43 5c 3d ed db 85 ba
       -0.025918772 0.096807 0.053775556 -0.0010212638
000340 0f 7a fe 3c d2 8a 7c 3c ad 8b 94 3c ed 05 77 3d
       0.031064061 0.015413957 0.018133009 0.060308386
000350 08 c5 b3 3d 0c ca 83 3d 2c 37 c3 bc 01 07 68 3d
       0.08777815 0.06435022 -0.023830019 0.056647304
000360 25 79 77 3c 05 b6 49 ba dd a2 32 bd 08 5e 52 3d
       0.015104567 -0.00076946645 -0.04361235 0.051359206
000370 55 16 d0 bb 3c d0 55 3d 3e 9e 41 3d 68 db 1d 3d
       -0.0063503184 0.05220054 0.047270052 0.03853932
000380 7f 49 d2 3c 31 29 e5 ba a3 84 28 3d 55 76 a7 3d
       0.025669811 -0.001748359 0.041142117 0.08176867
000390 6c 8b f7 3d ac 73 d2 3b 90 98 e9 3d 8c 3f 09 3e
       0.120871395 0.0064224806 0.11406052 0.13403147
0003a0 bf 7f 1c bc 12 92 c4 3d c5 05 7e bd 63 d0 6f bc
       -0.009551941 0.09598173 -0.06201722 -0.014637086
0003b0 75 56 a4 3b 3a a3 97 3d d7 99 11 3c d0 1f 1a 3d
       0.0050151893 0.0740418 0.008886776 0.037627995
0003c0 4c 7c eb 3d a5 00 8d 3b b7 ef fe 3a 12 3e 97 bc
       0.11498317 0.0043030553 0.0019450103 -0.018462215
0003d0 64 50 8c 3b 92 0d cc bc b1 4f 2f bd 8c 78 d1 bb
       0.0042820442 -0.024908815 -0.04280061 -0.006392544
0003e0 25 02 51 3d 87 0c 46 3b 0d 69 6b 3c 52 07 67 bd
       0.051027436 0.003021987 0.014368308 -0.056403466
0003f0 04 6c 9d 3c 48 6f e4 3b a5 a9 c4 3c 98 08 e7 bc
       0.019216545 0.0069712736 0.024006674 -0.02820234

bias f4 [64]
000000 78 19 08 3d 43 0d 1e bd 2f 12 44 3c a0 07 65 3d
       0.033227414 -0.038586866 0.011967226 0.055915475
000010 29 68 0c 3c ab 56 0e 3d 75 f9 3d 3d 88 c9 28 3d
       0.008569756 0.03475062 0.04638048 0.04120782
000020 77 d3 1b 3c d6 40 b3 3a ba 6e 77 bc ca d0 cb bc
       0.009510866 0.0013675939 -0.015102083 -0.024879832
000030 39 58 46 bd af 06 c2 3b cf e2 2a 3d 5d e9 97 bc
       -0.04842398 0.005921207 0.041720208 -0.018543893
000040 a2 43 23 3d 51 a1 4a 3d 68 51 13 bd da 5e b4 3d
       0.03985942 0.04947025 -0.035966307 0.08807154
000050 e2 06 10 bd e5 17 a7 bd 49 9a a4 bc 0d 62 6f 3b
       -0.035162814 -0.081588544 -0.0200931 0.0036526949
000060 72 02 c5 bb e0 89 32 3c 93 d2 17 bd 7a 1d 63 b7
       -0.0060122544 0.01089713 -0.037066054 -1.3537117e-05
000070 81 f7 c0 bc 2b b3 65 3c 83 ae 9a 3a ec 42 22 bc
       -0.023555519 0.014019768 0.0011801276 -0.009903651
000080 76 03 23 3d 70 10 05 bd 61 62 78 3c 1c 0a 93 3c
       0.039798222 -0.03248638 0.015160174 0.017949156
000090 57 85 83 3d ad 9a 1c bc 9b 11 b9 bb 75 52 29 bd
       0.06421917 -0.009558362 -0.0056478507 -0.041338403
0000a0 2c 24 a3 bc f0 a1 ee 3c 83 0e 25 3a de 1a c0 3c
       -0.019914709 0.029129952 0.0006296413 0.023450311
0000b0 2e 28 6f 3d 58 32 fb 3c 80 30 dc bc 4e 15 ca 3c
       0.058387928 0.030663654 -0.026878595 0.024668362
0000c0 58 3c 66 3c 80 a1 5c 3d fd 75 8b 3c 1d 3c 21 3d
       0.014052473 0.053864956 0.017024035 0.03936397
0000d0 fc 5f 15 bd 90 c1 a4 bc 64 75 17 3d 1f 4e 85 3c
       -0.03646849 -0.020111829 0.036977187 0.016272603
0000e0 25 ca 7d bc 73 a7 15 bd c9 0f d5 3c 5c 88 2c 3d
       -0.01549009 -0.036536645 0.026008504 0.04212223
0000f0 81 63 4a bd 11 73 19 3d 5d d7 ed 3c c1 fa 15 3d
       -0.0494113 0.03746325 0.029033357 0.03661609

weight f4 [64]
000000 51 f2 99 3f 87 40 b6 3f 29 4b 99 3f c1 ce a8 3f
       1.2027074 1.4238442 1.1976062 1.3188096
000010 fa a3 a9 3f b9 2a b7 3f 45 6b bb 3f c1 5c c4 3f
       1.3253167 1.4309913 1.4642111 1.5340806
000020 54 5f b4 3f 19 fa 9f 3f 15 58 a7 3f 59 69 aa 3f
       1.4091592 1.2498199 1.3073756 1.33134
000030 a3 8b b2 3f d8 5f a7 3f 45 f7 cc 3f e1 c9 99 3f
       1.3948864 1.3076124 1.6012961 1.2014734
000040 d4 ec ad 3f 87 f8 a1 3f c9 56 9f 3f 40 31 be 3f
       1.3587899 1.265397 1.244836 1.485878
000050 39 bf ae 3f 35 de bd 3f 9e 38 ad 3f 9e 4b aa 3f
       1.3652107 1.4833437 1.3532903 1.3304327
000060 50 12 a6 3f 68 0c 90 3f fa 15 a7 3f f6 ef bd 3f
       1.2974339 1.1253786 1.3053582 1.4838855
000070 0d df a3 3f 2b a6 aa 3f 5e e0 d4 3f c1 80 af 3f
       1.2802445 1.333196 1.6630971 1.3711168
000080 8b 97 aa 3f 11 01 a6 3f b9 d3 ab 3f 9d ec 9d 3f
       1.3327497 1.2969075 1.3423988 1.2337834
000090 36 7a a8 3f 2c cb a4 3f 22 95 b4 3f 8f a3 a8 3f
       1.3162296 1.2874503 1.4108012 1.3174914
0000a0 85 a0 aa 3f b9 75 a1 3f 82 5d a9 3f cc 29 c8 3f
       1.3330237 1.2614051 1.3231661 1.5637755
0000b0 62 bd b5 3f 02 51 b1 3f a4 01 a2 3f 5d 28 a4 3f
       1.419842 1.3852847 1.2656751 1.2824818
0000c0 ac 0a b4 3f ff 48 b4 3f 12 39 aa 3f 16 cd b4 3f
       1.4065757 1.4084777 1.3298666 1.4125087
0000d0 26 b2 ab 3f 08 99 b7 3f 90 a3 a0 3f e4 59 b5 3f
       1.3413742 1.4343576 1.2549915 1.4168057
0000e0 4a e9 bf 3f dc 27 af 3f 0e 00 b1 3f 04 a7 ba 3f
       1.4993069 1.3684039 1.3828142 1.4582219
0000f0 97 20 9f 3f 12 f6 99 3f fb 9d ab 3f f6 8b b7 3f
       1.2431821 1.202822 1.3407587 1.4339588

bias f4 [64]
000000 91 b2 f8 3d a9 23 06 3e 3c 11 ad 3d 23 26 eb 3d
       0.12143434 0.13099541 0.08450553 0.114818834
000010 44 6c eb 3d 27 ab dd 3d fa fa bd 3d dc 13 1c 3e
       0.114952594 0.1082366 0.092763856 0.15241951
000020 95 22 0c 3e 17 f9 4d 3d b7 06 fd 3d 2f a8 fc 3d
       0.13685067 0.05028638 0.123547964 0.12336766
000030 a5 35 0a 3e 41 92 09 3e 32 61 33 3e 13 7d 3c bb
       0.13497026 0.13434698 0.17517546 -0.0028761073
000040 a6 aa 1b 3e 39 0d 04 bb c5 03 bc 3d c1 0c 4f 3e
       0.15201816 -0.0020149483 0.091804065 0.20219709
000050 7a a6 b5 3d 98 77 32 3e 2d 9a 7d 3d 7e 7f 37 3d
       0.088696435 0.17428434 0.06191461 0.04479932
000060 70 3f ae 3d b2 c4 07 bd f4 a2 e6 3d c9 7f 1c 3e
       0.085081935 -0.033146568 0.112615496 0.15283121
000070 14 e0 d1 3d df ac 28 3e d9 41 21 3e 89 f2 0a 3e
       0.10247818 0.16472195 0.15747775 0.13569082
000080 34 6f 06 3e 45 a1 fc 3d bb 7e 34 3e 9c e7 f6 bb
       0.13128358 0.12335447 0.17626469 -0.007534934
000090 6e ad 09 3e e2 c4 be 3d a3 5f 0e 3e ce 6d d4 3d
       0.13445064 0.09314896 0.1390367 0.10372506
0000a0 2c 61 bd 3d 33 47 e3 3d 9a 77 cb 3d 19 43 52 3e
       0.0924705 0.110975645 0.099349216 0.20533408
0000b0 7b 2e 24 3e e4 64 16 3e 0a 99 96 3d 1b 23 e1 3d
       0.16033356 0.14686924 0.07353409 0.10993024
0000c0 68 0e e4 3d 53 e7 19 3e 58 d9 e6 3d bc a1 ef 3d
       0.1113556 0.1502965 0.11271924 0.1170077
0000d0 5a f2 16 3e 84 e5 09 3e 68 0b bb 3c c5 2b a5 3d
       0.14740887 0.1346646 0.022832587 0.08064989
0000e0 38 cf 1f 3e 58 58 10 3e d0 18 05 3e 22 b5 fe 3d
       0.15606391 0.140962 0.12997746 0.12436892
0000f0 3b 1e 65 3d 84 9a da 3d 03 45 2e 3e 11 99 fd 3d
       0.055937033 0.10674003 0.17018513 0.12382711

running_mean f4 [64]
000000 b9 dd 98 3f 5d 8e 73 3f 99 33 73 3f 74 d0 1b be
       1.1942664 0.95139104 0.95000607 -0.15216237
000010 2f 98 25 3f 1a c2 f4 bf b4 3b 06 be ac 59 98 be
       0.6468534 -1.9121735 -0.13108712 -0.29755914
000020 1c a9 c8 3f 35 5c 0d bf 87 56 a1 3d 05 1d 9d 3f
       1.5676608 -0.5521882 0.07877832 1.2274481
000030 f4 36 86 3f 38 1b 1f bf 9e 44 8c bf 1a 8e b1 3f
       1.048552 -0.6215091 -1.095844 1.3871491
000040 39 51 81 bf 0a 94 06 3f 42 3f 04 3f aa 38 de bf
       -1.0102912 0.5256964 0.51659024 -1.7361042
000050 22 88 3c 3e d9 e8 a2 3f 8d cd 4b 3f 76 f4 bb bd
       0.18411306 1.272731 0.7961052 -0.091774866
000060 a3 b3 c3 be 8d f0 41 3f 03 82 02 3f 1f af c4 bf
       -0.3822299 0.75757676 0.5097963 -1.5365943
000070 d3 dc 23 3f 51 36 0a bf 4c 5c 27 be 28 7f b5 be
       0.64008826 -0.5398913 -0.16343802 -0.35448575
000080 bc a0 0c bf 76 50 1e be 11 b9 69 3f 59 e5 89 3f
       -0.5493276 -0.15460381 0.91298014 1.0773116
000090 2d f2 fe bf 4d 1b 26 3f 97 ad 30 3f 6d 1c c7 3f
       -1.9917656 0.6488541 0.6901488 1.555555
0000a0 74 d7 89 3f f9 80 c3 3e d9 f0 ad 3e 30 fc be bf
       1.0768876 0.38184336 0.33972815 -1.4920712
0000b0 67 67 c7 bf 18 15 06 be 42 7d 48 3f a4 91 ba be
       -1.5578431 -0.13093984 0.7831613 -0.3643924
0000c0 16 3b 06 bf a0 42 54 bf a2 23 7b be a2 6e b9 be
       -0.5243391 -0.8291416 -0.24525312 -0.3621722
0000d0 24 7b bf 3e 9a cb 96 3f b6 de 20 3e 0f b0 74 3e
       0.37398636 1.1780884 0.15709957 0.23895286
0000e0 5d 4b d3 3d 66 98 8e 3f 91 23 88 bc 83 9f ba bf
       0.10317109 1.1140258 -0.016618522 -1.4579929
0000f0 f1 12 a1 3f f3 01 e4 bd a7 8f 5a bf c1 3c 1f 3f
       1.2583905 -0.11133184 -0.85375446 0.6220208

running_var f4 [64]
000000 8f 47 ed 3f 5c 93 dd 3f 63 0d 90 3f 91 96 b1 3f
       1.8537463 1.7310596 1.1254085 1.3874074
000010 87 8a c0 3f b2 2a f3 3f bf 81 ff 3f b5 4f 9d 3f
       1.5042275 1.8997405 1.996147 1.228995
000020 59 b8 b3 3f 55 a3 b3 3f 7c fb e3 3f 2b 4a c2 3f
       1.4040633 1.403422 1.7811122 1.5178884
000030 93 0f cd 3f 1d b1 9c 3f ab eb b5 3f b4 6a 9e 3f
       1.6020378 1.2241551 1.4212545 1.2376313
000040 ad e8 a8 3f 5f 79 b1 3f 1a 2b c7 3f e0 26 ba 3f
       1.3196007 1.3865165 1.5560029 1.4543114
000050 cc 2d d4 3f f5 92 ae 3f 7b cf af 3f ce 4d 9f 3f
       1.6576476 1.3638598 1.3735193 1.2445619
000060 ae 55 98 3f 3a b5 86 3f e9 d8 d9 3f 86 18 c2 3f
       1.1901147 1.0524056 1.7019321 1.5163734
000070 dc 23 c2 3f 53 54 bf 3f db 60 44 3f e1 cd aa 3f
       1.5167193 1.4947609 0.7671029 1.3344079
000080 75 2d 83 3f 99 c9 a8 3f 01 ab b9 3f 90 75 b2 3f
       1.0248247 1.3186523 1.4505311 1.3942127
000090 31 ad d8 3f 81 c0 ad 3f f2 07 c1 3f 75 d9 ac 3f
       1.6927854 1.3574373 1.508055 1.3503863
0000a0 9d 5a d3 3f f5 a0 e8 3f 70 6f c1 3f b9 3b f8 3f
       1.6512028 1.817412 1.5112133 1.9393226
0000b0 2e 7c e6 3f 60 73 e9 3f e0 c0 d1 3f d8 da b5 3f
       1.8006647 1.8238335 1.6386986 1.4207411
0000c0 7a a1 d0 3f 7f a6 cf 3f 39 c2 da 3f 55 4c cf 3f
       1.6299279 1.6222686 1.7090522 1.619517
0000d0 0f 9e cf 3f fd 38 e5 3f 4f 1d b1 3f be 76 cc 3f
       1.6220111 1.7908016 1.3837069 1.5973737
0000e0 80 c8 b6 3f da 68 bd 3f 90 cb b8 3f 31 8b cb 3f
       1.4279938 1.4797623 1.4437122 1.5901853
0000f0 cd 05 a3 3f 09 fb d4 3f e6 77 d7 3f 8a ba e0 3f
       1.2736145 1.663911 1.6833465 1.7556927

weight f4 [14, 64, 3, 3]
000000 43 28 08 3e 0c 89 a9 3c f8 d4 26 bd 7a e8 8c 3c
       0.13296609 0.020695232 -0.040730447 0.017200697
000010 d8 14 aa bd cd a2 a2 3c 07 81 dd bd b1 4e 5f bd
       -0.08304757 0.01985302 -0.10815626 -0.054518405
000020 a4 2a a1 bd 5b 69 93 3d 0e 9c 8a 3b cb ca ea 3c
       -0.07869461 0.07197829 0.004230029 0.028661152
000030 0c 65 e5 bd f7 a2 14 be 5d ed 93 bd 3e 88 69 be
       -0.11200914 -0.14515291 -0.07223008 -0.22805879
000040 30 4e 8a be 82 d3 aa bd c5 a2 12 3e 68 c4 cf 3d
       -0.27012777 -0.08341123 0.14319904 0.101448834
000050 c6 07 ed 3d 51 00 ac 3d 07 8d b8 3d 0a db de 3b
       0.11573748 0.08398498 0.09011274 0.006801014
000060 23 50 e1 3d b8 37 30 3e 37 bc 92 3d 5a ac 69 3d
       0.11001613 0.17208755 0.071648054 0.057049133
000070 b6 9e 29 3e 83 1d 0f 3e 83 1b df 3d a0 dd ca 3d
       0.1656445 0.13976102 0.10893919 0.09905553
000080 87 c8 45 3d 60 8f 1b 3e 81 ab 8a 3d 11 4b 55 3d
       0.04828694 0.15191412 0.06770993 0.052073542
000090 2f 04 5e bb a9 2f 93 bd 17 b1 c3 bd 7c 5b bc 3d
       -0.0033877005 -0.07186825 -0.095552616 0.09197137
0000a0 59 63 9f bd fd f5 dd bc 68 6f 3a be d4 3f 12 be
       -0.07782621 -0.027094835 -0.1820656 -0.14282161
0000b0 de 63 6c 3c c6 c7 ce bd ff 75 26 bd e8 6a cd bd
       0.014428107 -0.100966975 -0.040639874 -0.100301564
0000c0 b4 28 9c be e6 bc 1d be 94 fd 74 be 71 10 02 be
       -0.30499804 -0.1540409 -0.23924857 -0.12701584
0000d0 fc 34 08 bd 34 c4 b7 bd fb 70 4a be 11 b5 9a bd
       -0.033253655 -0.0897297 -0.19769661 -0.07554067
0000e0 e6 ac a2 bd 14 c3 17 3c bf d3 79 bd 15 fa 49 bc
       -0.07943134 0.009262819 -0.060992952 -0.012327691
0000f0 a8 01 43 be 30 9d e6 bd f9 b0 79 bd 31 d5 e8 3c
       -0.190436 -0.1126045 -0.06095979 0.02842197
000100 01 1c 20 be cb 77 00 be 8b b9 89 bd 19 a7 a0 bd
       -0.15635683 -0.12545697 -0.06724843 -0.07844371
000110 f3 05 1f be 3a e3 37 be fb 3c 0b be 7e fe 07 be
       -0.15529613 -0.17957774 -0.13597481 -0.13280675
000120 9b c7 fe 3d ad ae 2c 3d 35 fd 52 3d a2 1f e7 3d
       0.124404155 0.04215877 0.05151101 0.1128533
000130 d9 b4 88 bb 2a 6b f3 bc b4 a7 a5 3d ce 80 a9 bc
       -0.0041719493 -0.029714186 0.080886275 -0.020691302
000140 d1 33 cd bd d3 93 63 3d 74 81 3b 3d d0 e6 03 3e
       -0.10019649 0.055560898 0.045777753 0.12881017
000150 f9 ed d1 3d 7d 20 00 3d 99 b5 a7 3d 9c 70 f6 3c
       0.10250468 0.031280983 0.08188934 0.030082993
000160 90 29 b3 3d 68 56 1d bd 6c e8 e0 3c ec d0 e5 bd
       0.08748162 -0.03841248 0.027454577 -0.11221489
000170 08 ad 44 3d f4 25 b5 bd 61 d4 da bd af b5 99 bd
       0.048016578 -0.088451296 -0.10685039 -0.075053565
000180 f1 ae 63 be ae ba 10 be 17 59 9d 3d 74 58 3c 3d
       -0.22234704 -0.14133713 0.07683008 0.045982793
000190 1c 53 87 bc ff 10 e9 bd cb b2 e9 3d 23 1c 4f 3d
       -0.016519122 -0.11380195 0.11411055 0.050563943
0001a0 66 b4 90 bd f7 18 3f 3d bd e4 f4 bc b1 56 b9 bd
       -0.07065658 0.046654668 -0.029894227 -0.09049738
0001b0 89 87 cd bd 62 78 02 bd 0f b1 cd bd e0 7a db 3b
       -0.10035617 -0.031853087 -0.10043537 0.0066979975
0001c0 bf 4f e6 bc 25 d5 be bc f4 15 2c bd b9 5b 9d bc
       -0.028114198 -0.023294995 -0.042013124 -0.019208776
0001d0 8c f7 ef 3d f8 4c 9e bd fd 49 30 be 9b 64 6b be
       0.11717138 -0.077295244 -0.17215724 -0.22987597
0001e0 45 15 e6 bd 1f 67 6e bd 28 55 db bd dc 38 19 bd
       -0.112345256 -0.058203813 -0.10709602 -0.03740774
0001f0 16 65 11 be d4 42 24 be 40 e9 2d 3c 38 72 8b bd
       -0.14198717 -0.16041118 0.010614693 -0.06808895
000200 f5 ef 28 bd 7f c6 28 3c c1 4f 1a be 1d 78 aa bd
       -0.041244466 0.010301231 -0.15069486 -0.08323691
000210 cb fb 40 be d9 59 17 be 81 c4 1c be 89 62 87 3d
       -0.18846051 -0.14780368 -0.15309335 0.06610591
000220 8c 2e 82 3b cf 83 47 bd 31 f0 c1 3d 3e ee e2 3d
       0.003972834 -0.048709687 0.09469641 0.11080597
000230 ef 53 84 bd 4a c4 70 3c 3b e8 38 bb bc 6e 81 bd
       -0.064613216 0.014695236 -0.0028214592 -0.06319949
000240 fa ee 84 3d e1 73 2d 3e 59 7d 9b 3b 64 72 96 3d
       0.06490894 0.16938736 0.004745167 0.07346037
000250 01 09 7c 3d 71 44 0c be 48 29 a1 bd ce 4a d0 bd
       0.061532024 -0.13697983 -0.07869202 -0.10170518
000260 cc fb 4d bd 0f 2f a9 3d b4 e2 cb 3c 68 55 43 3e
       -0.05028896 0.08260929 0.024888374 0.19075549
000270 b4 17 7c 3d ac 48 d0 3d 9b 35 2a 3e ad 40 52 3d
       0.061546043 0.10170111 0.16622011 0.05133121
000280 f2 f7 bb 3d 2e 96 07 3e 4e 02 93 3c c5 99 84 3d
       0.09178151 0.13240883 0.017945435 0.06474642
000290 b0 02 9f bd 79 c6 3c 3d 3b b5 4b 3d b0 bf 28 bd
       -0.077641845 0.046087716 0.04973338 -0.041198432
0002a0 f4 1d 0f be 09 64 cb bd e2 de 82 bd 25 3b fc bd
       -0.1397627 -0.099311896 -0.06390168 -0.123159684
0002b0 0d 5f 2b bd d9 ed a3 bd 82 21 e2 bd 23 69 89 3d
       -0.041838694 -0.0800435 -0.11041547 0.06709506
0002c0 17 88 39 bd 16 20 d1 bd 5a 1b dd bc 0d 24 a2 bc
       -0.0452958 -0.10211198 -0.026990581 -0.019792581
0002d0 1b a1 fc 3b c2 47 99 3d f8 2c 9b bd 63 39 8f 3c
       0.007709635 0.0748439 -0.075769365 0.017483419
0002e0 2c ef 76 3d 1c 5f 54 3d 65 15 b5 bd be 82 b2 bd
       0.060286686 0.051848516 -0.08841971 -0.08716343
0002f0 06 a4 6a bd 71 ce 9b 3c 69 ef f0 3c f7 2f 22 be
       -0.05728533 0.019019337 0.029411035 -0.1583861
000300 78 fb 9d bc a4 ec a4 bd 65 94 d5 bd dd c2 0f be
       -0.019284949 -0.08052948 -0.10428695 -0.14039178
000310 bf f7 40 be 1a 04 55 bd a6 7f 37 3e f8 f4 c3 bc
       -0.18844508 -0.052005865 0.17919788 -0.023920521
000320 27 5b 8c 3d 37 cc 84 bd 56 d3 14 3d f5 02 c0 3c
       0.068533234 -0.064842634 0.03633436 0.02343891
000330 10 43 cf bd 40 b1 07 be 13 36 f2 3c 1e f8 fa 3d
       -0.10120213 -0.1325121 0.0295668 0.12254356
000340 99 81 3e 3d fd 97 5c 3d e9 8f 04 3d c0 70 35 3d
       0.046510313 0.053855885 0.032363806 0.04429698
000350 4e f7 b2 bd 0e 53 03 bd e0 83 79 bd 23 e9 93 bd
       -0.08738576 -0.03206163 -0.06091678 -0.07222202
000360 2e 4e 7c 3d 81 1a 03 bd e1 2b f6 3d a1 89 8a 3d
       0.061597995 -0.032007698 0.12020088 0.06764532
000370 51 ec e3 3b cf 91 73 bd 15 0c 09 3c 32 22 ab bd
       0.0069556613 -0.059465226 0.008364697 -0.083561316
000380 f9 4e a2 bc 16 84 6f 3d 20 c9 13 3d 33 74 b2 3d
       -0.019813048 0.058475576 0.03608048 0.087135695
000390 ca b4 eb 3d e2 26 d9 3c e2 13 2b 3c bf fa c9 3d
       0.11509092 0.026507799 0.010441752 0.09862279
0003a0 50 7f cb 3d 8a 18 8c 3c 9d 8c b3 bd 8d 74 ff bc
       0.09936392 0.017101545 -0.08767054 -0.031183505
0003b0 5d 03 6a be ec fa 48 bd bf ff 0e be a2 8d 00 be
       -0.22852845 -0.049067423 -0.13964747 -0.12554029
0003c0 dc b6 26 be 6a 3c 37 be 8d 1a 8a bd 0f b7 25 be
       -0.16280693 -0.1789414 -0.067433454 -0.16183113
0003d0 41 c1 16 bd 42 2f 68 be fc e8 0b be 7d c4 ef bc
       -0.036805395 -0.22674277 -0.13663095 -0.029268498
0003e0 a9 c1 bd bd d4 d7 f3 bc 87 be 29 bd cc a5 e6 bd
       -0.09265453 -0.029766 -0.041441467 -0.11262092
0003f0 34 1f 88 3c 75 91 0a bd e4 7e 5f bd e7 05 6d 3c
       0.016616441 -0.033830125 -0.05456437 0.014466739

bias f4 [14]
000000 cf 6f 65 3c 1b dd c0 3d 8d 9f 1c bd 41 f7 c7 bd
       0.014003708 0.094171725 -0.038238097 -0.09763957
000010 63 b6 19 bd 83 0a 9f bd 71 dd 4b bd 9d ad 2d 3c
       -0.037527453 -0.07765677 -0.04977173 0.010600475
000020 b0 89 3f bd a0 8b 0b bd 81 40 fa bc b8 59 68 bd
       -0.04676217 -0.034068704 -0.030548336 -0.056726187
000030 54 39 a9 bd 52 3b a7 bc
       -0.082628876 -0.020414028

weight f4 [64, 14, 3, 3]
000000 26 ae 8c 3c 7b 63 42 bd c7 c4 1b 3d 4a 2d 34 bd
       0.017172884 -0.047458153 0.03802946 -0.043988504
000010 54 66 9f bc d4 c4 09 3d 86 98 b4 bd bc 50 34 3c
       -0.019457974 0.033634976 -0.08818154 0.011005577
000020 0f e4 7f 3c 91 73 66 3c 7c 89 b6 3c 8b fa 3b bc
       0.015618338 0.014065639 0.022282355 -0.011473308
000030 39 8c 83 bc be 5e bc bc 5a 0c 8f 3b 03 c4 61 3b
       -0.016058074 -0.022994395 0.004365486 0.0034449107
000040 cd ab 06 bd ff 49 f4 3a 83 0a 86 bc 59 bc cd ba
       -0.032878686 0.0018637775 -0.016362434 -0.0015696391
000050 09 9c 3c 3c 2d 93 f3 bc c3 0c 38 bd 7a 13 0e 3d
       0.011511811 -0.029733265 -0.044934046 0.034686543
000060 52 40 f5 3c 16 80 bd bc ab b6 f7 bc 9a 00 9a bd
       0.029937897 -0.023132365 -0.03023847 -0.07519646
000070 b3 5d eb bb f3 86 0a bd 8f 47 83 bd 67 5e b7 bc
       -0.0071828007 -0.033820104 -0.06410133 -0.022383882
000080 b2 14 bc bc 59 16 03 be 8d 0e a6 bd 46 6e 87 bd
       -0.022959087 -0.12801494 -0.08108244 -0.0661283
000090 56 d9 b8 bd a6 ea 43 bd d5 15 03 bd 3b 5c 5c bd
       -0.090258285 -0.0478312 -0.032003243 -0.053798895
0000a0 32 88 51 bd 83 7e e2 3c 4b 79 88 3d 95 56 90 3d
       -0.051155277 0.027648216 0.0666376 0.07047764
0000b0 75 a5 db 3c 36 77 5b 3d 95 4a 6e 3c a4 55 47 3d
       0.026812294 0.053580485 0.014544149 0.048665658
0000c0 27 11 d3 3d 2f 82 ca 3d c3 5c f2 3c 07 d0 08 be
       0.10306006 0.09888112 0.029585248 -0.13360606
0000d0 8f b8 76 bd b4 5e 8d bd 7d 68 d5 ba 54 55 4a 3d
       -0.060234603 -0.06902829 -0.001628175 0.04939778
0000e0 bd 55 93 3c de 27 49 3d c9 b7 14 3d ee 42 7a bd
       0.01798522 0.049110286 0.036308084 -0.061098985
0000f0 10 55 1b bd 9d db 5d bd 08 08 8e 3c 5f f3 7a 3d
       -0.03792292 -0.054164518 0.017337814 0.061267253
000100 a7 0f 31 bc 09 6d 62 3b 47 0f 06 bd f8 87 d9 3c
       -0.0108069545 0.0034549853 -0.032729413 0.026554093
000110 3f 97 5e 3b da c2 e5 bd 70 a4 33 3d e8 3b 12 be
       0.0033964661 -0.112188056 0.04385799 -0.14280665
000120 ae a2 df 3c 0b 25 52 3c 93 91 ff bc 0a 3a e1 3b
       0.027299251 0.012826215 -0.031197345 0.006873374
000130 ae c6 9c 3c b9 e0 30 3b 25 c9 e1 3c 28 c4 a1 3c
       0.019137707 0.0026989414 0.027561733 0.019746855
000140 53 e8 3b 3d 6d 98 f4 3c a6 c5 b7 bd fd 97 09 3d
       0.04587586 0.029857839 -0.08973245 0.033592213
000150 c1 ef 6b 3b 5e 93 23 bd 19 e9 01 3c cb 3f 53 bb
       0.0036001059 -0.039935462 0.00792911 -0.0032234068
000160 3d ac 2c bd da c1 90 bc ba 25 47 bd 00 32 fd bb
       -0.042156447 -0.01767056 -0.048619963 -0.0077269077
000170 73 1e 8f 3d 26 fb 58 3d 1e 21 36 bd dd ab 11 bd
       0.069882296 0.05297389 -0.044465177 -0.035564292
000180 8e d3 87 3b 90 eb ac bc 24 b0 d3 bb 07 4b 51 3c
       0.0041450923 -0.021108419 -0.0064602066 0.012774236
000190 04 9e 4a 3d bd 22 56 bb 33 2f 71 3c 9d 77 36 3d
       0.0494671 -0.0032674514 0.014720726 0.044547666
0001a0 f9 78 d6 3c 6c 78 4a bd cb 76 fd 3b 4a 6e ae 3c
       0.026180731 -0.04943125 0.0077351085 0.021292824
0001b0 57 31 ad 3d d9 77 8e 3d 9e 23 c6 bd c6 b1 18 3d
       0.084566765 0.06956453 -0.09674762 0.037278913
0001c0 b3 84 26 3e 16 f7 69 bd f9 18 25 bd 66 dc d8 bd
       0.16261558 -0.057120405 -0.04030702 -0.10588913
0001d0 8d 61 db bd 87 a5 40 3d 95 88 91 3d 81 2d a9 3c
       -0.10711966 0.04703286 0.07106129 0.02065158
0001e0 ef 2a 44 bd c5 71 5e bc 55 a5 28 3b dd 48 87 bd
       -0.047892507 -0.013576929 0.0025733311 -0.066056944
0001f0 b1 27 a6 bc 3d 42 f1 bc 93 6f 32 3d c7 b7 42 bd
       -0.020282598 -0.02945053 0.043563437 -0.047538545
000200 16 e3 22 bd 26 e8 b0 3d b6 06 5e bd ae cb 84 3b
       -0.039767347 0.08638029 -0.05420562 0.004052601
000210 52 a0 c8 3d 64 f8 b0 bd d4 82 4c 3d eb a8 34 3c
       0.09796204 -0.08641127 0.049929455 0.011026601
000220 0f 3c ec 3c c5 c8 37 bd ec 6c 12 bb 79 41 df 3c
       0.028837232 -0.044869203 -0.0022342755 0.0272529
000230 3e 6c f4 3a 86 60 97 ba 41 31 29 3c fc 25 7c bc
       0.0018647981 -0.0011549152 0.010326684 -0.015389916
000240 59 94 3f bd 7e 27 0a bc aa 6a 6f bc 5f 69 31 ba
       -0.046772335 -0.008432267 -0.014612833 -0.00067677157
000250 44 e0 a8 bb 34 00 01 bd 94 ec 9c bc 3f 6f 37 3c
       -0.0051536877 -0.031494334 -0.019155778 0.011195957
000260 20 89 d7 bc 3a 9e 4d 3d cf bd 4b 3d ab 02 ae ba
       -0.026310503 0.050199725 0.049741562 -0.0013275942
000270 fd d8 78 3d c7 ce 0c 3c 23 58 b2 bd e4 33 9c 3d
       0.06075381 0.008594221 -0.08708217 0.07627085
000280 0c 4f 84 3c f7 66 a4 bc dc 26 bb bc b6 c6 0d 3b
       0.016150974 -0.020068629 -0.022845678 0.0021633334
000290 71 91 bb bc b1 e0 80 bc 03 f2 bf bc e1 af 79 bb
       -0.0228965 -0.015732141 -0.02343083 -0.0038099217
0002a0 9a 14 8b bd 82 2d 8c bd 1c 69 2d bd d6 c4 f7 3b
       -0.06791039 -0.068446174 -0.04233657 0.0075613065
0002b0 b9 6c f6 bb 0b 48 06 3d 77 35 db bc a9 92 21 3c
       -0.007520285 0.03278355 -0.026758892 0.009861627
0002c0 84 2a 92 bd 7b 4e 96 3b 58 83 d1 3d 36 42 44 3b
       -0.071370155 0.0045869923 0.1023013 0.0029946691
0002d0 d8 84 64 bd c5 cd 72 bd 99 e2 00 bc de 9b 51 bd
       -0.055790752 -0.05927827 -0.007866525 -0.051174037
0002e0 9f 19 87 3a c0 59 80 3d d4 63 c2 bc 08 71 fe ba
       0.0010307318 0.062671185 -0.023729242 -0.0019412348
0002f0 19 f7 60 3c c8 31 c1 bc e6 69 08 3e b8 15 de 3d
       0.013730788 -0.023583308 0.13321647 0.10843986
000300 4a 5f 3f 3c 69 87 14 3c 4a 46 fe bb 1b 67 53 bd
       0.0116804335 0.009065487 -0.007759844 -0.051612
000310 c4 46 d1 bd 7b 1b 4a bd 2e 61 ec bb ee ee 9b bc
       -0.102185756 -0.049342614 -0.007213733 -0.019034829
000320 b6 e7 ac 3c 5c 31 27 bd f3 5f fd bc 11 91 d0 bc
       0.021106582 -0.040818557 -0.030929541 -0.025459798
000330 87 39 be bc 07 15 06 3d 1d b6 13 3a 4d 39 80 bc
       -0.02322079 0.032734897 0.0005634742 -0.015652323
000340 7c 43 18 bc e7 04 e6 3c 66 50 1f 3c 84 43 8b 3c
       -0.009293433 0.02807851 0.009723758 0.016999967
000350 fd 81 45 bd 5f de 9c bd 9b 36 87 bb f2 19 11 bb
       -0.04821967 -0.076596014 -0.0041263825 -0.0022140709
000360 de 44 81 bd 6a 94 60 3d 1d b1 0e 3e ad d9 12 3d
       -0.063119635 0.05482904 0.13934751 0.035852123
000370 07 d7 65 bc 3a b8 0f 3e 70 ff d6 3c f9 65 5a bd
       -0.014028317 0.1403512 0.026244849 -0.053319905
000380 4b 66 07 bc e3 46 71 3d 23 a4 57 bd 09 eb 81 3c
       -0.008264135 0.058905493 -0.052646767 0.015859144
000390 d8 f3 89 bc 3d 12 13 3c ba b4 0f 3e 47 4b 58 3d
       -0.016839907 0.008976516 0.14033785 0.052806165
0003a0 5d 65 3f 3b fa eb 69 3d 15 33 0d 3c 33 0e 15 be
       0.0029204704 0.05710981 0.008618136 -0.14556198
0003b0 0c 20 84 bc 1d 2c 44 3c a1 aa 45 3c e1 39 96 bd
       -0.016128562 0.011973408 0.012064607 -0.07335258
0003c0 7e 41 68 3b 22 4b 9e bb 44 26 ca bc 98 59 48 3d
       0.0035439427 -0.004830734 -0.02467645 0.04891357
0003d0 1f 68 55 3d 4b dc b4 3d 72 5f 59 3a 75 b8 59 3d
       0.05210125 0.0883108 0.00082921155 0.053154428
0003e0 5f 3c a7 3d 43 cb b8 3c b1 5f d7 ba ff 49 e3 3c
       0.08165812 0.02255786 -0.0016431717 0.027745245
0003f0 f2 70 37 3c 74 fa a4 3d e2 30 75 3d c5 fa e7 bd
       0.011196362 0.08055583 0.05986107 -0.11327127

bias f4 [64]
000000 c0 7a a8 bb 79 ab 31 bd cd 8f 07 3e 0b 46 bf 3b
       -0.005141586 -0.04337642 0.1323845 0.005837207
000010 8e 7c e2 3d eb 49 a3 bd 47 bb 68 3c ce d7 f3 bd
       0.11058913 -0.07973083 0.014204807 -0.11906396
000020 f5 14 0e bc 0a 88 6c bc 21 9f 17 3d 33 32 ab bd
       -0.008671989 -0.014436731 0.03701699 -0.08359184
000030 a0 dd b0 3d 7c b1 61 3d e0 d1 64 bc d5 f7 67 3d
       0.086360216 0.055100903 -0.013966054 0.056632835
000040 16 0b 70 bd e9 6b 07 bb b3 47 92 bc 87 f7 54 3d
       -0.058604322 -0.0020663685 -0.017856454 0.051993873
000050 92 18 bd 3d c4 43 9f bb e8 8a 3a bd ce 78 21 bd
       0.09233202 -0.004860373 -0.045542628 -0.03942185
000060 da f7 59 bd 6a eb 39 3c 35 69 6d 3a 9f 7f d1 3d
       -0.053214885 0.011347631 0.00090565096 0.1022942
000070 31 31 4d bd 42 d1 29 3d 10 e8 0e bd 42 0c 61 bd
       -0.05009574 0.04145933 -0.03488928 -0.05494333
000080 08 7b 08 3b ce 47 4f 3c 47 96 1e be c5 02 0e bd
       0.0020825285 0.012651397 -0.15487014 -0.03467061
000090 05 cd 8c bd ed 61 fa bd 2c 59 8d bc 4f 6d 4a bd
       -0.06875042 -0.12225709 -0.017254435 -0.04942065
0000a0 72 a9 e7 bd af 60 1b 3d e9 e4 d0 3b ae 55 fd bd
       -0.11311616 0.037934 0.0063749445 -0.12369858
0000b0 d1 27 5a 3d 71 e4 d3 3d a9 da 23 bd 26 33 9c 3b
       0.053260628 0.10346306 -0.040003452 0.0047668396
0000c0 0e cf ca bd 58 5b dc 3c a1 2e 57 3d 48 72 b0 3b
       -0.09902774 0.026899025 0.052534703 0.005384717
0000d0 95 4c ab 3c 56 e3 16 3d 72 6a 5e 3d cd 8f 3d 3d
       0.02091054 0.0368379 0.054300733 0.046279717
0000e0 b9 4d 1d be b6 06 1c bd ed 07 1a 3e 11 18 bd 3c
       -0.1536168 -0.038092338 0.15042086 0.023082765
0000f0 c3 a2 a8 3d 45 f8 59 bd 10 d4 d8 3c ab 0a ab 3d
       0.08234169 -0.053215284 0.026468307 0.08351644

weight f4 [64]
000000 40 58 65 3f 99 88 67 3f 89 b1 6b 3f 9d 30 76 3f
       0.89587784 0.90442806 0.9206777 0.9616793
000010 33 21 7a 3f e5 ac 75 3f 08 62 6e 3f b6 9a 6a 3f
       0.9770691 0.9596694 0.93118334 0.9164232
000020 33 d8 7e 3f 02 63 86 3f eb d3 7b 3f e7 ea 6e 3f
       0.99548644 1.0498965 0.98370236 0.9332718
000030 94 9b 72 3f 39 d8 71 3f 85 12 76 3f 6a ae 7c 3f
       0.94768643 0.94470555 0.9612201 0.98703635
000040 b2 e1 85 3f 47 ef 58 3f c0 bc 70 3f e2 a1 70 3f
       1.0459502 0.8474011 0.9403801 0.93997014
000050 ee 12 6f 3f 32 ce 75 3f 66 2e 6f 3f a8 b1 83 3f
       0.9338826 0.96017754 0.93430173 1.0288591
000060 b2 78 6f 3f c4 fa 71 3f 05 fa 75 3f e8 7a 65 3f
       0.9354354 0.9452326 0.96084625 0.89640665
000070 61 aa 6b 3f 8c 5d 74 3f f2 a3 6b 3f fc 5d 6e 3f
       0.9205685 0.9545524 0.92047036 0.9311216
000080 4c c6 82 3f 84 b3 76 3f 3e eb 82 3f 8e 92 7d 3f
       1.0216765 0.9636767 1.022804 0.9905175
000090 9d bb 86 3f 4c ad 72 3f f1 83 7e 3f f3 ff 8a 3f
       1.0526005 0.9479568 0.99420077 1.085936
0000a0 f5 40 78 3f 5b c7 6f 3f 7b 4c 78 3f cd a8 78 3f
       0.96974117 0.9366357 0.969917 0.9713257
0000b0 89 98 7a 3f 08 a6 8a 3f 1c 9d 62 3f bb 55 78 3f
       0.97889 1.0831919 0.8852098 0.97005814
0000c0 f7 3f 77 3f c6 93 79 3f 80 89 6b 3f 7a 42 79 3f
       0.9658198 0.9749111 0.92006683 0.9736706
0000d0 60 f9 67 3f 96 4b 6d 3f 7d eb 70 3f f5 e8 50 3f
       0.9061489 0.9269346 0.94109327 0.81605464
0000e0 a8 95 6b 3f 34 8d 77 3f c4 5e 80 3f a9 ff 6a 3f
       0.9202523 0.96699834 1.002892 0.91796356
0000f0 65 0e 79 3f f8 da 8a 3f 6e 7d 65 3f f9 af 7c 3f
       0.9728759 1.0848074 0.89644516 0.9870601
