carl/envs/mario/pcg_smb_env/toadgan/generators/v1/TOAD_GAN_1-1/generators.pth (torch_old, 855081 bytes, 56 tensors)

weight f4 [64, 12, 3, 3]
0	0x3c5a4078	0.013321035
1	0x3d033d8f	0.03204113
2	0x3d70463b	0.058660727
3	0x3d405a74	0.046961263
4	0xbcf8571a	-0.03031497
5	0xbcf0f2f5	-0.029412726
6	0xbd8d2f94	-0.068938404
7	0xbdaa7231	-0.083225615
8	0xbd9853c4	-0.07437852
9	0xbccc3134	-0.024925806
10	0xbdb52695	-0.088452496
11	0xbd29333d	-0.04130863
12	0xbd5b9c5c	-0.053615913
13	0xbb12e4de	-0.0022414248
14	0xbdf5208c	-0.119690984
15	0xbd9de59a	-0.07709809
16	0xbda878fd	-0.08226202
17	0xbd520605	-0.051275272
18	0xbcd61e21	-0.026137413
19	0x3c4dda50	0.012564257
20	0x3d65100f	0.055923518
21	0x3e089e12	0.13341549
22	0xbc688e92	-0.014194148
23	0xbbb0a075	-0.0053902217
24	0x3ceca545	0.0288874
25	0x3d1ee45e	0.038792007
26	0x3d558ea6	0.052137993
27	0x3d4fbc77	0.050716843
28	0x3d2ad058	0.0417026
29	0x3ce7aab3	0.028279638
30	0xbb8c328e	-0.0042784875
31	0xbcc20d2b	-0.02368792
32	0x3daccc46	0.084373996
33	0x3c24807a	0.010040397
34	0xbc3d7b40	-0.01156503
35	0x3d147c04	0.036251083
36	0xbd82c046	-0.063843295
37	0x3d22b429	0.039722595
38	0x3ceb733a	0.028741468
39	0x3d793b93	0.06084783
40	0x3da5a603	0.08088305
41	0x3b547475	0.0032418047
42	0xbd9aa576	-0.075510904
43	0xb9a53292	-0.0003150893
44	0xbd532a71	-0.051554147
45	0xbcbbb8ce	-0.02291527
46	0x3d10de88	0.035368472
47	0xbc8d2c23	-0.01723296
48	0x3d586342	0.052829035
49	0x3ceb960b	0.02875807
50	0xbd82ff32	-0.06396331
51	0xbc2e71e8	-0.010647275
52	0xbd4d1f9c	-0.050078973
53	0xbd81229f	-0.063054316
54	0xbc6a62fe	-0.014305828
55	0xbcecfcdf	-0.028929172
56	0x3dad51d4	0.08462873
57	0x3d076029	0.03305069
58	0x3ba9ce00	0.005182028
59	0x3c3ed452	0.011647301
60	0x3d30f7fe	0.043205254
61	0x3b367297	0.0027839297
62	0x3d2c22ba	0.042025305
63	0xbce95465	-0.028482625
64	0xbce1a4dd	-0.027544433
65	0x3d8b50a9	0.06802494
66	0xbda4cc60	-0.08046794
67	0xbc71c0c7	-0.014755434
68	0xbca3af56	-0.019981068
69	0x3dc3ea29	0.09566147
70	0xbc56ccb9	-0.013110333
71	0x3a935807	0.0011241444
72	0x3d8f35d2	0.06992687
73	0xbc3cdc17	-0.011527083
74	0x3c80690c	0.01567509
75	0x3ca05c3e	0.019575235
76	0x3bd2b8d5	0.006430725
77	0xbc2f1878	-0.010686986
78	0x3d2ae7e6	0.04172506
79	0x3d05be3e	0.032652132
80	0x3d6bbfda	0.05755601
81	0xbd14d622	-0.036337025
82	0x3c87a9e6	0.016560506
83	0x3a8e4679	0.0010854743
84	0x3dafcc62	0.08583905
85	0x3d3952fd	0.04524516
86	0x3dabe9c7	0.08394199
87	0x3cb67205	0.022271166
88	0x3d0ff50a	0.035145797
89	0x3db4a67f	0.08820819
90	0x3d3d60ab	0.046234768
91	0xbda2613f	-0.079287045
92	0xbd68bff3	-0.056823682
93	0xbcae2923	-0.02125985
94	0x3ad9d915	0.0016620482
95	0xbd2dfe8d	-0.042479087
96	0xbdee26b5	-0.116284765
97	0xbde54b65	-0.11196021
98	0xbdff9d9f	-0.12481236
99	0x3d55ffe8	0.052246004
100	0x3ccecc9f	0.025244055
101	0x3c906456	0.017625969
102	0x3c2e1790	0.010625735
103	0xbd9ee3c4	-0.077582866
104	0x3d708e2c	0.058729336
105	0xbc5bd81e	-0.013418226
106	0x3d51d78d	0.051230956
107	0xbc7ae93a	-0.015314395
108	0x3b8e16df	0.0043362225
109	0xbbfa094b	-0.0076305023
110	0x3bcb2941	0.006199986
111	0x3ba630de	0.0050717434
112	0xbb567339	-0.0032722487
113	0xbbe71578	-0.00705212
114	0x3d850370	0.06494796
115	0xbe1634d7	-0.14668594
116	0xbdbed2fd	-0.093175866
117	0xbc33e851	-0.0109806815
118	0x3c05e83d	0.008173046
119	0xbc90eaa9	-0.01769002
120	0xbc2f2208	-0.010689266
121	0x3cba8de9	0.022772746
122	0xbc05875a	-0.008149946
123	0x3e06f924	0.13180977
124	0xbe05be66	-0.13060912
125	0x3ce2e293	0.02769593
126	0x3bc97370	0.0061477944
127	0xbc1cd5e6	-0.009572482
128	0x3b2f0265	0.0026704308
129	0x3cdb8f3a	0.026801694
130	0xbd123f12	-0.03570468
131	0xbd050404	-0.032474533
132	0x3d952e31	0.07284201
133	0x3d8a7cf7	0.067621164
134	0x3d510358	0.05102858
135	0x3cbc7c82	0.023008589
136	0x3c1660bc	0.009178337
137	0xbc96802b	-0.018371662
138	0x3c821c7d	0.015882725
139	0xbbcc2776	-0.00623029
140	0xbcc49813	-0.023998296
141	0x3d8c2a81	0.068440445
142	0xbdc3dbf5	-0.09563438
143	0xbcbe6a4a	-0.023244042
144	0xbc05c8bd	-0.0081655355
145	0x3c14f34e	0.0090912115
146	0x3c1fdf37	0.009757808
147	0x3d8637bf	0.065536015
148	0x3b1cb7b5	0.002391321
149	0xbc4c1fe3	-0.012458774
150	0xbe9cf05d	-0.30652133
151	0x3d5654ef	0.052327093
152	0xbd3dbeb7	-0.046324458
153	0xbc93efc3	-0.018058663
154	0xbc9d9f99	-0.019241141
155	0x3bf9548a	0.007608955
156	0xba45ab1b	-0.00075404503
157	0xbca7956c	-0.020456992
158	0xbb9a66a2	-0.004711942
159	0xbda4a910	-0.080400586
160	0xbd389374	-0.045062497
161	0xbddfe9dc	-0.10933277
162	0xbd082f05	-0.033247966
163	0x3b941a2a	0.0045197206
164	0x3c0f808f	0.008758678
165	0xbb4cab78	-0.0031230133
166	0xbb8fac5a	-0.0043845596
167	0xbcfc4f7a	-0.030799616
168	0x3d9cfbab	0.07665189
169	0xbb921bf7	-0.0044589
170	0x3ce571de	0.028008398
171	0xbba760cf	-0.005107976
172	0xbc208c00	-0.009799004
173	0x3b150c46	0.0022742911
174	0xbcc4200f	-0.023941068
175	0xbc424193	-0.011856454
176	0x3a2d3bc0	0.000660833
177	0x3ce1c192	0.027558122
178	0x3c408a30	0.0117516965
179	0xbb86dee7	-0.0041159275
180	0x3c010d9d	0.007876781
181	0x3c2e03a8	0.010620989
182	0xbbd2bd20	-0.006431237
183	0xbc673d2d	-0.014113707
184	0xbd15887c	-0.036507115
185	0xba1289dc	-0.00055900007
186	0x3df9525a	0.121739104
187	0xbdb8a53b	-0.0901589
188	0x3dae55a5	0.08512429
189	0x3c0ff196	0.008785626
190	0x3bb1df37	0.0054282206
191	0x3c67b9a9	0.014143386
192	0x3d29e7ad	0.04148071
193	0x3c7ec6ca	0.015550325
194	0x3c25a6f3	0.010110605
195	0x3da458f6	0.080247805
196	0x3d63e1cb	0.055635255
197	0xbca26401	-0.019823076
198	0x3c4c97cc	0.012487363
199	0x3c969000	0.018379211
200	0xbcf50672	-0.0299103
201	0xbb532cd1	-0.0032222758
202	0xbc570cd0	-0.013125613
203	0xbcc56061	-0.024093809
204	0xbe1a04ed	-0.15040942
205	0x3d8f0079	0.06982512
206	0x3c45091d	0.012026099
207	0xbbe238d4	-0.006903747
208	0x39c673a4	0.00037851662
209	0xbcb42b52	-0.021993313
210	0xbbd5278b	-0.006504958
211	0xbc52dc61	-0.012869925
212	0xbc39e776	-0.0113466885
213	0xbc915cfe	-0.017744537
214	0xbcfbb3ab	-0.03072532
215	0x3c87d716	0.016582053
216	0xbd56b562	-0.052419074
217	0x3d88e92d	0.066851
218	0xbcaa7814	-0.02080921
219	0x3d6c6a3d	0.057718504
220	0xbd701e11	-0.058622424
221	0xbd0c0a2e	-0.034189396
222	0xbd54cc1c	-0.051952466
223	0x3ca4b24e	0.020104554
224	0xbd0dc319	-0.034609888
225	0x3c861a82	0.016370062
226	0xbd3c63e1	-0.04599369
227	0x3cb3b810	0.021938354
228	0xbbeebc4c	-0.0072856303
229	0x3cfa5870	0.030559748
230	0xbc635d9d	-0.0138773
231	0xbdd35a60	-0.10319972
232	0xbcd7ac08	-0.026327148
233	0xbd7f1b77	-0.062282052
234	0x3c685e59	0.0141826505
235	0xbd0b95cf	-0.034078415
236	0x3d0ea169	0.0348219
237	0x3d806136	0.062685415
238	0xbca4a41f	-0.02009779
239	0x3a353866	0.0006913006
240	0x3c8776a2	0.01653606
241	0xbd77e563	-0.060521495
242	0x3d022816	0.03177651
243	0x3ba7f704	0.005125882
244	0x3d137f1e	0.0360099
245	0x3ceca7ea	0.028888661
246	0x3c3c9343	0.011509719
247	0x3c95d342	0.018289212
248	0xbcd23b5f	-0.025663076
249	0xbc9dc27c	-0.019257776
250	0x3c4e37b7	0.012586526
251	0xbd39c224	-0.045351163
252	0x3bdc905b	0.0067310757
253	0x3c368c11	0.011141793
254	0x3d08f3f2	0.03343577
255	0x3cb99a81	0.022656681

bias f4 [64]
0	0x3c97584b	0.018474719
1	0xba43a439	-0.0007463131
2	0x3d74b979	0.059747193
3	0xbcda67d6	-0.026660841
4	0xbda8559b	-0.08219453
5	0xbd4a4594	-0.04938276
6	0x395e62e9	0.00021208417
7	0x3dabf376	0.08396046
8	0xbc834418	-0.01602368
9	0x3d4e812c	0.050416157
10	0xbdd250ea	-0.102693394
11	0x3c0488b1	0.00808923
12	0x3d97e5a0	0.07416844
13	0xbdaf08e6	-0.08546619
14	0xbc11d736	-0.008901408
15	0xbd83763d	-0.064190365
16	0x3c74d07b	0.014942284
17	0x3d96aecc	0.073575586
18	0x3c9ed164	0.019386955
19	0xbc8b18c6	-0.016979586
20	0xbce6e8c4	-0.028187163
21	0xbbcf6621	-0.0063293134
22	0x3ccfae93	0.025351798
23	0xbd7acaae	-0.061228447
24	0x3dc1b1c6	0.09457736
25	0x3c26d771	0.010183201
26	0x3c000bc4	0.007815305
27	0x3c5e480e	0.013566984
28	0x3db4cfd9	0.08828706
29	0xbddab25c	-0.106785506
30	0xbd93518a	-0.07193287
31	0x3bcc0260	0.006225869
32	0x3db884a4	0.09009674
33	0xbd21ac93	-0.03947122
34	0x3d22658c	0.039647624
35	0xbdd13cf8	-0.10216707
36	0xbcb05888	-0.02152659
37	0xbcc6466c	-0.024203502
38	0x3d8d3d94	0.06896511
39	0xbdf6fae8	-0.12059575
40	0xbcdb4dba	-0.026770461
41	0x3db8e467	0.09027939
42	0x3c7a2540	0.01526767
43	0x3e08ea69	0.1337067
44	0x3d9f664a	0.07783182
45	0x3b03c83b	0.002010836
46	0x3da20d60	0.07912707
47	0x3d631d49	0.05544785
48	0x3d4a4a6d	0.049387384
49	0xbaf93472	-0.0019012822
50	0x3c536d06	0.012904411
51	0xbcad6446	-0.021165978
52	0xbd746afc	-0.05967234
53	0xbd1c0275	-0.03808828
54	0xbd712c5d	-0.0588802
55	0xbd20907a	-0.039200284
56	0x3d4d41d2	0.0501116
57	0xbd210088	-0.039307147
58	0x3d6561ac	0.05600135
59	0xbd209aee	-0.039210252
60	0x3d93ad62	0.072108045
61	0x3b2c81e0	0.0026322529
62	0x3d01778f	0.03160816
63	0xbdc65e93	-0.09686007

weight f4 [64]
0	0x3f889b7b	1.0672449
1	0x3f885ee7	1.0653962
2	0x3f5e18e9	0.8675676
3	0x3f62b986	0.88564336
4	0x3f7e08cb	0.99232167
5	0x3f74d7b2	0.95641625
6	0x3f724e51	0.9465075
7	0x3f731a62	0.9496213
8	0x3f864f75	1.0492998
9	0x3f9389f3	1.1526474
10	0x3f791c8b	0.9730918
11	0x3f727524	0.9470999
12	0x3f5cd6ec	0.86265445
13	0x3f84f111	1.0386068
14	0x3f785e0e	0.97018516
15	0x3f879be6	1.0594451
16	0x3f704b02	0.9386445
17	0x3f80a3c6	1.004998
18	0x3f61fa09	0.8827215
19	0x3f7d07e0	0.9884014
20	0x3f6ff500	0.93733215
21	0x3f681fd0	0.9067354
22	0x3f7e1c4f	0.99261945
23	0x3f7af3a4	0.98028016
24	0x3f884b1d	1.0647923
25	0x3f7eb7b4	0.9949906
26	0x3f89cac3	1.0765003
27	0x3f6f753f	0.9353828
28	0x3f80c8a4	1.0061231
29	0x3f841f39	1.0322028
30	0x3f78ad57	0.97139496
31	0x3f80bcbe	1.00576
32	0x3f6271df	0.88455003
33	0x3f7c8a5e	0.9864863
34	0x3f781049	0.9689985
35	0x3f85a251	1.044016
36	0x3f758e74	0.9592049
37	0x3f6f88f6	0.9356836
38	0x3f700375	0.93755275
39	0x3f69dff8	0.91357374
40	0x3f8d01e7	1.1016206
41	0x3f8c6ca6	1.0970657
42	0x3f7fce2c	0.9992397
43	0x3f87b512	1.0602133
44	0x3f82e649	1.0226527
45	0x3f87c25d	1.060619
46	0x3f87dc06	1.0614021
47	0x3f7e5269	0.993445
48	0x3f69876f	0.9122228
49	0x3f6db34b	0.92851704
50	0x3f70b98b	0.94033116
51	0x3f7b66b1	0.9820357
52	0x3f80ecdb	1.0072283
53	0x3f88dd4f	1.0692538
54	0x3f79f7b7	0.9764361
55	0x3f75cc8a	0.96015227
56	0x3f68f130	0.9099302
57	0x3f83642f	1.0264949
58	0x3f7e996f	0.9945287
59	0x3f654258	0.8955436
60	0x3f83e425	1.0303999
61	0x3f73ad9b	0.95186776
62	0x3f7545ae	0.9580945
63	0x3f6d0a98	0.9259429

bias f4 [64]
0	0xbe22125b	-0.15827315
1	0xbe75f5d3	-0.24019556
2	0xbe6db78f	-0.23214553
3	0xbe8849a9	-0.26618698
4	0xbdf376ca	-0.118878916
5	0xbe3c42aa	-0.18384805
6	0xbe391cda	-0.18077412
7	0xbe5dee86	-0.2167302
8	0xbe749c9e	-0.2388787
9	0xbe72c6a2	-0.23708585
10	0xbe2158e4	-0.15756565
11	0xbe387de5	-0.18016775
12	0xbe515866	-0.20443878
13	0xbdaf5948	-0.08561951
14	0xbe09c2a6	-0.13453159
15	0xbe6852ff	-0.2268791
16	0xbe488a93	-0.19584112
17	0xbe5077b6	-0.20358166
18	0xbe912630	-0.28349447
19	0xbe0e6196	-0.13904414
20	0xbdd77cc5	-0.10521845
21	0xbe30a20c	-0.17249316
22	0xbdf8fdfa	-0.12157817
23	0xbe9351da	-0.28773385
24	0xbe5bfa59	-0.21482219
25	0xbe145095	-0.14483865
26	0xbe4e7690	-0.20162416
27	0xbdc8c787	-0.09803682
28	0xbe7d7e5c	-0.24755234
29	0xbe1b7db7	-0.15184675
30	0xbe66b217	-0.22528873
31	0xbe74cb05	-0.23905571
32	0xbe49cbe7	-0.19706689
33	0xbe4ee39a	-0.2020401
34	0xbe66cf50	-0.22540021
35	0xbe4624ba	-0.19349948
36	0xbe8fc0c0	-0.28076744
37	0xbe101359	-0.1406988
38	0xbe38fc2c	-0.18064946
39	0xbe78c7c2	-0.24294952
40	0xbe63a2a1	-0.22230007
41	0xbe581c8e	-0.21104643
42	0xbe330dec	-0.1748578
43	0xbe7bd684	-0.2459355
44	0xbe3d6f8d	-0.18499584
45	0xbe6a3c39	-0.22874536
46	0xbe7318d0	-0.23739934
47	0xbe1db2eb	-0.15400283
48	0xbe75ee48	-0.24016678
49	0xbe31d98b	-0.17368142
50	0xbe763124	-0.24042183
51	0xbe6c6418	-0.23085058
52	0xbe8b08b4	-0.27155077
53	0xbe5bb572	-0.21455935
54	0xbe221b6d	-0.15830775
55	0xbe5c35e6	-0.21504936
56	0xbe30ae2a	-0.17253938
57	0xbe6e078b	-0.23245065
58	0xbe4aef80	-0.19817924
59	0xbe28259e	-0.164206
60	0xbe772380	-0.24134636
61	0xbde8d223	-0.113682054
62	0xbe58d504	-0.21175009
63	0xbe8144ba	-0.25247747

running_mean f4 [64]
0	0xbc6ec38b	-0.014572988
1	0xbb28396b	-0.002566899
2	0x3d524c73	0.05134244
3	0xbd078f99	-0.03309593
4	0xbd9e1388	-0.07718569
5	0xbd2623ae	-0.04056137
6	0x3aa11434	0.0012289346
7	0x3dc8de56	0.09808032
8	0xbc2d7165	-0.010586117
9	0x3d389921	0.04506791
10	0xbdc811dd	-0.09769032
11	0x3c08fb4b	0.008360694
12	0x3d93c257	0.07214802
13	0xbda8c0c5	-0.08239893
14	0xbc2ef2ab	-0.010677974
15	0xbd5a9b61	-0.053370837
16	0x3c9bccda	0.01901858
17	0x3dadc2a1	0.08484388
18	0x3be83d83	0.007087411
19	0xbca0d34b	-0.019632002
20	0xbd14f7f3	-0.036369275
21	0xba3389d2	-0.0006848845
22	0x3cc5e9b1	0.024159284
23	0xbd5cdb7b	-0.05392025
24	0x3db9e9e9	0.09077818
25	0xbc10410e	-0.008804573
26	0x3c47b62d	0.01218943
27	0x3cbc9673	0.023020959
28	0x3dbab653	0.09116807
29	0xbdda04d8	-0.10645455
30	0xbd8df7cd	-0.0693203
31	0xbad99afc	-0.0016601975
32	0x3dc62dbe	0.096766934
33	0xbcc0b296	-0.023522656
34	0x3d1841a5	0.03717198
35	0xbdcdd3a3	-0.10050132
36	0xbc7467d1	-0.01491733
37	0xbd0c23ea	-0.034213938
38	0x3da31434	0.07962838
39	0xbded738b	-0.11594304
40	0xbc025e7f	-0.0079571
41	0x3da86576	0.08222477
42	0x3c98b075	0.018638829
43	0x3df58267	0.11987763
44	0x3da4d623	0.08048656
45	0xbc1ccb62	-0.009569975
46	0x3dcca299	0.099919505
47	0x3d47d5c7	0.04878786
48	0x3d64f368	0.055896193
49	0x3b758494	0.0037463056
50	0x3c638991	0.013887779
51	0xbc8b9217	-0.017037435
52	0xbd3bf2bf	-0.045885798
53	0xbcf3d82e	-0.029766168
54	0xbd7f6bbb	-0.0623586
55	0xbcfdd87f	-0.030987022
56	0x3d6c1ca3	0.057644498
57	0xbd3469d1	-0.044046227
58	0x3d74e4e6	0.059788607
59	0xbd59084b	-0.052986424
60	0x3d81dca6	0.063409135
61	0x3b3ed748	0.0029120017
62	0x3cb5ee76	0.022208434
63	0xbdc7a1ad	-0.09747634

running_var f4 [64]
0	0x3e46689e	0.19375846
1	0x3e51225e	0.20423266
2	0x3e2e8456	0.1704267
3	0x3e2d8679	0.16945828
4	0x3e22b2d2	0.15888527
5	0x3e32db86	0.17466554
6	0x3e234f8f	0.15948318
7	0x3e3702f1	0.17872216
8	0x3e46a2e4	0.19398075
9	0x3e4a93ac	0.19782895
10	0x3e4abb9f	0.19798134
11	0x3e1fe7a7	0.15615712
12	0x3e29617b	0.16541092
13	0x3e35290f	0.17691444
14	0x3e2b94f6	0.16756043
15	0x3e4c1c8a	0.19932762
16	0x3e2dc309	0.16968931
17	0x3e336e07	0.17522441
18	0x3e25968c	0.1617071
19	0x3e38335d	0.17988344
20	0x3e2f4784	0.17117125
21	0x3e1c3e66	0.15258178
22	0x3e2ac092	0.16675022
23	0x3e36e732	0.17861632
24	0x3e44a84d	0.19204827
25	0x3e2ecae4	0.17069584
26	0x3e4cf610	0.2001574
27	0x3e40cc35	0.18827899
28	0x3e2f4f43	0.1712008
29	0x3e403cec	0.1877324
30	0x3e3fdea7	0.18737279
31	0x3e481283	0.19538312
32	0x3e2f69f8	0.17130268
33	0x3e2d5784	0.16927916
34	0x3e3949df	0.18094586
35	0x3e2a3d8e	0.16625044
36	0x3e33649a	0.17518845
37	0x3e3e5cd4	0.18590099
38	0x3e37b552	0.17940262
39	0x3e2d7dbc	0.16942495
40	0x3e5cf08a	0.21576133
41	0x3e3b40f2	0.18286493
42	0x3e24998e	0.16074201
43	0x3e513c97	0.2043327
44	0x3e32b16e	0.17450497
45	0x3e39d234	0.18146592
46	0x3e4ea33d	0.20179458
47	0x3e363dc6	0.17797002
48	0x3e285d8f	0.1644194
49	0x3e2cbb3d	0.168683
50	0x3e27d34b	0.16389196
51	0x3e2d4121	0.16919376
52	0x3e3153f2	0.17317179
53	0x3e3e2ba4	0.18571335
54	0x3e319981	0.17343713
55	0x3e38999d	0.18027349
56	0x3e2f2038	0.17102134
57	0x3e386527	0.18007337
58	0x3e2d76e5	0.16939886
59	0x3e36383f	0.17794894
60	0x3e3f2bfa	0.1866912
61	0x3e33c9fa	0.17557517
62	0x3e28212c	0.16418904
63	0x3e2fb831	0.17160107

weight f4 [64, 64, 3, 3]
0	0x3d231e53	0.03982384
1	0x3acb2338	0.0015498167
2	0x3e04fe0b	0.12987535
3	0xbdca5b30	-0.09880674
4	0xbd6f0eb2	-0.058363624
5	0x3c372515	0.011178275
6	0xbd46b4ec	-0.048512384
7	0xbd160d89	-0.036634002
8	0xbd3f6d9a	-0.046735384
9	0xbd758a43	-0.05994631
10	0xbcb4e683	-0.022082573
11	0x3d832b62	0.06404759
12	0xbd89c9a1	-0.06727911
13	0xbdabbccb	-0.08385619
14	0xbd4de802	-0.050270088
15	0x3d1131dc	0.03544794
16	0x3d3c2d52	0.04594166
17	0x3b546f06	0.0032414808
18	0xbd4908f4	-0.049080804
19	0xbc92cdd3	-0.01792041
20	0xbd88be4d	-0.06676922
21	0xbd66a4ba	-0.05630944
22	0xbd047174	-0.03233476
23	0xbd15f286	-0.03660824
24	0x3c6a9e7f	0.014320015
25	0x3c35e2f5	0.011101474
26	0x3cd117df	0.025524078
27	0x3a120056	0.0005569508
28	0x3ab100d3	0.0013504274
29	0xbc644759	-0.013933026
30	0xbd33a003	-0.04385377
31	0xbc80ea81	-0.01573682
32	0xbd29b3f7	-0.041431393
33	0x3da3aa78	0.07991499
34	0xbcf14e62	-0.029456321
35	0x3d3c2b98	0.04594001
36	0xbc3ff6d7	-0.011716566
37	0xbce5fb89	-0.028074043
38	0x3cff1c27	0.031141354
39	0xbbef95fa	-0.00731158
40	0xbcd52178	-0.026016936
41	0x3c0f3c20	0.008742362
42	0x3cadde2b	0.021224102
43	0x3d6c572a	0.057700314
44	0xbd957389	-0.07297427
45	0xbd05383c	-0.032524332
46	0xbd161c65	-0.036648173
47	0xbd12e466	-0.03586235
48	0xbb9cc91f	-0.0047847177
49	0xbc2488ac	-0.010042351
50	0xbd6bf2ea	-0.057604708
51	0x3d9ed97b	0.07756325
52	0xbcb1f655	-0.021723906
53	0xb928a41b	-0.00016082863
54	0xbd0066ed	-0.031348158
55	0xbd817c55	-0.063225426
56	0xbd6e6ae7	-0.05820742
57	0xbd02abff	-0.03190231
58	0x3d1d2bfc	0.038372025
59	0x3d8262d4	0.06366506
60	0x3d29d51e	0.04146301
61	0xbd56a2f4	-0.052401498
62	0x3bb24a13	0.0054409592
63	0xbda66afc	-0.081258744
64	0xbd15bbd3	-0.036556076
65	0xbd6f849f	-0.058476087
66	0xbc9c2f82	-0.019065622
67	0x3d37aef5	0.044844586
68	0x3c8f4cc8	0.017492667
69	0x3bb8bbfa	0.005637643
70	0x3d90c1e7	0.07068234
71	0x3d90708d	0.07052717
72	0x3de2b1b4	0.110690504
73	0xbd0e4a72	-0.034738965
74	0xbd154ccd	-0.036450196
75	0xbca12d9f	-0.019675074
76	0x3a36eaf8	0.0006977762
77	0xbe04502c	-0.12921208
78	0x3c96a917	0.018391175
79	0x3d217ac8	0.039423734
80	0x3d8a09de	0.06740163
81	0x3ca1eee1	0.019767227
82	0x3be09e58	0.0068548135
83	0xbd12234b	-0.03567819
84	0xbd9bfb13	-0.07616248
85	0xbd302218	-0.043001264
86	0x3c94003b	0.018066516
87	0x3e18c5e1	0.14919235
88	0x3d21343a	0.039356448
89	0x3e307ee9	0.17235912
90	0xbd6aa738	-0.05728838
91	0x3d4e1027	0.050308373
92	0xbd8cdd32	-0.06878127
93	0xbd8aaaf6	-0.067708895
94	0x3cea9bff	0.028638838
95	0x3d1ff8f2	0.039055772
96	0xbbd17ea9	-0.006393273
97	0x3cf5973a	0.029979337
98	0x3bdb7152	0.0066968584
99	0xbda2c6e9	-0.07948095
100	0xbd6357d7	-0.055503692
101	0x3cab129a	0.020882893
102	0x3c8352ad	0.016030634
103	0x3daa52bc	0.083165616
104	0xbcca895c	-0.024723701
105	0xbbf8725c	-0.007581992
106	0x3dae115b	0.08499404
107	0x3ce94ecc	0.028479956
108	0xbd387d6e	-0.045041494
109	0xbcbc99a5	-0.023022482
110	0xbb27c5f5	-0.002560017
111	0xbde45022	-0.111480966
112	0x3d66ce92	0.056349345
113	0xbda4d42d	-0.08048282
114	0xbd636126	-0.05551257
115	0xbc8300b5	-0.015991548
116	0xbc4686cb	-0.012117098
117	0xbc8729ac	-0.016499363
118	0x3b891133	0.0041829585
119	0x3c83ee29	0.016104775
120	0xbd3942ca	-0.04522971
121	0xbcceae95	-0.025229732
122	0x3b89ebca	0.0042090164
123	0x3d1e46a9	0.038641606
124	0x3d474b26	0.04865565
125	0x3d8e243c	0.06940505
126	0xbc1f3628	-0.009717502
127	0x3c16b6d9	0.009198868
128	0xbd88ea82	-0.06685354
129	0xbc9cdf80	-0.019149542
130	0x3c4a6197	0.012352369
131	0xbc0ab7ea	-0.0084667
132	0x3d90627d	0.07050035
133	0x3d72203e	0.05911278
134	0x3d2b091d	0.041756738
135	0xbcfdd849	-0.030986922
136	0xbbeba30e	-0.0071910685
137	0x3c2b7837	0.010465673
138	0xbd13b08b	-0.036057036
139	0x3d972e8a	0.073819235
140	0xbc0922bb	-0.008370097
141	0x3d8113b5	0.06302587
142	0xbb8036bd	-0.0039127753
143	0x3d8b8884	0.06813148
144	0xbd86648f	-0.06562149
145	0xbcf75aff	-0.030194758
146	0xbca7b03a	-0.020469774
147	0xbd3ca397	-0.04605445
148	0x3c969492	0.01838139
149	0xbc4e31e0	-0.012585133
150	0xbd4d1e81	-0.05007792
151	0xbd26c25e	-0.040712707
152	0xbbe70754	-0.007050434
153	0x3d009194	0.031388834
154	0x3d753cca	0.059872426
155	0xbc1cea70	-0.009577379
156	0x3d651b77	0.055934396
157	0xbd3a92de	-0.04555022
158	0xbd099fc9	-0.03359965
159	0xbd3af7c3	-0.04564644
160	0x3c80ef23	0.01573903
161	0xbc754765	-0.014970635
162	0xbd3aae3f	-0.04557633
163	0x3cc3dfb2	0.023910377
164	0xbbb39433	-0.005480313
165	0x3c70f137	0.014705948
166	0x3bd4a3e2	0.006489263
167	0xbd3a7ddd	-0.04553019
168	0x3d3a48b4	0.04547949
169	0x3db20456	0.08692233
170	0x3c544c1a	0.012957597
171	0xbba5813f	-0.0050508077
172	0xbd571436	-0.05250951
173	0x3c1ea2e0	0.009682387
174	0xbd89979f	-0.067183726
175	0x3bdc83f4	0.006729597
176	0xbd9971fc	-0.07492444
177	0xbd0ebc02	-0.034847267
178	0x3caba6ae	0.020953503
179	0xbd83cfd4	-0.064361244
180	0x3cbb3e81	0.022856953
181	0x3c86663e	0.016406175
182	0x3cb70362	0.02234048
183	0xbde4895a	-0.1115901
184	0xbcafc31a	-0.021455336
185	0xbd7d87ab	-0.06189696
186	0xbc381ad2	-0.011236863
187	0x3d249a34	0.040186122
188	0xbd00cc5b	-0.03144489
189	0xbd3fa38f	-0.04678684
190	0x3d35f44d	0.044422437
191	0x3cf40b8a	0.029790659
192	0x3cc9387e	0.02456307
193	0xbc131991	-0.0089782635
194	0x3c124847	0.008928365
195	0xbc55cb08	-0.013048895
196	0x3d761932	0.060082622
197	0xbd34b256	-0.044115387
198	0xbda3753a	-0.079813436
199	0xbcf8cc65	-0.0303709
200	0xbc7773ed	-0.015103322
201	0x3d18684e	0.037208848
202	0xbd52d091	-0.051468436
203	0xbda54bab	-0.08071073
204	0x3d7afc9f	0.061276074
205	0xbcf3d9fb	-0.029767027
206	0x3d7af291	0.061266486
207	0x3a23ba82	0.00062457484
208	0xbc9162d1	-0.017747315
209	0x3d65f2a2	0.056139596
210	0xbbd78d82	-0.0065781483
211	0xbd2d780d	-0.042350817
212	0xbb918d84	-0.004441919
213	0x3dad8027	0.08471709
214	0xbc0411b4	-0.008060861
215	0x3d09acac	0.03361194
216	0x3c907e77	0.017638428
217	0xbcb3a503	-0.02192927
218	0xbd0ec811	-0.034858767
219	0xbc9fc814	-0.019504584
220	0x3c951ce4	0.018202253
221	0xbdabaa60	-0.08382106
222	0x3d0f244e	0.034946732
223	0x3d480412	0.048832007
224	0x3e1465a8	0.14491904
225	0xbcfa8f4c	-0.030585907
226	0xbd82c725	-0.0638564
227	0x3d648333	0.055789184
228	0xbc9b39f1	-0.018948527
229	0xbcfcc02e	-0.030853357
230	0x3ddfa77a	0.109206155
231	0xbd90d66e	-0.07072149
232	0x3ba41e37	0.0050084847
233	0x3d296477	0.041355576
234	0xbc7a60af	-0.01528184
235	0xbd4c6aba	-0.04990647
236	0xbc4ac974	-0.012377132
237	0xbc1705b0	-0.009217665
238	0xbccec737	-0.025241477
239	0xbd637d51	-0.055539433
240	0x3e40f9c8	0.18845284
241	0x3d7d6c4e	0.061870866
242	0x3ddddecf	0.10833513
243	0x3d1008ac	0.03516452
244	0x3d8b6106	0.06805615
245	0x3b71e5b0	0.0036910586
246	0xbc258e29	-0.010104694
247	0xbca2b4d2	-0.019861612
248	0x3be0d0df	0.006860837
249	0x3cc8eaa5	0.02452595
250	0x3bc64e03	0.00605178
251	0x3d2da041	0.04238916
252	0xbdc1cab1	-0.094624884
253	0xbd85ffb0	-0.06542909
254	0xbcbc8163	-0.023010915
255	0x3cb077ca	0.021541495

bias f4 [64]
0	0x3cb5bfd0	0.02218619
1	0xbbd63d53	-0.006538072
2	0x3b07b580	0.0020707548
3	0xb97acdcb	-0.00023918522
4	0xbd3fea2e	-0.04685419
5	0x3d6ade72	0.057341047
6	0xbc3f6ff0	-0.011684403
7	0x3cfc7b96	0.03082065
8	0x3b8de05d	0.0043297247
9	0x3c07098a	0.00824202
10	0xbcb27dfd	-0.021788592
11	0xbd185f86	-0.037200473
12	0x3b1b7298	0.0023719426
13	0xbcb3c387	-0.02194382
14	0xbd476832	-0.048683353
15	0x3bf72806	0.007542613
16	0xbd213628	-0.039358288
17	0xbd33a5d3	-0.043859314
18	0x3cbd499d	0.02310639
19	0xbd371bc1	-0.044704203
20	0xba2bc360	-0.00065522455
21	0x3c7185e8	0.014741398
22	0x3d19fe07	0.037595775
23	0xbcdc4ab0	-0.026891083
24	0x3bc126d7	0.0058945226
25	0xbd1fb399	-0.038989637
26	0xbcbe6bbc	-0.023244731
27	0xbccf99da	-0.025341917
28	0xbcd098ef	-0.02546355
29	0xbc92ef60	-0.017936409
30	0x3b3bb6ee	0.002864297
31	0xbd6563e5	-0.05600347
32	0xbc596a68	-0.013269998
33	0x3c73d694	0.014882702
34	0xbc381c5f	-0.011237233
35	0xbc6a11a2	-0.014286431
36	0xbd908ac6	-0.07057719
37	0xbcfbf336	-0.03075562
38	0xbc97b097	-0.018516822
39	0x3c6a5678	0.014302842
40	0x3cb3eff9	0.021965014
41	0xbcbb392e	-0.022854414
42	0x3ca760ae	0.020431843
43	0x3b6138bd	0.0034366094
44	0xbcf4ea08	-0.029896751
45	0x3d0c8e25	0.034315247
46	0xbd0f1df4	-0.034940675
47	0xbb84b1c3	-0.004049511
48	0x3d063ead	0.032774616
49	0x3d2d636d	0.042331148
50	0x3d04015b	0.032227855
51	0x3c3b9608	0.011449344
52	0x3bb6d86f	0.00558
53	0x3c493211	0.012280003
54	0xbc97cf4b	-0.018531462
55	0xbd975c07	-0.073906
56	0xbcc58cf5	-0.024115065
57	0xbc965227	-0.01834972
58	0xbcc2c159	-0.023773836
59	0xbb8bde9a	-0.0042684795
60	0x3cf2d101	0.029640676
61	0x3d369f21	0.04458535
62	0x3a44696a	0.00074925146
63	0x3cc1743d	0.023614997

weight f4 [64]
0	0x3f9867ee	1.1906717
1	0x3f9191c3	1.1372608
2	0x3f9a62af	1.2061366
3	0x3f99f0be	1.2026594
4	0x3fb75e46	1.4325645
5	0x3fa8b878	1.3181295
6	0x3f9d4b9f	1.2288703
7	0x3fa5bf23	1.2948955
8	0x3f9d7640	1.2301712
9	0x3f9ea1ff	1.2393187
10	0x3fa538c3	1.2907947
11	0x3fabff20	1.3437233
12	0x3f9bcf00	1.2172546
13	0x3f9ac28c	1.2090621
14	0x3fb0ceb2	1.3813078
15	0x3f9bd227	1.2173508
16	0x3faf53bf	1.3697432
17	0x3f998c9b	1.1996034
18	0x3f99df7e	1.2021329
19	0x3faea4be	1.3644025
20	0x3fa4f535	1.2887331
21	0x3f9d3884	1.2282872
22	0x3f9b1508	1.2115793
23	0x3fb28d40	1.3949356
24	0x3f9e93ee	1.2388895
25	0x3f9a32db	1.204677
26	0x3fa6318f	1.2983874
27	0x3fa077fe	1.2536619
28	0x3f901733	1.125708
29	0x3fa3c4ee	1.2794473
30	0x3f909c18	1.1297636
31	0x3f981d38	1.1883917
32	0x3f983fb0	1.1894436
33	0x3f9477d7	1.1599072
34	0x3fa69f93	1.3017448
35	0x3f9bf92c	1.2185416
36	0x3fa041a6	1.2520034
37	0x3fa0f58b	1.2574934
38	0x3fa96d14	1.3236413
39	0x3fabcf0d	1.3422562
40	0x3f8fc3ca	1.1231625
41	0x3fa3b99a	1.2791016
42	0x3f9d67e2	1.2297328
43	0x3f8cf374	1.1011796
44	0x3fb1f12f	1.3901728
45	0x3f8d233e	1.102638
46	0x3f9cbe91	1.2245656
47	0x3faa2f6a	1.329572
48	0x3f8dfcc6	1.1092765
49	0x3f8b7c7f	1.0897368
50	0x3fa8a072	1.3173964
51	0x3f9d1555	1.2272135
52	0x3f9b4e0c	1.2133193
53	0x3f9721bb	1.1807169
54	0x3f9db638	1.2321234
55	0x3fb0dd92	1.3817618
56	0x3f99b4af	1.2008265
57	0x3fa1f82b	1.265386
58	0x3fa2ad54	1.2709146
59	0x3fa3b893	1.2790703
60	0x3f999006	1.1997077
61	0x3f9fe124	1.2490582
62	0x3fa913b3	1.3209137
63	0x3f8f8f19	1.1215545

bias f4 [64]
0	0x3d8324d3	0.06403508
1	0x3d9c03b3	0.07617893
2	0x3dcb8f32	0.09939422
3	0xb9857052	-0.00025451422
4	0x3da40755	0.08009211
5	0x3df61930	0.12016523
6	0x3cfd422c	0.030915342
7	0x3b6231be	0.0034514512
8	0x3d5c0b02	0.053721435
9	0x3d36d454	0.044636086
10	0x3df20ed0	0.118192315
11	0x3df9ceaa	0.12197621
12	0xbd0d8fd5	-0.034560997
13	0x3dcf7db8	0.10131401
14	0x3e1a7ee7	0.15087472
15	0x3d85b7b8	0.06529182
16	0x3dfa0572	0.1220807
17	0x3cabf5a4	0.020991154
18	0x3daba572	0.083811656
19	0x3dc7c196	0.097537205
20	0x3de53cd5	0.111932434
21	0x3de7fdf0	0.113277316
22	0x3cdfe21c	0.027329497
23	0x3d9cfb8c	0.07665166
24	0x3dead80a	0.114669874
25	0x3dae0b66	0.08498268
26	0x3d9918d6	0.0747544
27	0x3dd6c26c	0.10486302
28	0x3c9f8e76	0.01947711
29	0x3dc79beb	0.09746536
30	0x3d6df5b3	0.058095645
31	0x3de59703	0.11210444
32	0x3d3ff704	0.04686643
33	0x3b1fe433	0.0024397492
34	0x3de8554a	0.113443926
35	0x3da4bd11	0.08043874
36	0x3dca7e21	0.098873384
37	0x3d919fb7	0.07110541
38	0x3b7fc7fc	0.0039029112
39	0x3dcb25f2	0.09919347
40	0x3da69cb2	0.08135356
41	0x3dab45ae	0.083629
42	0x3dc8434d	0.097784616
43	0x3d28f4cc	0.04124908
44	0x3e10bcf4	0.1413458
45	0x3dae2329	0.085028
46	0x3d4bd325	0.04976191
47	0x3de4e6fa	0.11176868
48	0x3c909c6d	0.017652715
49	0x3d8fdbb8	0.0702433
50	0x3d9158a7	0.07096987
51	0x3d81689d	0.063187815
52	0x3d68a768	0.056800276
53	0x3d8e9fb2	0.06964053
54	0x3d5310a9	0.05152956
55	0x3e0c3707	0.13692866
56	0x3df78f14	0.12087837
57	0x3e0b8f27	0.13628827
58	0x3db5b2d6	0.08872001
59	0x3d45e065	0.048309702
60	0xbc8be892	-0.017078672
61	0x3e022089	0.12707724
62	0x3dd4fa3e	0.103992924
63	0xbd37828f	-0.044802245

running_mean f4 [64]
0	0xbe6a7f6f	-0.22900175
1	0x3ea45bfb	0.32101426
2	0xbfaaa59b	-1.3331789
3	0x3c0c9fdb	0.008583034
4	0xbfcaf335	-1.5855471
5	0x3fd91f39	1.6962653
6	0x3e101c2c	0.14073247
7	0xbeb1dd04	-0.34738934
8	0x3f6b0307	0.91801494
9	0xbfadb233	-1.3570007
10	0xc00f0d59	-2.2351897
11	0xbfff8033	-1.9960998
12	0x3f77442e	0.9658841
13	0xbf7eafbc	-0.994869
14	0xc01f9a62	-2.4937978
15	0x3f4e73d7	0.8064551
16	0xc02fa1c2	-2.744248
17	0x3f17ead0	0.5934267
18	0x3f1f8b12	0.6232158
19	0xbff33930	-1.9001827
20	0x3f02eece	0.5114564
21	0xbf21d795	-0.6321958
22	0x3f001ed7	0.5004706
23	0xc00c15d5	-2.1888325
24	0x3e78e69a	0.24306718
25	0x3d6300da	0.055420734
26	0xbcbe399c	-0.02322083
27	0xbf673ada	-0.90324175
28	0x3f93c1df	1.154354
29	0xc00b732f	-2.1789052
30	0x3f1e270f	0.6177835
31	0xbf8904f4	-1.0704637
32	0xbdc96ef4	-0.09835616
33	0x3e9388cb	0.28815302
34	0x3f2676e3	0.65025157
35	0x3fc9f989	1.5779277
36	0xbfd89031	-1.6919004
37	0xc013ca88	-2.3092365
38	0xbe9f124a	-0.3106864
39	0x3f79353e	0.97346866
40	0xbf4ad235	-0.79227
41	0xbf0ed3de	-0.55792034
42	0x3f371842	0.7152139
43	0x3fd6f14f	1.6792392
44	0xc0012101	-2.0176394
45	0x3f16a057	0.5883841
46	0x3d69af4a	0.057051934
47	0xbf09cba2	-0.53826344
48	0x3f794204	0.97366357
49	0x3f1b623a	0.60696757
50	0x3f27ef49	0.65599495
51	0xbd7eef9e	-0.062240236
52	0x3f8a0f83	1.0785984
53	0x3eaba853	0.3352686
54	0x3e6b9cab	0.23008983
55	0xbfd9140d	-1.6959244
56	0xbe801dc2	-0.25022703
57	0x3fd44ff6	1.6586902
58	0xbf525fa5	-0.8217719
59	0xbf7b72b6	-0.9822191
60	0xbe22c0f2	-0.15893915
61	0x3f9ee7a5	1.2414442
62	0xbec4c0f5	-0.38428465
63	0x3e8f9155	0.28040567

running_var f4 [64]
0	0x3fa76bd5	1.3079783
1	0x3fedc7fc	1.8576655
2	0x3fc09318	1.504489
3	0x3fa31de5	1.2743498
4	0x3fd52388	1.6651468
5	0x3fc8a00d	1.5673844
6	0x3faf2cbd	1.3685528
7	0x3fba4973	1.4553665
8	0x3feccc74	1.8499894
9	0x3fd62762	1.6730769
10	0x3fe26544	1.7687154
11	0x40197da9	2.3982947
12	0x3fe04dd2	1.7523749
13	0x3fe57bc7	1.7928399
14	0x40078143	2.1172645
15	0x3f9993bb	1.1998209
16	0x400e5295	2.2237904
17	0x3faee94d	1.3664948
18	0x3fcd3b1e	1.6033666
19	0x3fe6683d	1.8000561
20	0x3fa6589e	1.2995794
21	0x3fae81d7	1.3633374
22	0x400e25c6	2.2210555
23	0x401d6e1e	2.459846
24	0x3fce81e0	1.6133385
25	0x3fd30ef4	1.6488938
26	0x3ff8835e	1.941509
27	0x3fce5314	1.6119103
28	0x3fcd0b9e	1.601917
29	0x3fd97f26	1.6991928
30	0x3fc25f2a	1.5185292
31	0x3fcbcc76	1.5921772
32	0x3fa8e13e	1.3193738
33	0x3f9d16f1	1.2272626
34	0x3fe266f5	1.768767
35	0x3fdfbb66	1.7479064
36	0x3fc843cb	1.5645689
37	0x3fe42e01	1.7826539
38	0x3f9e14be	1.235008
39	0x3fe96b19	1.8235809
40	0x3fb464e5	1.409329
41	0x3f8d0c0a	1.1019299
42	0x3fe09a1c	1.754703
43	0x3fc32b63	1.5247616
44	0x3fddbfce	1.7324159
45	0x3fd8ebb2	1.6946929
46	0x3fd38da6	1.6527603
47	0x3f8ed333	1.1158203
48	0x3fc797cc	1.55932
49	0x3fa13ff6	1.2597644
50	0x3fc73fd5	1.5566355
51	0x3fa42a4d	1.2825409
52	0x3fbe99fe	1.4890745
53	0x3fc522a7	1.54012
54	0x3fafe9c4	1.3743215
55	0x3fc7b085	1.5600744
56	0x3fb3a13d	1.4033581
57	0x3fb7f2a6	1.4370925
58	0x3f9f44eb	1.2442907
59	0x3fc526de	1.5402486
60	0x3fcce2fa	1.6006768
61	0x3fc1ac56	1.5130718
62	0x3fb5784d	1.4177338
63	0x3fde9b0f	1.739107

weight f4 [12, 64, 3, 3]
0	0xbd2a86fa	-0.04163263
1	0xbcc4a2d0	-0.024003416
2	0x3d858d2d	0.06521068
3	0xbd060ee1	-0.032729033
4	0xbd3066ff	-0.043066975
5	0x3b5921c1	0.003313169
6	0xbe830cd5	-0.25595728
7	0xbe2e1eb9	-0.17003907
8	0x3cb9b4ea	0.022669274
9	0xbdaa98e7	-0.08329945
10	0xbddcfddc	-0.10790607
11	0xbe08a2cb	-0.1334335
12	0x3c2e7aa9	0.010649362
13	0xbb4b1c35	-0.0030992154
14	0xbc33809d	-0.010955957
15	0x3a374f87	0.00069927465
16	0xbda20bbd	-0.07912395
17	0xbe1a564a	-0.15071979
18	0xbe1b1cf3	-0.15147762
19	0xbd850579	-0.064951845
20	0xbe0e2a2f	-0.1388328
21	0x3d1864e9	0.03720561
22	0x3b3b8484	0.002861292
23	0x3d250cc5	0.04029538
24	0xbe147ae9	-0.14500012
25	0xbd428ac0	-0.047495604
26	0xbd99db09	-0.07512481
27	0x3c06d147	0.008228607
28	0x3db3e70e	0.087843046
29	0xbdc74f2f	-0.097319
30	0x3d0c40dd	0.034241546
31	0xbda54155	-0.08069102
32	0xb7cce812	-2.4426761e-05
33	0x3d07d0ae	0.033157997
34	0x3d92ba92	0.07164492
35	0xbdbf4667	-0.093396
36	0xbd91bcf7	-0.0711612
37	0xbd246195	-0.040132124
38	0x3d25e990	0.040505946
39	0x3df26f70	0.11837661
40	0x3c84e691	0.016223224
41	0xbe2f9f59	-0.1715063
42	0x3e0cb338	0.13740242
43	0xbdd9dd2f	-0.106378905
44	0xbce4ad3c	-0.027914636
45	0x3d77016f	0.0603041
46	0xbc4af8c0	-0.012388408
47	0x3d70c14f	0.058778103
48	0xbd9bc0cd	-0.07605133
49	0xbc97559a	-0.018473435
50	0xbce89b4f	-0.02839437
51	0xbdd1382b	-0.10215791
52	0x3cf7b34e	0.030236866
53	0x3dbcbdfc	0.09215924
54	0xbb1cb33d	-0.0023910545
55	0xbe6a13f4	-0.22859174
56	0x3e054e36	0.13018116
57	0xbda79535	-0.08182756
58	0x3cc4b15f	0.024010358
59	0xbbc36a00	-0.005963564
60	0xbdc9da84	-0.09856132
61	0xbdd6b12c	-0.104830116
62	0x3d505112	0.050858565
63	0xbe0a54af	-0.13508867
64	0xbd00579e	-0.03133356
65	0xbe44fef1	-0.19237877
66	0xbd892c95	-0.066979565
67	0xbdc7ba25	-0.09752301
68	0xbdaa08a8	-0.08302432
69	0xbd4fd927	-0.050744202
70	0x3da23c1a	0.0792162
71	0xbe012d49	-0.12614931
72	0x3c9fd197	0.01950912
73	0xbd86d86f	-0.0658425
74	0xbccb6d7f	-0.024832485
75	0x3d54a4ed	0.051915098
76	0xbd1ba159	-0.03799567
77	0x3c0e2c93	0.0086776195
78	0xbcaad105	-0.020851621
79	0xbd9b0f74	-0.07571307
80	0xbcb55446	-0.022134911
81	0xbd025b16	-0.031825148
82	0x3dc7a3ad	0.097480156
83	0x3e3207ff	0.17385863
84	0xbda99a50	-0.08281386
85	0x3c621f17	0.013801358
86	0xbda4d907	-0.08049207
87	0xbe822dd0	-0.25425577
88	0xbde0a529	-0.10969002
89	0xbdcb50b0	-0.09927499
90	0xbd34b046	-0.04411342
91	0xbd901ed5	-0.07037131
92	0xbdb45675	-0.08805553
93	0xbddfe2a0	-0.10931897
94	0x3dc80cca	0.09768064
95	0xbdd47bbc	-0.10375163
96	0xbdbf31ac	-0.09335646
97	0xbdc6faad	-0.09715781
98	0xbd1f073b	-0.038825255
99	0x3da48b99	0.08034439
100	0x3d0f02d6	0.034914814
101	0x3d8e56b6	0.069501325
102	0x3dbde92e	0.09272991
103	0x3ca37f19	0.019958066
104	0xbd9983ab	-0.07495817
105	0xbe8e08e5	-0.2774116
106	0xbe64448a	-0.2229177
107	0xbe720605	-0.23635109
108	0x3d167fe4	0.03674306
109	0x3d198053	0.037475895
110	0xbe411f85	-0.1885968
111	0xbdaaaa75	-0.08333293
112	0xbd061cba	-0.03274224
113	0x3b600f0d	0.0034188658
114	0xbd57348a	-0.05254034
115	0xba2d2cf3	-0.0006606124
116	0xbd4225e7	-0.047399428
117	0xbdbfbf99	-0.09362716
118	0xbe0c3891	-0.13693453
119	0xbe520484	-0.20509535
120	0x3d999fef	0.07501208
121	0xbc3c6053	-0.011497575
122	0x3dfb7bd4	0.12279478
123	0xbdc9bd07	-0.09850507
124	0xbd9dbd90	-0.07702172
125	0xbe04f937	-0.12985693
126	0xbd44d456	-0.04805406
127	0x3d006503	0.031346332
128	0x3d1dc7e1	0.038520698
129	0x3d8d8a43	0.06911137
130	0x3d6e8ec3	0.058241617
131	0x3c4c8e94	0.012485165
132	0xbdda1add	-0.10649655
133	0xbe204265	-0.15650328
134	0xbda0f978	-0.078600824
135	0x3db1d691	0.086835034
136	0xbbd93003	-0.006628038
137	0x3cbaca53	0.022801554
138	0x3d43e1ca	0.04782275
139	0x3df5cc34	0.12001839
140	0xbcf6738d	-0.030084396
141	0x3cdb6599	0.026781844
142	0x3c9c569c	0.019084267
143	0x3e399d09	0.1812631
144	0xbd5e562e	-0.054281406
145	0xbd7cb267	-0.061693575
146	0xbdc8038b	-0.09766301
147	0xbd845325	-0.06461171
148	0xbd0c7da0	-0.034299493
149	0xbc9fce31	-0.0195075
150	0xbd9f38f3	-0.07774534
151	0xbde23dcc	-0.11046943
152	0xbd9e57aa	-0.07731564
153	0x3d01f3e6	0.03172674
154	0xbd843081	-0.06454564
155	0xbdfa7a37	-0.12230342
156	0xbd6c2d49	-0.057660375
157	0xbd65fe69	-0.056150828
158	0x3cf126ce	0.029437449
159	0x3df5cdfd	0.1200218
160	0xbc9318e5	-0.017956207
161	0x3d99483f	0.07484483
162	0xbdca7ea4	-0.09887436
163	0x3d88c1ca	0.06677587
164	0x3d8a6452	0.06757416
165	0xbd7804f1	-0.060551587
166	0xbdb6b29b	-0.08920785
167	0xbd5e43af	-0.054263767
168	0x3e44e343	0.19227318
169	0x3cdadd71	0.02671692
170	0x3ca342a3	0.019929236
171	0x3d0a5e71	0.033781473
172	0x3d757158	0.059922546
173	0x3ce45a29	0.027875023
174	0xbca400fa	-0.020019997
175	0x3bc38d70	0.0059677884
176	0x3d08bf20	0.033385396
177	0xbe3234ab	-0.17402904
178	0xbe7dbd96	-0.24779353
179	0xbe59bc73	-0.21263294
180	0xbc7ec0d3	-0.015548903
181	0xbd92e9ed	-0.07173524
182	0x3d2d744f	0.04234725
183	0x3d260023	0.040527474
184	0x3d9e894c	0.07741031
185	0xbdfecfd8	-0.12441987
186	0xbdd471b9	-0.103732534
187	0xbcbb8c76	-0.022894125
188	0x3e3bc84a	0.18338123
189	0xbd64d4bf	-0.055866953
190	0xbcec4d22	-0.028845374
191	0x3db56b35	0.08858339
192	0xbe04792a	-0.12936845
193	0x3dba08cf	0.09083711
194	0x3e0e97b1	0.13925053
195	0x3d51d247	0.051225927
196	0x3d19de56	0.03756555
197	0x3d963b5f	0.07335543
198	0xbd865f46	-0.06561141
199	0xbce8052d	-0.02832278
200	0xbd10e9be	-0.035379164
201	0xbe09c9b8	-0.13455856
202	0xbd51a63c	-0.051183924
203	0xbe0d8e10	-0.13823724
204	0xbe810f3a	-0.2520693
205	0xbdf7e63e	-0.12104462
206	0xbe125a70	-0.14292312
207	0xbd60ee9e	-0.054915063
208	0x3df0c338	0.11755985
209	0xbc0c2b12	-0.008555191
210	0xbd579dc5	-0.052640695
211	0xbc95ae05	-0.018271456
212	0xbdabfd2c	-0.08397898
213	0xbd722ceb	-0.05912487
214	0x3cb8fe58	0.022582218
215	0xbe85a69b	-0.26103672
216	0xbcf498ae	-0.02985796
217	0xbda2d797	-0.07951277
218	0x3dee5eba	0.116391614
219	0xb7608c36	-1.3384086e-05
220	0x3d517296	0.05113467
221	0x3d6e50cf	0.058182534
222	0xbe07a7b7	-0.13247572
223	0xbe2aec94	-0.1669181
224	0x3e6ff44b	0.23433034
225	0xbddcaad5	-0.10774771
226	0xbe5de124	-0.21667916
227	0xbdc35246	-0.09537177
228	0x3dcaa19f	0.09894108
229	0xbbe07fdf	-0.006851181
230	0x3dabe0f3	0.08392515
231	0xbbdb6d05	-0.0066963458
232	0xbe0f3ba9	-0.13987602
233	0xbdd65665	-0.10465697
234	0xbdc4def6	-0.09612839
235	0xbc3b01b8	-0.011413984
236	0xbd9efeb8	-0.077634275
237	0x3de8485a	0.11341925
238	0x3d8f1627	0.06986647
239	0xbd950dd8	-0.07278031
240	0x3c1a87b6	0.00943177
241	0x3d943f5b	0.072386466
242	0xbe117837	-0.14206015
243	0xbdc5a990	-0.09651482
244	0xbe0bb8d8	-0.13644731
245	0xbd864111	-0.06555379
246	0xbb5409c6	-0.0032354458
247	0x3d41e5ec	0.04733841
248	0xbd0de655	-0.03464349
249	0xbe2a5f2b	-0.16637866
250	0xbe26fd80	-0.1630764
251	0xbc564a2d	-0.013079208
252	0x3b04f863	0.0020289652
253	0x3c3f5967	0.01167903
254	0x3c5fd96b	0.013662676
255	0x3df0579c	0.1173546

bias f4 [12]
0	0x3c6c775f	0.014432757
1	0xbc5f314a	-0.013622591
2	0x3cd4f696	0.025996488
3	0xbd4e5eff	-0.050383564
4	0x3ca6b932	0.02035198
5	0xbd961e0c	-0.0732995
6	0x3b7e0218	0.0038758572
7	0xbd1fbe8b	-0.039000075
8	0xbd9f1337	-0.07767337
9	0xb99b46a0	-0.00029616524
10	0xbd2dd342	-0.0424378
11	0xbd45f781	-0.04833174

weight f4 [64, 12, 3, 3]
0	0xbc8d5daf	-0.017256586
1	0x3ca48b8f	0.020086078
2	0x3c078027	0.0082703
3	0x3cb275ce	0.02178469
4	0x3d4de1b3	0.05026407
5	0xbc28ddcc	-0.010306787
6	0xbd44fc85	-0.048092384
7	0x3d34969b	0.04408894
8	0x3af6b578	0.0018822392
9	0x3c5479dd	0.012968508
10	0x3d8594a3	0.06522491
11	0x3dfefa05	0.12450031
12	0xbcc12aa5	-0.023579905
13	0x3d8111e0	0.063022375
14	0x3d544da2	0.05183185
15	0x3ce9415d	0.02847355
16	0xbcc3bbb2	-0.023893211
17	0xbca1a19f	-0.019730387
18	0x3cd289be	0.025700446
19	0xbd2ba44f	-0.041904744
20	0x3c1a0c30	0.00940232
21	0x3d351324	0.044207707
22	0xbc2d5b36	-0.010580828
23	0x3b37c4ea	0.0028040954
24	0x3c9e406c	0.019317828
25	0xbbe80f9f	-0.0070819403
26	0x3d5b6eb7	0.053572383
27	0x3d18b670	0.03728336
28	0xbc391e20	-0.011298686
29	0xbc5f2828	-0.013620414
30	0x3c4ace70	0.01237832
31	0x3bc47046	0.0059948293
32	0xbc07a664	-0.008279417
33	0xbacd5665	-0.0015666006
34	0x3ade5189	0.0016961555
35	0x3b449710	0.0029997267
36	0xbc114efe	-0.008868931
37	0x3d4525b5	0.048131663
38	0xbb4d9d5e	-0.0031374316
39	0xbd19cd01	-0.037549023
40	0x3c2b0177	0.010437361
41	0x3c3e784d	0.011625362
42	0xbc0b5f15	-0.008506556
43	0xbd2a6fe9	-0.041610632
44	0xbd35463c	-0.044256434
45	0x3d532a0a	0.051553763
46	0x3d800621	0.06251169
47	0xbd35d0e0	-0.04438865
48	0x3d74e8f1	0.059792463
49	0xbccd2d65	-0.02504606
50	0xbd985903	-0.07438853
51	0xbcabde4e	-0.020980027
52	0xbc9a9e9d	-0.01887446
53	0x3d67b315	0.05656727
54	0xbc42ce4b	-0.011890004
55	0x3d171dd9	0.0368937
56	0x3cd0580e	0.025432613
57	0x3ca98943	0.020695334
58	0xbce32300	-0.02772665
59	0x3cf8361d	0.03029924
60	0xbb955dab	-0.004558285
61	0x3d0522cd	0.03250389
62	0x3cda73f5	0.02666662
63	0xbde12d72	-0.10994996
64	0xbddc54ee	-0.107583866
65	0xbd9f8b18	-0.07790202
66	0xbc85a819	-0.016315507
67	0xbd3d5965	-0.04622783
68	0xbc55aa5f	-0.013041108
69	0xbdb5557f	-0.08854198
70	0xbce2e3ae	-0.027696457
71	0x3be47788	0.006972257
72	0x3c9b6c81	0.018972637
73	0x3c470bb6	0.012148788
74	0xbd0214b4	-0.031758025
75	0xbc93b0e1	-0.018028678
76	0xbc0461f1	-0.008079992
77	0x3bd69f92	0.006549784
78	0xbd737570	-0.05943817
79	0xbd5330cb	-0.051560204
80	0xbd264ef6	-0.040602647
81	0x3d83868a	0.06422146
82	0x3e532a5f	0.20621632
83	0x3dd71ce8	0.1050356
84	0x3cdb56d9	0.02677481
85	0x3e04c3d8	0.12965333
86	0x3cd0b02f	0.025474636
87	0xba2b4881	-0.0006533936
88	0x3c91f00c	0.017814659
89	0xbd1b9dfa	-0.037992455
90	0xbdb8d26c	-0.0902451
91	0x3dba85fb	0.09107586
92	0x3dca33c8	0.09873158
93	0xbd18d8ae	-0.037316017
94	0x3d754393	0.059878897
95	0x3d6f1514	0.05836971
96	0xbd8766af	-0.06611382
97	0x3d49fd5f	0.0493139
98	0xb996619b	-0.0002868295
99	0x3e02293d	0.12711044
100	0x3e458115	0.19287522
101	0x3d43c562	0.04779566
102	0x3c411b68	0.011786319
103	0x3cdad593	0.026713168
104	0xbc5f3410	-0.0136232525
105	0x3d1db44a	0.038502015
106	0xbc0481c6	-0.008087581
107	0xbc221be5	-0.009894346
108	0xbb5360b8	-0.0032253694
109	0x3cb953e8	0.022623017
110	0xbcaf882f	-0.021427242
111	0x3c9262ae	0.01786932
112	0x3c2caa4f	0.010538652
113	0xbd6ed36d	-0.0583071
114	0x3d4c8803	0.0499344
115	0x3c94d9e1	0.018170299
116	0x39f8a162	0.00047422486
117	0xbdcbd8c5	-0.09953455
118	0xbc94147d	-0.018076176
119	0xbd336a97	-0.043802824
120	0xbd02265d	-0.031774867
121	0x3d22931e	0.039691083
122	0x3d20370b	0.039114993
123	0xbd0eeef3	-0.03489585
124	0xbd058e9d	-0.03260671
125	0xbccb5407	-0.02482034
126	0x3ced58ac	0.028972946
127	0xbcf0d425	-0.029398033
128	0xbc9e73be	-0.0193423
129	0x3c877357	0.01653449
130	0x3d79a929	0.06095234
131	0x3c36f1d3	0.011166054
132	0xbc7eeeef	-0.015559896
133	0x3bb7131a	0.005586994
134	0xbd2c291b	-0.04203139
135	0x3c8d2d6c	0.017233573
136	0x3c11ad6a	0.008891443
137	0x3b34320a	0.0027495646
138	0xbbe5c9cf	-0.007012583
139	0xba36c5dc	-0.00069722324
140	0x3c8cf876	0.01720832
141	0x3af0b2d4	0.0018363842
142	0xbc33ee02	-0.010982038
143	0xbc5a26b0	-0.013314888
144	0x3c5f645d	0.013634768
145	0x3b1f304a	0.0024290257
146	0xbc3ec3d0	-0.011643365
147	0xbb8f2129	-0.0043679667
148	0xbd5747cb	-0.0525587
149	0x3ae601e5	0.0017548172
150	0x3daab339	0.08334965
151	0x3cdf16a0	0.027232468
152	0x3d06f6ff	0.032950398
153	0xbd0e6d8b	-0.034772437
154	0x3c388292	0.011261599
155	0xbd32f06b	-0.04368631
156	0xbd538e26	-0.051649235
157	0xbc34a183	-0.0110248355
158	0x3d748e46	0.059705995
159	0x3c8a7ae9	0.016904311
160	0xbd25bfd6	-0.040466152
161	0x3db7274a	0.08943041
162	0x3dc184ea	0.094491795
163	0x3d9faa2d	0.0779613
164	0x3cd06f7b	0.025443783
165	0xbdef8eda	-0.11697169
166	0xbe08dcca	-0.13365474
167	0xbd83ab89	-0.06429202
168	0x3d9205c0	0.07130003
169	0x3d5c3d9e	0.0537697
170	0x3d496dce	0.049176984
171	0xbd86aaed	-0.0657557
172	0xbb73ae76	-0.0037182844
173	0xbddf3b05	-0.10899929
174	0xbd850b76	-0.064963266
175	0xbdb1e126	-0.08685522
176	0xbd73b19d	-0.059495557
177	0x3d415635	0.047201354
178	0xbc621947	-0.013799972
179	0x3c589c1f	0.013220816
180	0xbcc38651	-0.023867758
181	0x3c2b3832	0.01045041
182	0x3d889f8d	0.06671057
183	0xbcbb9f1c	-0.022903018
184	0xbb8f65f2	-0.0043761665
185	0x3d46d1e4	0.04854001
186	0x3ccf8bd6	0.025335234
187	0xbc75d8c6	-0.015005296
188	0x3c0ae6bc	0.008477863
189	0xbda92398	-0.08258742
190	0xbe2c3d87	-0.16820346
191	0xbb9b22ad	-0.0047343583
192	0x3d2f3fd8	0.042785496
193	0xbd2c4107	-0.042054202
194	0xbd551f57	-0.05203184
195	0xbd5377ad	-0.051627804
196	0xbd551e4a	-0.05203084
197	0xbbd6997e	-0.0065490594
198	0xbd853c8a	-0.065056875
199	0xbd8b760f	-0.06809627
200	0xbd8d9311	-0.06912816
201	0xbded67ef	-0.115920894
202	0xbd200f26	-0.039076947
203	0xbdd9f06a	-0.106415585
204	0xbda8501e	-0.08218406
205	0xbd250999	-0.040292356
206	0xbd105db7	-0.035245623
207	0xbe4d620c	-0.20056933
208	0xbd5a9b97	-0.05337104
209	0x3d3f17a0	0.04665339
210	0xbdc58793	-0.09644999
211	0x3c95cc2d	0.018285835
212	0x3d8c3228	0.06845504
213	0x3b39228c	0.0028249351
214	0xbbb9860a	-0.0056617307
215	0x3cfebc65	0.031095693
216	0xbaffaf73	-0.0019507244
217	0xbc84f1d0	-0.016228586
218	0xbd075303	-0.03303815
219	0x3d9eebca	0.07759817
220	0x3d8bc8e7	0.068254285
221	0x3d92d060	0.071686506
222	0x3c9a2b0d	0.018819356
223	0x3c9099b9	0.017651426
224	0xbd8da4c2	-0.06916191
225	0xbd22e666	-0.039770506
226	0xbcea5148	-0.028603211
227	0xbccd97b3	-0.02509675
228	0xbd28dae2	-0.041224368
229	0x3dad96c0	0.08476019
230	0x3d4e1915	0.05031689
231	0xbce4f23d	-0.02794754
232	0xbc6d91f4	-0.01450013
233	0xbd3cfd8c	-0.04614024
234	0x3cdc8b6d	0.026921952
235	0xbc31da94	-0.010855336
236	0xbbfad69b	-0.0076549775
237	0x3d19f7a7	0.037589695
238	0xbdc3f3e7	-0.09568005
239	0xbcab0884	-0.020878084
240	0x3c830ba1	0.015996756
241	0x3c34ed49	0.011042901
242	0x3ccd1de0	0.02503866
243	0x3cfbbd20	0.03072983
244	0x3cacfe7e	0.021117445
245	0xbcd01ffd	-0.025405878
246	0x3cb4b761	0.022060098
247	0xbd086f88	-0.03330949
248	0xbc9c0e46	-0.019049775
249	0x3cd409c4	0.025883563
250	0xbd2e426f	-0.042543825
251	0xbc5083ee	-0.012726767
252	0xbc97e2f2	-0.018540833
253	0x3c40a6e0	0.011758536
254	0xbbfd77ed	-0.0077352435
255	0x3d96c4a5	0.07361726

bias f4 [64]
0	0xbd4fa766	-0.050696753
1	0xbd55d13a	-0.052201487
2	0xbaa8784c	-0.0012853234
3	0x3d8889a2	0.066668764
4	0xbd7dcc1f	-0.061962243
5	0x3d2af34a	0.041735925
6	0xbc78b449	-0.015179702
7	0x3b9fa03b	0.004871396
8	0xbd8546f6	-0.06507675
9	0x3d9b1510	0.07572377
10	0xbb0d6ed0	-0.0021580942
11	0xbd3b9411	-0.045795504
12	0x3c198d6f	0.009372099
13	0xbd97768d	-0.07395659
14	0x3d2968f6	0.041359864
15	0xbd01e364	-0.031710997
16	0x3cad77ae	0.021175232
17	0x3d03d2db	0.03218351
18	0xbdafc2c1	-0.08582068
19	0x3c3ed249	0.011646816
20	0x3d8d972d	0.069136
21	0xbdc22a77	-0.09480756
22	0x3d331b6c	0.043727323
23	0xbcb0610a	-0.021530647
24	0x3c284e36	0.010272553
25	0xbd605462	-0.054767974
26	0xbdf46457	-0.11933201
27	0xbd674003	-0.05645753
28	0x3cbbb874	0.022915103
29	0xbd474047	-0.048645284
30	0x3c824524	0.01590211
31	0x3d28d643	0.04121996
32	0xbdb0c06c	-0.086304516
33	0x3d37df59	0.044890735
34	0x3d85af30	0.06527555
35	0xbd7846e5	-0.060614485
36	0x3d939c8e	0.07207595
37	0x3d147169	0.03624097
38	0xbb5a1baf	-0.003328066
39	0xbd843e34	-0.06457177
40	0x3b95b147	0.0045682522
41	0x3d0f86e1	0.03504074
42	0x3c47191f	0.012151985
43	0xbd7c4d40	-0.06159711
44	0x3d1f61ab	0.038911503
45	0x3c365d73	0.0111306785
46	0xbc252ec9	-0.010081955
47	0x3d6fd386	0.058551334
48	0x3d214f26	0.039382122
49	0xbe0b417b	-0.13599198
50	0xbd849661	-0.06473995
51	0xbcb5f254	-0.022210278
52	0xbdda03fe	-0.10645293
53	0x3d714a5c	0.058908805
54	0xbd3abb12	-0.04558856
55	0xbc7c4fe7	-0.01539991
56	0x3d4e2029	0.05032364
57	0xbd3b2a5a	-0.045694686
58	0xbcacf201	-0.02111149
59	0xbd27e56f	-0.04099029
60	0xbbd9e041	-0.0066490476
61	0x3d2dac77	0.042400803
62	0xbc221944	-0.009893719
63	0xbc88ffb3	-0.01672349

weight f4 [64]
0	0x3f7ece33	0.99533385
1	0x3f77fc61	0.96869475
2	0x3f6ecd47	0.9328198
3	0x3f7ab2d4	0.9792912
4	0x3f73ba89	0.95206505
5	0x3f82bf6d	1.0214669
6	0x3f760fbd	0.96117765
7	0x3f679757	0.904653
8	0x3f8322f0	1.0245037
9	0x3f82c4d4	1.0216317
10	0x3f5f143c	0.8714025
11	0x3f8993d3	1.0748237
12	0x3f70840c	0.9395149
13	0x3f798bc2	0.9747888
14	0x3f819733	1.0124267
15	0x3f6e0e98	0.9299102
16	0x3f838f56	1.0278118
17	0x3f7169af	0.94301885
18	0x3f83b65e	1.0290029
19	0x3f75a458	0.95953894
20	0x3f8083b0	1.0040188
21	0x3f841bd6	1.0320995
22	0x3f863b69	1.048688
23	0x3f6de8a2	0.92933095
24	0x3f841edb	1.0321916
25	0x3f8073ec	1.0035377
26	0x3f7f5769	0.9974275
27	0x3f81ebb9	1.0150062
28	0x3f8c0782	1.0939791
29	0x3f7dfa88	0.99210405
30	0x3f696cff	0.9118194
31	0x3f76be19	0.96383816
32	0x3f66d9a7	0.9017586
33	0x3f699025	0.9123557
34	0x3f7dbbec	0.9911487
35	0x3f7b5cef	0.9818868
36	0x3f78c535	0.97175914
37	0x3f62fed4	0.88670087
38	0x3f754889	0.95813805
39	0x3f7888fe	0.97084033
40	0x3f82f110	1.0229816
41	0x3f7c0c13	0.98455924
42	0x3f6d638a	0.9273001
43	0x3f78045d	0.9688166
44	0x3f811814	1.0085473
45	0x3f6ca896	0.9244474
46	0x3f7c58b7	0.9857287
47	0x3f735203	0.95047015
48	0x3f74639f	0.9546451
49	0x3f78a016	0.9711927
50	0x3f80d851	1.0066015
51	0x3f7d103a	0.98852885
52	0x3f783a78	0.96964216
53	0x3f71e336	0.9448732
54	0x3f750a7c	0.9571912
55	0x3f85418b	1.0410627
56	0x3f648937	0.89271873
57	0x3f782712	0.96934617
58	0x3f810fe2	1.0082972
59	0x3f741a96	0.95353067
60	0x3f8795c8	1.0592585
61	0x3f8033d9	1.0015823
62	0x3f84bc5d	1.0369984
63	0x3f7cbd4b	0.9872634

bias f4 [64]
0	0xbe20621d	-0.15662427
1	0xbde78908	-0.113054335
2	0xbf0217dd	-0.5081766
3	0xbe6dab0d	-0.23209782
4	0xbeb9bf33	-0.36278686
5	0xbe3adc85	-0.18248184
6	0xbdfbdde6	-0.12298183
7	0xbeb1b4b3	-0.34708175
8	0xbe0cf2a0	-0.13764429
9	0xbe7e5946	-0.24838743
10	0xbe94d609	-0.29069546
11	0xbe9f9168	-0.31165624
12	0xbdee3f19	-0.11633129
13	0xbe485c6d	-0.19566508
14	0xbdde1f59	-0.10845823
15	0x3c007860	0.0078412
16	0xbe8eac91	-0.27866033
17	0xbee7738f	-0.45205352
18	0xbeada378	-0.3391378
19	0xbea1e202	-0.31617743
20	0xbeaa2aad	-0.33235684
21	0xbe613f84	-0.21996886
22	0xbe5e1c11	-0.21690394
23	0xbeb1bcc6	-0.34714335
24	0xbe968533	-0.29398498
25	0xbe8010e7	-0.25012895
26	0xbe41e232	-0.18933943
27	0xbd44d5b5	-0.04805537
28	0xbed411b6	-0.41419762
29	0xbe371f00	-0.1788292
30	0xbe8d9bb7	-0.27657863
31	0xbe4688eb	-0.19388168
32	0xbe36b121	-0.17841007
33	0xbde773b9	-0.11301369
34	0xbe90abac	-0.28255975
35	0xbdb9347b	-0.09043213
36	0xbeb4eaab	-0.35335287
37	0xbeb49d97	-0.35276482
38	0xbe7b5fbd	-0.2454824
39	0xbe7ad85e	-0.244966
40	0xbf110731	-0.566516
41	0xbe82cc3a	-0.25546438
42	0xbeccaced	-0.39975682
43	0xbea7d7d8	-0.32781863
44	0xbd489002	-0.04896546
45	0xbec3a677	-0.3821294
46	0xbd30038a	-0.042972125
47	0xbe860266	-0.26173705
48	0x3c260b31	0.010134504
49	0xbe7c5417	-0.24641453
50	0xbd690fb8	-0.056899756
51	0xbee0eecb	-0.43932185
52	0xbea16825	-0.31524768
53	0xbe2f78f0	-0.17135978
54	0xbd8030cd	-0.06259308
55	0xbe546007	-0.20739757
56	0xbe79e07f	-0.24402045
57	0xbe80c1b9	-0.251478
58	0xbe812193	-0.25220928
59	0xbe3a3398	-0.18183744
60	0xbd3b208e	-0.045685343
61	0xbd09981e	-0.033592336
62	0xbebe8dfc	-0.372177
63	0xbe908694	-0.28227675
