carl/envs/mario/pcg_smb_env/toadgan/generators/v1/TOAD_GAN_2-1/generators.pth (torch_old, 928871 bytes, 56 tensors)

weight f4 [64, 16, 3, 3]
0	0x3d77f3b7	0.06053516
1	0xbd500711	-0.05078799
2	0xbcafb481	-0.021448376
3	0x3c419a0d	0.011816514
4	0xbbde5ed5	-0.006786207
5	0xbc967d81	-0.018370392
6	0x3dff1c63	0.12456586
7	0xbd4f427a	-0.050600506
8	0xbd9765b4	-0.07392445
9	0x3ce01460	0.027353466
10	0x3d756c2b	0.05991761
11	0x3c42e92a	0.011896411
12	0x3c806fa5	0.015678236
13	0x39e168b5	0.00042993357
14	0x3cfede06	0.031111728
15	0x3c4a4bcb	0.012347172
16	0x3dfa69ce	0.12227212
17	0xbe03113a	-0.1279954
18	0x3c45208a	0.012031684
19	0xbd466bbe	-0.048442595
20	0xbd57ec96	-0.05271586
21	0xbd654110	-0.05597025
22	0x3ca0417d	0.019562477
23	0xbb51f408	-0.0032036323
24	0x3da65933	0.08122482
25	0x3dfa0491	0.12207902
26	0xbd6111d0	-0.054948628
27	0x3c27c467	0.010239697
28	0x3d94a66d	0.07258306
29	0xbcd8541c	-0.026407294
30	0xbc43ab9b	-0.011942769
31	0x3d91d1a9	0.071200676
32	0x3d45637b	0.048190575
33	0x3d368137	0.044556823
34	0xbdd5f000	-0.10446167
35	0xbc585b57	-0.013205371
36	0x3b993916	0.0046759946
37	0xbd85e027	-0.06536894
38	0xbde77291	-0.11301149
39	0x3d406bbd	0.046977747
40	0xbc9d605e	-0.01921099
41	0xbd48ca35	-0.049020965
42	0x3d0174ca	0.03160552
43	0xbda68fef	-0.08132922
44	0x3b449a8d	0.0029999346
45	0x3a2530f4	0.0006301545
46	0xbd255bfe	-0.040370934
47	0x3c80ee7b	0.015738716
48	0xbc4302a4	-0.011902485
49	0x3c0c4c90	0.008563176
50	0x3bd178ad	0.0063925595
51	0x3e08a2ca	0.13343349
52	0x3da6b362	0.08139683
53	0x3d3cf83b	0.04613517
54	0xbcb3e2e2	-0.021958772
55	0x3c97426d	0.018464291
56	0xbc8df30a	-0.017327804
57	0x3c9bdd26	0.01902635
58	0x3d5b6c8c	0.053570315
59	0xbc88cc98	-0.01669912
60	0x3c389907	0.011266953
61	0xbd8d2c48	-0.068932116
62	0xbd9713ee	-0.07376848
63	0xbd5f7913	-0.054558825
64	0xbdc0e04a	-0.0941778
65	0xbd6b3961	-0.057427768
66	0x3b8199dc	0.003955109
67	0xbbc8cb80	-0.0061277747
68	0xbbaf4b44	-0.0053495485
69	0x3d528ceb	0.05140392
70	0x3dc56960	0.09639239
71	0x3db6969d	0.08915446
72	0xbcce859c	-0.025210194
73	0xbd9d64f0	-0.07685268
74	0xbccf8818	-0.02533345
75	0xbd9973ce	-0.07492791
76	0x3d143f5c	0.036193237
77	0xbcc64165	-0.024201104
78	0xbdb6f86a	-0.089341
79	0x38b4aa84	8.61483e-05
80	0xbc05d3f2	-0.0081682075
81	0xbd47e75c	-0.048804626
82	0xbc0b5423	-0.0085039465
83	0xbd393880	-0.0452199
84	0x3d28d2ab	0.041216534
85	0xbd1f4f6f	-0.038894113
86	0x3c9a491a	0.018833686
87	0x3bceddff	0.006313085
88	0xbc9c3e7a	-0.01907276
89	0xbb982519	-0.0046430943
90	0x3cb0f397	0.021600528
91	0xbd0340a0	-0.032044053
92	0xbc61dc3b	-0.013785417
93	0xbd1c388c	-0.038139865
94	0x3c3ca436	0.01151376
95	0x3d16b4b9	0.036793444
96	0x3e47cc31	0.19511487
97	0x3cc7f38a	0.02440812
98	0xbc2e5f08	-0.010642774
99	0x3c5be949	0.013422319
100	0xbb9a2ad3	-0.004704812
101	0x3d208c42	0.03919626
102	0x3d18487c	0.0371785
103	0xbc4500c1	-0.0120241055
104	0xbd24be9e	-0.04022085
105	0xbd3359fa	-0.04378698
106	0xbc467417	-0.012112639
107	0xbb970c10	-0.0046095923
108	0xbb38316d	-0.0028105632
109	0xbd5862dc	-0.052828655
110	0x3d565ebc	0.05233644
111	0xbd35068d	-0.0441957
112	0xbbbe4e38	-0.0058076642
113	0x3b519894	0.0031981813
114	0x3d62666e	0.055273466
115	0xbc923732	-0.017848585
116	0x3d497105	0.04918005
117	0xbdb276b8	-0.0871405
118	0x3b9d42f1	0.00479924
119	0x3d944019	0.07238788
120	0x3b18f605	0.0023339998
121	0xbc2253e5	-0.009907697
122	0x3d63afb7	0.055587497
123	0x3d485fc9	0.048919473
124	0xbd686940	-0.056741
125	0xbd91dff1	-0.071227916
126	0x3b0333f2	0.0020019975
127	0xbd21d5bd	-0.039510477
128	0x3d31f7be	0.043449156
129	0xbb4766eb	-0.0030426334
130	0x3c9ea8ff	0.019367693
131	0xbd35e95a	-0.044411995
132	0xbcb9bd1d	-0.022673184
133	0x3cc062c2	0.023484591
134	0x3d159ac6	0.036524557
135	0x3cdd92cb	0.027047535
136	0xbd4d805f	-0.050171252
137	0xbce60bee	-0.02808186
138	0xbc84d2a3	-0.01621372
139	0xbcde8b32	-0.027165983
140	0xbd3df437	-0.04637548
141	0xbcbff859	-0.023433851
142	0x3d877da3	0.0661576
143	0xbda87274	-0.08224955
144	0xbd0ef24c	-0.03489904
145	0xbc652d9d	-0.013987926
146	0x3d0a4f15	0.033766825
147	0x3cb948a5	0.022617647
148	0xbcde01c1	-0.027100446
149	0xbd685f5a	-0.05673156
150	0xbd908f22	-0.070585504
151	0x3dba77dd	0.09104893
152	0xbda666e1	-0.08125091
153	0x3ddaaa25	0.10676984
154	0x3d32bb50	0.043635666
155	0x3ccf0bab	0.025274118
156	0x3dc3cfc4	0.095611125
157	0xbc9b1789	-0.01893212
158	0x3d8fa5d2	0.070140496
159	0x3d2ea2ed	0.042635847
160	0x3b97b8de	0.004630192
161	0xbd611950	-0.05495578
162	0xbd62561d	-0.055257905
163	0xbd52d4ef	-0.0514726
164	0xbd8b1ec7	-0.0679298
165	0xbc8526bb	-0.01625382
166	0xbd4b2e52	-0.04960472
167	0x3a04c8f0	0.00050653424
168	0xbd999d25	-0.07500676
169	0x3ce49d5a	0.027907062
170	0x3d40b204	0.04704477
171	0xbc559945	-0.013037031
172	0xbc8fef37	-0.017570121
173	0x3d8fa50d	0.07013903
174	0x3db53bba	0.088492826
175	0x3cbe5a78	0.023236498
176	0x3acb1760	0.0015494637
177	0x3de21015	0.11038224
178	0xbce35f44	-0.027755387
179	0x3d331383	0.04371978
180	0x3d718809	0.058967624
181	0x3d771ff5	0.06033321
182	0x3b403139	0.0029326214
183	0x3d065a63	0.032801043
184	0xbd5890a6	-0.052872322
185	0x3d051e6c	0.032499716
186	0x3e0e4cc6	0.13896474
187	0x3d278b41	0.040904287
188	0xbc30e56d	-0.010796887
189	0x3c9486c2	0.018130664
190	0xbcc1b547	-0.02364601
191	0x3a16aeab	0.00057480735
192	0x3c856413	0.01628307
193	0x3cdb8241	0.026795508
194	0xbc2f5d63	-0.0107034175
195	0x3d0b28bd	0.033974398
196	0xbc0ec444	-0.008713786
197	0x3d4a2148	0.049348146
198	0x3c96c0a2	0.018402401
199	0x3d04e1b3	0.032441806
200	0xbd164f70	-0.03669685
201	0xbb29959d	-0.002587653
202	0xbc5676a1	-0.013089807
203	0xbc1cc9bc	-0.009569582
204	0x3dc8a681	0.09797383
205	0xbd985525	-0.07438115
206	0xbdd3dbdf	-0.103446715
207	0xbcd4ca80	-0.025975466
208	0xbd265ca7	-0.040615704
209	0xbd133f82	-0.035949238
210	0xbc0de704	-0.008661035
211	0xbd2dd3f9	-0.04243848
212	0x3d1fb6f6	0.038992845
213	0xbd453deb	-0.048154753
214	0x3d8d57f5	0.06901542
215	0x3d739e6a	0.059477247
216	0xbd0ed3af	-0.034869846
217	0x38501c41	4.9617378e-05
218	0x3d4ddbb2	0.050258346
219	0xbcbe0e40	-0.023200154
220	0xbd746039	-0.059662078
221	0x3cb95b71	0.02262661
222	0x3d9595a5	0.07303933
223	0xbc66c348	-0.014084645
224	0x3cb598f4	0.02216766
225	0xbbb032db	-0.005377156
226	0xbd66a5d7	-0.0563105
227	0xbc46ec62	-0.012141319
228	0xbda18cbe	-0.078881726
229	0x3c472a78	0.012156121
230	0x38f2046d	0.000115402836
231	0x3d8d0a02	0.068866745
232	0xbd1626b7	-0.036658015
233	0x3d4fcdfa	0.050733544
234	0xbccebaa8	-0.025235489
235	0x3cc70ab4	0.024297096
236	0xb9ec6bdf	-0.00045093798
237	0x3bb068b3	0.005383575
238	0x3c817b12	0.015805755
239	0x3db40016	0.08789079
240	0x3e11a603	0.14223485
241	0xbcaf78b9	-0.02141987
242	0x3a81febe	0.0009917838
243	0x3cc9e282	0.02464414
244	0xbd6bb910	-0.057549536
245	0xbd34300d	-0.043991137
246	0x3ce35379	0.027749764
247	0xbd1c427d	-0.038149346
248	0x3ccbcf75	0.024879197
249	0xbdc3b61b	-0.09556218
250	0xbd7a278d	-0.061072875
251	0x3bded3ee	0.0068001663
252	0xbb9fbecd	-0.00487504
253	0xbcacc2b8	-0.021088943
254	0x3d56a704	0.052405372
255	0xbc1303f1	-0.008973108

bias f4 [64]
0	0x3c4be209	0.012444028
1	0x3da150ba	0.078767255
2	0x3d6e892d	0.05823629
3	0x3d8592ae	0.065221176
4	0x3d5d994c	0.054101273
5	0x3d8c8afc	0.06862447
6	0xbd640def	-0.05567735
7	0xbb332e63	-0.002734088
8	0xbda5d269	-0.08096773
9	0xbd23e14a	-0.040009774
10	0xba69e4fd	-0.00089223665
11	0x3d871ce6	0.06597309
12	0xbcfe6bb0	-0.031057209
13	0x3c7a2645	0.015267913
14	0xbd97b114	-0.07406822
15	0x3c56f087	0.01311887
16	0xbd276453	-0.04086716
17	0xbca617d6	-0.020275038
18	0x3b5348e7	0.0032239498
19	0x3c205388	0.00978554
20	0xbd93bf6a	-0.07214244
21	0x3d84bca1	0.064812906
22	0xbc77432e	-0.0150917005
23	0x3d843709	0.064558096
24	0x3d4b62c9	0.049654756
25	0xbd0c5a88	-0.034266025
26	0x3d967c24	0.07347897
27	0x3cc7ad47	0.024374617
28	0x3d26b262	0.040697463
29	0x3da224b3	0.07917156
30	0x3d1e6c11	0.03867728
31	0x3ce7d850	0.028301388
32	0xbccc0ea0	-0.024909317
33	0x3cfccc27	0.030859066
34	0xbd2a7688	-0.041616946
35	0x3b81edf0	0.003965132
36	0xbdd372a7	-0.103246026
37	0x3b267d57	0.0025404298
38	0xbd79ea75	-0.06101461
39	0xbd566e01	-0.052351
40	0xbd87ddd4	-0.06634107
41	0x3db2a7f5	0.087234415
42	0x3daa668e	0.08320342
43	0x3cf138ef	0.029446093
44	0xba4e75ff	-0.0007875859
45	0x3d41b0b4	0.047287658
46	0x3de95a90	0.113942266
47	0x3d9aa3a1	0.07550741
48	0xbd771f34	-0.060332492
49	0xbd3489b7	-0.044076648
50	0x3da43fa1	0.08019949
51	0xbd5a374c	-0.05327539
52	0x3caeaa9e	0.021321591
53	0xbd91aa3d	-0.071125485
54	0x3d9fc09d	0.0780041
55	0x3cc1a88f	0.023639945
56	0x3dc4dfb1	0.09612978
57	0xbdf474f7	-0.11936372
58	0xbd09eb2f	-0.033671554
59	0x3b9108cb	0.004426097
60	0x3dcc2225	0.0996745
61	0xba174b5b	-0.0005771422
62	0x3d672794	0.05643423
63	0x3bf5a3d0	0.0074963346

weight f4 [64]
0	0x3f82327a	1.0171654
1	0x3f6f31e1	0.93435484
2	0x3f8272ef	1.0191325
3	0x3f7c1066	0.9846252
4	0x3f7a76c3	0.97837466
5	0x3f6fdf9c	0.93700576
6	0x3f66f925	0.90223914
7	0x3f6e8ef6	0.9318689
8	0x3f87be3e	1.0604932
9	0x3f761c53	0.9613697
10	0x3f7bb669	0.9832521
11	0x3f9b55b7	1.2135533
12	0x3f6f1308	0.93388414
13	0x3f890d33	1.0707153
14	0x3f7e9dac	0.9945934
15	0x3f87b101	1.0600892
16	0x3f6579c0	0.896389
17	0x3f6eacd4	0.93232465
18	0x3f70b9b3	0.94033355
19	0x3f68d20d	0.9094551
20	0x3f849b57	1.0359906
21	0x3f7ca12a	0.98683417
22	0x3f72c8c5	0.948376
23	0x3f6997cd	0.91247255
24	0x3f6b89b6	0.92007005
25	0x3f709860	0.93982506
26	0x3f7d35d9	0.9891029
27	0x3f7c0b20	0.98454475
28	0x3f5ef1af	0.8708753
29	0x3f6baf75	0.920646
30	0x3f619c0b	0.8812873
31	0x3f83ad9b	1.0287355
32	0x3f7668a5	0.96253425
33	0x3f801781	1.0007173
34	0x3f7cbb44	0.98723245
35	0x3f8bce12	1.0922263
36	0x3f87ffdc	1.0624957
37	0x3f866532	1.0499632
38	0x3f826dfe	1.0189817
39	0x3f9098c1	1.1296617
40	0x3f70dfab	0.9409129
41	0x3f94d3e2	1.1627162
42	0x3f7aef84	0.9802172
43	0x3f6e3b4c	0.9305923
44	0x3f82da7f	1.022293
45	0x3f7ababa	0.9794117
46	0x3f8d52eb	1.104093
47	0x3f75fc01	0.9608765
48	0x3f70b1d3	0.9402134
49	0x3f753242	0.9577981
50	0x3f70dbb8	0.94085264
51	0x3f68b3d9	0.90899426
52	0x3f83db68	1.0301332
53	0x3f764ff0	0.96215725
54	0x3f814f89	1.0102397
55	0x3f816006	1.0107429
56	0x3f722c83	0.9459917
57	0x3f889c4f	1.0672702
58	0x3f874997	1.0569333
59	0x3f7231c2	0.94607174
60	0x3f80b282	1.0054476
61	0x3f7b180a	0.98083556
62	0x3f7f503c	0.997318
63	0x3f7036d0	0.9383364

bias f4 [64]
0	0xbe7154d1	-0.23567511
1	0xbe4f3677	-0.2023562
2	0xbe4931d9	-0.19647922
3	0xbe504d28	-0.20341933
4	0xbe76a7cb	-0.24087445
5	0xbe57a00c	-0.21057147
6	0xbe9c8221	-0.3056803
7	0xbe627055	-0.22113164
8	0xbe174361	-0.14771797
9	0xbe4efe40	-0.20214176
10	0xbe16410b	-0.1467325
11	0xbe742679	-0.23842801
12	0xbe706ff8	-0.23480213
13	0xbe88c433	-0.26712188
14	0xbe23df00	-0.16003036
15	0xbe78a9a8	-0.24283469
16	0xbe2e76bc	-0.17037481
17	0xbe97b39c	-0.2962922
18	0xbe82e41b	-0.25564656
19	0xbe6673f6	-0.22505173
20	0xbe870c75	-0.2637669
21	0xbe853533	-0.2601715
22	0xbe5f7cce	-0.21824953
23	0xbe8eee48	-0.2791617
24	0xbe45bc71	-0.19310166
25	0xbe90acd9	-0.28256872
26	0xbe274ba1	-0.16337444
27	0xbe18024b	-0.14844625
28	0xbeb1a8ba	-0.3469904
29	0xbe994e74	-0.29942667
30	0xbe90505d	-0.28186312
31	0xbe668d83	-0.2251492
32	0xbe2ee057	-0.17077766
33	0xbe62c857	-0.22146736
34	0xbe64e54a	-0.22353092
35	0xbdc0fdbb	-0.09423395
36	0xbe325a90	-0.1741736
37	0xbe4c5249	-0.19953264
38	0xbe34f0d1	-0.17669989
39	0xbe71689e	-0.23575065
40	0xbe37c94f	-0.17947887
41	0xbe81a30a	-0.253197
42	0xbe588e18	-0.21147954
43	0xbe7191bf	-0.23590754
44	0xbe29ca0f	-0.16580985
45	0xbe552f55	-0.20818837
46	0xbe121f39	-0.14269723
47	0xbe926ce8	-0.28598714
48	0xbe8ea170	-0.27857542
49	0xbe424374	-0.18971044
50	0xbe6cd682	-0.23128703
51	0xbe1d3471	-0.15352036
52	0xbe6a4890	-0.22879243
53	0xbe773df4	-0.24144727
54	0xbe139991	-0.1441405
55	0xbe2187fc	-0.1577453
56	0xbe8027f9	-0.25030497
57	0xbe8261db	-0.25465283
58	0xbe63b80a	-0.22238174
59	0xbe7f245a	-0.24916211
60	0xbe2261ef	-0.15857671
61	0xbe49e369	-0.19715656
62	0xbde7bc41	-0.113152035
63	0xbe60f716	-0.21969256

running_mean f4 [64]
0	0x3c521851	0.01282318
1	0x3da6bbdc	0.081413
2	0x3d28cb82	0.041209705
3	0x3d7135a4	0.058889046
4	0x3d4c2151	0.04983646
5	0x3d8f6f91	0.070037015
6	0xbd8b0c4d	-0.067894556
7	0xbbf4328a	-0.007452314
8	0xbdbb4ff0	-0.09146106
9	0xbd2658da	-0.04061208
10	0x3bf282a9	0.00740083
11	0x3d8b696b	0.06807216
12	0xbd1330bb	-0.035935145
13	0x3c57a1b5	0.013161113
14	0xbd5cc95a	-0.05390296
15	0x3c4cda47	0.012503213
16	0xbd4cd61f	-0.05000889
17	0xbcb6ed4f	-0.022329954
18	0xbab43b53	-0.001375059
19	0x3c77a557	0.015115104
20	0xbda4b092	-0.080414906
21	0x3d82196b	0.06352504
22	0xbc297627	-0.010343111
23	0x3d81a5e8	0.06330472
24	0x3d650c18	0.055919737
25	0xbc95ef88	-0.018302694
26	0x3d95b5fb	0.07310101
27	0x3cdb63de	0.026781019
28	0x3d444176	0.04791399
29	0x3da5acf8	0.08089632
30	0x3d0c14c2	0.034199484
31	0x3ca4f945	0.020138392
32	0xbcc012ae	-0.023446407
33	0x3d0c372f	0.034232315
34	0xbd2b5528	-0.04182926
35	0x3b640a8c	0.0034796325
36	0xbdd5c68c	-0.104382604
37	0x3c7587a0	0.014985949
38	0xbd6df71b	-0.058096986
39	0xbd786bff	-0.060649868
40	0xbd8dcff4	-0.069244295
41	0x3db5baee	0.08873545
42	0x3dcf2a51	0.10115493
43	0x3d126ecc	0.035750195
44	0xbb7bb029	-0.003840456
45	0x3d820135	0.063478865
46	0x3df2aacf	0.118489854
47	0x3d81f908	0.06346327
48	0xbd319b83	-0.0433612
49	0xbd5db885	-0.05413105
50	0x3d9f3238	0.0777325
51	0xbd981fe6	-0.07427959
52	0x3c118241	0.008881153
53	0xbd8ea300	-0.069646835
54	0x3da8806e	0.08227621
55	0x3cd7552f	0.026285736
56	0x3dd8fc67	0.10595017
57	0xbe01552c	-0.12630147
58	0xbd07fc2e	-0.03319948
59	0x3c18ecf6	0.00933384
60	0x3dd507cf	0.1040188
61	0x3c045aad	0.008078259
62	0x3d6b4d3a	0.057446696
63	0x3d0869ad	0.033303905

running_var f4 [64]
0	0x3e82e0cc	0.2556213
1	0x3e62405e	0.22094867
2	0x3e5ee87c	0.21768373
3	0x3e60e34e	0.2196171
4	0x3e7ac8f7	0.24490725
5	0x3e67e52a	0.22646013
6	0x3e6ccd2c	0.23125142
7	0x3e6876b5	0.22701533
8	0x3e886931	0.26642755
9	0x3e6babf1	0.23014809
10	0x3e69d331	0.2283447
11	0x3e8e5582	0.27799612
12	0x3e5a55de	0.21321818
13	0x3e7b5686	0.24544725
14	0x3e62df54	0.22155505
15	0x3e88744f	0.26651236
16	0x3e74a897	0.23892437
17	0x3e665fd0	0.22497487
18	0x3e5a7202	0.21332553
19	0x3e6250a4	0.22101074
20	0x3e8265d1	0.25468305
21	0x3e86a8aa	0.26300555
22	0x3e639d38	0.22227943
23	0x3e6e0bea	0.23246732
24	0x3e6a7d5d	0.22899385
25	0x3e5c0ae6	0.21488532
26	0x3e7fbb7d	0.24973865
27	0x3e83f96a	0.25776225
28	0x3e6a59fe	0.22885892
29	0x3e4b3dc0	0.19847775
30	0x3e61d6f8	0.2205466
31	0x3e78f6de	0.24312922
32	0x3e74fdf5	0.23925002
33	0x3e627f86	0.22118959
34	0x3e766d88	0.2406522
35	0x3e792b54	0.24332935
36	0x3e816a3a	0.25276357
37	0x3e6a5fab	0.22888057
38	0x3e7db202	0.24774936
39	0x3e82e460	0.2556486
40	0x3e7a2a9e	0.2443032
41	0x3e857c07	0.26071188
42	0x3e6bcac4	0.23026568
43	0x3e75de27	0.24010526
44	0x3e6baba0	0.23014688
45	0x3e77558e	0.2415373
46	0x3e82a1e6	0.25514144
47	0x3e5febf9	0.2186736
48	0x3e6662af	0.22498582
49	0x3e732489	0.23744406
50	0x3e7480cc	0.23877257
51	0x3e706712	0.23476818
52	0x3e867659	0.26262167
53	0x3e85331b	0.26015553
54	0x3e7686f3	0.24074917
55	0x3e817cbd	0.2529048
56	0x3e6b021b	0.22950022
57	0x3e85295a	0.2600811
58	0x3e83e126	0.25757712
59	0x3e7ef528	0.24898207
60	0x3e806d09	0.25083187
61	0x3e78e099	0.24304427
62	0x3e706cc8	0.23478997
63	0x3e6b4f81	0.22979547

weight f4 [64, 64, 3, 3]
0	0xbc4394e8	-0.0119373575
1	0xbc50eeca	-0.012752244
2	0xbd956eee	-0.07296549
3	0xbcdc76f7	-0.026912196
4	0xbc814a55	-0.015782515
5	0x3d14910f	0.03627115
6	0xbc50d9e0	-0.012747258
7	0xbcd9146e	-0.026499
8	0x3c9e16c0	0.019297957
9	0xbdbd50f5	-0.09243957
10	0x3d2e8e84	0.042616382
11	0xbd0e6dd4	-0.03477271
12	0xbdfbf0ed	-0.12301812
13	0x3ccc024f	0.024903445
14	0xbd75a136	-0.059968196
15	0x3d5c8173	0.05383439
16	0xbcd329a5	-0.025776694
17	0xbcfc6c89	-0.030813472
18	0xbd7634d0	-0.06010896
19	0x3c367029	0.0111351395
20	0xbd8e441f	-0.06946587
21	0xbd560a1f	-0.052255746
22	0xbc4e6f4e	-0.012599779
23	0xbd6dca45	-0.058054227
24	0xbc98bf36	-0.018645864
25	0xbdb45e92	-0.088071
26	0xbda2cc79	-0.07949156
27	0xbbcdb8da	-0.0062781395
28	0x3c76bbfb	0.0150594665
29	0xb7a41541	-1.956022e-05
30	0x3d4cc633	0.049993705
31	0x3bd65b1a	0.006541622
32	0xbca3f874	-0.020015933
33	0xbd99f94c	-0.07518253
34	0x3caa8390	0.020814687
35	0xbd0a54e1	-0.033772353
36	0x3c1fa48a	0.009743819
37	0xbc944e8a	-0.018103857
38	0xbd4ed920	-0.050500035
39	0xbdbfbebb	-0.09362551
40	0xbd61133c	-0.054949984
41	0xbd512644	-0.051061884
42	0xbbd4805d	-0.0064850287
43	0x3cbdd2ac	0.023171745
44	0x3cee0c04	0.029058464
45	0x3c85202d	0.016250694
46	0xbca797f5	-0.020458201
47	0xbcde71b8	-0.027153835
48	0x3ccd3f31	0.025054546
49	0x3d954315	0.072881855
50	0xbd80a8f0	-0.06282222
51	0x3caa36a8	0.020778015
52	0xbbe5f7de	-0.0070180735
53	0xbd0b81fb	-0.034059506
54	0xbcc60137	-0.024170501
55	0x39ce1bab	0.00039311996
56	0x3cd37a27	0.025815083
57	0x3da85015	0.082183994
58	0xbd10d42e	-0.0353586
59	0x3cac08ba	0.021000255
60	0x3a9ccd33	0.001196301
61	0xbd35b56e	-0.044362478
62	0x3cf5d42d	0.0300084
63	0xbd0e6cc0	-0.03477168
64	0xbc1674af	-0.009183093
65	0xbd123d81	-0.035703186
66	0xbb1e01b0	-0.0024109893
67	0xbd80a97c	-0.062823266
68	0x3d97f554	0.074198395
69	0xbce9f4ba	-0.028559078
70	0xbcedd6b3	-0.02903304
71	0xbda2ea10	-0.079548
72	0xbd0122ef	-0.031527456
73	0xbdac0509	-0.08399398
74	0xbd861974	-0.065478235
75	0xbd346bb0	-0.04404801
76	0xbc043875	-0.008070101
77	0x3a2af28a	0.00065211265
78	0x3d217bbb	0.03942464
79	0xbaeb92c9	-0.0017972823
80	0xbc7279d0	-0.01479955
81	0x3d38e907	0.045144107
82	0xbd161055	-0.03663667
83	0x3d352788	0.044227153
84	0x3bc3ba3f	0.00597313
85	0xbcaa72c4	-0.020806678
86	0xbb6e35d3	-0.0036348
87	0xbc561e14	-0.013068695
88	0xbcd2d3aa	-0.025735695
89	0xbda21554	-0.07914224
90	0xbbb39faf	-0.0054816823
91	0xbd9c6c32	-0.07637824
92	0xbd3bc620	-0.045843244
93	0xbda37198	-0.07980651
94	0xbca7d1e7	-0.020485831
95	0x3c36be73	0.011153805
96	0xbe246e10	-0.1605761
97	0x3c89e9a4	0.016835041
98	0x3d8b9397	0.0681526
99	0xbdd89fe3	-0.10577371
100	0xbcfd639e	-0.03093129
101	0xbcead0f7	-0.028664095
102	0xbdf523ab	-0.11969694
103	0x3db261cd	0.0871006
104	0xbc7970cd	-0.015224648
105	0x3dbf4203	0.093387626
106	0x3cd06897	0.025440497
107	0x3dbcf4ac	0.09226355
108	0xbc311587	-0.010808355
109	0xbcb3082a	-0.021854479
110	0xbd082205	-0.03323557
111	0xbb6e8502	-0.0036395197
112	0x3c4621d2	0.012093024
113	0x3c8b6ec7	0.017020596
114	0xbd8fb7b3	-0.0701746
115	0xbd762c5e	-0.060100906
116	0x3ca8bc84	0.020597704
117	0xbd913af2	-0.07091321
118	0xbdefe4dc	-0.11713573
119	0xbc856ed9	-0.016288208
120	0xbde64036	-0.11242716
121	0xbc01f0c3	-0.007930937
122	0xbc8d8151	-0.017273577
123	0xbd2ca8c4	-0.042153135
124	0xbbdeaf4f	-0.0067958008
125	0xbdf00bf1	-0.11721028
126	0x3a1be79e	0.00059472944
127	0xbd36ad0d	-0.044598628
128	0xbc78f238	-0.015194468
129	0xbd65e315	-0.056124765
130	0xbcb4403f	-0.022003291
131	0x3d96d8c6	0.07365565
132	0xbdb85f75	-0.09002582
133	0xbdddde4f	-0.108334176
134	0x3bbda811	0.0057878573
135	0x3c013d60	0.007888168
136	0xbd01bfcf	-0.031677064
137	0xbd3478c2	-0.044060476
138	0x3d686b0f	0.056742724
139	0x3d707444	0.05870463
140	0xbd33ce72	-0.043898053
141	0x3db92533	0.09040298
142	0xbd8c03b5	-0.068366446
143	0x3bd4c48a	0.006493156
144	0xbd437e18	-0.047727674
145	0x3ca8e202	0.020615581
146	0xbce0e360	-0.02745217
147	0xbc36e595	-0.011163135
148	0xbbfd0271	-0.0077212383
149	0x3d0d784b	0.03453855
150	0xbd141c12	-0.036159582
151	0xbd29d716	-0.041464888
152	0xbd8877fe	-0.06663512
153	0xbdd0f8b2	-0.10203685
154	0xbd9266b8	-0.07148498
155	0x3d77000c	0.06030278
156	0x3d090f7d	0.033462036
157	0xbd5ff4e0	-0.05467689
158	0xbbe075a9	-0.0068499637
159	0x3c9ebd05	0.01937724
160	0x3d018b83	0.03162719
161	0xbdaa01fd	-0.083011605
162	0xbc9d12aa	-0.019173939
163	0xbd3a91cc	-0.0455492
164	0x3ba9c620	0.005181089
165	0xbafedb78	-0.0019444069
166	0xbb26ff35	-0.0025481705
167	0xbd2a24a8	-0.041538864
168	0x3cdc555c	0.026896171
169	0xbda01ff1	-0.07818592
170	0x3b197e7f	0.0023421345
171	0xbd9b2cde	-0.07576917
172	0x3c33e44f	0.010979726
173	0xbcc58189	-0.024109619
174	0x3b351ad3	0.0027634397
175	0xbd58ec1a	-0.05295954
176	0xbd79781c	-0.06090556
177	0xbd29aa46	-0.04142215
178	0x3d2530c5	0.040329713
179	0xbc1383f8	-0.009003632
180	0x3d315e2d	0.043302704
181	0x3da63536	0.08115618
182	0x3ce0f5c6	0.027460944
183	0x3de497cc	0.111617655
184	0xbd6b0691	-0.05737931
185	0xbd480dc6	-0.04884126
186	0xbc1ecfb0	-0.009693071
187	0x3ddd60d7	0.10809486
188	0x3cee56d9	0.029094147
189	0x3b521467	0.0032055618
190	0xbd90f228	-0.07077438
191	0xbd835f95	-0.06414715
192	0x3d80a9b4	0.06282368
193	0x3cfb5ca8	0.03068383
194	0xbb0e9384	-0.0021755407
195	0x3aa70b3f	0.001274444
196	0x3da5271d	0.08064101
197	0xbb956cc7	-0.0045600864
198	0xbd14998c	-0.036279246
199	0xbc4b0822	-0.012392076
200	0x3cc13580	0.023585081
201	0x3c7f2272	0.015572177
202	0xbd903f84	-0.07043365
203	0xbd2977c7	-0.041373994
204	0xbd859e49	-0.06524331
205	0x3d5ad327	0.053424027
206	0x3c5eb539	0.013593012
207	0xbccb79c2	-0.024838332
208	0x3d2d238c	0.04227023
209	0xbc48bd7f	-0.012252211
210	0xbc9dc169	-0.019257264
211	0x3d47dd3b	0.048794966
212	0x3b9be63c	0.0047576707
213	0xbce6b7bb	-0.028163781
214	0xbd018094	-0.031616762
215	0x3cce86d2	0.025210772
216	0xbd8df421	-0.069313295
217	0x3d005666	0.031332396
218	0xbad5b8d0	-0.0016305689
219	0xbd48f4d7	-0.049061622
220	0x3db52355	0.0884463
221	0xbcea8161	-0.028626146
222	0xbcdaa07f	-0.026687859
223	0xbc1d110e	-0.009586586
224	0x3c61454d	0.013749433
225	0x3cb091dc	0.021553926
226	0xbd409575	-0.047017533
227	0x3c8b3e31	0.016997429
228	0x3d49d22e	0.04927271
229	0x3b533697	0.0032228583
230	0xbd81b639	-0.06333584
231	0xbc85f3c6	-0.016351592
232	0xbd0db692	-0.03459794
233	0xbd66d92e	-0.056359462
234	0x3a8818c3	0.0010383356
235	0xbd5561e1	-0.052095298
236	0xbba54802	-0.0050439844
237	0xbd1cf489	-0.038319144
238	0x3c0354a1	0.008015783
239	0x3c9b846a	0.018984038
240	0xbc025c42	-0.007956566
241	0x3cf778f2	0.030209038
242	0x3d807fd5	0.06274382
243	0x3cf01fc0	0.029312015
244	0xbc1c1756	-0.009527048
245	0xbc8f51fc	-0.017495148
246	0x3c3bc1b0	0.011459753
247	0x3dc3ea8c	0.09566221
248	0xbca005c3	-0.019533997
249	0x3babe8aa	0.0052462416
250	0xbd61bae8	-0.05510989
251	0xbce2bc33	-0.027677631
252	0x3acd84f3	0.0015679881
253	0x3c2da30e	0.010597957
254	0xbd12491a	-0.035714246
255	0x3cd48bae	0.02594551

bias f4 [64]
0	0xbd7d5eae	-0.06185787
1	0x3d157f34	0.036498263
2	0x3d085d22	0.033291943
3	0x3cca8d0d	0.024725461
4	0x3c916b08	0.017751232
5	0x3c76cb49	0.015063115
6	0xbd0c7098	-0.034287065
7	0xbdb36de6	-0.08761196
8	0x3c0ffe64	0.008788679
9	0x3c47d3b4	0.01219647
10	0xbd51d759	-0.051230762
11	0xbdbc2220	-0.09186196
12	0xbca29df1	-0.019850703
13	0xbd15f427	-0.036609795
14	0xbdbfd446	-0.0936666
15	0xbdab6955	-0.083697
16	0x3c84975b	0.016185453
17	0x3ce43d5e	0.027861293
18	0xbacc8994	-0.0015604966
19	0x3a5c888f	0.0008412683
20	0x3ab754be	0.0013987047
21	0xbcbbeafc	-0.022939198
22	0xbc2d48ec	-0.010576468
23	0xbd672e4b	-0.056440633
24	0xbc6015c4	-0.013677064
25	0x3c84737b	0.016168347
26	0x3ce0847d	0.027406925
27	0x3da2ecfc	0.079553574
28	0x3d74dced	0.059781004
29	0xbda9027c	-0.08252427
30	0x3d212539	0.03934214
31	0x3cdec05d	0.027191335
32	0x3da30c9a	0.07961388
33	0xbc77ac99	-0.015116834
34	0x3c8b1b9f	0.016980944
35	0x3ade3a58	0.0016954644
36	0x3dba3054	0.09091249
37	0xbbbe9975	-0.0058166333
38	0x3c8523b1	0.01625237
39	0xbdddfd76	-0.108393595
40	0xbcda0c64	-0.026617236
41	0x3b17b7fa	0.002315043
42	0xbdd5e190	-0.10443413
43	0xbd6d3245	-0.05790927
44	0x3d529fd6	0.051421963
45	0xbd8732e9	-0.06601507
46	0xbc68b05c	-0.014202204
47	0xbcceb3a3	-0.025232142
48	0xbd935d07	-0.07195478
49	0xba2f7b7b	-0.000669412
50	0x3c0ff751	0.008786992
51	0xbd09c878	-0.033638448
52	0xbc0d0e97	-0.0086094355
53	0xbd82e276	-0.0639085
54	0xbdc433a0	-0.09580159
55	0xbcff779a	-0.03118496
56	0xbc90db0b	-0.017682573
57	0xbc9ca8a5	-0.019123385
58	0x3bd3b87e	0.006461202
59	0xba4f940d	-0.00079184846
60	0xbd862461	-0.065499075
61	0xbc7f4482	-0.015580298
62	0x3d3fedc2	0.046857603
63	0x3de72c6e	0.11287771

weight f4 [64]
0	0x3fa0d721	1.2565652
1	0x3fae27b6	1.3605869
2	0x3f946ce2	1.1595728
3	0x3f951597	1.1647214
4	0x3f9bdb25	1.2176253
5	0x3fa1e4f9	1.2648002
6	0x3fa3e451	1.2804052
7	0x3fb82d2b	1.4388784
8	0x3fa8a941	1.3176652
9	0x3f9fd8c2	1.2488024
10	0x3fa0465a	1.252147
11	0x3fb5afb6	1.4194248
12	0x3f99ebad	1.2025048
13	0x3fa60f1d	1.2973362
14	0x3fa30971	1.2737256
15	0x3faa3d00	1.3299866
16	0x3f9aff75	1.2109209
17	0x3f959860	1.1687126
18	0x3f9db5f8	1.2321157
19	0x3f9f40b6	1.2441623
20	0x3f9d0102	1.2265933
21	0x3f9e2905	1.2356268
22	0x3fa8d413	1.318972
23	0x3fa02131	1.2510129
24	0x3f939261	1.1529046
25	0x3fa3fd05	1.281159
26	0x3f9a7289	1.2066203
27	0x3f8f955b	1.1217455
28	0x3f9e3d76	1.2362506
29	0x3f992a44	1.1966023
30	0x3fa19dc8	1.2626276
31	0x3fa56c02	1.2923586
32	0x3f98c136	1.1933963
33	0x3fa34550	1.2755527
34	0x3f9c8b75	1.2230059
35	0x3f8fd58f	1.1237048
36	0x3faf6708	1.3703318
37	0x3fa7d453	1.3111671
38	0x3f9ca5d6	1.2238109
39	0x3fa574e0	1.2926292
40	0x3f9e42ad	1.2364098
41	0x3f8c1510	1.0943928
42	0x3fa4540c	1.2838149
43	0x3fa2917a	1.2700646
44	0x3fa6287b	1.2981104
45	0x3faa5fa1	1.3310434
46	0x3f93139c	1.1490359
47	0x3fa8fc4d	1.3201996
48	0x3f9db346	1.2320335
49	0x3f95545d	1.1666371
50	0x3f957c80	1.1678619
51	0x3fa2a887	1.270768
52	0x3fa9c991	1.3264638
53	0x3fa697a3	1.3015026
54	0x3fa4b041	1.2866288
55	0x3fa7ca25	1.3108565
56	0x3f989ba7	1.1922501
57	0x3fa41447	1.2818688
58	0x3f905f0f	1.127901
59	0x3f96f313	1.179293
60	0x3fa3cbc5	1.279656
61	0x3f918317	1.136813
62	0x3f994d0c	1.1976638
63	0x3faaa14a	1.3330472

bias f4 [64]
0	0x3e1685a2	0.14699414
1	0x3e34c358	0.17652643
2	0xb8a4a6c6	-7.8511934e-05
3	0x3df6675a	0.120314315
4	0x3d2c83d2	0.0421179
5	0x3ce603d8	0.028078005
6	0x3dc6704e	0.09689389
7	0x3ddd9a7f	0.108204834
8	0x3d8ae996	0.06782834
9	0x3db60ff3	0.08889761
10	0x3db73625	0.08945874
11	0x3e0af670	0.13570571
12	0x3d898e09	0.06716544
13	0x3d8ec754	0.069716126
14	0x3d580eb0	0.052748382
15	0x3d8c5d15	0.068536915
16	0x3d69f5d2	0.0571192
17	0x3d9331fa	0.07187267
18	0x3dd61929	0.10454018
19	0x3df557a1	0.119796045
20	0x3dd41c7a	0.10356994
21	0x3dda62de	0.10663389
22	0x3da450ee	0.080232486
23	0x3df6c05e	0.1204841
24	0x3da7044d	0.08155117
25	0x3d0710da	0.032975055
26	0x3d9e890d	0.07740984
27	0x3936b8b2	0.00017425677
28	0x3cec4b33	0.028844452
29	0x3d823399	0.06357498
30	0x3dc0da10	0.09416592
31	0x3d7a9b5d	0.061183322
32	0x3d21ad0e	0.03947168
33	0x3e0bc4d7	0.13649307
34	0x3d244c27	0.040111687
35	0x3d8eb6dd	0.06968472
36	0x3e114b4b	0.14188878
37	0x3e05b850	0.13058591
38	0x3d8707ce	0.065932855
39	0x3e01a0d6	0.1265901
40	0x3de3c65d	0.11121819
41	0x3bb7e7f8	0.0056123696
42	0x3dcad010	0.09902966
43	0x3de03f31	0.10949553
44	0x3dcc1408	0.09964758
45	0x3de27353	0.110571526
46	0x3d851d33	0.0649971
47	0x3debf6e7	0.11521702
48	0x3d79f2c3	0.06102253
49	0x3da18f22	0.078886285
50	0x3dafb9ca	0.08580358
51	0x3d2f2dff	0.042768475
52	0x3e1aa9a9	0.15103783
53	0x3dbe0a5d	0.092793204
54	0x3e100aab	0.1406657
55	0x3e00169d	0.12508626
56	0x3c1f7930	0.009733483
57	0x3e246809	0.16055311
58	0x3d1d8f7d	0.03846692
59	0x3d5ac033	0.05340595
60	0x3df3607e	0.11883639
61	0x3db4da2a	0.08830674
62	0x3c7c7ade	0.015410153
63	0x3dc05580	0.09391308

running_mean f4 [64]
0	0xbff81239	-1.9380561
1	0x3fda4e8d	1.7055222
2	0xbd47caad	-0.04877727
3	0xbf772527	-0.96541065
4	0xbf295cd8	-0.66157293
5	0x3dacc01c	0.084350795
6	0xbfd36db1	-1.651785
7	0xc002e620	-2.0452957
8	0x3f55b693	0.8348171
9	0x3f7cfabd	0.98820096
10	0xc0202799	-2.5024168
11	0xc008323a	-2.1280656
12	0xbf0949a8	-0.53628016
13	0xbed1fb57	-0.4101207
14	0xbff0172e	-1.8757074
15	0xbf05b2f2	-0.52226174
16	0xbe42eeff	-0.19036482
17	0x3f4f7c1f	0.8104877
18	0xbf4004d7	-0.75007385
19	0xbf66bf75	-0.9013589
20	0x3f611224	0.87918305
21	0xbe6e6b2e	-0.23283073
22	0x3f102d8f	0.56319517
23	0xbeb41485	-0.35171905
24	0x3eb71ea6	0.3576557
25	0xbf8de53b	-1.108558
26	0x3f8dcf59	1.1078902
27	0x3fc4e7cb	1.5383238
28	0x3eca476b	0.39507613
29	0xbe2b7279	-0.16742887
30	0x3f3467a9	0.7047067
31	0xbee436f4	-0.44573176
32	0x3fa13fb8	1.259757
33	0xbf136a88	-0.5758443
34	0xbeb04086	-0.34424227
35	0x3c25db52	0.010123091
36	0x3fd11c02	1.6336672
37	0x3f4261cb	0.7593047
38	0xbff5a16e	-1.918989
39	0xbffe2947	-1.9856347
40	0x3f3d9a56	0.7406362
41	0x3fd6c66c	1.6779304
42	0xc02fb367	-2.7453249
43	0xc00c5f5a	-2.1933198
44	0x3f4fbcbf	0.8114738
45	0xbffcec6a	-1.9759648
46	0xbe000341	-0.12501241
47	0xbfd1ec92	-1.640032
48	0xbdad121a	-0.08450718
49	0xbc082f07	-0.008311993
50	0xbea1afa5	-0.3157932
51	0xbf00f93e	-0.50380313
52	0xbfc9784a	-1.5739834
53	0xbfdbb941	-1.716591
54	0xc010434c	-2.2541075
55	0xbfa08a6f	-1.2542247
56	0x3f140c00	0.5783081
57	0xbf004cf5	-0.5011743
58	0x3c850366	0.016236972
59	0x3d51c25d	0.05121075
60	0xbf35d600	-0.71029663
61	0x3ec87f54	0.39159644
62	0x3fa8073e	1.312721
63	0x3fa27e95	1.269488

running_var f4 [64]
0	0x3fcb6f2e	1.5893304
1	0x3fc9a842	1.5754473
2	0x3f9569e3	1.1672939
3	0x3fd1a96a	1.6379826
4	0x3fc10249	1.5078822
5	0x3fbe826c	1.4883552
6	0x3fd9bbf3	1.7010483
7	0x3fe199a8	1.7625017
8	0x3fb8a3d7	1.4425
9	0x3fa8513d	1.3149792
10	0x4004bbb9	2.0739577
11	0x3ff342dc	1.9004779
12	0x3fcd8809	1.605714
13	0x3fb1ac8c	1.3880782
14	0x3fb3509b	1.4008974
15	0x3f9b1ba6	1.2117813
16	0x3f9b325a	1.2124741
17	0x3fa4a792	1.2863638
18	0x3fcd05a8	1.6017351
19	0x3fb86c38	1.4408026
20	0x3fbe3378	1.4859457
21	0x3fbce4b2	1.4757292
22	0x3fdd2b8f	1.7278918
23	0x3fc247f3	1.5178207
24	0x3fc48799	1.5353881
25	0x3faf6c2f	1.370489
26	0x3fafc3ff	1.3731688
27	0x3fb75dde	1.4325521
28	0x3fa005f1	1.2501813
29	0x3fa64083	1.2988437
30	0x3fb38961	1.40263
31	0x4002a0eb	2.0410717
32	0x3fb3c0c3	1.4043201
33	0x3fbbab47	1.4661645
34	0x3fcb1d79	1.5868369
35	0x3fb414b6	1.406882
36	0x3fc1c7c0	1.5139084
37	0x3fb35789	1.4011089
38	0x3fc6e016	1.5537136
39	0x3fdb9fee	1.7158182
40	0x3fb22ed8	1.3920546
41	0x3fc33d98	1.5253172
42	0x4003337e	2.0500178
43	0x40072f39	2.1122572
44	0x3fa4a700	1.2863464
45	0x3fc9ab8c	1.5755477
46	0x3fa9ce74	1.326613
47	0x3f9b7ea7	1.2148026
48	0x3fa9d09a	1.3266785
49	0x3fa0bad9	1.2557021
50	0x3fecf342	1.8511736
51	0x3f9314c2	1.149071
52	0x3fcb9e01	1.5907594
53	0x3fb0a53d	1.3800427
54	0x3fcc9623	1.5983318
55	0x3fb6d039	1.4282295
56	0x3facb0c3	1.3491443
57	0x3fb1e0b2	1.3896697
58	0x3fbab12e	1.4585321
59	0x3f9d3758	1.2282515
60	0x3fdd2b14	1.7278771
61	0x3fc895f4	1.5670762
62	0x3fa8888f	1.3166674
63	0x3f959c58	1.1688337

weight f4 [16, 64, 3, 3]
0	0xbd66ed6a	-0.05637876
1	0xbcb45f4f	-0.022018103
2	0x3db9ea51	0.090778954
3	0xba4c79cb	-0.0007800131
4	0x3d221a52	0.039575882
5	0x3d01abb2	0.031657882
6	0xbda02839	-0.07820172
7	0xbb19f3bc	-0.0023491224
8	0xbe05f1f3	-0.13080578
9	0xbc8d94e7	-0.017282916
10	0xbcec9c8f	-0.028883247
11	0x3d07de32	0.033170886
12	0x3d513f7f	0.051085945
13	0xbd81bc51	-0.06334747
14	0x3d183035	0.03715535
15	0xbcd38550	-0.025820404
16	0xbe043436	-0.12910542
17	0x3d60b2b5	0.05485793
18	0xbd9eeb64	-0.07759741
19	0xbddc86b6	-0.107678816
20	0xbd6be26b	-0.057588976
21	0xbbd9f67b	-0.006651697
22	0xbd3858a9	-0.045006428
23	0xbde3d334	-0.11124268
24	0xbdf769a3	-0.120806955
25	0x3c439aa9	0.011938729
26	0x3d2e2e8b	0.042524856
27	0x3c1b9572	0.00949608
28	0x3daf5d1b	0.0856268
29	0x3d88a58f	0.06672203
30	0xbd31a0b4	-0.04336615
31	0x3dbb747a	0.091530755
32	0x3d075e30	0.03304881
33	0x3dbfcd50	0.09365332
34	0x3d711d90	0.058866084
35	0x3c3a452e	0.011369033
36	0xbde3a662	-0.111157194
37	0x3e04d504	0.12971884
38	0x3d8cabae	0.06868683
39	0x3d3f1885	0.046654243
40	0x3d95b666	0.0731018
41	0x3cf612fe	0.030038353
42	0x3dad6144	0.084658176
43	0x3df310fb	0.11868473
44	0x3dba43ff	0.090950005
45	0x3d842b05	0.06453518
46	0xbd70256b	-0.058629435
47	0xbe2d9869	-0.16952671
48	0x3d841740	0.06449747
49	0x3b1311ca	0.0022441023
50	0xbdcb1d66	-0.09917717
51	0x3e6b308c	0.22967738
52	0xbc373a6d	-0.011183363
53	0xbe248d70	-0.16069579
54	0x3d5281b2	0.05139322
55	0xbd4f21ce	-0.050569348
56	0x3c8c2b6a	0.017110545
57	0xbe00ac48	-0.1256572
58	0xbd805d60	-0.0626781
59	0xbda28bb5	-0.07936803
60	0x3c2d0378	0.010559909
61	0x3d571f71	0.05252022
62	0xbda925a3	-0.08259132
63	0x3de28962	0.1106136
64	0xbdb9bf98	-0.09069747
65	0xbd532359	-0.051547382
66	0x3d35ff0e	0.044432692
67	0xbe18394a	-0.14865604
68	0xbdacda62	-0.08440091
69	0xbe03ed5c	-0.12883514
70	0xbe1b3697	-0.15157543
71	0xbd98600f	-0.07440197
72	0x3d2f703a	0.042831637
73	0x3d17ffc4	0.03710915
74	0xbcf2c1a5	-0.029633353
75	0x3d89f2ad	0.0673574
76	0xbcfe6cfa	-0.031057823
77	0xbd34c9f4	-0.04413791
78	0x3d941500	0.07230568
79	0xbdfc5788	-0.12321383
80	0xbdab5b92	-0.08367075
81	0xbdac54f0	-0.08414638
82	0xbd54289b	-0.051796537
83	0xbd264ecc	-0.04060249
84	0xbdfb4609	-0.122692175
85	0xbbef6c4d	-0.0073066116
86	0x3c8d50f6	0.01725052
87	0xbe4c6c72	-0.19963244
88	0x3ce9bfcf	0.028533844
89	0xbe3724f7	-0.17885195
90	0x3c2cd1f9	0.010548108
91	0x3d38610d	0.04501443
92	0xbd40083a	-0.046882845
93	0x3dcbc326	0.09949331
94	0x3d0899da	0.03334985
95	0xbcf8f7f1	-0.030391665
96	0xbd3a933a	-0.045550562
97	0x3d310d04	0.043225303
98	0xbc38f796	-0.011289498
99	0xbcfa058b	-0.030520221
100	0x3e050f7e	0.12994191
101	0xbd9cd11d	-0.07657073
102	0x3e050d5b	0.12993376
103	0x3dc2a83a	0.09504743
104	0x3c86eb26	0.01646955
105	0x3da4cc28	0.08046752
106	0x3d23fb5e	0.040034644
107	0x3d83e81f	0.06440758
108	0xbd60b181	-0.05485678
109	0xbd97ec96	-0.07418172
110	0x3dcf55c4	0.1012378
111	0xbb42006b	-0.00296023
112	0xbd8f3aa2	-0.06993605
113	0x3d872123	0.06598117
114	0xbe285b81	-0.16441156
115	0xbe147a5a	-0.14499798
116	0x3daae6f4	0.08344832
117	0xbd362f0d	-0.044478465
118	0x3d8eae5b	0.069668494
119	0xbb47b553	-0.0030473068
120	0x3d103844	0.03520991
121	0x3cf5f95a	0.030026127
122	0x3c09a1ae	0.008400364
123	0x3cc183c2	0.023622397
124	0x3db775b9	0.08958001
125	0xbcc1aca4	-0.023641892
126	0x3cc1c396	0.023652833
127	0x3cd61ab5	0.026135782
128	0x3a6cfede	0.0009040664
129	0xbc60a680	-0.013711572
130	0x3d9d475e	0.07679628
131	0xbd3a22e9	-0.04544345
132	0xbe1d24ff	-0.15346144
133	0xbd4fab91	-0.050700728
134	0xbde29cd3	-0.11065068
135	0xbdd3278b	-0.103102766
136	0xbd36ddb1	-0.044645015
137	0xbdc93488	-0.09824473
138	0xbe1841ec	-0.14868897
139	0xbda37449	-0.07981164
140	0xbd12ca36	-0.035837375
141	0xbdca8527	-0.09888678
142	0x3d0281d7	0.031862106
143	0xbbb81dad	-0.005618772
144	0xba910c0a	-0.001106621
145	0x3c8a0c1e	0.016851481
146	0xbd185e12	-0.037199087
147	0x3d991658	0.07474965
148	0xbcfeab6a	-0.031087596
149	0xbd2fd4be	-0.042927496
150	0x3d33aeb8	0.043867797
151	0x3d781796	0.06056937
152	0xbd18ea87	-0.037333038
153	0xbcb5c82f	-0.022190182
154	0x3d3d80ae	0.046265297
155	0xbbaa9e8b	-0.005206888
156	0xbdf20607	-0.11817556
157	0x3be0446a	0.006844093
158	0x3b879eb0	0.00413879
159	0xbd84b604	-0.06480029
160	0x3d05bf29	0.032653008
161	0xbd1dcdce	-0.03852635
162	0x3d796a37	0.06089231
163	0x3c9df827	0.019283367
164	0xbc8c8b2e	-0.01715621
165	0x3d9776f4	0.073957354
166	0xbdf440dd	-0.11926434
167	0xbd9bdaad	-0.076100685
168	0x3d903b16	0.0704252
169	0xbe0cd581	-0.1375332
170	0xbb970968	-0.0046092756
171	0x3d850626	0.06495313
172	0x3d95236b	0.07282146
173	0xbcb2beca	-0.021819491
174	0x3d2375ab	0.03990714
175	0xbb80efee	-0.003934852
176	0xb8e005bd	-0.00010682221
177	0xbc125adf	-0.008932798
178	0x3df05214	0.11734405
179	0xbbdfaa39	-0.006825712
180	0x3a8aaf84	0.0010580872
181	0x3c1be715	0.0095155435
182	0xbd4ba741	-0.049720053
183	0x3c1ab908	0.009443529
184	0x3d2c7bfc	0.04211043
185	0x3d2afbff	0.04174423
186	0xbd752db3	-0.059858035
187	0xba011aa1	-0.00049249275
188	0x3c48ccc1	0.012255848
189	0xbd84a9c6	-0.06477694
190	0x3d80520e	0.06265651
191	0x3d222b73	0.039592218
192	0xbdb89c6f	-0.09014212
193	0xbc2f5467	-0.010701275
194	0xbcd26659	-0.025683569
195	0xbce96317	-0.028489633
196	0x3d617793	0.055045675
197	0x3d472431	0.0486185
198	0xbdeec6b5	-0.11658994
199	0xbd112ec9	-0.03544501
200	0x3cf6676f	0.030078618
201	0xbc9cbfec	-0.019134484
202	0xbd92b855	-0.07164065
203	0x3d3ecb9d	0.0465809
204	0xbdbbf154	-0.09176889
205	0xbd0fe6bc	-0.035132155
206	0xbb74369d	-0.0037263997
207	0xbd595faf	-0.053069767
208	0x3d916f07	0.07101255
209	0x3ddfb026	0.109222695
210	0xbd362e1b	-0.044477563
211	0x3d2e7632	0.04259319
212	0x3c905114	0.017616786
213	0xbd0b4e9d	-0.03401052
214	0x3e137739	0.14400949
215	0x3d3bbfe0	0.045837283
216	0xbd66d85d	-0.056358684
217	0x3c7d1d15	0.015448828
218	0xbcfff9cc	-0.031247042
219	0xbe0e1586	-0.13875398
220	0x3d8b287b	0.067948304
221	0xbc210264	-0.00982723
222	0xbcaf6a16	-0.02141289
223	0x3e03da2e	0.12876198
224	0x3c9932bd	0.018700952
225	0xbd9e44f2	-0.07727994
226	0xbd798891	-0.060921255
227	0xbdb4e86c	-0.088333935
228	0xbd9ce759	-0.076613136
229	0xbccba2e6	-0.02485795
230	0xbcbc6426	-0.022996973
231	0xbe19593c	-0.14975446
232	0xbd852636	-0.06501429
233	0xbdf700c7	-0.12060695
234	0x3e132f4d	0.14373513
235	0x3d242a16	0.0400792
236	0x3cd5bba2	0.026090447
237	0x3d619309	0.055071864
238	0xbd2d8e02	-0.042371757
239	0xbdcacb77	-0.09902089
240	0x3c1f5701	0.009725333
241	0x3cf7a63e	0.030230638
242	0xbdc01655	-0.093792595
243	0x3d3e5014	0.046463087
244	0x3d740e04	0.05958368
245	0x3d867172	0.06564607
246	0x3e019378	0.12653911
247	0x3d754033	0.05987568
248	0x3db622ad	0.08893333
249	0x3d8cfc5b	0.068840705
250	0x3d782cb3	0.060589503
251	0xbd121256	-0.035662018
252	0x3daa35d4	0.08311048
253	0x3ddbb1ff	0.107273094
254	0x3e0c97bd	0.13729759
255	0x3deb97d8	0.11503571

bias f4 [16]
0	0xbcd7488c	-0.02627971
1	0x3d541640	0.05177903
2	0xbdb8907a	-0.09011932
3	0xbd9433ff	-0.0723648
4	0xbcc1c405	-0.02365304
5	0xbd3218f5	-0.043480832
6	0xbb5c6ad3	-0.0033633008
7	0xbca7cae2	-0.020482484
8	0x3cf1e039	0.029525863
9	0x3c0b7be7	0.008513427
10	0xbc757c90	-0.014983311
11	0xbd4c33d9	-0.049854133
12	0xbd98ca68	-0.07460481
13	0xbd4b3ee9	-0.049620543
14	0xbd3d97a7	-0.046287205
15	0xbcc8c602	-0.02450848

weight f4 [64, 16, 3, 3]
0	0x3cb0de47	0.021590365
1	0xbc42dbb9	-0.011893206
2	0x3d5e3e5f	0.0542587
3	0xbc020e33	-0.007937956
4	0x3d410dca	0.04713229
5	0x3cef7685	0.02923132
6	0x3d07d3a0	0.033160806
7	0xb92b2aae	-0.0001632373
8	0x3c6ed52d	0.014577192
9	0x3cbac4aa	0.022798855
10	0x3d9b5e31	0.07586325
11	0x3d76ef2c	0.060286686
12	0xbd6623ae	-0.05618637
13	0xbd99230f	-0.0747739
14	0xbd30b1ac	-0.04313819
15	0x3d1723a1	0.036899213
16	0x3d2aacfb	0.041668873
17	0xbb8f0013	-0.0043640225
18	0xbc25740c	-0.0100984685
19	0xbd3ad355	-0.0456117
20	0x3bbf7b3c	0.005843548
21	0x3d91f0a0	0.07125974
22	0x3dc8434a	0.09778459
23	0x3dd0a61f	0.10187935
24	0xbd7238d6	-0.059136234
25	0xbd806230	-0.06268728
26	0xbb32ff3e	-0.002731278
27	0xbc85afcf	-0.016319184
28	0xbce7a673	-0.028277611
29	0xba2810ae	-0.0006411177
30	0xbd2f826f	-0.042849
31	0x3c5ab078	0.0133477375
32	0x3a75b564	0.00093730376
33	0x3b8eee6a	0.0043619173
34	0xbd9581f9	-0.07300181
35	0x3c6685f2	0.014070021
36	0xbd4c5e12	-0.0498944
37	0xbd456b7e	-0.048198216
38	0xbd3cd4f6	-0.046101533
39	0xbd40e3f5	-0.047092397
40	0x3cf7ffd0	0.030273348
41	0xbafb9ce7	-0.0019196541
42	0x3c811c32	0.015760515
43	0xbca2f388	-0.019891515
44	0xbd136c8a	-0.035992183
45	0xbc5af141	-0.0133631835
46	0xba8560c0	-0.0010175928
47	0xbb8b2658	-0.0042465143
48	0x3d02a521	0.03189576
49	0x3c4ef9cf	0.012632801
50	0x3bc2f470	0.0059495494
51	0xbbb003d1	-0.0053715487
52	0xbc1ba320	-0.009499341
53	0x3b458cef	0.0030143817
54	0x3c81ead4	0.015859045
55	0x3c05997b	0.008154268
56	0x3d0afa33	0.033930015
57	0x3d071ae4	0.03298463
58	0x3c95816c	0.01825019
59	0x3d0a2b2b	0.033732574
60	0x3cf861d4	0.030320086
61	0x3d0c20d6	0.034211002
62	0x3d15829c	0.036501512
63	0xbcbfab1d	-0.023397023
64	0xbd364637	-0.044500556
65	0x3c21f000	0.009883881
66	0xbab0f8f6	-0.001350193
67	0xbc838e9a	-0.016059209
68	0x3cb0d5af	0.021586267
69	0xbba3d8ca	-0.0050002085
70	0xbd0f7839	-0.035026763
71	0xbd2262be	-0.03964495
72	0xbd8b0da5	-0.06789712
73	0xbd99d884	-0.07512
74	0xbd7a42a8	-0.061098725
75	0x3da5f959	0.081042
76	0x3dd01b97	0.10161512
77	0x3ddcd9e5	0.107837476
78	0xbd5e7f8f	-0.054320868
79	0xbd7a9436	-0.0611765
80	0xbd61f967	-0.05516949
81	0xbd831de5	-0.06402186
82	0xbcbc55bc	-0.0229901
83	0xbd49114c	-0.04908876
84	0xbc02aaa4	-0.007975254
85	0x3d955ca0	0.072930574
86	0x3d1236e6	0.035696886
87	0xbcc164bb	-0.023607602
88	0xbd29d308	-0.04146102
89	0xbca5da41	-0.020245673
90	0x3cd12254	0.025529064
91	0xbcb3fd3d	-0.02197134
92	0xbd2b7342	-0.041857965
93	0x3dabadef	0.083827846
94	0x3d82974e	0.06376515
95	0xb7629a43	-1.3506567e-05
96	0x3ca47cf8	0.020079121
97	0xbd8c55a0	-0.06852269
98	0xbd55ed82	-0.05222846
99	0xbdb86a3f	-0.0900464
100	0xbd224782	-0.039618976
101	0xbc778aec	-0.015108805
102	0x3dab8d8a	0.08376606
103	0x3d5c6196	0.053804003
104	0x3d54aa16	0.05192002
105	0x3c0ed867	0.0087185865
106	0xbc4d2d2d	-0.012522978
107	0xbcab4427	-0.020906521
108	0xbb57aaa9	-0.0032908118
109	0xbce697fc	-0.028148644
110	0xbd1eced0	-0.03877145
111	0xbb885966	-0.0041610477
112	0x3d05cbc2	0.03266502
113	0xbd07515d	-0.03303658
114	0xbb232adc	-0.0024897372
115	0x3d1e558d	0.038655806
116	0xbc2d8e52	-0.010593014
117	0x3cbd3f98	0.023101613
118	0x3c335b8d	0.01094712
119	0x3d3a689e	0.045509927
120	0xbcecf71a	-0.028926421
121	0xbba29a54	-0.004962245
122	0xbb960acd	-0.0045789243
123	0x3cb1a00f	0.021682767
124	0x3d88cd5e	0.06679796
125	0x3d0891c2	0.03334213
126	0x3b379d1c	0.0028017228
127	0x3bccc84a	0.0062494623
128	0xbb154a45	-0.0022779864
129	0xbda83552	-0.08213295
130	0xbbd0c36a	-0.0063709514
131	0x3c797fcf	0.015228226
132	0x3d05b46c	0.032642767
133	0x3d9de926	0.07710485
134	0x3de70848	0.112808764
135	0xbd7887d8	-0.060676426
136	0x3d172477	0.03690001
137	0x3be4e2e1	0.006985054
138	0xbdac5d2b	-0.08416208
139	0x3dd6066c	0.104504436
140	0x3d6fb033	0.058517646
141	0xbd8b4bb9	-0.06801552
142	0x3d468e57	0.04847559
143	0x3ce16708	0.02751495
144	0xbc94ffbb	-0.018188348
145	0x3c3279bb	0.010893281
146	0xbc081e8d	-0.008308065
147	0x3b9b20da	0.004734141
148	0xbcdc89ac	-0.026921116
149	0xbd5e133a	-0.054217555
150	0xbbacbb2f	-0.0052713375
151	0xbc290a43	-0.010317388
152	0x3cb6ebe8	0.022329286
153	0x3cdd3100	0.027000904
154	0xbba1a1a0	-0.0049325973
155	0xbca7284a	-0.020404954
156	0xbd638565	-0.055547137
157	0x3a41b0a5	0.0007388688
158	0x3ba08d92	0.004899689
159	0xba9824bf	-0.0011607631
160	0x3c8e02e3	0.01733536
161	0xbc1f38bb	-0.009718115
162	0xbd4955ca	-0.04915408
163	0xbce7d3be	-0.028299209
164	0xbd9d3232	-0.076755896
165	0x3d6601b6	0.056153975
166	0xbd0438fa	-0.0322809
167	0xbd4a9e99	-0.049467657
168	0xbc89f983	-0.01684261
169	0xbd3c0ee0	-0.045912623
170	0xbc0bc524	-0.008530889
171	0xbd9e1b52	-0.07720055
172	0xbda34aad	-0.07973228
173	0xbd2f712b	-0.042832535
174	0x3d291252	0.041277237
175	0xbbf169d0	-0.00736735
176	0x3c48cac1	0.012255372
177	0xbc27b98d	-0.01023711
178	0x3d196e81	0.0374589
179	0x3c20fa4d	0.009825301
180	0xbd3a92e9	-0.04555026
181	0xbc61baac	-0.013777416
182	0xbd13d789	-0.036094222
183	0x3d0053b4	0.031329826
184	0x3d8eb954	0.06968942
185	0x3cd45e0b	0.02592375
186	0x3b19aff9	0.0023450835
187	0x3d31c603	0.04340173
188	0xbc59b538	-0.013287835
189	0xbcb9f025	-0.022697518
190	0xbd0b0c72	-0.033947416
191	0xbcf24225	-0.029572556
192	0xbc906870	-0.017627925
193	0x3dc25b14	0.09490028
194	0x3d792766	0.06082859
195	0x3b21e2b5	0.0024701778
196	0x3d35dd9c	0.044400796
197	0x3b2938ae	0.0025821137
198	0xba5ae749	-0.0008350504
199	0xbb1888cf	-0.0023274904
200	0xbd54d896	-0.051964365
201	0xbc578252	-0.013153629
202	0xbcb1fe07	-0.021727575
203	0xbdc706ae	-0.09718071
204	0x3baaae91	0.005208798
205	0xbcee52c4	-0.0290922
206	0xbd2cb087	-0.042160537
207	0xbdb56f48	-0.08859116
208	0xbd484ece	-0.04890328
209	0x3d8ffcc8	0.07030636
210	0x3d335f53	0.04379208
211	0xbbca9bae	-0.0061831092
212	0x3d5628d0	0.052285016
213	0x3d5f05a0	0.054448724
214	0xbd067dff	-0.032835003
215	0xbcec4ded	-0.028845752
216	0x3da32d1b	0.079675876
217	0x3d033d1f	0.03204071
218	0xbd7675f5	-0.060171086
219	0x3d36331a	0.044482328
220	0xbd08a910	-0.033364356
221	0xbdf487bd	-0.119399525
222	0xbd030c72	-0.03199429
223	0x3b5e8732	0.0033955094
224	0xbd0cd565	-0.034383196
225	0xbe5d7930	-0.2162826
226	0xbe6848cb	-0.22684018
227	0xbdca0186	-0.09863572
228	0x3df4ba56	0.11949603
229	0x3e1906cd	0.14944
230	0x3d1630ec	0.03666775
231	0xbc124f8c	-0.008930098
232	0xbc652219	-0.01398518
233	0xbc6c6c14	-0.014430065
234	0xbc0b083b	-0.008485849
235	0x3d39ba22	0.045343526
236	0xbc540f8c	-0.01294316
237	0x3d34b29f	0.04411566
238	0xbc37785a	-0.011198128
239	0xbd8c2a83	-0.06844046
240	0x3cb63443	0.022241717
241	0xbd0e57bb	-0.034751635
242	0x3bfedf03	0.00777805
243	0xbcf0c3e5	-0.029390285
244	0x3ca72860	0.020404994
245	0xbc31733a	-0.010830695
246	0x3cc17ad8	0.023618147
247	0xbcff75a7	-0.03118403
248	0xbd89ee0a	-0.067348555
249	0xbab4129e	-0.0013738459
250	0xbc481d41	-0.012214006
251	0xbb816ac3	-0.0039494946
252	0xbd06f4e9	-0.03294841
253	0x3cef6022	0.029220644
254	0xbd42ac02	-0.04752732
255	0x3a5f127a	0.0008509528

bias f4 [64]
0	0x3c4e53c7	0.012593216
1	0xbd6ae59f	-0.05734789
2	0x3c4d2f06	0.012523418
3	0xbc8f42ae	-0.01748785
4	0xbb0ede54	-0.0021799998
5	0x3caeabf2	0.021322224
6	0xbdf32914	-0.118730694
7	0xbd2b4849	-0.041816983
8	0x3d846bd5	0.0646588
9	0x3d2ac147	0.04168823
10	0x3bbe2af3	0.00580346
11	0xbd302dfa	-0.043012597
12	0xbab07464	-0.0013462421
13	0xbdafcb80	-0.085837364
14	0x3c9c1be7	0.019056274
15	0x3e041617	0.12899052
16	0xbd68746f	-0.056751665
17	0x3cabc67c	0.020968668
18	0xbc96a453	-0.018388903
19	0x3c65bf58	0.014022671
20	0x3cd4c9c4	0.025975116
21	0xbd2ebc2e	-0.04265993
22	0x3ddafaff	0.10692405
23	0xbdbb95e6	-0.0915945
24	0x3d970a1d	0.07374976
25	0x3d418d17	0.047253694
26	0xbd0dac16	-0.034587942
27	0xbd4f35b2	-0.050588317
28	0xbd9750dd	-0.0738847
29	0xbd89e4ae	-0.0673307
30	0x3c9f134f	0.019418387
31	0xbd00754d	-0.031361867
32	0x3c33662f	0.010949655
33	0x3d2bd830	0.04195422
34	0x3d849de6	0.06475429
35	0x3d2473c4	0.040149465
36	0x3d846288	0.06464106
37	0x3d0e0951	0.034676854
38	0xbd7c37e2	-0.06157673
39	0x3d918390	0.07105172
40	0xbbbb3a8e	-0.0057137674
41	0x3d0912ee	0.03346532
42	0x3db33430	0.08750188
43	0x3dc01c7d	0.09380434
44	0x3d1b63e5	0.037937064
45	0x3cae2ebf	0.021262525
46	0x3caf2a88	0.021382585
47	0x3bcfc9cb	0.0063411943
48	0xbe0809cd	-0.13284989
49	0x3c8e5f0e	0.01737931
50	0xbb252919	-0.0025201498
51	0x3d08316d	0.03325026
52	0x3d441c45	0.047878522
53	0xbd863c11	-0.065544255
54	0x3d606bc8	0.05479029
55	0xbdb7463f	-0.08948945
56	0xbc06c093	-0.008224624
57	0x3d9a207f	0.075257294
58	0x3c1054d3	0.008809286
59	0x3c973977	0.018460019
60	0xbce34d28	-0.027746752
61	0x3cdc0654	0.026858486
62	0x3d9555a8	0.07291728
63	0x3b6b6369	0.0035917407

weight f4 [64]
0	0x3f7c55c1	0.9856835
1	0x3f7f806f	0.9980535
2	0x3f754576	0.95809114
3	0x3f8150ce	1.0102785
4	0x3f82b178	1.0210409
5	0x3f5fe7ce	0.8746308
6	0x3f6f7910	0.935441
7	0x3f7c39de	0.985258
8	0x3f5e4632	0.8682586
9	0x3f677fe5	0.90429527
10	0x3f6d7994	0.9276364
11	0x3f7b1aec	0.98087955
12	0x3f67110c	0.90260386
13	0x3f6ade2d	0.91745263
14	0x3f6e3b88	0.9305959
15	0x3f7071b4	0.939235
16	0x3f710404	0.9414675
17	0x3f681fdc	0.90673614
18	0x3f63a40d	0.88922197
19	0x3f6502fc	0.8945768
20	0x3f7ccf6d	0.98754007
21	0x3f82df61	1.022442
22	0x3f79f7ee	0.97643936
23	0x3f7f29c5	0.9967311
24	0x3f816518	1.0108976
25	0x3f6dfa36	0.92959917
26	0x3f77625a	0.9663445
27	0x3f830f63	1.0239071
28	0x3f7c5bf9	0.9857784
29	0x3f7b13aa	0.9807688
30	0x3f79fd4c	0.97652125
31	0x3f740e14	0.9533398
32	0x3f71602d	0.9428738
33	0x3f7a172b	0.976916
34	0x3f8c0cf8	1.0941458
35	0x3f879786	1.0593116
36	0x3f759498	0.9592986
37	0x3f8199e7	1.0125092
38	0x3f7a4e31	0.9777556
39	0x3f7c3ee7	0.9853348
40	0x3f859c08	1.0438242
41	0x3f80a8c8	1.0051508
42	0x3f7bc2d8	0.9834418
43	0x3f84cc46	1.0374839
44	0x3f6b2e02	0.9186708
45	0x3f82b777	1.0212239
46	0x3f71a52e	0.9439267
47	0x3f6bc546	0.9209789
48	0x3f661bc9	0.89886147
49	0x3f769987	0.96328014
50	0x3f8126e6	1.0089996
51	0x3f6357f7	0.888061
52	0x3f7ef59c	0.9959352
53	0x3f81ae45	1.0131308
54	0x3f77981c	0.96716475
55	0x3f74f3a4	0.95684266
56	0x3f858c51	1.0433446
57	0x3f61f3c2	0.8826257
58	0x3f7dfc2e	0.9921292
59	0x3f86cbc9	1.053094
60	0x3f782015	0.96923953
61	0x3f77a66d	0.9673832
62	0x3f777004	0.966553
63	0x3f5ab730	0.8543577

bias f4 [64]
0	0xbdaf19a5	-0.08549813
1	0xbe89475f	-0.26812264
2	0xbe6fad1a	-0.23405877
3	0xbe2d1410	-0.16902184
4	0xbea475cb	-0.3212112
5	0xbe7e03e4	-0.24806172
6	0xbeb49868	-0.35272527
7	0xbe191c91	-0.14952303
8	0xbe31dc70	-0.17369246
9	0xbe299879	-0.1656207
10	0xbe4c920c	-0.19977587
11	0xbe8f3f26	-0.27977866
12	0xbe81adf9	-0.25328043
13	0xbe0d56a6	-0.13802585
14	0xbeeb2877	-0.4592931
15	0xbe995648	-0.2994864
16	0xbd8d565b	-0.069012366
17	0xbec4bfc9	-0.3842757
18	0xbf01760c	-0.5057075
19	0xbe4362f4	-0.19080716
20	0xbdc18340	-0.09448862
21	0xbdb7ff56	-0.08984248
22	0xbdcafc05	-0.0991135
23	0xbe1e366d	-0.1545045
24	0xbed012d1	-0.40639356
25	0xbe83417b	-0.25635895
26	0xbea094b5	-0.31363454
27	0xbe95bdda	-0.29246408
28	0xbde1e1d2	-0.110294
29	0xbed38af0	-0.41316938
30	0xbe2c5625	-0.16829737
31	0xbd987615	-0.07444397
32	0xbea91e47	-0.33030912
33	0xbdb33c32	-0.08751716
34	0xbef53826	-0.478944
35	0xbebffbbe	-0.37496752
36	0xbe4adb76	-0.1981028
37	0xbe6d6858	-0.23184335
38	0xbe79c137	-0.24390112
39	0xbeade316	-0.33962315
40	0xbeea448c	-0.45755422
41	0xbeb1a937	-0.34699413
42	0xbe607127	-0.21918164
43	0xbe0b55ef	-0.13607
44	0xbef2fdef	-0.4745936
45	0xbdaf0838	-0.085464895
46	0xbe72ffb5	-0.23730357
47	0xbdd76cbd	-0.10518787
48	0xbe861691	-0.26189092
49	0xbe6f0048	-0.23339951
50	0xbea24e7a	-0.31700498
51	0xbed8cf42	-0.42345625
52	0xbec54908	-0.3853228
53	0xbe4e5960	-0.20151281
54	0xbef5d2d3	-0.4801241
55	0xbe741d04	-0.23839194
56	0xbebc813a	-0.36817342
57	0xbe738e6d	-0.237848
58	0xbde1eeb3	-0.110318564
59	0xbedda00f	-0.43286178
60	0xbeb23df7	-0.348129
61	0xbdc845bf	-0.09778928
62	0xbeaa9f6e	-0.3332476
63	0xbea2eb07	-0.31819937
