carl/envs/mario/pcg_smb_env/toadgan/generators/v2/TOAD_GAN_6-3/generators.pth (torch, 568933 bytes, 42 tensors)

weight f4 [64, 7, 3, 3]
0.013724847 -0.035377316 -0.23980182 0.019066842 0.015754957 -0.048163075 -0.07902821 -0.00020695371
0.050080378 0.022120807 -0.016174203 0.13378462 -0.01862435 -0.0056861676 -0.017028721 0.0010611612
-0.03147822 0.046692967 0.01967579 0.03760804 -0.008893868 0.0059201573 -0.04804463 -0.053080846
0.0066589257 0.002737719 0.022610059 0.054270122 0.0056353356 0.034520894 0.021058278 0.007140078
-0.016232897 -0.08147208 -0.026248438 -0.029115891 0.013328395 0.01606686 -0.08186605 0.035120595
-0.03759165 -0.05959095 0.0686822 0.032647766 -0.012582496 0.0032539126 -0.020600095 0.023193449
-0.043341145 -0.037207484 -0.007762625 -0.003368107 0.025807008 -0.031263262 -0.01644625 -0.01904762
-0.08548234 0.00821321 -0.051731918 0.029306948 -0.012515839 0.06411206 0.032065354 -0.04408704
-0.01534456 0.021772517 0.010032817 0.0025545745 -0.026750015 0.011300414 0.011145163 -0.03166991
0.04689443 -0.04300563 -0.019702468 -0.038453355 0.06753076 -0.042696286 0.03270126 -0.009392524
-0.026703656 0.02942621 -0.081188135 0.046628628 0.06543637 -0.004603298 -0.005315579 -0.05660955
0.004692192 0.043374516 0.009826238 0.07923227 0.005499269 -0.017018242 -0.018404793 0.060111634
-0.03928872 -0.025805045 -0.16629468 -0.057901677 0.03169701 -0.005930106 0.009806988 0.011565522
-0.02832557 0.08114959 0.055607054 0.10871466 -0.08313731 -0.059287835 -0.056121945 0.06640395
0.023809532 0.055382505 0.06281154 0.04256119 0.02592393 -0.056409486 0.04997045 -0.033964474
0.061094783 -0.004389959 0.010541577 -0.011981228 -0.05744322 -0.042235494 0.10776973 -0.0073119174
-0.05918394 -0.00085096987 -0.014489373 0.048721924 -0.05779061 -0.004757909 -0.011393228 -0.040003743
0.07612828 -0.106376804 0.0063730087 -0.006335893 -0.014352819 0.066272154 0.0011162284 -0.006421201
0.023532147 0.02435473 -0.07763768 0.023705618 -0.009725285 0.041589737 -0.020246882 0.06122516
0.047355022 -0.016433874 0.0009136801 -0.08410342 0.027215764 -0.022225885 -0.0044584787 -0.026180396
0.027429702 -0.04436135 0.03824452 0.062228926 -0.027339268 0.064095005 -0.026628332 0.0043496303
-0.0032295904 -0.0102274185 0.043160852 -0.13689148 -0.12495122 0.13511437 0.017469436 0.028549533
0.008723465 0.0017478865 0.020264333 0.012628968 -0.07300484 0.043933388 0.032516763 0.008384563
-0.012085113 0.034083314 -0.008613116 0.010834061 -0.031284865 -0.00805435 -0.035028145 0.047244098
-0.010552153 -0.011292616 -0.037743162 0.07194975 0.019486492 0.037312567 -0.021213917 -0.012455942
-0.060493395 -0.01179406 0.03761249 -0.007857804 -0.046331704 -0.031642117 0.07704758 0.04210689
0.022107689 0.059365712 0.01416263 0.03720043 -0.020928357 0.13458143 0.056814287 -0.044479515
-0.06543559 0.023653233 -0.026485486 0.0023414374 0.027186418 -0.01719945 0.064326875 0.007306499
0.004157813 0.02150645 -0.023817856 -0.059973415 -0.0036834937 -0.0018645142 -0.018832687 0.106837206
-0.027615735 -0.12622426 0.029812792 -0.00121445 0.044282284 -0.03057606 -0.03406153 0.032158002
-0.11581197 0.023035154 0.0047048116 0.011432625 -0.0073350416 -0.033890415 -0.03274465 -0.041396692
-0.0067131883 0.021438258 0.088640034 -0.1470259 -0.019661693 0.03512284 0.08262806 -0.05826521
00000000: 2ede 603c cee7 10bd 9c8e 75be 1132 9c3c
00000010: 8a10 813c a546 45bd 8bd9 a1bd b701 59b9
00000020: 1521 4d3d b236 b53c c37f 84bc d6fe 083e
00000030: 1892 98bc 0853 babb d17f 8bbc a916 8b3a
00000040: 4eef 00bd 2041 3f3d 1f2f a13c e30a 1a3d
00000050: 96b7 11bc e1fd c13b 72ca 44bd 4d6b 59bd
00000060: 1e33 da3b 4e6b 333b bb38 b93c 594a 5e3d
00000070: 9fa8 b83b c865 0d3d 6982 ac3c 51f7 e93b
00000080: dafa 84bc d5da a6bd f706 d7bc 7384 eebc
00000090: 575f 5a3c a69e 833c 63a9 a7bd 9dda 0f3d
000000a0: b4f9 19bd a415 74bd 41a9 8c3d aab9 053d
000000b0: d026 4ebc 983f 553b 88c1 a8bc 3000 be3c
000000c0: 7c86 31bd e066 18bd 9e5d febb 75bb 5cbb
000000d0: 3869 d33c e80d 00bd 49ba 86bc c109 9cbc
000000e0: 5d11 afbd b390 063c d9e4 53bd 2015 f03c
000000f0: 3c0f 4dbc 2f4d 833d f656 033d 9d94 34bd
00000100: c067 7bbc 475c b23c af60 243c a66a 273b
00000110: d922 dbbc 5f25 393c 349a 363c 4fb8 01bd
00000120: 6014 403d ac26 30bd 1267 a1bc 4481 1dbd
00000130: 914d 8a3d 4de2 2ebd c2f1 053d 1ae3 19bc
00000140: a0c1 dabc 3c0f f13c f745 a6bd a9fd 3e3d
00000150: 8103 863d 43d7 96bb 4f2e aebb 6adf 67bd
00000160: f6c0 993b 7aa9 313d 3bfe 203c 8744 a23d
00000170: 3633 b43b d769 8bbc a6c5 96bc 9e37 763d
00000180: 35ed 20bd 1a65 d3bc 2749 2abe 4f2a 6dbd
00000190: b9d4 013d 5651 c2bb 7dad 203c 517d 3d3c
000001a0: 070b e8bc c231 a63d 39c4 633d cba5 de3d
000001b0: e543 aabd cdd7 72bd 20e0 65bd cbfe 873d
000001c0: 350c c33c c4d8 623d 56a3 803d a454 2e3d
000001d0: 6c5e d43c a20d 67bd d1ad 4c3d 551e 0bbd
000001e0: 863e 7a3d a5d9 8fbb 94b6 2c3c ea4c 44bc
000001f0: 9549 6bbd 20ff 2cbd 60b6 dc3d cf98 efbb
00000200: dc6a 72bd 9f13 5fba d664 6dbc a490 473d
00000210: d9b5 6cbd 3ce8 9bbb a9aa 3abc f7da 23bd
00000220: 25e9 9b3d 15dc d9bd acd4 d03b 539d cfbb
00000230: 1628 6bbc b2b9 873d 694e 923a f068 d2bb
00000240: 7dc6 c03c 9283 c73c 8100 9fbd 4932 c23c
00000250: cd56 1fbc 005a 2a3d cadc a5bc 3cc7 7a3d
00000260: 57f7 413d 55a0 86bc 0984 6f3a 6a3e acbd
00000270: 98f3 de3c 0f13 b6bc 6e18 92bb 4578 d6bc
00000280: 41b4 e03c 3fb4 35bd 49a6 1c3d c2e3 7e3d
00000290: 9af6 dfbc 3e44 833d a923 dabc 5887 8e3b
000002a0: 89a7 53bb e790 27bc 6fc9 303d 482d 0cbe
000002b0: 6de6 ffbd 6c5b 0a3e 101c 8f3c b6e0 e93c
000002c0: ddec 0e3c 5719 e53a 6301 a63c bbe9 4e3c
000002d0: 9083 95bd 7ff3 333d 4c30 053d 685f 093c
000002e0: a300 46bc f29a 0b3d 071e 0dbc 5881 313c
000002f0: 8f24 00bd 64f6 03bc ac79 0fbd 0783 413d
00000300: f0e2 2cbc aa04 39bc 9398 1abd 645a 933d
00000310: 23a2 9f3c 10d5 183d cfc8 adbc 0214 4cbc
00000320: ecc7 77bd df3b 41bc 8e0f 1a3d 05be 00bc
00000330: 50c6 3dbd 2a9b 01bd 1fcb 9d3d 4678 2c3d
00000340: 2f1b b53c 7629 733d 600a 683c 7a5f 183d
00000350: f271 abbc b7cf 093e 19b6 683d 2730 36bd
00000360: 1803 86bd 6dc4 c13c 17f8 d8bc cd72 193b
00000370: 0db6 de3c dce5 8cbc cfbd 833d 5b6b ef3b
00000380: 433e 883b 4b2e b03c aa1d c3bc afa6 75bd
00000390: c566 71bb b762 f4ba 0247 9abc 77cd da3d
000003a0: 653a e2bc ef40 01be f539 f43c 2e2e 9fba
000003b0: 5761 353d a57a fabc 1a84 0bbd 1cb8 033d
000003c0: d32e edbd 38b4 bc3c d22a 9a3b e84f 3b3c
000003d0: ca5a f0bb add0 0abd 411f 06bd 948f 29bd
000003e0: 4efa dbbb 499f af3c e888 b53d f58d 16be
000003f0: 8f11 a1bc f8dc 0f3d e638 a93d 80a7 6ebd

bias f4 [64]
-0.098461114 -0.14164129 0.09248567 -0.08725348 -0.02992797 0.117647536 -0.025543256 -0.12300671
-0.15304261 -0.04359303 -0.02390505 0.02030997 0.048853848 -0.024490437 0.088222675 -0.011270123
0.0040100743 -0.049095556 0.07590121 -0.09123399 0.012203081 -0.06291519 0.063071586 -0.030671412
-0.05315308 -0.03491666 -0.09964628 0.07245104 -0.025946718 0.081655085 0.08275991 0.03755548
-0.0206431 0.0775643 -0.069741994 -0.14112584 0.0076222145 -0.088708386 -0.09209715 0.049824957
0.06946087 -0.0022718243 0.007692969 -0.06488883 0.041629173 0.051682383 0.0063779787 0.06729722
-0.073492564 -0.0077187186 -0.061067063 0.108828895 0.10218492 0.11710399 0.12663975 0.048084293
-0.13073477 -0.060538825 0.048386764 -0.09242469 0.040580023 0.07816715 0.0024171846 -0.13045849
00000000: fba5 c9bd 6a0a 11be 2069 bd3d f4b1 b2bd
00000010: 812b f5bc 31f1 f03d 1740 d1bc f1ea fbbd
00000020: 34b7 1cbe 9b8e 32bd 86d4 c3bc 1861 a63c
00000030: f91a 483d 2ba0 c8bc 17ae b43d 52a6 38bc
00000040: f166 833b 6c18 49bd 1872 9b3d e3d8 babd
00000050: 6eef 473c aed9 80bd ad2b 813d 9d42 fbbc
00000060: 0bb7 59bd c604 0fbd 5913 ccbd 3661 943d
00000070: 368e d4bc c83a a73d 077e a93d c6d3 193d
00000080: b81b a9bc 08da 9e3d e4d4 8ebd 4b83 10be
00000090: c5c3 f93b beac b5bd 6e9d bcbd 4115 4c3d
000000a0: 8041 8e3d e3e2 14bb 4d15 fc3b 6fe4 84bd
000000b0: 5a83 2a3d e8b0 533d 5dfe d03b 20d3 893d
000000c0: 4583 96bd 4eed fcbb 7521 7abd afe1 de3d
000000d0: 5446 d13d 37d4 ef3d daad 013e 09f4 443d
000000e0: 56df 05be 8ff7 77bd 3331 463d 2849 bdbd
000000f0: 3d37 263d 1916 a03d a169 1e3b e996 05be

weight f4 [64]
0.97413015 0.90566814 0.9928452 1.0087106 0.9895938 1.0866652 0.97326076 0.859844
0.89145243 1.0139434 0.95278746 0.95852196 0.9400558 1.0900205 1.1037881 1.0601413
0.934994 1.010705 1.038753 0.88255215 0.9124513 1.0284048 1.1873612 1.0263233
0.9414735 1.1103792 0.9434169 1.0210307 0.93314123 1.005795 1.0023329 0.88471276
0.91763663 1.0800582 0.93230796 0.9812395 1.0012493 0.9485705 1.0222985 1.0603726
0.98172235 0.9953674 0.9445909 0.93917817 0.9766835 0.9269676 0.91181225 0.9689398
0.9855226 1.040873 0.87154615 0.9922228 0.86566365 1.1027266 1.0317131 0.9626994
0.93908846 1.215204 0.95307475 0.9949702 1.0682869 1.0273552 1.021136 0.9177459
00000000: 9860 793f ded9 673f 1a2b 7e3f 6e1d 813f
00000010: 0556 7d3f d817 8b3f 9e27 793f bd1e 5c3f
00000020: 3a36 643f e6c8 813f e1e9 733f b261 753f
00000030: 7fa7 703f cb85 8b3f ee48 8d3f b6b2 873f
00000040: c45b 6f3f c85e 813f dcf5 843f f0ee 613f
00000050: 6996 693f c5a2 833f 74fb 973f 905e 833f
00000060: 6804 713f e820 8e3f c583 713f 22b1 823f
00000070: 58e2 6e3f e4bd 803f 724c 803f 897c 623f
00000080: 3cea 6a3f 593f 8a3f bcab 6e3f 8332 7b3f
00000090: f028 803f 84d5 723f adda 823f 4aba 873f
000000a0: 2852 7b3f 66d0 7e3f b6d0 713f fb6d 703f
000000b0: ee07 7a3f c04d 6d3f 876c 693f 700c 783f
000000c0: 364b 7c3f 543b 853f a61d 5f3f 5002 7e3f
000000d0: 229c 5d3f 2526 8d3f 2d0f 843f 7873 763f
000000e0: 1a68 703f ce8b 9b3f b5fc 733f 5eb6 7e3f
000000f0: a0bd 883f 6080 833f 96b4 823f 65f1 6a3f

bias f4 [64]
-0.09047861 -0.13456288 -0.21005857 -0.15643513 -0.22852394 -0.117444806 -0.31218183 -0.26057103
-0.2514956 -0.16040987 -0.21741156 -0.11854496 -0.28892356 -0.22136846 -0.11791922 -0.15695642
-0.22058988 -0.020515872 -0.12997097 -0.30089453 -0.31598288 -0.12411222 -0.031940077 -0.19418232
-0.19866326 -0.02424989 -0.23159768 -0.17383565 -0.17225714 -0.18744677 -0.29257113 -0.34287462
-0.02229886 -0.13445531 -0.18141727 -0.25030634 -0.18652439 -0.099552035 -0.19094682 -0.077865995
-0.23770754 -0.18163632 -0.2920763 -0.19423674 -0.11890248 -0.2079582 -0.14834718 -0.11811114
-0.17083833 -0.10256762 -0.2297069 -0.06610727 -0.24576241 -0.16689737 -0.2152826 -0.06644272
-0.29084826 -0.14426753 -0.2586578 -0.2645403 -0.23705527 -0.255544 -0.24457008 -0.17484324
00000000: d94c b9bd daca 09be 9819 57be 8830 20be
00000010: 2e02 6abe e786 f0bd 4cd6 9fbe 9169 85be
00000020: 08c4 80be 7c42 24be 23a1 5ebe b3c7 f2bd
00000030: caed 93be 6aae 62be a27f f1bd 2fb9 20be
00000040: 50e2 61be e710 a8bc 1c17 05be d90e 9abe
00000050: 82c8 a1be 8c2e febd 99d3 02bd bbd7 46be
00000060: 626e 4bbe b5a7 c6bc f127 6dbe f901 32be
00000070: 2d64 30be 0cf2 3fbe e2cb 95be 438d afbe
00000080: 19ac b6bc a7ae 09be 73c5 39be 2728 80be
00000090: 4000 3fbe f0e1 cbbd 9087 43be 3578 9fbd
000000a0: 9b69 73be dffe 39be 068b 95be ffe5 46be
000000b0: 2583 f3bd fff2 54be 53e8 17be 41e4 f1bd
000000c0: 3ef0 2ebe f90e d2bd 4938 6bbe 4063 87bd
000000d0: 24a9 7bbe 25e7 2abe 0b73 5cbe 1f13 88bd
000000e0: 10ea 94be deba 13be cc6e 84be d471 87be
000000f0: 9ebe 72be aad6 82be 9470 7abe 1b0a 33be

running_mean f4 [64]
-0.10553976 -0.14133616 0.091246 -0.076561406 -0.034950204 0.12761119 -0.020607492 -0.12419757
-0.16024509 -0.041838773 -0.022374054 0.020743813 0.04388088 -0.013533629 0.085224956 -0.005859361
0.003793905 -0.058824666 0.084335476 -0.09063154 0.0102468375 -0.06444829 0.054228786 -0.025589444
-0.05576129 -0.03686494 -0.10193766 0.07204988 -0.03273065 0.07912628 0.08805888 0.036210038
-0.02902811 0.089545116 -0.06979686 -0.13467136 0.0039788247 -0.08186513 -0.092582375 0.061966315
0.06841533 0.0029562118 0.016828494 -0.062519476 0.046126205 0.045279708 0.0076390076 0.070608266
-0.06857699 -0.010924202 -0.05287978 0.10627522 0.09707927 0.10702013 0.13076217 0.050716687
-0.12921257 -0.06588784 0.054236136 -0.09832949 0.039688002 0.07869446 -0.0021968205 -0.13525623
00000000: 3b25 d8bd 6dba 10be 2fdf ba3d 3acc 9cbd
00000010: f227 0fbd 82ac 023e 0bd1 a8bc 4c5b febd
00000020: 4a17 24be 225f 2bbd cb49 b7bc eeee a93c
00000030: 70bc 333d 27bc 5dbc 6c8a ae3d e2ff bfbb
00000040: 2aa3 783b 22f2 70bd 14b8 ac3d 079d b9bd
00000050: 5ae2 273c 77fd 83bd 011f 5e3d f4a0 d1bc
00000060: f365 64bd b1ff 16bd b1c4 d0bd e38e 933d
00000070: 9310 06bd f60c a23d 3758 b43d fa50 143d
00000080: 5ccc edbc 6e63 b73d a8f1 8ebd 4ae7 09be
00000090: cd60 823b e8a8 a7bd d49b bdbd 64d0 7d3d
000000a0: 561d 8c3d 01bd 413b e9db 893c 360a 80bd
000000b0: d5ee 3c3d 3777 393d a450 fa3b 119b 903d
000000c0: 1872 8cbd 6dfb 32bc 7898 58bd d3a6 d93d
000000d0: 7fd1 c63d 5f2d db3d 85e6 053e 4dbc 4f3d
000000e0: 4d50 04be 34f0 86bd b626 5e3d f960 c9bd
000000f0: e38f 223d 902a a13d 88f8 0fbb 9c80 0abe

running_var f4 [64]
0.090275034 0.09392658 0.093318544 0.10294959 0.09474735 0.09980902 0.09073543 0.101266086
0.10410745 0.10356024 0.105712764 0.09773773 0.10856705 0.10214586 0.12238213 0.13706261
0.09745667 0.09823336 0.10985245 0.102010734 0.08941986 0.115927234 0.12991649 0.109875515
0.11034475 0.12929267 0.10177051 0.108776495 0.095108934 0.108137175 0.11301632 0.10019714
0.0980963 0.11056231 0.0921656 0.09498211 0.10052888 0.10450199 0.10109981 0.10300672
0.094621666 0.10296215 0.097723305 0.1106937 0.10620155 0.10295371 0.09238314 0.108611286
0.10792468 0.1078169 0.08633223 0.09828726 0.10149047 0.105959654 0.104490496 0.09658799
0.10564817 0.12424048 0.0965892 0.10038677 0.107227735 0.10274617 0.105701044 0.096700825
00000000: 1ee2 b83d 945c c03d cb1d bf3d 3cd7 d23d
00000010: e60a c23d ac68 cc3d 7fd3 b93d 9864 cf3d
00000020: 4936 d53d 6417 d43d ef7f d83d b82a c83d
00000030: 6758 de3d d931 d13d 7ba3 fa3d 245a 0c3e
00000040: 5d97 c73d 922e c93d 52fa e03d 01eb d03d
00000050: c221 b73d 426b ed3d d408 053e 6a06 e13d
00000060: 6efc e13d 4c65 043e 0f6d d03d 36c6 de3d
00000070: 79c8 c23d 0677 dd3d 1a75 e73d 2834 cd3d
00000080: b7e6 c83d 7e6e e23d 51c1 bc3d fb85 c23d
00000090: 16e2 cd3d 2405 d63d 6b0d cf3d 30f5 d23d
000000a0: 01c9 c13d d2dd d23d 2823 c83d 61b3 e23d
000000b0: 3380 d93d 65d9 d23d 5f33 bd3d 986f de3d
000000c0: 9d07 dd3d 1bcf dc3d f4ce b03d d54a c93d
000000d0: 3cda cf3d 6001 d93d 1dff d53d edcf c53d
000000e0: 115e d83d cb71 fe3d 8fd0 c53d 9497 cd3d
000000f0: 379a db3d 956c d23d ca79 d83d 150b c63d

weight f4 [64, 64, 3, 3]
-0.023841327 -0.0574898 0.0024692728 -0.03492434 0.030554125 0.056005396 0.030804958 -0.034301933
-0.0040886663 -0.0073149162 -0.0048285574 -0.015072088 0.02843663 0.036780015 0.09492204 -0.11615227
-0.022510808 -0.0012402086 -0.09434557 -0.015467827 -0.07405444 0.02243056 -0.017123606 0.08095661
0.023563927 -0.067857735 0.08924096 -0.065136425 0.019802501 0.020974126 -0.071881935 0.06858255
0.043084692 -0.061008856 -0.025072742 -0.029307218 -0.059672173 -0.055461302 0.035797786 -0.018747248
0.0059406487 0.061567266 0.018125143 -0.025277382 0.06661271 -0.03489259 0.064152636 0.03351205
-0.008962705 0.020417629 -0.030281266 0.009793679 -0.01985075 -0.020786876 -0.07126096 -0.00054262124
-0.049836002 0.005737035 0.03918946 -0.009431763 0.05455101 0.06605538 -0.017268794 -0.058555342
-0.013729757 0.064957514 -0.10045398 0.013542825 0.09421263 -0.0091605615 -0.01870443 -0.019633867
-0.06706804 -0.004362283 -0.0900565 -0.048787422 0.031745765 -0.0059314747 -0.053361654 0.021927495
0.041604057 0.0140436115 0.032315485 0.08534603 -0.03925224 0.0056038676 0.094354264 -0.06592162
-0.047002763 -0.0760896 0.02211787 -0.045020945 -0.038030133 -0.0018397468 0.032401405 -0.043966644
-0.017805073 0.007514377 -0.06608343 0.014872628 0.008302726 -0.0026543203 0.1239413 0.008244737
0.010410286 0.012692882 -0.007029358 -0.020733645 -0.035558213 0.015598008 -0.018663142 -0.01678221
0.016926294 0.046571314 -0.005726851 0.053807408 0.038942423 -0.08272607 -0.046725232 -0.07145267
-0.04273864 -0.021840744 0.067772076 0.06655236 0.016007993 0.018734217 -0.008697795 0.0035413408
0.048238527 -0.09547137 0.01690721 0.0883669 -0.14191286 -0.059239935 -0.03279265 -0.046252042
0.025788696 0.039758284 -0.02086989 -0.0071949805 0.0579074 -0.07654549 -0.027191741 -0.046693236
-0.022397598 0.05086445 0.003735698 -0.0043243067 0.033066288 0.061571218 -0.09863089 -0.014006721
-0.090245076 -0.09190028 -0.11126188 -0.045935344 0.039899457 0.0041729123 0.008069331 0.022121826
0.03202114 0.07521329 -0.021214943 0.020888628 0.046275873 0.039774656 -0.011117197 0.0020205874
-0.030014673 -0.082840994 -0.024078993 -0.030011369 -0.007338731 -0.043035194 -0.021717984 -0.027461322
-0.014955004 0.0021104566 -0.050784845 -0.032439735 -0.024948308 -0.0047436003 -0.09328416 0.030555287
0.03621082 -0.013523227 -0.008871816 -0.013425363 -0.048993092 -0.13200466 -0.05316966 -0.027167086
-0.034366097 0.02051852 0.059323836 -0.05089382 0.016625639 0.08172866 0.048095644 -0.009321762
0.022834083 0.044029146 -0.020060198 0.060453 -0.0968107 -0.06526725 -0.082243636 -0.06308804
-0.083146796 0.023068747 -0.04220752 0.024182905 0.028005002 -0.09798499 -0.037686482 0.063002646
-0.031253953 0.0034495736 -0.03277069 -0.016960682 -0.05849637 0.026741218 0.02598798 -0.04916063
0.00096693763 0.024164159 -0.03543597 0.033592742 0.06453278 0.070721954 0.037223876 -0.076633796
-0.05007514 -0.1614447 -0.11033436 -0.051008027 -0.06184705 0.06450787 -0.038327433 0.039711643
0.081793725 0.013608354 -0.015801251 -0.095686175 -0.06431254 -0.05394272 -0.025636565 -0.03917436
0.044899985 -8.702685e-05 0.013233992 0.042079825 -0.06604843 0.005430809 -0.104515046 -0.021717897
00000000: e34e c3bc 6d7a 6bbd 86d3 213b d30c 0fbd
00000010: a54c fa3c ea65 653d ae5a fc3c 2f80 0cbd
00000020: 38fa 85bb f7b1 efbb e038 9ebb ebf0 76bc
00000030: eff3 e83c a4a6 163d 7d66 c23d 3ee1 edbd
00000040: 9668 b8bc 7f8e a2ba 4038 c1bd c56c 7dbc
00000050: dba9 97bd 4bc0 b73c ce46 8cbc 94cc a53d
00000060: 2309 c13c fff8 8abd f7c3 b63d 3f66 85bd
00000070: db38 a23c eed1 ab3c d636 93bd 0275 8c3d
00000080: 9379 303d 6ce4 79bd 5a65 cdbc b115 f0bc
00000090: cf6a 74bd 642b 63bd b3a0 123d d493 99bc
000000a0: c6a9 c23b f52d 7c3d 2e7b 943c 8312 cfbc
000000b0: 3f6c 883d 88eb 0ebd 7562 833d ee43 093d
000000c0: 4fd8 12bc df42 a73c 6b10 f8bc ab75 203c
000000d0: 0a9e a2bc 3d49 aabc 44f1 91bd b23e 0eba
000000e0: d620 4cbd bdfd bb3b 2185 203d ae87 1abc
000000f0: e170 5f3d 0b48 873d 4977 8dbc bad7 6fbd
00000100: c6f2 60bc 7208 853d d1ba cdbd bae2 5d3c
00000110: 8df2 c03d 2e16 16bc 083a 99bc 34d7 a0bc
00000120: f85a 89bd 7bf1 8ebb 8b6f b8bd 52d5 47bd
00000130: d907 023d d15c c2bb c091 5abd 4aa1 b33c
00000140: 0469 2a3d 2d17 663c 3e5d 043d e6c9 ae3d
00000150: f5c6 20bd a6a0 b73b cf3c c13d ea01 87bd
00000160: f885 40bd ddd4 9bbd 8930 b53c e267 38bd
00000170: 7cc5 1bbd a923 f1ba 56b7 043d 5e16 34bd
00000180: f2db 91bc 2a3b f63b c056 87bd 53ac 733c
00000190: 2808 083c 1bf4 2dbb f0d4 fd3d ef14 073c
000001a0: e78f 2a3c cef5 4f3c 8756 e6bb 9bd9 a9bc
000001b0: 7da5 11bd ca8e 7f3c 72e3 98bc d87a 89bc
000001c0: 03a9 8a3c 90c1 3e3d 4fa8 bbbb 2865 5c3d
000001d0: 1782 1f3d 496c a9bd f562 3fbd c755 92bd
000001e0: b60e 2fbd 5ceb b2bc 16cc 8a3d 9b4c 883d
000001f0: 3223 833c 8078 993c 3281 0ebc d715 683b
00000200: c395 453d 7e86 c3bd fd80 8a3c b5f9 b43d
00000210: 9b51 11be 93a5 72bd 9651 06bd c872 3dbd
00000220: d142 d33c 95d9 223d 55f7 aabc dfc3 ebbb
00000230: 4f30 6d3d e2c3 9cbd 37c1 debc 6841 3fbd
00000240: 2b7b b7bc 3e57 503d 9dd2 743b eab2 8dbb
00000250: 8470 073d 1a32 7c3d fefe c9bd 727c 65bc
00000260: 69d2 b8bd 3736 bcbd 45dd e3bd b326 3cbd
00000270: 9d6d 233d edbc 883b 3a35 043c d538 b53c
00000280: 9928 033d 6d09 9a3d f6ca adbc a11e ab3c
00000290: c58b 3d3d c0ea 223d e724 36bc d56b 043b
000002a0: 55e1 f5bc 8aa8 a9bd 4f41 c5bc 67da f5bc
000002b0: bd79 f0bb ac45 30bd eae9 b1bc 91f6 e0bc
000002c0: d505 75bc 964f 0a3b c503 50bd 87df 04bd
000002d0: 6560 ccbc 3470 9bbb c40b bfbd 154f fa3c
000002e0: cc51 143d 8690 5dbc 185b 11bc 0ef6 5bbc
000002f0: fbac 48bd 3b2c 07be 6ec8 59bd 828d debc
00000300: 77c3 0cbd 7516 a83c 8dfd 723d 0a76 50bd
00000310: 7e32 883c 5b61 a73d f0ff 443d 4eba 18bc
00000320: 8b0e bb3c e857 343d 4955 a4bc 919d 773d
00000330: b044 c6bd d6aa 85bd 5a6f a8bd 4d34 81bd
00000340: de48 aabd abfa bc3c cbe1 2cbd 3a1b c63c
00000350: bf6a e53c 5bac c8bd 245d 1abd 8807 813d
00000360: 2504 00bd 3e12 623b 8f3a 06bd 21f1 8abc
00000370: e499 6fbd 6610 db3c bfe4 d43c a85c 49bd
00000380: 167a 7d3a eaf3 c53c 4f25 11bd 8b98 093d
00000390: c329 843d acd6 903d 1078 183d 2ef2 9cbd
000003a0: 971b 4dbd c251 25be fbf6 e1bd cbed 50bd
000003b0: 5553 7dbd b41c 843d 3afd 1cbd ada8 223d
000003c0: 7883 a73d 93f5 5e3c a071 81bc 1df7 c3bd
000003d0: 4bb6 83bd 0bf3 5cbd c603 d2bc 4b75 20bd
000003e0: 0ce9 373d 2f82 b6b8 63d3 583c e55b 2c3d
000003f0: 6644 87bd eef4 b13b fc0b d6bd bbe9 b1bc

bias f4 [64]
-0.05040861 0.13349612 0.005878398 0.0006460837 -0.06422796 0.013455208 -0.052188393 -0.090008
-0.028633106 -0.032803014 -0.01591935 -0.04521384 -0.034030516 -0.06565901 -0.03980312 0.022261748
-0.02055439 -0.043418683 -0.06541955 -0.029846769 0.005800026 0.00724497 0.055488314 0.0037860295
0.0077908863 0.020394923 0.0836211 0.0070821564 -0.05227343 0.060871243 -0.044935223 -0.030643376
0.009297094 0.011755558 0.02872196 -0.09922923 0.047659647 0.036128145 0.06097644 -0.036953896
-0.07540151 0.046243325 -0.00053234765 0.030396832 -0.09442975 -0.020509448 -0.0037732194 0.07053957
-0.06491726 -0.051626008 0.027347725 -0.13126723 -0.0046865493 0.040016796 -0.0817036 -0.048493717
-0.015869342 0.010957667 0.082951486 -0.06800458 0.008882949 0.04577083 0.011206739 0.08014491
00000000: 4279 4ebd 35b3 083e 949f c03b f15d 293a
00000010: f389 83bd 3c73 5c3c 7fc3 55bd 1d56 b8bd
00000020: fa8f eabc 745c 06bd 4c69 82bc 2632 39bd
00000030: 9563 0bbd 3b78 86bd 9908 23bd 455e b63c
00000040: ae61 a8bc cad7 31bd affa 85bd 3681 f4bc
00000050: 250e be3b 3767 ed3b b747 633d 091f 783b
00000060: b14a ff3b 4113 a73c 8a41 ab3d 6f11 e83b
00000070: aa1c 56bd 2054 793d ff0d 38bd d107 fbbc
00000080: d752 183c 629a 403c 514a eb3c b238 cbbd
00000090: c336 433d 1bfb 133d 6ec2 793d f85c 17bd
000000a0: 1b6c 9abd a469 3d3d 3f8d 0bba c702 f93c
000000b0: 6364 c1bd 6e03 a8bc 1e48 77bb 0d77 903d
000000c0: 57f3 84bd cb75 53bd 5608 e03c eb6a 06be
000000d0: a091 99bb a7e8 233d 3854 a7bd 59a1 46bd
000000e0: 6c00 82bc c987 333c 78e2 a93d fc45 8bbd
000000f0: ca89 113c 327a 3b3d 789c 373c 0423 a43d

weight f4 [64]
1.434663 1.2107941 1.2510517 1.293527 1.3795785 1.2827234 1.3632948 1.2737318
1.0958608 1.4359076 1.2493495 1.3785127 1.2794216 1.2809796 1.1361209 1.0897515
1.2265049 1.2629311 1.2514884 1.2167583 1.3274126 1.1880463 1.2386079 1.2364436
1.1446682 1.1808325 1.2880087 1.2811278 1.3400139 1.2910701 1.2995719 1.3021591
1.2468373 1.1368912 1.221673 1.3428323 1.2536101 1.2192013 1.2585351 1.1442152
1.4300358 1.1487173 1.2363253 1.1329397 1.423356 1.199793 1.1863765 1.2094879
1.3434439 1.280189 1.187934 1.7236267 1.1821626 1.2155342 1.2548835 1.3334745
1.2047926 1.1777946 1.2416395 1.2991705 1.2788616 1.2458047 1.293285 1.2231632
00000000: 0aa3 b73f 4dfb 9a3f 7622 a03f 4b92 a53f
00000010: 0796 b03f 4830 a43f 7280 ae3f a509 a33f
00000020: 2b45 8c3f d2cb b73f afea 9f3f 1b73 b03f
00000030: 16c4 a33f 24f7 a33f 696c 913f fa7c 8b3f
00000040: 1dfe 9c3f baa7 a13f c630 a03f bcbe 9b3f
00000050: a8e8 a93f e711 983f b48a 9e3f c943 9e3f
00000060: 7d84 923f 8525 973f 78dd a43f fffb a33f
00000070: 9385 ab3f c941 a53f 5f58 a63f 26ad a63f
00000080: 5d98 9f3f a785 913f c85f 9c3f eee1 ab3f
00000090: 4c76 a03f ca0e 9c3f ae17 a13f a575 923f
000000a0: 6a0b b73f 2b09 933f e83f 9e3f 2b04 913f
000000b0: 8830 b63f d192 993f 2fdb 973f 80d0 9a3f
000000c0: f8f5 ab3f 3cdd a33f 390e 983f cd9f dc3f
000000d0: 1b51 973f a096 9b3f 06a0 a03f 4baf aa3f
000000e0: a536 9a3f f9c1 963f 0bee 9e3f 384b a63f
000000f0: bdb1 a33f 8776 9f3f 5d8a a53f 9d90 9c3f

bias f4 [64]
0.098337434 -0.018152788 0.059850167 0.12878014 0.09544807 0.0224654 0.044422273 0.06993586
0.026129879 0.1220497 0.040139683 0.12076017 -0.029588092 0.0016854516 -0.026006645 0.0061805937
0.09669572 0.09062708 0.009529086 0.00028644924 0.09822045 0.000948343 0.02968808 0.051506814
-0.006766612 -0.006549409 -0.0032438876 0.09738574 0.031044174 0.024335172 0.019000111 0.083821796
0.055701975 0.042337224 -0.003911171 0.07330308 -0.047991175 0.09171345 -0.009231012 0.08152431
0.15723065 -0.05083414 0.048595227 0.0233087 0.11681591 0.024114469 0.029942261 0.065907545
0.05739264 0.047163926 0.046744917 0.1841239 0.037518393 0.014365694 0.059256192 0.015334095
0.05436419 0.034684345 0.066435136 0.053012032 0.021463213 0.058197763 0.093645506 -0.0052840533
00000000: 2365 c93d 28b5 94bc 7325 753d f1de 033e
00000010: 477a c33d 5c09 b83c 21f4 353d 883a 8f3d
00000020: 540e d63c 31f5 f93d 8269 243d 1c51 f73d
00000030: ba62 f2bc 5fea dc3a e30b d5bc 9486 ca3b
00000040: 6808 c63d b19a b93d e21f 1c3c 912e 9639
00000050: ce27 c93d 399a 783a 6b34 f33c cff8 523d
00000060: 75ba ddbb 6d9c d6bb 6797 54bb 2d72 c73d
00000070: 5a50 fe3c 8e5a c73c 1fa6 9b3c c3aa ab3d
00000080: c127 643d cc69 2d3d 4829 80bb ed1f 963d
00000090: 6592 44bd 43d4 bb3d ac3d 17bc 38f6 a63d
000000a0: 1201 213e 7637 50bd ca0b 473d e3f1 be3c
000000b0: 2e3d ef3d b58b c53c 7949 f53c 89fa 863d
000000c0: 8b14 6b3d f62e 413d 9977 3f3d fa8a 3c3e
000000d0: e3ac 193d 165e 6b3c 9fb6 723d db3b 7b3c
000000e0: fcac 5e3d 2c11 0e3d 250f 883d 2523 593d
000000f0: 9fd3 af3c c760 6e3d 37c9 bf3d da25 adbb

running_mean f4 [64]
-1.6770461 1.6906103 0.99055225 -0.51779926 -1.544744 0.544815 -0.78064984 -1.1437184
0.19539319 -1.8065985 0.47767195 -2.768977 -0.82805943 -1.1466607 -0.026162563 0.023764268
-0.45220035 -0.90484655 -0.6565358 -1.3495748 -0.7199867 -0.02965298 1.2555543 0.7466816
1.1944683 0.6181311 0.7097661 0.24790189 -2.3451076 1.0063771 -2.2526243 -1.059196
-0.0362166 0.59947056 -0.71411705 -1.7169433 0.9880912 0.9119932 -0.6110084 0.66633797
-1.6268001 0.2301283 0.79691285 0.44188786 -3.3397694 0.5061411 1.1083946 0.7905572
-1.7735953 -0.42455876 0.18355888 -1.6094725 -0.9644923 0.40801117 -2.6496906 -1.170505
0.444233 -0.3205906 0.8943377 -2.1703372 0.30252507 0.6090061 0.2886533 0.7456037
00000000: 72a9 d6bf eb65 d83f d594 7d3f 7e8e 04bf
00000010: 2cba c5bf ff78 0b3f abd8 47bf 5d65 92bf
00000020: 2715 483e 9f3e e7bf 6b91 f43e eb36 31c0
00000030: b4fb 53bf c7c5 92bf df52 d6bc 48ad c23c
00000040: ce86 e7be 06a4 67bf bb12 28bf debe acbf
00000050: 0c51 38bf ceea f2bc 01b6 a03f 8626 3f3f
00000060: 56e4 983f d73d 1e3f 3bb3 353f fed9 7d3e
00000070: 3e16 16c0 f7d0 803f ff2a 10c0 bc93 87bf
00000080: dc57 14bd e776 193f 60d0 36bf ccc4 dbbf
00000090: 8bf3 7c3f 6378 693f 0c6b 1cbf 2095 2a3f
000000a0: fc3a d0bf c1a6 6b3e 7b02 4c3f 203f e23e
000000b0: c8be 55c0 7792 013f e0df 8d3f f561 4a3f
000000c0: 2c05 e3bf c45f d9be dcf6 3b3e 3203 cebf
000000d0: f8e8 76bf d7e6 d03e 8894 29c0 1cd3 95bf
000000e0: 8272 e33e 7324 a4be 51f3 643f cee6 0ac0
000000f0: 91e4 9a3e d3e7 1b3f 5eca 933e e2df 3e3f

running_var f4 [64]
1.1260077 1.445018 1.3986325 2.0215018 2.1087546 1.4140007 0.79745466 1.3820088
1.2115179 2.3330944 1.689566 2.26091 1.5478071 2.4201877 1.6869057 0.9545832
1.4989203 1.3381643 1.0388798 1.3455749 1.7698829 1.1148449 1.8840029 1.4976481
1.3462559 1.6333255 1.4790661 1.8715702 1.5525534 1.0407985 1.3686807 1.6792133
2.100105 1.257894 1.8391331 1.5787771 1.3721387 1.0712805 1.448554 1.4786117
1.8025144 1.5110432 1.4285204 1.4806911 2.2889628 1.3827934 1.5111349 1.7616509
1.9329684 1.5372335 1.6216878 1.1495637 1.1680015 1.9783784 2.3285806 1.305481
1.915892 2.126077 1.5864468 2.0633767 1.2923791 1.8843054 1.6031785 1.7739689
00000000: 0521 903f 5af6 b83f 6406 b33f 4960 0140
00000010: d6f5 0640 fafd b43f fd25 4c3f aae5 b03f
00000020: 0513 9b3f 6b51 1540 b343 d83f c0b2 1040
00000030: 8b1e c63f 5be4 1a40 87ec d73f 915f 743f
00000040: 9fdc bf3f f848 ab3f 03fa 843f cc3b ac3f
00000050: 868b e23f 3db3 8e3f 0227 f13f efb2 bf3f
00000060: 1d52 ac3f cf10 d13f 0a52 bd3f 9d8f ef3f
00000070: 12ba c63f e338 853f ee30 af3f 76f0 d63f
00000080: 1f68 0640 ac02 a13f b768 eb3f 5e15 ca3f
00000090: 3ea2 af3f b81f 893f 386a b93f 2643 bd3f
000000a0: cbb8 e63f dd69 c13f c2d9 b63f 4987 bd3f
000000b0: 5e7e 1240 60ff b03f de6c c13f c77d e13f
000000c0: 826b f73f 11c4 c43f 7793 cf3f e724 933f
000000d0: 1381 953f 813b fd3f 7707 1540 001a a73f
000000e0: f33b f53f a511 0840 b010 cb3f 5d0e 0440
000000f0: ae6c a53f eb30 f13f f434 cd3f 6a11 e33f

weight f4 [7, 64, 3, 3]
-0.1546345 -0.062000807 0.022679355 -0.064296894 -0.03119979 -0.008802233 0.13168874 -0.0043862984
0.020271573 0.0952239 0.013439648 0.089927875 -0.09346937 0.044126306 0.09714114 0.16549295
0.143882 0.2586934 0.027234927 -0.0026227694 0.2054809 -0.044409696 -0.024031969 0.008057688
0.14427969 0.069740355 -0.03769901 -0.010310857 -0.010632869 0.030550122 -0.005447706 -0.01810102
0.12588088 -0.1510301 -0.091469474 -0.025591547 -0.11778147 -0.034565467 -0.10755359 -0.11403596
-0.09195625 0.037474155 -0.11472256 -0.15672396 -0.1270977 0.023073658 0.0027743217 0.15614043
0.07441271 0.03765273 0.04121041 0.02459854 -0.028481163 0.014313367 0.015965518 -0.034891006
0.033009876 -0.10744633 -0.091106236 -0.10070098 0.10614806 0.06658657 0.16221991 0.064554185
-0.033042163 -0.08295307 -0.038319927 0.026041739 0.08324777 -0.2524824 -0.12030525 -0.074324206
0.06285579 0.03592146 0.05562897 0.035525907 0.030344343 0.05580559 -0.12967023 -0.06517655
-0.12397659 -0.15442699 -0.011579159 -0.07047315 -0.10607021 -0.066337235 -0.014727953 0.006948581
0.0029024817 -0.1789094 -0.026067605 -0.015194264 -0.04101855 0.12698498 -0.012821761 -0.05078038
0.075158775 -0.15899035 -0.116335034 -0.14562882 0.01550662 0.04556818 0.04535443 -0.06622086
-0.102179736 0.1276714 0.1590955 0.107668556 -0.066037685 0.028528355 -0.012887175 0.0060906657
0.039703343 -0.109562226 0.088734984 0.011243684 -0.016522978 0.016059652 -0.055019356 -0.14360479
-0.03641072 -0.0146588115 -0.09575659 -0.13337354 0.011768258 -0.018567257 0.037064213 0.036598846
-0.064360745 -0.011701326 0.0147757875 -0.17870814 -0.0004226311 0.058911983 0.015749792 -0.008726497
0.022415817 0.078122966 -0.038779464 0.056650627 -0.07169581 -0.11259523 -0.14657165 -0.17546001
0.0056030615 0.06439254 0.10332009 -0.0766331 -0.05532221 0.043479282 -0.17519562 -0.046613514
-0.056083947 -0.020186707 0.047276706 -8.168755e-05 -0.0789138 0.0074151075 -0.079597495 -0.17405818
-0.12332454 -0.1941825 -0.025031336 0.07067361 0.11172968 0.1631428 0.028210636 -0.08497028
-0.105218954 -0.0291971 -0.16494396 0.04701222 0.04985631 -0.08157064 -0.06009075 0.009047638
0.056443024 0.07779199 0.014636977 0.1268778 0.092593655 -0.07832735 0.07161905 0.08999776
-0.016109338 0.14198871 0.15364213 0.09296138 0.16587068 0.06178045 0.03559169 -0.048332766
-0.002209454 -0.053817496 -0.054983232 -0.10410614 -0.1530334 -0.011109768 0.120088965 0.027655357
0.019403508 -0.042123828 -0.025495319 0.01743201 -0.22988406 -0.080086485 0.036455058 0.040984984
-0.041109554 -0.020283014 0.1015579 0.045785442 0.068985865 0.108987026 0.05159339 -0.14448959
-0.052249696 -0.045016278 -0.033960223 -0.048083123 -0.017776923 -0.026713902 -0.02067367 -0.060031023
0.11945737 -0.0026458735 0.012530787 0.0846815 -0.09197653 -0.06991878 -0.07461239 -0.10200578
-0.23989397 -0.032184195 -0.14453988 -0.10070572 0.08193697 -0.0111551825 0.040422905 0.08371003
-0.15136 -0.1756249 -0.12827435 -0.108352065 0.029275762 -0.053517178 -0.120377906 -0.07514044
-0.12906227 -0.18459068 -0.17682661 -0.11617874 -0.067872375 0.029403107 0.025118163 0.04735158
00000000: 8258 1ebe 8ff4 7dbd 0eca b93c 17ae 83bd
00000010: b496 ffbc 3e37 10bc 6ad9 063e f0ba 8fbb
00000020: 9210 a63c c004 c33d f831 5c3c 1b2c b83d
00000030: de6c bfbd c9bd 343d eff1 c63d fc76 293e
00000040: ce55 133e 7673 843e c81b df3c c5e2 2bbb
00000050: 9669 523e f1e6 35bd b1de c4bc 6504 043c
00000060: 0ebe 133e 08d4 8e3d 476a 1abd deee 28bc
00000070: 7c35 2ebc 4044 fa3c ac82 b2bb 9748 94bc
00000080: ebe6 003e a2a7 1abe 5954 bbbd 5da5 d1bc
00000090: 6937 f1bd 8594 0dbd 0e45 dcbd af8b e9bd
000000a0: 8f53 bcbd 807e 193d a9f3 eabd 3f7c 20be
000000b0: e625 02be f804 bd3c 65d1 353b 47e3 1f3e
000000c0: b165 983d c039 1a3d 3fcc 283d e182 c93c
000000d0: 5451 e9bc 9d82 6a3c 1eca 823c dfe9 0ebd
000000e0: 5d35 073d d20c dcbd e895 babd 513c cebd
000000f0: 2764 d93d 8a5e 883d fa1c 263e fc34 843d
00000100: 3857 07bd 4de3 a9bd 5bf5 1cbd 7c55 d53c
00000110: cf7d aa3d 6045 81be 9962 f6bd 4a37 98bd
00000120: 89ba 803d 6122 133d 34db 633d 9d83 113d
00000130: b394 f83c 6794 643d 46c8 04be 487b 85bd
00000140: 70e7 fdbd 1c22 1ebe 83b6 3dbc 3a54 90bd
00000150: 573b d9bd d1db 87bd 834d 71bc ecb0 e33b
00000160: 9037 3e3b 0734 37be bb8b d5bc 5df1 78bc
00000170: 1103 28bd 5a08 023e 5d12 52bc 16ff 4fbd
00000180: d8ec 993d 5ece 22be 1041 eebd b91f 15be
00000190: 7a0f 7e3c b3a5 3a3d 91c5 393d cd9e 87bd
000001a0: 9c43 d1bd 4bbc 023e eee9 223e 5581 dc3d
000001b0: c43e 87bd 4cb4 e93c bb24 53bc 3594 c73b
000001c0: f99f 223d 2962 e0bd b0ba b53d 6e37 383c
000001d0: 325b 87bc 888f 833c fa5b 61bd 220d 13be
000001e0: 6823 15bd 832b 70bc 081c c4bd 1393 08be
000001f0: a7cf 403c 5c1a 98bc a5d0 173d ace8 153d
00000200: 91cf 83bd ebb6 3fbc 2516 723c 44ff 36be
00000210: 9694 ddb9 b14d 713d b505 813c 95f9 0ebc
00000220: 60a1 b73c effe 9f3d 37d7 1ebd 7d0a 683d
00000230: 41d5 92bd 5498 e6bd e116 16be caab 33be
00000240: e399 b73b 3ce0 833d 7c99 d33d d1f1 9cbd
00000250: 8b99 62bd 5517 323d 7b66 33be d0ed 3ebd
00000260: 48b8 65bd 985e a5bc 38a5 413d ab4f abb8
00000270: 8f9d a1bd 6efa f23b 0304 a3bd 4f3c 32be
00000280: 9491 fcbd c7d7 46be 840e cdbc 53bd 903d
00000290: 88d2 e43d e80e 273e fe19 e73c e604 aebd
000002a0: 097d d7bd c22e efbc 12e7 28be e38f 403d
000002b0: 2136 4c3d 820e a7bd b821 76bd 8b3c 143c
000002c0: cd30 673d 6851 9f3d eecf 6f3c 41ec 013e
000002d0: bea1 bd3d 176a a0bd 02ad 923d bf50 b83d
000002e0: bbf7 83bc 7d65 113e 5d54 1d3e 8962 be3d
000002f0: 01da 293e 7f0d 7d3d 98c8 113d 94f8 45bd
00000300: 7dcc 10bb bc6f 5cbd 1936 61bd 9a35 d5bd
00000310: cab4 1cbe bf05 36bc 34f1 f53d 7d8d e23c
00000320: 1bf4 9e3c 098a 2cbd 8fdb d0bc 93cd 8e3c
00000330: ba66 6bbe 6204 a4bd e651 153d dfdf 273d
00000340: 7e62 28bd 9028 a6bc 97fd cf3d 8489 3b3d
00000350: 7648 8d3d 9734 df3d 9753 533d 14f5 13be
00000360: c703 56bd fd62 38bd e019 0bbd cff2 44bd
00000370: e9a0 91bc 1dd7 dabc d45b a9bc 17e3 75bd
00000380: 11a6 f43d 6466 2dbb ee4d 4d3c 7f6d ad3d
00000390: 315e bcbd 9431 8fbd 61ce 98bd 68e8 d0bd
000003a0: c4a6 75be 93d3 03bd 4302 14be cd3e cebd
000003b0: 92ce a73d 3ac4 36bc 7d92 253d 2a70 ab3d
000003c0: 1efe 1abe 04d7 33be 5a5a 03be b0e7 ddbd
000003d0: b9d3 ef3c d434 5bbd b188 f6bd 3be3 99bd
000003e0: e628 04be 5705 3dbe 0912 35be 1fef edbd
000003f0: ac00 8bbd c9de f03c 9bc4 cd3c bbf3 413d

bias f4 [7]
0.02029382 0.0515979 -0.026419317 -0.05252308 -0.0850442 -0.058441486 -0.0028713464
00000000: 3a3f a63c 5258 533d 536d d8bc 7122 57bd
00000010: a72b aebd 5760 6fbd 332d 3cbb

weight f4 [64, 7, 3, 3]
-0.06771283 0.028149828 0.017369919 -0.057155795 0.0005469954 0.05687855 0.04700483 -0.050193142
-0.011774194 -0.009375107 -0.0027263486 -0.012978676 -0.0056570023 -0.009342503 -0.014965997 0.019051762
-0.03337645 -0.037322592 -0.055790734 0.0038537409 -0.05983508 -0.04040728 0.01738299 -0.018669061
-0.007179348 0.018873705 -0.036234137 0.025782658 -0.03957215 -0.016508183 -0.011799881 -0.04728346
-0.041910674 -0.0680083 0.044677053 0.041719247 -0.04693758 -0.07186831 -0.034653664 0.073439226
-0.03265562 -0.057075493 -0.02913131 -0.022068992 0.016809992 0.020130668 0.06775721 0.0037520647
-0.02076727 0.024239102 -0.038080335 -0.010681482 -0.034612417 -0.033614207 0.010019265 -0.049813025
0.002252156 -0.0718266 -0.03729861 -0.0034249092 -0.028988967 0.01599725 0.0049979864 -0.03658494
0.014106847 0.0030767578 -0.037002604 0.0039526327 0.00037434135 -0.050693523 -0.024045587 0.04029703
-0.0054464336 -0.041394174 -0.005330059 -0.03428877 -0.043568477 -0.01842422 0.02105998 -0.013512029
-0.036377575 -0.060589712 -0.07289004 0.011797212 -0.00084867905 -0.03723461 -0.0642651 0.055289656
0.054189734 -0.07354038 -0.0021916563 -0.037308253 -0.042296145 0.039085176 -0.035260964 -0.0072267405
0.04792143 -0.003346318 0.032938022 -0.0011797571 0.01031583 -0.026821429 0.074431844 -0.032267388
-0.022699635 0.030313883 0.016002094 0.0005175238 0.041172374 0.025174422 0.012606262 0.045808565
-0.014332967 -0.06661914 -0.03802368 -0.019416977 -0.059110783 -0.071650535 0.00708738 0.005744508
-0.02567617 0.02319385 0.033232354 -0.07966347 0.04865522 0.026798364 -0.00938948 0.07371401
0.045484863 0.031131973 0.03384971 0.010050508 -0.12124072 -0.06333364 -0.100677 0.02357149
6.7781744e-05 -0.007415786 -0.009813567 -0.008745124 0.0058409884 0.04450948 0.011950352 -0.0046336814
-0.056053095 -0.037012856 -0.032235663 -0.059091903 -0.0108593935 0.019477928 0.03907131 0.020085637
0.031696394 -0.05089569 -0.0010973071 -0.025488868 -0.03604589 0.010072583 0.02719812 0.040450238
-0.008786229 -0.017269138 -0.017317941 0.0050106454 -0.004627948 0.010946836 0.01829549 0.0455215
0.0063558533 -0.008614775 -0.021316884 0.016831 -0.024975708 -0.02599819 0.002758923 -0.031919863
-0.032230344 0.023483438 0.009125876 -0.006101736 -0.050289348 -0.022884877 -0.0387534 -0.017362041
-0.011780259 -0.044995014 0.018644826 0.06341882 0.06590321 -0.032526355 -0.011551159 0.017503558
0.03075156 0.008036818 0.028503787 0.003451245 -0.024506098 -0.0046813213 -0.018039217 0.011798426
-0.022710038 -0.006373934 0.02152178 0.00096571416 -0.017550753 -0.03744826 -0.026342388 -0.08411021
-0.08899037 0.022347912 0.022768881 -0.042636864 -0.0055393097 0.028707022 -0.009303368 0.03475948
-0.031235427 0.0016181681 0.0130477995 -0.037457358 -0.029524488 0.053364962 0.022892173 0.017066346
0.019777186 0.04491248 0.05008855 -0.06992556 0.11588291 -0.0068774857 -0.17325132 0.041340187
0.0031698146 -0.039276276 0.056857545 0.023577528 -0.059547756 -0.010842592 0.00222614 -0.028992143
-0.028448876 0.0033040296 0.016648477 -0.04041805 0.034546748 0.015464006 -0.09582382 -0.013014478
0.00022861513 -0.02301582 0.023145258 0.010420232 0.0054748934 0.003688558 -0.012062586 0.022823445
00000000: 06ad 8abd 789a e63c 5c4b 8e3c 321c 6abd
00000010: 3d64 0f3a 7cf9 683d 2388 403d 5397 4dbd
00000020: 8de8 40bc 0c9a 19bc 8aac 32bb 83a4 54bc
00000030: 605e b9bb 4c11 19bc f133 75bc 7112 9c3c
00000040: bfb5 08bd 93df 18bd d384 64bd 0b8f 7c3b
00000050: a115 75bd 1b82 25bd c666 8e3c dcef 98bc
00000060: bc40 ebbb 079d 9a3c 3f6a 14bd 2736 d33c
00000070: 6816 22bd 2b3c 87bc 4a54 41bc 4dac 41bd
00000080: 87aa 2bbd f047 8bbd 49ff 363d cde1 2a3d
00000090: 9f41 40bd b12f 93bd 00f1 0dbd 4e67 963d
000000a0: e6c1 05bd fec7 69bd c9a4 eebc 08ca b4bc
000000b0: 1cb5 893c 12e9 a43c 4bc4 8a3d 33e5 753b
000000c0: 1f20 aabc 1591 c63c 20fa 1bbd 6201 2fbc
000000d0: c0c5 0dbd 0daf 09bd d827 243c be08 4cbd
000000e0: e898 133b d319 93bd 6dc6 18bd 7174 60bb
000000f0: 457a edbc aa0c 833c 26c6 a33b 17da 15bd
00000100: 6820 673c 6ea3 493b 0b90 17bd 1685 813b
00000110: 3f43 c439 03a4 4fbd 40fb c4bc 800e 253d
00000120: ff77 b2bb f08c 29bd c7a7 aebb 6272 0cbd
00000130: dc74 32bd 64ee 96bc fb85 ac3c 8f61 5dbc
00000140: a700 15bd eb2c 78bd 6047 95bd 1849 413c
00000150: e379 5eba 5283 18bd 6c9d 83bd 6877 623d
00000160: 0ef6 5d3d 579c 96bd e4a1 0fbb 8ad0 18bd
00000170: b93e 2dbd c717 203d cd6d 10bd 4bce ecbb
00000180: 4349 443d e64d 5bbb 05ea 063d 14a2 9aba
00000190: ba03 293c 9db8 dbbc b96f 983d cf2a 04bd
000001a0: 96f4 b9bc d254 f83c d316 833c 6faa 073a
000001b0: 5da4 283d 973a ce3c 7f8a 4e3c c3a1 3b3d
000001c0: d2d4 6abc 9e6f 88bd b8be 1bbd 5a10 9fbc
000001d0: 261e 72bd 84bd 92bd 413d e83b 6d3c bc3b
000001e0: d556 d2bc 0701 be3c a61e 083d 9a26 a3bd
000001f0: b24a 473d 3e88 db3c 55d6 19bc 5ff7 963d
00000200: 564e 3a3d 7b08 ff3c fea5 0a3d e3aa 243c
00000210: 0e4d f8bd 11b5 81bd be2f cebd ff18 c13c
00000220: 0c26 8e38 1f00 f3bb 15c9 20bc b547 0fbc
00000230: c365 bf3b 934f 363d 69cb 433c 23d6 97bb
00000240: ee97 65bd cb9a 17bd 8b09 04bd 5a0a 72bd
00000250: 99eb 31bc 2d90 9f3c 3d09 203d a28a a43c
00000260: 14d4 013d 0078 50bd 84d3 8fba 08ce d0bc
00000270: dba4 13bd 7a07 253c 97ce de3c 26af 253d
00000280: 1ef4 0fbc 0278 8dbc 5bde 8dbc 5730 a43b
00000290: 0ba6 97bb 5c5a 333c 6ce0 953c c174 3a3d
000002a0: c344 d03b fc24 0dbc bfa0 aebc 2ae1 893c
000002b0: db99 ccbc 28fa d4bc 0ccf 343b 67be 02bd
000002c0: f703 04bd 5760 c03c b384 153c 12f1 c7bb
000002d0: 34fc 4dbd 1179 bbbc e3bb 1ebd d73a 8ebc
000002e0: fd01 41bc b14c 38bd 09bd 983c bae1 813d
000002f0: 43f8 863d 5b3a 05bd 1341 3dbc 9f63 8f3c
00000300: b2ea fb3c dcac 033c c680 e93c 482e 623b
00000310: 03c1 c8bc c565 99bb fbc6 93bc 2f4e 413c
00000320: 670a babc 6fdc d0bb 724e b03c fb27 7d3a
00000330: 99c6 8fbc 5963 19bd fecb d7bc f941 acbd
00000340: 9540 b6bd f812 b73c ce85 ba3c fea3 2ebd
00000350: 1983 b5bb fd2a eb3c 276d 18bc f55f 0e3d
00000360: 70e1 ffbc b618 d43a 70c6 553c e36c 19bd
00000370: 57dd f1bc 3895 5a3d 5e88 bb3c b9ce 8b3c
00000380: c403 a23c 26f6 373d a729 4d3d 2235 8fbd
00000390: 0554 ed3d 885c e1bb cb68 31be 5454 293d
000003a0: aabc 4f3b 29e0 20bd 75e3 683d a925 c13c
000003b0: 59e8 73bd 21a5 31bc 6ee4 113b ee80 edbc
000003c0: 9e0d e9bc 6b88 583b 6362 883c 668d 25bd
000003d0: e480 0d3d be5c 7d3c 473f c4bd ad3a 55bc
000003e0: 68b8 6f39 ac8b bcbc 209b bd3c 9fb9 2a3c
000003f0: bc66 b33b bcbb 713b 27a2 45bc 3cf8 ba3c

bias f4 [64]
0.09078371 -0.02129249 -0.1833631 0.061325822 -0.10205624 0.1466241 -0.0025413558 0.02776414
0.11643587 -0.02537828 -0.09766639 -0.0922508 0.059121367 0.051819123 -0.035779033 0.018461982
0.062282532 -0.021248594 0.07185503 0.0807959 -0.008228771 0.058403056 0.049119428 -0.31608996
-0.049498983 0.028539343 0.13647307 0.022268526 -0.10616311 -0.07210252 0.06035814 0.13763954
0.13289416 0.08306188 0.051081132 0.23135264 0.046308972 0.057554174 0.03271972 0.092718996
0.15010995 0.18134917 -0.047528245 0.05551265 0.009782978 0.07603768 -0.16889912 0.35934427
0.046259303 -0.42534044 0.13410813 0.004549906 -0.029098095 -0.00735036 0.08230342 0.085469276
-0.13214383 -0.078757346 -0.039575003 0.030353734 0.12379793 -0.043824263 0.17392424 0.0029863091
00000000: cfec b93d 976d aebc 89c3 3bbe c930 7b3d
00000010: dd02 d1bd a124 163e e08c 26bb 9f71 e33c
00000020: ee75 ee3d 1ce6 cfbc 5105 c8bd fded bcbd
00000030: 3f29 723d 4a40 543d 098d 12bd 953d 973c
00000040: f81b 7f3d 8811 aebc bb28 933d 5278 a53d
00000050: f8d1 06bc 0b38 6f3d 7431 493d 8bd6 a1be
00000060: 72bf 4abd 57cb e93c 99bf 0b3e 7c6c b63c
00000070: 0b6c d9bd 7caa 93bd 193a 773d 61f1 0c3e
00000080: 6815 083e 591c aa3d 733a 513d b5e7 6c3e
00000090: 7aae 3d3d edbd 6b3d 1d05 063d 75e3 bd3d
000000a0: 6cb6 193e 99b3 393e faac 42bd 3c61 633d
000000b0: c948 203c a5b9 9b3d e4f3 2cbe f9fb b73e
000000c0: 657a 3d3d 39c6 d9be a453 093e 6117 953b
000000d0: 215f eebc 4adb f0bb b28e a83d 840a af3d
000000e0: b650 07be 884b a1bd 6619 22bd 65a8 f83c
000000f0: c589 fd3d 1281 33bd 3219 323e f4b5 433b

weight f4 [64]
1.0273794 1.0778992 1.0502279 1.0036545 0.9882922 0.9465311 0.9706123 0.9282895
0.9800405 0.9832215 1.0760196 1.0630826 0.97504276 0.99139243 0.97706246 1.0164635
0.89549124 1.0081381 0.9438648 1.0516192 0.9995908 0.9636626 0.965366 0.93361574
0.9756412 0.9122911 0.9648456 0.95779616 1.0114777 0.97872794 1.0127537 1.0261874
0.97985756 0.96374613 0.9382411 0.96008205 1.0157822 0.99719554 0.9644569 1.0338941
0.94799525 1.0923219 0.9131604 1.0212952 0.97741014 1.0019442 1.0393792 1.0011091
1.0193402 0.9842321 0.97758156 0.97654986 0.99899536 1.0228509 0.9134741 0.95013845
0.9687459 0.98835677 0.9424255 0.9901259 0.9959194 0.9960194 1.0110737 0.9501135
00000000: 2b81 833f 9af8 893f de6d 863f c077 803f
00000010: b800 7d3f dd4f 723f 0c7a 783f 61a4 6d3f
00000020: efe3 7a3f 67b4 7b3f 03bb 893f 1713 883f
00000030: 679c 793f e5cb 7d3f c420 7a3f 7a1b 823f
00000040: ea3e 653f ab0a 813f 20a1 713f 759b 863f
00000050: 2fe5 7f3f 98b2 763f 3a22 773f 7101 6f3f
00000060: 9fc3 793f e98b 693f 1f00 773f 2132 753f
00000070: 1a78 813f ea8d 7a3f eaa1 813f 1c5a 833f
00000080: f2d7 7a3f 11b8 763f 9230 703f f0c7 753f
00000090: 2705 823f 3548 7f3f a6e6 763f a456 843f
000000a0: d1af 723f 34d1 8b3f e1c4 693f cdb9 823f
000000b0: 8d37 7a3f b53f 803f 610a 853f 5824 803f
000000c0: bd79 823f a3f6 7b3f c942 7a3f 2cff 793f
000000d0: 29be 7f3f c7ec 823f 70d9 693f 463c 733f
000000e0: bbff 773f f304 7d3f cc42 713f e478 7d3f
000000f0: 93f4 7e3f 21fb 7e3f dd6a 813f a33a 733f

bias f4 [64]
-0.20051385 -0.18470494 -0.2216772 -0.19003199 -0.010458055 -0.15946676 -0.12967646 -0.27454644
0.0061448226 -0.11199581 -0.34728503 -0.11312783 -0.14225993 -0.30311307 -0.2063351 -0.1121804
-0.15586062 -0.056502678 -0.048108216 -0.0888911 -0.069084875 -0.13262928 -0.15950206 -0.086048596
-0.18130505 -0.28637934 -0.16072139 -0.21575613 0.04044244 -0.13043234 -0.1139686 -0.018425297
-0.2019626 -0.026857043 -0.21799447 -0.1926984 -0.23599574 -0.12469188 -0.34894595 -0.2576154
-0.17869404 -0.3627888 -0.13490354 -0.16073745 -0.07156291 -0.029683966 -0.41451636 -0.27468908
-0.23281285 -0.25685135 -0.023406882 -0.21493013 0.018528147 0.040444937 -0.22203456 -0.026897203
-0.17081822 -0.04305802 0.05459612 -0.2525839 -0.21352588 -0.06611012 -0.30445114 -0.1541286
00000000: 8153 4dbe 4b23 3dbe 59ff 62be bf97 42be
00000010: 4358 2bbc 414b 23be e8c9 04be 5a91 8cbe
00000020: 825a c93b 0f5e e5bd 58cf b1be 90af e7bd
00000030: 96ac 11be a331 9bbe 8249 53be d6be e5bd
00000040: ed99 1fbe 5a6f 67bd 1f0d 45bd 890c b6bd
00000050: 5f7c 8dbd f8cf 07be 8254 23be 3f3a b0bd
00000060: 08a8 39be 50a0 92be 2694 24be 2def 5cbe
00000070: f9a6 253d 0e90 05be 5f68 e9bd a6f0 96bc
00000080: 49cf 4ebe 4d03 dcbc f139 5fbe bb52 45be
00000090: dea8 71be 755e ffbd 0ba9 b2be 2ae6 83be
000000a0: 92fb 36be 74bf b9be 2724 0abe 5c98 24be
000000b0: 938f 92bd ca2b f3bc 7d3b d4be 0ca4 8cbe
000000c0: 7e66 6ebe 0582 83be cabf bfbc a516 5cbe
000000d0: 57c8 973c 97a9 253d 075d 63be 8657 dcbc
000000e0: f9ea 2ebe 9b5d 30bd 2ea0 5f3d ad52 81be
000000f0: 87a6 5abe be64 87bd 05e1 9bbe e3d3 1dbe

running_mean f4 [64]
0.00702074 -0.13352829 -0.16203468 0.00018008596 -0.04930192 0.1735617 -0.044713434 -0.019937152
0.15323342 -0.10265442 -0.16860151 -0.09032066 -0.0616268 0.025592947 -0.08009753 0.066438496
-0.021080557 0.02174062 0.073271304 0.11508805 -0.016280964 -0.12629534 0.036954995 -0.332989
0.01554773 -0.0018401694 0.09371691 -0.02471802 -0.07550574 -0.08158196 0.13558564 0.2371045
0.09424441 0.12369411 -0.0073959413 0.23826972 -0.057270166 0.07420146 0.026578037 0.03419696
0.1841637 0.18797083 0.018989524 -0.015463749 0.007403329 0.08333255 -0.198558 0.37952557
-0.008988428 -0.4362272 0.21655238 0.0054104025 0.033376742 0.029830044 0.038266484 0.18118963
-0.19606805 -0.13261853 0.011274278 -0.019888118 0.09710352 -0.012326617 0.14979804 -0.027026495
00000000: 3c0e e63b a4bb 08be 6bec 25be 75d5 3c39
00000010: cff0 49bd 29ba 313e 6f25 37bd 3d53 a3bc
00000020: 39e9 1c3e 7b3c d2bd e0a5 2cbe 0afa b8bd
00000030: 626c 7cbd 4da8 d13c 2c0a a4bd e810 883d
00000040: 22b1 acbc 6219 b23c 440f 963d 49b3 eb3d
00000050: a85f 85bc 9153 01be 1f5e 173d 897d aabe
00000060: e8bb 7e3c d731 f1ba a7ee bf3d 727d cabc
00000070: c1a2 9abd 7114 a7bd f6d6 0a3e 86cb 723e
00000080: 3703 c13d 5653 fd3d a759 f2bb fafc 733e
00000090: 1f94 6abd eff6 973d 2fba d93c 1d12 0c3d
000000a0: 6995 3c3e 6d7b 403e eb8f 9b3c aa5b 7dbc
000000b0: a097 f23b 42aa aa3d ca52 4bbe 2d51 c23e
000000c0: 3344 13bc 2c59 dfbe e8bf 5d3e bf49 b13b
000000d0: 0db6 083d 235e f43c 51bd 1c3d c689 393e
000000e0: 10c6 48be 27cd 07be c0b7 383c 68ec a2bc
000000f0: 36de c63d 94f5 49bc a864 193e ab66 ddbc

running_var f4 [64]
0.0019797247 0.0052358196 0.0021418494 0.0018234066 0.0015170118 0.0017975329 0.0011995545 0.0022594258
0.004443295 0.0024071434 0.0016728796 0.0043398663 0.004526948 0.0011051475 0.0014880194 0.0044535855
0.004619771 0.0029330845 0.0012731021 0.0050425758 0.0021000234 0.012367323 0.000810955 0.0027928383
0.0012877088 0.0009591976 0.0010561729 0.0013298084 0.0042220964 0.00085400825 0.002871449 0.0036886109
0.002179988 0.004650136 0.00225874 0.0020797227 0.0038673102 0.0025455605 0.00082539464 0.0015137733
0.0013388665 0.0016156748 0.0021382866 0.0021803763 0.0017688462 0.0021218723 0.0014716448 0.0020082525
0.0019215782 0.0019690078 0.010669313 0.00083781045 0.0015567498 0.003120247 0.0018309974 0.008503727
0.0014070941 0.002033108 0.0026688564 0.0013998451 0.0012464571 0.0020565996 0.001150867 0.0016869548
00000000: 45be 013b 3d91 ab3b 455e 0c3b 5fff ee3a
00000010: 78d6 c63a 329b eb3a 5f3a 9d3a e012 143b
00000020: 0f99 913b 2ac1 1d3b 8644 db3a 7035 8e3b
00000030: cb56 943b 99da 903a a509 c33a 62ef 913b
00000040: 7361 973b fe38 403b 38de a63a 313c a53b
00000050: 8ca0 093b 50a0 4a3c 4596 543a 0d08 373b
00000060: 56c8 a83a a972 7b3a 486f 8a3a f74c ae3a
00000070: 8359 8a3b 86df 5f3a ec2e 3c3b 9fbc 713b
00000080: 21de 0e3b 2b60 983b 5e07 143b f54b 083b
00000090: b372 7d3b 6bd3 263b 4c5f 583a ce69 c63a
000000a0: e87c af3a 0dc5 d33a 7f22 0c3b a5e4 0e3b
000000b0: a1d8 e73a 1c0f 0b3b 35e4 c03a e39c 033b
000000c0: 77dd fb3a 780a 013b 58ce 2e3c 82a0 5b3a
000000d0: db0b cc3a 0f7d 4c3b 14fe ef3a 3753 0b3c
000000e0: 3e6e b83a e43d 053b fbe7 2e3b 027b b73a
000000f0: 2960 a33a 04c8 063b b0d8 963a cf1c dd3a
