carl/envs/mario/pcg_smb_env/toadgan/generators/v1/TOAD_GAN_3-1/generators.pth (torch_old, 873527 bytes, 56 tensors)

weight f4 [64, 13, 3, 3]
00000000: 8165 1cbd 0ce8 fcbd bfb8 3c3c e2f1 fa3c
00000010: a99e 883d a16c 783c 1448 22bd c005 41bb
00000020: b24d acbd 061c ba3d 06ae 9b3c 911a 16bc
00000030: 0b0d 50bd 6ece 103d 1519 263c 7206 623c
00000040: 9175 95bd 6cdd fb3c fcd1 703d 02cc 003c
00000050: 2b7b f9bd 0994 a53c 52e2 d63c 1a90 fdbc
00000060: e0ff 0a3c 8da9 dcbb 269b 323d 988b 2ebd
00000070: f2fa 4abd 98e7 ca3d f9eb 8e3d 3407 433d
00000080: 382c bf3c ee80 143d cd74 6a3d 2b95 66bd
00000090: 042b b43d c624 bdbd 1476 0c3d 9981 b3bc
000000a0: ddc9 23bc 5f47 803b 8dc7 663d 13c2 5f3c
000000b0: 4edd 74bd d200 afbd 04a0 c7bc cb06 863b
000000c0: 018b 513d 0db6 92bc a012 3bbd 129e 24bb
000000d0: d20b 05bd 0098 8bbd 42f9 8bbc c547 943b
000000e0: c0dd 163c 739d babb 9f94 e93b f982 3bbd
000000f0: ed6c 003b 67f2 3abb 2542 6bbc a57e 24bd
00000100: 322a 103d 39b3 91bc f609 9a3d a587 d63c
00000110: 14b9 2e3c b20f 6bbd d286 203d 1694 053c
00000120: 612c e7bd 0f26 3e3d 3563 bdbd c03f 76bc
00000130: 8462 11bd 6342 b03c b126 093d fe0f fb3c
00000140: 494d ff3c ea2a 59bd 3143 8c3d 3bd4 32bd
00000150: 3148 07bd 09fe bc3c b085 56bc aecb d4bb
00000160: 9887 04be 4fb4 fc3c fe93 eebc a4e3 13bd
00000170: 804d 96bd 6679 39bd e10a 37bd 995c 99bd
00000180: 5e09 8c3d 8432 d3bc 0384 50bd 2c21 eebc
00000190: e127 463d 44a3 20bd 7b27 53bd d9a8 83bd
000001a0: 0698 213c 81dc 7ebc 50d9 4fbb d888 a4bc
000001b0: 0b99 86bd 02ae 86bc e8cd c53d 4ec4 473c
000001c0: 8594 0e3d 86f2 d73b fb1b 81bc 03ec 413d
000001d0: f858 c83d 2ac3 c2bd 0e16 f73d 1d19 da3c
000001e0: a927 5d3c b24c 73bc 6e04 a73b a205 c83b
000001f0: 8912 a33c afab 843c b48c a03d 711a c2bc
00000200: eff1 e9bc 1c32 cc3a c79f e43b 2ae8 243d
00000210: 3ad4 44bc 40d8 ed3c bd2b a0bc 1567 f53a
00000220: a711 01bd 03fb 05bd 4dfe 4a3d f459 3fb9
00000230: f09d ab3a 9f3f 5fbd 0ceb 923c 9bd4 13bd
00000240: 3475 7f3d a24d 443e 4ef3 b7bd c701 263b
00000250: 0810 093d 82c1 90b9 3f8c 78bb 7156 82bc
00000260: 23fb dabc 4d31 4bbc 8e27 483c b2c3 e7bc
00000270: 0448 3cbb db21 8a3c da7a 813d e48f 98bd
00000280: b7fd c73c 1350 773a 0403 3fbc 1647 e53d
00000290: ab55 f73d 92ac 15bd e88d 05bc 2259 a1bd
000002a0: d585 37bc eb78 153d 63cb 863c 8c7c f0bd
000002b0: ca4e 103d adeb 57bd 4158 543d 6dff 1abd
000002c0: a968 56bd 4d49 8a3d bc6f c83b ad83 6abc
000002d0: aae4 a8bb 5ad4 1dbc 7d0a 183e e180 c0bc
000002e0: 14c8 29bd 453b a238 556e 333b 128a 17bb
000002f0: cb9b b53c f381 89bd 3969 c8bd 51cc 1b3e
00000300: 3698 9abc 394d 053c 6ebd 0d3d 357c 9e3a
00000310: 4cbd 14bd 3fc5 bf3c 5e24 08bc c1e3 bb3d
00000320: 314c 7a3d 11a4 293c 84f3 62bd b7a3 9c3d
00000330: e32c 00bd 41ef afbc 3e1e 323b 6fcd 443c
00000340: 5ba5 8abd 9b2b 933d e26c 2bbd e422 02bb
00000350: 75e5 603d f1cb 3f3c 9039 0cbc 6f7d 5b39
00000360: 2a8a 10bd fc0c 203d 238f 953b fec4 503d
00000370: 5b9b 9cbb 9cde 4dba 9768 043c 8f23 043d
00000380: 421c dbbb a967 6abc d4f3 7fbd fffc 133d
00000390: 0534 183d 5e14 a4bc 678a 0a3d 6984 373c
000003a0: 78d2 aabc 46a9 3d3b 6c01 54bc 5c7a 513b
000003b0: fc3d 83bc 243f d7bb 2fc2 40bd 82e9 bbbb
000003c0: dea4 f0bd f327 05bd 8b08 02bd 2dbf 053c
000003d0: 802a fe3c 7c3b aa3b 715a d43a 07a2 85bc
000003e0: b907 fd3c 949a e5bd 58a0 063b 07fc ba3d
000003f0: c771 6fbc 497c acbd acd5 993c 8cfb 8dbc
-0.03818274 -0.12348947 0.011518656 0.030632917 0.06670887 0.015162618 -0.03961952 -0.002945289
-0.08413257 0.09087376 0.01900388 -0.009161607 -0.05079369 0.035353117 0.010137816 0.013795482
-0.07297815 0.03074523 0.058794007 0.007861139 -0.121816956 0.02021219 0.026230965 -0.030952502
0.008483857 -0.006734079 0.043604992 -0.042613596 -0.049555726 0.09907454 0.06978602 0.04761429
0.023336515 0.03625577 0.057240296 -0.0562946 0.08797267 -0.092355296 0.034292296 -0.021912383
-0.009996858 0.003914758 0.05634265 0.013657111 -0.059781365 -0.08545078 -0.024368294 0.0040901653
0.051157955 -0.017909074 -0.04567206 -0.0025118631 -0.032481976 -0.06816101 -0.017086629 0.004525157
0.009208143 -0.005695039 0.0071283127 -0.045779202 0.0019596175 -0.002852583 -0.014359032 -0.04015984
0.03519649 -0.017785655 0.07521431 0.026187727 0.010664243 -0.057388015 0.039191075 0.008152982
-0.112877615 0.046423014 -0.09247438 -0.015029848 -0.035494342 0.02151603 0.033484165 0.030647274
0.031164782 -0.05301944 0.06848753 -0.04365943 -0.03302783 0.023070352 -0.013093397 -0.006494007
-0.1294235 0.030847697 -0.029123303 -0.036105767 -0.07339001 -0.04528179 -0.04468811 -0.07488365
0.06837724 -0.025780924 -0.050907146 -0.029068552 0.048377875 -0.039218202 -0.051551323 -0.064286895
0.009862905 -0.015555502 -0.0031715222 -0.020084783 -0.065721594 -0.016440395 0.09658414 0.012192799
0.034809608 0.0065901903 -0.015760412 0.04734422 0.097825944 -0.09509881 0.120647535 0.026623303
0.013498225 -0.014849829 0.0050969636 0.006104187 0.0199063 0.016195146 0.07839337 -0.023694249
-0.028557746 0.0015578899 0.0069770548 0.04026047 -0.012013489 0.02903378 -0.019552106 0.0018722737
-0.031510975 -0.032710087 0.049558926 -0.0001824869 0.0013093334 -0.054504033 0.017934345 -0.03609143
0.062367633 0.1917024 -0.089819536 0.002533065 0.033462554 -0.00027609995 -0.003792539 -0.01591036
-0.02673108 -0.012401891 0.012216462 -0.028291557 -0.0028729448 0.016861847 0.0632226 -0.0744932
0.024412973 0.0009434234 -0.011658434 0.11195199 0.12076887 -0.03654153 -0.008151509 -0.07878329
-0.011201342 0.03649227 0.016454404 -0.117425054 0.03523139 -0.052714992 0.051841978 -0.03784125
-0.052345905 0.06752262 0.0061168354 -0.0143136205 -0.005154212 -0.009633148 0.14847751 -0.023498954
-0.041450575 7.735802e-05 0.0027378995 -0.0023123068 0.022169014 -0.06714239 -0.09785695 0.1521466
-0.018871408 0.008136087 0.034604482 0.001209146 -0.03631334 0.023409484 -0.008309452 0.091743
0.061107818 0.010354058 -0.055408016 0.07648414 -0.031292807 -0.02147639 0.002717867 0.01201187
-0.0676982 0.071860515 -0.041851886 -0.0019857222 0.054906327 0.011706338 -0.008558646 0.00020932195
-0.035288014 0.039074883 0.0045641824 0.050969116 -0.004779262 -0.0007853301 0.008081577 0.032260474
-0.006686718 -0.014306941 -0.062488392 0.036129948 0.037158985 -0.020029243 0.033823397 0.011201003
-0.020852312 0.0028940006 -0.012939792 0.00319638 -0.016020767 -0.0065688062 -0.047060188 -0.0057346234
-0.11750196 -0.0325088 -0.03174643 0.008163256 0.031026125 0.0051950794 0.001620127 -0.016312612
0.030887472 -0.11211124 0.002054235 0.09130102 -0.014614529 -0.08422143 0.018778645 -0.017331861

bias f4 [64]
00000000: 34d6 1dbc cb7f c03d 394d da3b a866 f53d
00000010: 4ca6 8f3d ba2a b73c 1a3c 243d 05be 433d
00000020: 614c 7c3c c861 753d 9055 6d3d 52bf c13d
00000030: 2908 d0bc 5828 293d 8731 a0bb 3f54 f0bc
00000040: be9e ddbc d47c a3bc f033 1ebb 4611 70bd
00000050: afea 0cbd 2d0d 8b3d 4de9 aa3c ec3d 973d
00000060: c88c 8c3d 94dd cebd de5f 613d 14b2 e9bc
00000070: eef9 413c 7f2e 05bb 3e1f b9ba ff87 393b
00000080: 15d6 42bd aa8f 84bd 70d5 76bd 360b 18bd
00000090: c250 433d adcb f53d a8ac 0f3c 7c78 3a3d
000000a0: 0531 6ebd 146b 50bd 043b 733c 6e7a a73d
000000b0: 391c 393d e8c9 1f3d 5d4e 9ebc 1214 803b
000000c0: f914 fdbc 31b9 8b3d bdc0 19bd 43e9 85bd
000000d0: 6227 463d b361 e9bc adb1 5d3d 4029 d5bc
000000e0: 4386 503d fcdc ae3d 03aa b1bc d2e7 43bd
000000f0: 2f74 09bc 00ea bfbd 9f18 83bd ab27 71bd
-0.00963359 0.093993746 0.0066620377 0.11982471 0.070141405 0.02235924 0.04009638 0.04778864
0.0153990695 0.059907705 0.057942927 0.094603196 -0.025394516 0.04129824 -0.0048887166 -0.029337047
-0.027053233 -0.019956984 -0.0024139844 -0.058610223 -0.0344035 0.067896225 0.0208632 0.073848575
0.068627894 -0.101008564 0.055023067 -0.028527297 0.011839373 -0.0020321903 -0.0014123691 0.002830982
-0.047567446 -0.06472714 -0.060262144 -0.037120067 0.04768444 0.12001739 0.008769192 0.04552506
-0.058152217 -0.050883368 0.014845613 0.081776485 0.04519293 0.039010912 -0.019324476 0.0039086426
-0.03089379 0.06822432 -0.037537325 -0.06538632 0.048377402 -0.02848897 0.054124523 -0.026020646
0.050909292 0.08538243 -0.021687513 -0.047828503 -0.008389517 -0.09370804 -0.064011805 -0.05887572

weight f4 [64]
00000000: 5290 753f c6aa 6a3f c93a 713f b678 923f
00000010: 91de 6e3f 4242 893f 2706 7d3f 8227 8a3f
00000020: d2f2 5b3f bee8 8f3f ad1b 743f b7f0 7d3f
00000030: e6ce 873f 7f78 653f ed77 6c3f 33e1 743f
00000040: 37c5 7d3f 4942 933f 614f 6a3f a108 923f
00000050: 295a 823f 30bd 6f3f acdf 5c3f a19d 683f
00000060: f10a 513f f498 803f 2771 893f 3a2f 7b3f
00000070: dab8 893f c4c4 763f 0d96 793f 4e11 533f
00000080: b3a5 6a3f eca0 673f 157a 7f3f 0e1f 633f
00000090: 11f6 773f 4855 753f 8205 6a3f a507 793f
000000a0: 8c24 643f 4f30 803f 1d9d 783f f18e 8c3f
000000b0: 34fd 7b3f be51 673f d6c3 5a3f af1b 773f
000000c0: 8077 8b3f 2e6b 6d3f 55ab 913f b806 793f
000000d0: 8f56 693f 5e2a 993f aae8 6e3f 7051 723f
000000e0: d2de 873f c3b3 813f 76a0 8e3f d5e4 643f
000000f0: 9358 763f fce8 7b3f fc59 733f 524c 6c3f
0.9592334 0.9166683 0.94230324 1.1443088 0.9330836 1.0723345 0.9883751 1.0793307
0.8591739 1.1242902 0.9535473 0.99195427 1.0610015 0.8963699 0.9237049 0.95656127
0.9912905 1.1504604 0.9152737 1.1408883 1.0183765 0.9364805 0.86278796 0.9086552
0.8165732 1.0046678 1.0737656 0.98118937 1.0759537 0.9639399 0.97494584 0.8244828
0.91659087 0.9047992 0.9979566 0.8871926 0.9685984 0.95833254 0.91414654 0.9727729
0.89118266 1.0014743 0.97114736 1.0981122 0.9843323 0.90359104 0.8545507 0.96526617
1.0895844 0.9274167 1.1380411 0.97275877 0.911477 1.1966054 0.9332377 0.94655514
1.0614874 1.0132984 1.1142719 0.8941167 0.96228904 0.9840238 0.9505918 0.92303956

bias f4 [64]
00000000: ab0e 58be 08a8 57be 4860 54be 72b6 84be
00000010: 379c 4abe 61df 1abe 761c edbd 52a8 76be
00000020: 8390 27be 85df 68be 3f3c 09be a4ce 80be
00000030: ba85 12be 9681 2ebe b5e7 30be 5952 0dbe
00000040: f9a8 f0bd 2885 8bbe fabd 5ebe f19d 54be
00000050: e6fc 09be b3d4 45be d83a fabd 3b13 75be
00000060: 5f6c 3dbe 0c63 19be 5aa5 94be ecb2 28be
00000070: 9d48 0dbe 286b 49be 9f6d 2bbe 3bf5 02be
00000080: 3207 9abe fd0c 5cbe 1b42 5dbe b4e3 43be
00000090: 6e8c 8cbe 682f 50be 4ea5 81be ea51 f6bd
000000a0: d399 87be 7c10 06be 59a8 41be c16a f1bd
000000b0: 8134 96be ff3d 32be c336 9fbe 6c15 1abe
000000c0: 9476 83be 2836 3ebe 664e 80be b05d 36be
000000d0: 7e0c 82be 8ff4 4fbe 8790 48be 4f14 38be
000000e0: 2c59 6bbe 83ed 98be fba9 6dbe 906d 70be
000000f0: 9207 59be 77d9 64be f635 3ebe 826e 8fbe
-0.21099345 -0.21060193 -0.20739853 -0.25920445 -0.19786154 -0.15124275 -0.11577694 -0.24087647
-0.1636372 -0.22741516 -0.13401888 -0.25157654 -0.14308825 -0.1704162 -0.17275889 -0.13800944
-0.11750979 -0.27250028 -0.21752158 -0.20763375 -0.1347538 -0.1931942 -0.12218255 -0.23933117
-0.18498372 -0.1497919 -0.29032403 -0.16474503 -0.13797231 -0.19669783 -0.16741036 -0.1278886
-0.30083615 -0.2148933 -0.21607248 -0.1912983 -0.2745089 -0.20330584 -0.2532143 -0.120273426
-0.26484546 -0.13092226 -0.18911876 -0.1178794 -0.29336932 -0.17406462 -0.31096467 -0.15047234
-0.25676405 -0.18575346 -0.25059813 -0.17809176 -0.25400156 -0.20308135 -0.19586383 -0.17976497
-0.22983235 -0.29868707 -0.23209374 -0.23479295 -0.21194294 -0.22348581 -0.18575272 -0.28013998

running_mean f4 [64]
00000000: bfef 2fbc 191a d23d a9ba ef3b bbf6 f63d
00000010: 5b27 803d 7174 f33c 625a 1b3d a67f 7c3d
00000020: b4ad 8c3c c5c7 873d 37b8 7f3d 853a bb3d
00000030: 0f31 d0bc 8898 f63c 000d bf3a b567 2abd
00000040: 8863 dbbc 8d5e a0bc 80cb 3f3b 8bcb 83bd
00000050: 2e1d 10bd 7a5d 8e3d 156f b73b a17b 893d
00000060: 7843 8b3d d353 ccbd 26e3 3d3d 9ec7 09bd
00000070: 5e75 ff3a 09d0 d43b 023d d539 e225 e13b
00000080: 5aff 5abd 1733 80bd 8e1f 5cbd e69c 1dbd
00000090: 17c0 493d 9263 e53d 8f97 2c3c 70b8 393d
000000a0: 0956 5dbd bb75 6abd eb7a dd3b 24b5 983d
000000b0: ed5f 2d3d 9ce0 513d 04d7 b6bc acc3 0eba
000000c0: 4226 e4bc 6aa7 9c3d 8da4 33bd d4cb 5ebd
000000d0: bf78 603d e176 a0bc cb91 4f3d de4e ddbc
000000e0: 0a86 4f3d a7c7 b03d e772 cebc 5cf7 32bd
000000f0: 5699 fe38 cf2b bdbd e63e 8fbd 5da7 84bd
-0.010738312 0.10258884 0.007315953 0.12058779 0.062575065 0.02971861 0.037927993 0.061645173
0.017172672 0.066299 0.06243154 0.09142021 -0.025414018 0.03010203 0.0014576018 -0.04160281
-0.026780859 -0.019576335 0.0029265583 -0.06435307 -0.035184078 0.06951423 0.005597959 0.067130335
0.06799978 -0.09976926 0.046359204 -0.033637635 0.0019489934 0.0064945263 0.0004067198 0.006870971
-0.05346618 -0.062597446 -0.05374103 -0.038479708 0.049255457 0.11200632 0.010534181 0.04534191
-0.054037128 -0.057241183 0.0067590377 0.07456425 0.04232781 0.051239595 -0.022319324 -0.00054460275
-0.027850274 0.07649119 -0.0438581 -0.054393604 0.054802652 -0.019587936 0.05067615 -0.027015146
0.05066494 0.08631831 -0.025201274 -0.04369293 0.00012140225 -0.092368715 -0.06994419 -0.064772345

running_var f4 [64]
00000000: bcd8 383e 1506 3a3e 6c55 4b3e 8ecf 4f3e
00000010: 99bb 473e a4f4 493e b490 473e 6b32 463e
00000020: 9d7b 4a3e 138f 603e a082 3a3e 52fb 423e
00000030: c959 4c3e e590 2d3e 6881 2a3e eefb 463e
00000040: 88fa 413e e251 583e b360 453e 33d5 4f3e
00000050: 3ea3 473e fecf 333e 4e11 3d3e 6bf3 3f3e
00000060: 6fa9 2d3e 2995 453e 65ad 4b3e a30f 393e
00000070: 3369 493e ac46 433e 9a4b 373e 3f82 353e
00000080: fd92 2d3e f68b 363e 6681 463e da26 303e
00000090: 7133 4d3e 1518 2f3e 8fd1 263e a289 413e
000000a0: db87 2c3e 3740 323e 211e 2d3e 1cd1 5f3e
000000b0: 226e 3d3e bf12 373e 1c57 333e 7f7f 383e
000000c0: 92be 4f3e 00b0 3f3e f2de 413e 7b18 5c3e
000000d0: ca44 3a3e e1ad 603e d272 503e 41a8 223e
000000e0: 668a 513e 03f1 453e b394 6b3e 9c2b 3b3e
000000f0: 37e8 323e 662a 4c3e a26b 393e 31ed 493e
0.18051428 0.18166383 0.19856805 0.2029402 0.19505157 0.19722229 0.19488794 0.1935517
0.19773717 0.21929578 0.18213892 0.19041184 0.19956125 0.16949804 0.16650927 0.19432041
0.18943226 0.21124986 0.19275169 0.20296173 0.19495866 0.17559811 0.18463632 0.187452
0.16959165 0.19295181 0.19890364 0.18072371 0.19669037 0.19069928 0.17899933 0.17725466
0.16950603 0.17826828 0.19385299 0.1720232 0.20039155 0.1709903 0.16290878 0.18900159
0.168487 0.17407309 0.16906025 0.21857113 0.18499044 0.17878245 0.17513698 0.18017386
0.2028754 0.18719482 0.18932703 0.21493714 0.18190303 0.2194133 0.203563 0.15884496
0.20462951 0.1933022 0.23005943 0.18278354 0.17471395 0.19938049 0.18107465 0.19719388

weight f4 [64, 64, 3, 3]
00000000: 0274 09bd f170 cebc 726f 09bd 077b 23bc
00000010: 3a7a 8eba b9b7 2fbd af6a 773c bb09 dbbc
00000020: 5f6a b1bd 243f f6bc 4018 cabc cc46 6dbd
00000030: 4649 853d 9922 82bb 8cb2 233d 949d b0ba
00000040: 3328 16bd ba34 833c cc55 89bb 4980 5f3c
00000050: e7f5 163c 91a3 86bd f03e 1fba 3f0a 5ebb
00000060: 799c ef3d dbc4 b73d 2300 2e3d ab1a 5c3d
00000070: ce58 21bd c7bd ebbb 5d32 c1bc 9acd ccbc
00000080: b159 b0bb f227 a43d 5824 293e 4f14 103e
00000090: 7938 053d 3762 f0bb ab40 4dbd c66f 4d3d
000000a0: 4010 a8bb 2a47 783d 8fe6 8ebc 5566 8d3d
000000b0: 7115 b73d acce 90bc b026 193c 4d9c a4bd
000000c0: 7b68 01bc 687c d5bc 3f3a 36bd 0da4 913b
000000d0: 4236 1a3c ec41 f3bb 62a1 8c3a 606d 233c
000000e0: 3a32 b93c 2c01 393d 2949 aa3b 4b5b 0dbc
000000f0: ff37 a0bd 45fa 61bd dec9 ea3c 79f3 60bd
00000100: b659 a4bc 9cab f8bd 6ba6 adbd e027 c3bb
00000110: 79e8 b0bd c851 32bd 1301 0dbd 6790 bbbc
00000120: 4fa2 d6bb 4a17 70bc 2335 213b 9851 613c
00000130: 01eb 703c eb24 7fbc e7bf 0ebd 7c80 06bd
00000140: 2f93 2c3d 572d d93c 753b f0bc 3994 eabb
00000150: f585 233d 5938 863c 45e6 e8bc fa30 293e
00000160: c280 063e e19f a83d c2d5 843d 21c4 093c
00000170: 4198 143c cc93 033d d22c 313c 0f33 a73b
00000180: 4062 573d c759 f8bc 7164 bbbb 2e65 9dbd
00000190: c241 7c3c 3b5f 213a 067f 093d bcd2 b83c
000001a0: d320 293d 38aa 893c a2e2 42bd 5613 343d
000001b0: a8de ed3c 59fd cebc cff8 48bc 6c98 00bd
000001c0: 9a87 0cbd e874 49bd ca18 3ebd becc 76ba
000001d0: bbef 98bc 94bc 43bb f143 ce3c e793 85bd
000001e0: ca1a 643d bcb9 43bd cd65 c03c f415 8ebc
000001f0: d73e 0fbd 8575 013d 1259 84bd 15a6 ddbc
00000200: d675 76bc 559f 98bd 75b1 7b3d d701 313d
00000210: 2c56 21bd 11e2 743c 9fe0 e63c 075a 10bc
00000220: f6a3 4b3d 2890 02bc 73bb 25bd 0cf4 243c
00000230: c9a3 2f3d d143 25bd 1996 53bc d6dc a5bb
00000240: e42c bbbb 908f f33d e92f 0abd a6e4 98bc
00000250: c3f2 2c3c ece1 ae3c bc27 513d d7d8 35bd
00000260: 6507 54bd fe01 a03c 4d36 0a3d 1368 69bc
00000270: 002f 963c 4a74 f7bb 73a7 ce3c 3cf3 163e
00000280: ca84 0c3e 1d93 263e ae4e 193b 5380 203d
00000290: cb17 b5b9 5d3c 183d 0d7b a53c b028 99b9
000002a0: 8961 c93d 646e b93d cdd0 ea3d f2fd cb3c
000002b0: 969b cabc 9c27 d83c b559 783b 09c1 16bc
000002c0: 6f4a 0dbd 6b76 063e 1919 e33d cfa2 dc3d
000002d0: a283 813c 0cee ec3b bbe0 49bc bcfc d33d
000002e0: 863b 873c 4105 c9bb aa46 e13c a52b 363d
000002f0: 5305 593b dcb9 263a edc7 123d fbe2 75bd
00000300: 03f6 803c 59b4 753c 5828 aebc 4718 2ebc
00000310: d237 933d 9934 fa3c 050c b1bc f7bc 24bd
00000320: b891 c4bb 4321 2ebd 7049 aabc 9a9e 19bc
00000330: 42f7 9bbc 993a 66bc 92d8 5c3b 4150 8b3d
00000340: df70 2bbd c15f cd3c fd10 1d3c 90e7 d4bc
00000350: 3c33 703c dee5 633c ac33 973d b5d1 01be
00000360: 59df 0a3d ab6b 47bd f3ea bfbb a397 1e3c
00000370: 3c09 cabc 4b1b edbb 6c84 66bc e671 b73b
00000380: 4cf5 1f3d 6bb5 f5bc 7953 a9bc ed88 8fbd
00000390: 05eb c33a 8dc3 17bc b476 05bd c4d0 c03b
000003a0: b281 fcbb 77e1 8cbc ef42 933b a66b aa3c
000003b0: fb94 a73c ddc9 033d 591a d73c 100c dc3c
000003c0: a533 163e 89b3 e63d 4a86 143d 8257 2dbc
000003d0: e8f4 633c 447e 80bd 6605 20bd d0ed 663c
000003e0: 8cd7 3dbd 3761 acbc 4920 523c c9bd 7b3d
000003f0: 1226 5cba e25b e739 139c bb3d e036 ec3c
-0.0335579 -0.025200339 -0.03355355 -0.0099780625 -0.0010870167 -0.04289982 0.015101119 -0.026738038
-0.08662867 -0.030059405 -0.024669766 -0.057928845 0.065081164 -0.0039714095 0.039965197 -0.0013474696
-0.03665943 0.016016353 -0.004191136 0.013641425 0.009213901 -0.065741666 -0.0006074747 -0.003388062
0.11699767 0.08973094 0.0424806 0.05373637 -0.03939133 -0.007194254 -0.023583585 -0.025000382
-0.005381786 0.080154315 0.1651777 0.14070247 0.03252456 -0.007335927 -0.0501105 0.050155424
-0.0051288903 0.060614742 -0.017443923 0.06904284 0.089396365 -0.017676674 0.009347603 -0.080376245
-0.007898445 -0.026060298 -0.04448914 0.004444605 0.00941235 -0.00742363 0.0010729248 0.0099748075
0.022606958 0.045167133 0.0051967097 -0.008627723 -0.078231804 -0.055170316 0.02866071 -0.054919694
-0.020062309 -0.12142107 -0.08479007 -0.005955681 -0.08638091 -0.043535024 -0.034424853 -0.022896005
-0.0065501104 -0.01465399 0.0024598322 0.013752364 0.014704467 -0.015572767 -0.03485098 -0.032837376
0.042132553 0.026510878 -0.029325226 -0.007158783 0.039922673 0.01638429 -0.028430114 0.1652259
0.13135055 0.082336195 0.064860836 0.008408577 0.009069503 0.032123372 0.010813909 0.005102522
0.052583933 -0.030316247 -0.0057187607 -0.07685314 0.015396537 0.0006155853 0.033568405 0.022561423
0.04129107 0.0168048 -0.047579415 0.043963753 0.029036835 -0.02526729 -0.012266352 -0.03139536
-0.034309007 -0.049183756 -0.04641036 -0.0009414664 -0.018669 -0.002986704 0.025178881 -0.06522351
0.05568961 -0.047784552 0.023486042 -0.017344452 -0.034972038 0.031606216 -0.06462301 -0.027056733
-0.015042743 -0.07452265 0.061448533 0.043214645 -0.03938882 0.014946477 0.02818328 -0.008810527
0.049716912 -0.00796894 -0.04046197 0.010067951 0.042880807 -0.040347878 -0.012914204 -0.005061726
-0.0057121385 0.11892617 -0.033737097 -0.018663716 0.010555926 0.021347962 0.051063284 -0.044396248
-0.051764864 0.0195322 0.03374319 -0.014246005 0.018332958 -0.0075517045 0.02522633 0.14741224
0.1372253 0.16267057 0.0023392844 0.03918488 -0.00034540737 0.037166942 0.020200277 -0.0002921275
0.098330565 0.090542585 0.11465607 0.024901364 -0.024732392 0.026386075 0.0037895266 -0.009201297
-0.034494814 0.1313111 0.110887714 0.10773241 0.015809838 0.007230526 -0.012321646 0.1035094
0.016507875 -0.0061346595 0.027499516 0.044475216 0.0033114746 0.00063600927 0.035835195 -0.06003092
0.015742308 0.0149966115 -0.021259472 -0.010625905 0.07188381 0.030542659 -0.021612177 -0.040219273
-0.0059988163 -0.04251219 -0.02078697 -0.009376192 -0.0190388 -0.014052057 0.0033698422 0.068024166
-0.04185569 0.025070073 0.00958657 -0.025989324 0.014660653 0.013909785 0.073829025 -0.12677653
0.033904407 -0.048686665 -0.0058568656 0.009679708 -0.024662606 -0.0072359196 -0.014069658 0.0055982945
0.039052293 -0.029993733 -0.020669686 -0.070085384 0.0014947361 -0.0092629315 -0.032583907 0.005884262
-0.0077058906 -0.017197354 0.004494063 0.020803284 0.020456782 0.032174934 0.02625768 0.02686122
0.14668138 0.11264712 0.03626088 -0.0105799455 0.013913371 -0.06274083 -0.03906765 0.014094785
-0.04634814 -0.02104245 0.01282508 0.06146029 -0.0008398007 0.0004412821 0.09160628 0.02883476

bias f4 [64]
00000000: 4d0f 883d dd29 acbb 4508 893d ac3a 3d3d
00000010: b3c0 82bc 8cdd 1bbc a042 ffbc 02a2 33bd
00000020: 66fa 6cbd a833 52bc 4bbf 4cbb 57b3 3abd
00000030: 5064 42bc 9165 5dbb 5291 b2bc 679a f23c
00000040: 61a3 9d3c d2fa d7bb 34db c33b 458b 95bc
00000050: 7148 0f3c 4301 933d 7b00 4abd 956e 613b
00000060: c413 8fbd cee7 49bd c63e 4d3d 39ad 77bd
00000070: 0abf 20bd f7b3 1e3b 5958 94bd 9f00 943a
00000080: a449 153d 2055 33bc 65da a9bd d4dc b9bc
00000090: c596 23bd d56d 66bd 6c35 38bd 39f2 eabc
000000a0: ae7b 10bc 339d 123b 882d 2abd f3e7 56bd
000000b0: f7e3 b1bc 4ccb 5fbd 0e65 803d 1996 eebb
000000c0: d6f5 d5bb 2230 9dbc 4423 bdbd d369 3dbd
000000d0: 34e4 c0bd 7126 463c d9e2 ae3c 3b22 e8bc
000000e0: 0838 51bc cede c23c 6599 abbd e707 413d
000000f0: d7cf 213d dc77 403d 0a9c a8bd 707c dfbd
0.066435434 -0.005254014 0.066910304 0.046198532 -0.015961027 -0.00951327 -0.031159699 -0.043855675
-0.057855986 -0.012829699 -0.003124195 -0.045581188 -0.011864737 -0.0033782462 -0.02179781 0.02961464
0.019242944 -0.0065911794 0.005977059 -0.018254885 0.008745299 0.07177975 -0.049316864 0.0034398187
-0.06986192 -0.04929333 0.050108694 -0.060467932 -0.03924469 0.0024216154 -0.072434135 0.0011291689
0.036447182 -0.010945588 -0.082936086 -0.022688307 -0.039938707 -0.056257088 -0.044972822 -0.028679954
-0.00881855 0.002237153 -0.04154733 -0.052467298 -0.021715147 -0.05463724 0.06269275 -0.0072810766
-0.00652955 -0.01918799 -0.09235242 -0.0462435 -0.09418526 0.012094126 0.021348404 -0.028336635
-0.012769707 0.023787882 -0.08378867 0.047126677 0.039504852 0.046989307 -0.08232887 -0.109124064

weight f4 [64]
00000000: 45fb a63f 7a30 9d3f 4ea6 9d3f 5b8e 9d3f
00000010: 1146 a43f b426 9d3f ea14 a03f 09b7 9e3f
00000020: cb08 ab3f b74c a23f 05c8 a53f 0a13 a83f
00000030: 2121 9e3f dce9 a53f 5043 9f3f 83cd 9e3f
00000040: 5241 9a3f 4826 9d3f 39e8 b13f a218 a23f
00000050: 00eb 9a3f 2526 a73f 3b0d a23f 2357 9a3f
00000060: f17a b03f bb25 a43f 93dc 963f e933 bc3f
00000070: 7150 ad3f 0eeb 953f d2aa a53f 5331 983f
00000080: 65c8 a33f 3769 aa3f a765 b43f 28d9 a13f
00000090: f72e b33f 4046 a13f 2461 ac3f ce7c 9f3f
000000a0: cbb9 993f 0416 a53f 402f b03f 9a25 a53f
000000b0: 0571 9f3f ba69 ab3f f8b1 a23f 7f85 ac3f
000000c0: 522c a73f 6636 a63f 2ac1 aa3f c2ef 923f
000000d0: 88ec a03f 83a8 ad3f 25aa b13f 9753 ab3f
000000e0: 1b61 a43f 07ba a23f 9ef1 ac3f bec7 a13f
000000f0: eb7b a63f 4032 a43f 64ca b03f 5dad a33f
1.3045431 1.2280419 1.2316377 1.2309068 1.2833883 1.2277436 1.2506382 1.2399608
1.3362058 1.2679662 1.2951666 1.313081 1.235386 1.2961993 1.2442417 1.2406467
1.2051184 1.2277308 1.3898994 1.2663767 1.2102966 1.3058516 1.2660288 1.2057842
1.3787519 1.2824014 1.1786064 1.4703342 1.3540174 1.1712358 1.2942755 1.1890053
1.279553 1.3313359 1.4093522 1.2644396 1.3998708 1.2599564 1.3467145 1.2459962
1.2009825 1.2897344 1.376442 1.29021 1.2456366 1.339164 1.2710562 1.347824
1.30604 1.2985351 1.3340199 1.1479418 1.2572184 1.3567051 1.3880049 1.3384885
1.2842134 1.2713021 1.3511236 1.2639081 1.3006567 1.2827835 1.3811765 1.2787281

bias f4 [64]
00000000: b1cf c93d 3967 833d 8f44 ad3d 65c8 4a3c
00000010: 4310 8f3d bee0 883d 2c28 873d 254d 943d
00000020: c14c af3d bfad d43d 9b18 b13d 4a1f 513d
00000030: d7e7 83bc 731e e03d e380 3c3d 29c4 473d
00000040: 41a2 5dba b7f5 933d 1a39 d43d 9803 953d
00000050: a8a7 6e3d da93 053d c9e0 fb3c 3869 d03d
00000060: 60ee 923d e918 af3d c2ea c6bd efdd 3e3d
00000070: 3755 cb3d 9219 63bc a052 503d a89d 113d
00000080: 3edd f53d 52f5 233d 1bbd 8b3d 7892 19bd
00000090: bebd 8d3d 525a e53c 38e0 8c3d 09c2 3d3d
000000a0: af5c 7dbd afec c33d 6f72 663d 650d 913d
000000b0: 417b 8c3d 2aed a23d fa5f 323d a17d 973d
000000c0: c4b3 fdba 195c e83d c256 e23d 12ce 693d
000000d0: f95a 1e3d 0e0f 3f3d f973 133e 5f69 ad3d
000000e0: 50db bc3d 37da e1bd 746d 6a3d 5063 953d
000000f0: 9974 12bd 1f4b df3d a9bf 243d 13e1 af3c
0.09854067 0.064161725 0.08460342 0.012376879 0.069855236 0.06683491 0.06599459 0.07241277
0.085595615 0.10384702 0.08647271 0.05105523 -0.01610176 0.10943308 0.046021353 0.048771057
-0.00084546587 0.07224601 0.10362454 0.07276076 0.05826536 0.032611705 0.030746834 0.10176319
0.07174373 0.08549673 -0.09712745 0.04659837 0.09928363 -0.013861077 0.050860047 0.035550743
0.12005089 0.040028878 0.068231784 -0.0374932 0.06920956 0.02799717 0.06878704 0.046327624
-0.061855968 0.09566628 0.056261476 0.07082633 0.06859446 0.07955392 0.04354856 0.07397009
-0.0019355942 0.11345691 0.11051704 0.05708129 0.038660977 0.046645217 0.14399709 0.084673636
0.09221518 -0.11027949 0.05723329 0.07294333 -0.035755727 0.10903 0.040221844 0.021469628

running_mean f4 [64]
00000000: df66 913f b33e 08c0 e197 1b3f cf5a 6e3e
00000010: 71e8 5c3f ad5b 563f e591 51be 4b76 02bf
00000020: 90b2 52bf 580d 6f3e 76f3 b3bf 758a f2bf
00000030: 4195 e93e 1040 f13f 1d1a c4bf 358c a93f
00000040: b8dc aa3e ac9a dfbd 177f d83e 10f3 5e3f
00000050: 3576 a73e f0ed bc3e 3962 a7bf 8a39 a13d
00000060: 9c48 a5bf 65bc 9bbf 6bac e6be fa42 1bbf
00000070: 2a2c 553f 14ad 5a3f ea68 99bf 30cb aabd
00000080: e304 3e3f 32af 11c0 3a4d c4bf 7045 3abf
00000090: afd4 d3bf 2254 70bf 24ed 0cc0 160f cebe
000000a0: 25df 5b3f bec0 6a3f 0643 4cbf f03b e2bf
000000b0: e3d8 b13e 2712 8cbf 9128 8b3f ea65 a63f
000000c0: ca5d babf db02 b93e e89e bfbf 425d 2a3f
000000d0: 8e74 dfbf 149a 943f 0e1d aa3f a106 84bf
000000e0: fb4f 60be 803f 98bf 9737 2dc0 3ddc 533f
000000f0: 5f9e 96bf 2364 6c3f f5dc dbbf 5ae5 3ac0
1.1359519 -2.1288269 0.60778624 0.23276828 0.8629218 0.83733636 -0.2046581 -0.5096175
-0.82303715 0.23344934 -1.4058673 -1.8948504 0.45621684 1.8847675 -1.5320469 1.3245913
0.3337152 -0.10918173 0.42284462 0.87089634 0.32707372 0.36900282 -1.307685 0.07872303
-1.2912784 -1.2166868 -0.4505342 -0.60649073 0.83270514 0.85420346 -1.1985142 -0.08339536
0.74226207 -2.276318 -1.5336068 -0.72762203 -1.6549281 -0.93878376 -2.201974 -0.40245885
0.85887367 0.9170035 -0.7978977 -1.7674541 0.34735784 -1.094304 1.0871755 1.2999852
-1.4559872 0.3613499 -1.4970369 0.6654855 -1.7457445 1.1609521 1.3290117 -1.0314523
-0.2190551 -1.1894379 -2.706518 0.8275793 -1.1767081 0.92340297 -1.7176806 -2.9202485

running_var f4 [64]
00000000: 2b17 ef3f dc18 a53f 7d4e 9d3f 400d cb3f
00000010: 9865 b83f 0766 9b3f 2aac c23f ba34 ce3f
00000020: 218d ae3f 31b2 d73f 7bc2 aa3f 3192 0a40
00000030: 5b59 a43f 8ad3 ff3f adf6 a73f cfcc 9e3f
00000040: c577 b83f e73b ba3f 547b 963f 7161 da3f
00000050: 6211 ab3f f06e f93f 1281 a23f a068 bb3f
00000060: 2639 863f a872 f13f 2dfc f33f 2616 453f
00000070: c882 c03f 14e5 c63f 1c8b f63f 1813 a73f
00000080: 4077 a83f e40d 0640 277b 963f 124b e33f
00000090: ff3e dd3f 1656 a43f d80f db3f 3331 873f
000000a0: cdf3 ee3f 9873 de3f 8238 e53f 45c5 cd3f
000000b0: 1133 e83f 54bc c63f a89f e63f cc7d fa3f
000000c0: af28 a73f 1e75 df3f 7056 bd3f 76b3 ab3f
000000d0: 14b9 e23f 62c6 cb3f c04b 1640 9d93 943f
000000e0: 4a29 a33f a8a5 eb3f 753b fb3f 0e0f b73f
000000f0: f517 a03f e9bb c53f a0d9 ec3f 6ce5 1640
1.8678945 1.2898211 1.2289578 1.5863419 1.4406004 1.2140511 1.520879 1.6109841
1.3636819 1.6851255 1.3340601 2.1651728 1.2839769 1.9986432 1.3122154 1.2406253
1.4411551 1.4549531 1.1756387 1.7060987 1.336468 1.948698 1.2695639 1.4641304
1.048619 1.8863115 1.9061333 0.7698692 1.5039911 1.5538659 1.9261203 1.3052702
1.3161392 2.0945978 1.1756333 1.7757285 1.728485 1.2838771 1.711421 1.056189
1.8668152 1.7379026 1.790787 1.6075827 1.8140584 1.5526223 1.8017473 1.956964
1.3059291 1.7457616 1.4792004 1.3414142 1.7712731 1.5919917 2.3483734 1.1607548
1.2746975 1.8409929 1.962752 1.4301469 1.2507311 1.5447971 1.8503914 2.3577528

weight f4 [13, 64, 3, 3]
00000000: d09a 423d 7a36 6ebd f730 83bc afe6 09be
00000010: 622d f6bd 617e 8939 0cbf f8bd 9451 adbd
00000020: 040f 6a3d 17b4 77bd 03dc c6bd 0b7e 10bd
00000030: 4cc8 20bd 7646 adbb 5e07 98bd 5564 233d
00000040: 7399 7a3c d1c2 8d3d bbe6 aa3d fef9 f83c
00000050: ce35 2e3d b919 8e3d d09a 1dbd cb0b 623d
00000060: 833b 983b 29aa 143d 8283 37bd a0ef c93c
00000070: bc60 70bb dd44 3d3e 8013 993d 7ce3 f33c
00000080: eb15 303e 3c1e 923d f9de 9c3d 912c 84ba
00000090: e57f 9e3d 924f 023d 047c 26bd 5f4f 0bbd
000000a0: 5e64 cabc 97b2 38bd 937e f7bc 0534 0b3d
000000b0: a34c 293d a7c9 823c d1e4 89bd 0d46 853d
000000c0: 5e90 1fbd 52a1 1bbd 94fb 5b3c 6e7e 9ebc
000000d0: b4de ffbb c42a a53d 8dc1 44bc 416f 8f3d
000000e0: d602 9c3d 0d62 8a3b 521f 883b af76 c23b
000000f0: 1468 21be 657d 3bbe b020 e0bd c943 c73d
00000100: 1c9b 893d 74d2 0b3d ed70 5d3d 8086 a3bc
00000110: 9d5d 96bd 1d8a cd3d 0a82 d73c 9632 1abd
00000120: cf42 3b3c 70f3 e5bc 209c 2b3c 86b1 10bd
00000130: ca94 e3bd d34e 4a3c 877a f0bb 8c2c 1c3c
00000140: c673 ebbd 6c1d 8fbd 22b6 b4bd 4cc1 23bd
00000150: a393 e9bd e71c e6bd dc76 e4bd c9e9 91bd
00000160: 3b64 a0bd 965c debc 074d 31bc 33b9 80bd
00000170: 4302 a5bc 93b0 183c cda4 6e3c fbf6 92bc
00000180: 8294 303d 82c6 ba3d f050 7c3d a436 cc3d
00000190: 8af2 c03d 367d 003e 6793 cabc f1ab c73c
000001a0: a972 c03d 2d9f 123d 8853 af3d 9989 be3d
000001b0: 46e5 f8bc 9189 debc 3b7b f5bd 4601 64bb
000001c0: 785a 98bc 0d71 77bd 6574 bd3c df26 b0bc
000001d0: 3566 02bd 85a1 99bd c3fb 02be f3cc 1cbe
000001e0: e0bc f7bd a458 e6bd ae8c 24be 520d 8bbe
000001f0: c51e 22be fe80 1abe 7bb6 a93d 0e4a 063d
00000200: 775f 65ba fdc6 133d 9313 39bd 6bfa 98bc
00000210: f058 5f3d 8b97 503a 3791 193e e8fc e3bc
00000220: b384 1abd 3c1e 85bd 8234 d03c 28d0 3dbd
00000230: 4cd4 503c 5a4e febc a98d c1bd 2e9f e3bb
00000240: d109 083d 5457 113e fe9c 943d 28ba 8abc
00000250: 40a4 fc3d 493e 333d 7aed 38b9 0224 7f3d
00000260: 2305 5d3d 9eb9 86bd a1a4 a03b 6a8f 893c
00000270: 30a4 7dbd 6255 8cbc 02cd 23bd 6467 03be
00000280: 4496 f0bc cb3e 96bd 4f5c 3dbd 6cf8 f93b
00000290: 37d6 24bd 92ef bd3d f7be f53c 9b9c 8dbc
000002a0: 0491 c5bd 740e afbc a983 29bd 1d30 573d
000002b0: 70b9 b93d 83f8 2c3a 0dca 2abd 06ba 7c3d
000002c0: eee9 ba3d 7c15 fdbd 83b2 92bd 21e0 873d
000002d0: 33b3 ea3d f55a 2cbc b863 733b 9171 203d
000002e0: b8ae 0e3d 3950 293b ae08 ba3d fea1 ec3c
000002f0: 9025 863c c393 173e 3761 d73d be81 403d
00000300: 11f7 883d 495a 2ebd 2e6a dfbc df77 3e3c
00000310: 02a9 b7bd 1247 08bb 0cea 6e3d 4b2c ec3d
00000320: 0858 e33c 81f2 59bd 2db0 a33a 03ec 97bb
00000330: b59c 08be 10e9 94bd e7e3 abbd ac9e 433d
00000340: 0960 da3d 4126 a53d d3be a63d 3bf0 b73d
00000350: b9bc 943d bd1f 993d 69d9 2f3d 506e 82bb
00000360: 722a b4bd 8fe0 89bd a290 90bc 4f11 f7bd
00000370: 6c6d c3bd 123f e1bc 58ca bf3b b554 5a3b
00000380: 24e8 933c 01d4 88bd 949a 9bbb fb8b aebd
00000390: 3466 56bd 4f79 2a3d 501e 1c3d a928 4bbe
000003a0: 65c1 34be 9968 d0bd 6e84 1b3e b6cf 0e3d
000003b0: ac76 0c3e 50c6 1e3d 737d 5e3d df57 b83d
000003c0: 7aa7 3a3d 12b6 d63c 9633 bf3d 0af0 a3bd
000003d0: 8302 ea3b f2bb a6bd 82e2 bbbd 0e86 47bc
000003e0: 5fed a5bd 1b4d b93d 2559 963d 2a39 623d
000003f0: a966 b93d caa2 9c3c bef0 033c 07b1 f33c
0.047510922 -0.05815742 -0.01601456 -0.13466905 -0.12020375 0.00026224836 -0.12145814 -0.084628254
0.057143226 -0.06047448 -0.09709933 -0.035276454 -0.039253518 -0.0052879406 -0.0742328 0.039890606
0.015295374 0.06921924 0.083447896 0.030392643 0.04253178 0.069385 -0.03847772 0.055187028
0.004645766 0.03629509 -0.04480315 0.024650395 -0.0036678752 0.184833 0.074744225 0.029771559
0.17195861 0.07134673 0.07659716 -0.0010084083 0.07739238 0.031814165 -0.040645614 -0.03401124
-0.024706062 -0.04509219 -0.030211722 0.033985157 0.041332852 0.015965296 -0.067330964 0.06507502
-0.03895604 -0.037995644 0.01342668 -0.019347396 -0.0078085307 0.080647975 -0.012009037 0.07003642
0.076177284 0.0042231143 0.0041541243 0.0059345583 -0.15762359 -0.18309553 -0.10943735 0.09729726
0.06719038 0.03413625 0.054062773 -0.019961596 -0.07342074 0.10036109 0.026307125 -0.0376459
0.011429503 -0.028070182 0.010474235 -0.03532555 -0.11112364 0.012347895 -0.007338825 0.009532105
-0.114966914 -0.06988034 -0.088238016 -0.039979264 -0.114051126 -0.112359814 -0.11155483 -0.07124669
-0.078316174 -0.027143758 -0.010821587 -0.06285324 -0.02014268 0.009319442 0.014565659 -0.017940035
0.043110378 0.091198936 0.061600626 0.09971359 0.09421261 0.12547764 -0.02472849 0.02437398
0.0939687 0.035796333 0.08560854 0.093035884 -0.030382764 -0.027165206 -0.11986395 -0.0034790798
-0.018597826 -0.060410548 0.02312679 -0.02150291 -0.031835753 -0.075015105 -0.12791352 -0.15312557
-0.12096572 -0.112473756 -0.1606929 -0.271586 -0.1583205 -0.15088269 0.082867585 0.032785468
-0.0008749882 0.036078442 -0.045184683 -0.018674096 0.054528177 0.0007957152 0.14996801 -0.027830556
-0.037724208 -0.064999074 0.025415663 -0.04634109 0.012745928 -0.03104322 -0.09450848 -0.006946466
0.033212487 0.1419347 0.072565064 -0.01693447 0.12336016 0.04376057 -0.00017636074 0.0622902
0.053959977 -0.065783724 0.004902438 0.016792018 -0.06192416 -0.017130557 -0.039990433 -0.12832409
-0.029368527 -0.073361956 -0.04623061 0.007628491 -0.040243354 0.0927421 0.029998286 -0.01728659
-0.096468 -0.021369196 -0.041385327 0.05253612 0.090685725 0.00065983104 -0.041696597 0.061700843
0.0912665 -0.123576134 -0.07162955 0.06634546 0.11459961 -0.010519733 0.0037138294 0.039170805
0.034834594 0.002583517 0.09083687 0.028885838 0.016375333 0.1480246 0.10516589 0.04699873
0.06687749 -0.04256657 -0.02727231 0.011625259 -0.089677826 -0.0020794314 0.058328673 0.11531886
0.027751938 -0.053209785 0.0012488418 -0.004636289 -0.13341029 -0.07271016 -0.08393078 0.047758743
0.106628485 0.08063937 0.081418656 0.08981367 0.072625585 0.07476757 0.042931948 -0.0039804354
-0.08797158 -0.06732284 -0.017647091 -0.12063848 -0.09542355 -0.027495895 0.0058529787 0.003331465
0.01805503 -0.066810615 -0.0047486518 -0.08522793 -0.052343562 0.041619595 0.038114846 -0.1983973
-0.17651899 -0.101762004 0.15187237 0.034866057 0.13717145 0.038763344 0.054318856 0.09001135
0.045569874 0.026209865 0.09336011 -0.08004768 0.0071414127 -0.081413165 -0.09174062 -0.012177957
-0.081019156 0.0904791 0.07341222 0.055230297 0.09052784 0.019120593 0.008053003 0.0297475

bias f4 [13]
00000000: 06f8 de3c 35c0 203d 1095 0bbd 7b15 2bbd
00000010: 0ff2 dcbc 47c4 45bd e33a a73c 108a fc3c
00000020: bbff 97bd 3f91 7bbd ef2b 86bd bc74 3c39
00000030: aeac 90bd
0.027217876 0.039245803 -0.034077704 -0.041768532 -0.026970891 -0.048282888 0.020413822 0.030827552
-0.074218236 -0.061417814 -0.065513484 0.00017972564 -0.07064186

weight f4 [64, 13, 3, 3]
00000000: 4093 de3c ba3a 1f3d 59dd efbd 688f 87bb
00000010: 7ac4 183d 9af8 2bbc fdf9 9bbc f4cf a33c
00000020: e1b6 d03c 181a 7c3c 25ce 94bc 05e9 ac3c
00000030: ca30 93bc 152f cebc fe13 19bc 5606 96bb
00000040: c6fa b73b 4947 b73b a10d eb3b be95 ef3c
00000050: c534 10bd ac2a 8bbd de56 f2bc c5ef 6fbd
00000060: 1cb0 c1bd 035a 7d3c 3a64 18bd 966f b2bd
00000070: 6f88 8f3c 8301 b03d d402 ebbd 9428 16bd
00000080: 5c4b 0a3e 666b b0ba a336 df3c 4e49 103d
00000090: 8afc e63c d858 76bd 889a 3dbd fa83 77bd
000000a0: 64a3 71bd a8b1 44bc 7eb6 f9bc 905a debb
000000b0: f217 203c 5a7b e4bc d148 2e3b 01b6 f53c
000000c0: 4659 6c3d 2149 7b3d f53a 243c 6ba9 c63d
000000d0: e7be d5bd 4213 b5bd a355 0a3d 8176 a8bd
000000e0: 14bd 2d3e 4c8f 1b3e 3ed1 e3bd 013f 2ebd
000000f0: e0a2 6c3d 1d13 0fbe adc5 39bd 4a95 29bd
00000100: 76d8 6d3d 0668 46bd 8a50 3d3b 30df 0abd
00000110: 44ad c4bd e10c af3c 0451 ce3c fa1f 673c
00000120: 9bcd 34bd a4f0 d03c f295 6abd 44ab 62bc
00000130: ba79 b4bb eb78 d93d 27a7 babc 175e 70bd
00000140: 13bc cd3c 2470 b5bd fd3e 00bd 9362 893b
00000150: aa78 abbd 57a3 97bc 0c46 26bc 57e7 06be
00000160: 167d f4bc 4c9d a0bc 89fb f83c a214 353d
00000170: 35b4 043c 0513 023d ef52 15bd a53b e9bb
00000180: 7ccc e9ba 5fc2 743c 378f 82bc 428f 2abd
00000190: a5ac 7d3d 486c d03d e5e0 a53d 4a43 c43d
000001a0: 140d 4cbc 0391 33bd aee6 3cbd c2f2 2bbe
000001b0: 5a8d 65bc 8346 51be c6f5 93be 3b7c d23d
000001c0: b560 d43d 2042 7fbd bda3 cabc 5eff 063d
000001d0: 3dcd 12bb 9545 df3d d8f8 9dbd b332 d3bd
000001e0: 24f0 433d 42dc f1bd 30d2 73bc b9ae 733d
000001f0: 6e66 60bd 912d 023d ec60 b6bc 4fa0 e23c
00000200: c08c 5f3c a79b 2c3b 6c9f 1f3d 95f6 7dbc
00000210: 70b9 1cbc 962f bf3c 5cc5 45bc c47d b23d
00000220: 9f4f 813d 6917 8a3c 1273 f4bb c3da 52bc
00000230: 661b d43a 4adc 093d 0326 c1bc f403 a23c
00000240: 292c 543d 12aa 8a3c 5813 453d 9506 ac3d
00000250: 2133 53bc 0908 23bd 664e 3c3d 78cc 41bd
00000260: c006 04bc 99b6 ee3c c3cd 533c 1744 0d3d
00000270: 2600 053d 0cae e4bb 7f93 803c 8de7 7fbc
00000280: f93c 1abd 3790 563c bcc2 b53c 8684 9e39
00000290: b4be d5bc ce7f 673d 6c63 b9bd 8c5e 2fbd
000002a0: 0a41 9a3b 3a47 8bbd 2f1d 88bd 6fa6 e03c
000002b0: f92d 5bbd a2a8 84bd 7356 3b3d 90f1 2fbd
000002c0: b641 be3c d57e 98bc 5227 9ebc a2cc 5abc
000002d0: 750c 85bc 7b1d 54b9 84f9 013d 510b 7c3c
000002e0: dda0 65bd db07 c73b e72c 243d 6592 70bd
000002f0: b322 3e3b 2692 32bc 6106 8dbc d990 5c3d
00000300: c22f 9abb 4efb 92bc 72f6 eb3d f0e3 b93c
00000310: f530 0cbd 9f50 5e3c c115 ffbb d4ea 18bd
00000320: 1b89 053c 11ea 443d 6efa a53d 7c12 413d
00000330: 5599 c23c cbba 373d adbd b03c d07e 1c3d
00000340: 1b93 31bc 2683 b7ba d92b e33c 6290 1abd
00000350: 8822 1e3b ae24 843b 29ec 24bc ff61 3fbd
00000360: 6556 57bd a214 b63b e4c9 573d 1a6f ff3c
00000370: 123b b53d b5eb 093e 1685 e83c af5e 47bc
00000380: eea0 d2bc ae46 423d 8c60 99bd bd71 bebd
00000390: d09d 19bd ea2a b4bd 6202 5abc 2b3a 9ebd
000003a0: 8773 88bd 204b 89bc 47cc e0bb e15d 263d
000003b0: 8f7e d1bd 5f2a 2bbd 3ec2 453d 3615 683b
000003c0: c335 c0bc 9b26 323d 547c 2bbd 187b 7cb8
000003d0: b8cb 883c 2c5d 50bb 5b82 403d 6e94 b0bd
000003e0: 5ecd 7ebc c1ee c9bc 3984 8abc 4a7f 023d
000003f0: d933 a7bd 21b3 a0bd 16c6 6bbd 8454 ccbc
0.027169824 0.038874365 -0.117121406 -0.0041369684 0.03729675 -0.010496283 -0.019040102 0.01999662
0.025477828 0.015387081 -0.018164704 0.021107206 -0.0179676 -0.025168935 -0.009343145 -0.004578392
0.0056146113 0.0055932146 0.0071732556 0.029246207 -0.035206575 -0.067952484 -0.029582437 -0.05857827
-0.09457418 0.015463355 -0.03720496 -0.087126896 0.017521111 0.08594038 -0.11475149 -0.036659792
0.1350531 -0.0013459742 0.027247733 0.03522616 0.028196592 -0.06014332 -0.04628995 -0.060428597
-0.058993712 -0.012005247 -0.030482527 -0.0067856982 0.009771334 -0.02789085 0.0026593695 0.029994013
0.057702325 0.061349038 0.010023822 0.09700283 -0.10436802 -0.08841564 0.033773076 -0.08225728
0.16966659 0.15191382 -0.11123894 -0.042540554 0.057772517 -0.13972135 -0.045354534 -0.04140214
0.05806776 -0.04843905 0.0028887116 -0.033904254 -0.0960336 0.021368446 0.025185116 0.014106745
-0.044141393 0.025505371 -0.057271905 -0.013834778 -0.005507675 0.106187664 -0.022784783 -0.05868348
0.025114095 -0.0885928 -0.03131007 0.004192659 -0.08372624 -0.018510504 -0.010148536 -0.13174187
-0.029844802 -0.019606255 0.030393379 0.04420913 0.008099605 0.03175642 -0.036456045 -0.007117706
-0.001783743 0.01493892 -0.01593743 -0.041640528 0.061932225 0.10176903 0.08099536 0.09583147
-0.01245429 -0.043839466 -0.04611843 -0.16791824 -0.014010752 -0.20437054 -0.28898448 0.10277601
0.10370008 -0.06231892 -0.02473628 0.03295838 -0.0022400164 0.109019436 -0.07713479 -0.103124045
0.047836438 -0.11809589 -0.014881656 0.0594928 -0.054785185 0.031781737 -0.022263013 0.027664332
0.013644397 0.0026337893 0.038970396 -0.015500684 -0.009565696 0.02333812 -0.01207098 0.08715394
0.06314015 0.016856866 -0.0074600065 -0.01286954 0.0016182482 0.03365735 -0.023577696 0.019777276
0.051799927 0.016926799 0.04811415 0.08399693 -0.012890608 -0.039802585 0.045973204 -0.047314137
-0.00805825 0.029139804 0.012927475 0.034488764 0.032470845 -0.006978756 0.015695332 -0.015619171
-0.037655804 0.013095907 0.022187583 0.00030234846 -0.02609191 0.05651837 -0.09052166 -0.042814776
0.0047074603 -0.06800695 -0.06646191 0.027423112 -0.05351064 -0.06477477 0.04573674 -0.04295498
0.023224693 -0.018615166 -0.019305859 -0.013354452 -0.016241292 -0.00020228878 0.031732097 0.015383557
-0.056061614 0.0060739345 0.040081885 -0.058733363 0.0029012382 -0.010899102 -0.017214956 0.053849075
-0.0047054 -0.017942097 0.11521615 0.022691697 -0.034226377 0.013569026 -0.0077845757 -0.037333325
0.008150364 0.048074786 0.08104406 0.04713677 0.023754755 0.044855874 0.02157482 0.038206875
-0.010838295 -0.0014000877 0.02773087 -0.03773535 0.002412947 0.004032693 -0.010066071 -0.046724316
-0.052572627 0.005556659 0.052682772 0.031180907 0.088491574 0.13468821 0.028383773 -0.01216857
-0.025711503 0.047430687 -0.07489118 -0.092990376 -0.037504017 -0.08797248 -0.013306232 -0.077259384
-0.0666266 -0.016759455 -0.0068602893 0.040616874 -0.10229217 -0.041788455 0.048280947 0.0035413033
-0.023463136 0.04349385 -0.041866615 -6.0196122e-05 0.016698703 -0.0031793816 0.046999317 -0.08622061
-0.015551893 -0.02464998 -0.016908752 0.031859674 -0.08164186 -0.07846666 -0.057561956 -0.024942644

bias f4 [64]
00000000: 7623 d1bd 70ab a83c d946 ddbd f11f 22bd
00000010: 3cf5 033e 2382 d43c 987b b33d 8a3f fdbc
00000020: 9283 3b3d 9b1e 72bd 3929 44bb d56b 81bc
00000030: c542 2b3d b58c e9bb d613 943d 1f36 8abd
00000040: 1cf8 963b 1e4e 94bd 2870 743d 8fc5 d3bc
00000050: 3b28 b53d 5ca5 8ebc eaf2 adbc af2e ab3d
00000060: 4b3b ebbc 8263 80bc f519 74bd 3516 95bd
00000070: 4b54 593d 6471 7ebd 7fb3 a73d d6a6 ff3c
00000080: 9471 30bc 3171 033d 712a 72bd d97a 3f3c
00000090: a01c 4f3a 2ebf 153c e594 03bd 66ce 95bd
000000a0: f9ba 593d 8b3f fabd 7c0e d03d d460 573d
000000b0: 0df3 fb3d 6fa4 8abc 1d50 82bd e932 963d
000000c0: 5acf 4e3d dbdc 373d a7be fd3c 77b3 fb3b
000000d0: 0243 b23b 8db8 013d d89f 62ba bc19 c9bb
000000e0: 9c0a fdbd a7f2 713d 4930 9e3c c605 7bbd
000000f0: 82d2 9c3d dcde a83d 804e 493c 4d05 953c
-0.10211842 0.02058956 -0.10804529 -0.039581243 0.12886518 0.02594096 0.08763808 -0.030914087
0.045779772 -0.05911122 -0.0029931797 -0.015798489 0.041811723 -0.0071273693 0.07230346 -0.06748604
0.0046072137 -0.07241462 0.059677273 -0.02585104 0.08845564 -0.017412834 -0.021233995 0.083585136
-0.028714797 -0.015672449 -0.059595067 -0.07279626 0.053058904 -0.062119856 0.08188533 0.031207483
-0.010769267 0.03209037 -0.059122507 0.011687004 0.0007900689 0.009139819 -0.03212442 -0.07314758
0.053156827 -0.12219151 0.10159013 0.052582577 0.12302218 -0.016924111 -0.06362937 0.07333929
0.050490715 0.04488836 0.0309747 0.007681306 0.005440117 0.031670142 -0.00086450344 -0.006137101
-0.12355539 0.059069302 0.019310134 -0.061284803 0.07657339 0.08245632 0.012286782 0.018191004

weight f4 [64]
00000000: 30d3 7a3f 116b 713f 29aa 6d3f a3e0 813f
00000010: d0f2 653f eb85 733f 5ae4 4b3f f4d5 843f
00000020: f054 893f bdef 833f 8c0b 6e3f a4f9 643f
00000030: 2159 803f bc69 5d3f 0f19 7e3f d744 6d3f
00000040: 519e 803f 3364 723f 0ec7 773f 9eb8 7c3f
00000050: 852b 5f3f 6935 623f 6cec 6f3f 122a 6c3f
00000060: 7011 6f3f bfed 753f 131d 6e3f 3a27 813f
00000070: 32ae 743f b448 643f 8d20 673f 353f 753f
00000080: 5752 853f 4a88 6a3f 6a4e 7b3f 359e 813f
00000090: 17ea 643f 1d4b 823f 609b 733f 97b9 8f3f
000000a0: 25f5 7d3f a8f5 713f efe8 6f3f ebdd 723f
000000b0: a7e0 853f b02c 813f 26d1 843f 1261 883f
000000c0: b0a0 6a3f 96a8 733f 17ef 603f 98d1 683f
000000d0: 01d0 583f 7cb2 6f3f 9318 6e3f 9fce 873f
000000e0: 3d81 803f 8f4e 8b3f fc59 753f 723d 833f
000000f0: 08b2 703f ed80 5f3f 3b7c 693f ee94 7a3f
0.97978497 0.94303995 0.9283777 1.0146679 0.8982363 0.9512622 0.7964531 1.0377793
1.0729046 1.0307537 0.9298637 0.8944342 1.00272 0.8648946 0.99256986 0.92683166
1.0048314 0.9468414 0.9678811 0.98719203 0.8717578 0.8836275 0.93720126 0.92251694
0.9338598 0.96065897 0.93013114 1.0090096 0.955783 0.89173436 0.90284044 0.9579957
1.0415753 0.9161421 0.98166525 1.0126406 0.8941969 1.0179173 0.9515896 1.1228513
0.99202186 0.94515467 0.93714803 0.9486987 1.0459183 1.0091763 1.0376327 1.0654624
0.9165144 0.95179117 0.8786482 0.90944815 0.8469239 0.9363172 0.9300625 1.0609931
1.003944 1.0883349 0.9584043 1.0253127 0.94021654 0.873061 0.91205186 0.978835

bias f4 [64]
00000000: 6230 d6be ba9c 36be d96a f4be 2fac 0bbd
00000010: 90c0 f0be 8532 3cbe 44cb 11bf 7a81 03be
00000020: a764 ffbd 504d 1bbf 2004 8cbe 10db 8fbd
00000030: 1aba f3be d02c 9dbe d324 9abe d1b4 c5be
00000040: 1970 a5bd 7eb6 0fbe 2e4f 52bd 9381 90be
00000050: 36a9 b8be 4f77 dabe a0b0 1abf 7182 a7be
00000060: 274d c2be 4d65 afbe f619 9cbe 453d e6be
00000070: 6081 bbbe e396 1cbe 6af6 9cbe 5dee aebe
00000080: 0be8 9bbe 4fd9 01bf 30c3 4bbe 5e54 cdbe
00000090: 1b71 e6be 5ca2 5ebe a281 acbe a967 0ebf
000000a0: d02b 81be 3ebe b1bd d7de 00bf 98a1 d0be
000000b0: 967c d3be 476d f0be 1010 59be 14bd efbe
000000c0: eafe 88be fb42 b8be 5924 c0be 34ed 9abe
000000d0: b082 60be e04a f9be 7e4f 0cbe 8a4f c0be
000000e0: f08a e2be a337 8ebd 72d5 a5bd d08c 34be
000000f0: cedf 8dbe 4e80 1dbf 21da bebe c322 b0be
-0.41833788 -0.17833224 -0.47737768 -0.034099754 -0.47021914 -0.18378647 -0.56950784 -0.1284236
-0.1247037 -0.60664845 -0.27346897 -0.07024205 -0.47602922 -0.30698252 -0.3010622 -0.38614514
-0.080780216 -0.14034459 -0.051345043 -0.28223857 -0.36066598 -0.4266915 -0.6042576 -0.32716706
-0.37949488 -0.34256974 -0.30488557 -0.4496862 -0.36622143 -0.15291934 -0.3065675 -0.34166232
-0.30450472 -0.5072221 -0.19898677 -0.4010343 -0.45008168 -0.21741623 -0.33692652 -0.5562692
-0.2522874 -0.08678864 -0.50340027 -0.40748286 -0.4130599 -0.46958372 -0.21197534 -0.46823943
-0.26756984 -0.35988602 -0.3752773 -0.30259097 -0.21924853 -0.48689938 -0.13702199 -0.37560683
-0.44246626 -0.069442056 -0.08097352 -0.1763184 -0.27709812 -0.615239 -0.37275794 -0.3440152

running_mean f4 [64]
00000000: fe2f f0bd d569 1e3d 66ab 10be 762e bc3c
00000010: b891 c13d bdcb 443d 8abe be3d 9baa a13d
00000020: 1141 083e dae1 e5bd aa7b c53d a424 f53c
00000030: bf01 51bb ad15 40bd a1ff bc3b 2f92 8cbd
00000040: 3b29 463d 9342 083d 4518 043e f839 a9bd
00000050: 1ab4 d93d 43e6 25bd 3e05 85bd 3daa 883d
00000060: cea1 81bd a188 38bd 5460 b7bd 40a9 2cbe
00000070: e088 4ebb ae97 febc ac87 d13d 0e7d 9d3c
00000080: 7d03 4ebe 61d9 afbb a3a9 7c3d 0547 633c
00000090: 8df9 dabb 38c7 6a3d e6a5 2c3d 0e80 0ebe
000000a0: a53b b53b 620b 06be 561b c73d 8781 863d
000000b0: d12a fbbb de2d a8bd 9f45 253d 2993 3e3d
000000c0: 890a e1bc 483c 413d 639f 333d 20e2 0ebd
000000d0: 0e6f bf3b 6fc2 823b 1943 fd3c 5dc9 51bd
000000e0: d6fa 66be 0199 8ebd 4961 8e3c 939e 4abe
000000f0: 1f24 203d 2275 ed3c 4aac f0bc fc96 443c
-0.11727904 0.038675148 -0.14127883 0.022971373 0.09451622 0.048045862 0.09313686 0.078938685
0.13306071 -0.112247184 0.09642728 0.029924698 -0.003189191 -0.04689567 0.005767778 -0.0686382
0.048379164 0.033266615 0.12899883 -0.0826301 0.10630055 -0.040502798 -0.064951405 0.066730954
-0.0632969 -0.045052174 -0.0895392 -0.16861439 -0.003151469 -0.031078186 0.102309555 0.01922467
-0.20118518 -0.0053664898 0.061685216 0.013871913 -0.006682581 0.057318896 0.0421504 -0.13916036
0.005530792 -0.1309028 0.09722011 0.06567674 -0.007665016 -0.082118735 0.0403496 0.04652706
-0.027470844 0.04717663 0.043853175 -0.03488362 0.005842096 0.0039904634 0.030915784 -0.051217426
-0.22556624 -0.06962777 0.017380374 -0.19787054 0.039096948 0.028986517 -0.029379029 0.011998888

running_var f4 [64]
00000000: a26b 063b 1dc1 0e3b 7adb ce3a ecf3 ec3b
00000010: 7acb 183b ff0d 6c3b 7cea 1c3b 491c 003c
00000020: 97cf f23b 094b 3f3b 7d40 3c3b c52f 4c3b
00000030: 60bb d13a 8abf b43b b68a 463b f21e 0d3b
00000040: 70c0 e93b 92a3 3b3c ea9f 9b3b 5f3a 473b
00000050: 12ad f33a 70ba 2f3b af35 213b 5c65 d63a
00000060: 2f98 183b fc79 533b 4d8b fd3a 0a93 ab3b
00000070: 3073 d33a 4290 533b 0613 703b f2ac ad3b
00000080: 60d1 983c f485 2c3b 57ea f33b 08a6 6e3b
00000090: aac4 723b 8f57 b33b 1d60 733b c9de 9d3b
000000a0: 7515 053b 2c66 d83b 6351 9f3a 07e4 6b3b
000000b0: e2fe 153c a4c1 a23b 8a90 423b f1fc 443b
000000c0: 347e 683b 50df 903b 36e5 f03b 7cbd 403b
000000d0: 8389 483b 2789 0d3b 06c5 443c 72c1 043b
000000e0: e1a4 8a3b f76a 263c 3465 e73b 705e cb3b
000000f0: 444c 2e3c cec3 e63a ba7b 0e3b f89f 513b
0.0020510931 0.0021782585 0.0015781962 0.007231226 0.002331464 0.0036019085 0.0023943475 0.007819244
0.0074100005 0.0029189012 0.0028724961 0.0031156403 0.0016001277 0.0055159973 0.003029508 0.0021533337
0.007133536 0.011452572 0.004749288 0.0030399782 0.0018591008 0.0026814006 0.0024598648 0.0016357112
0.0023284068 0.0032268753 0.0019343883 0.0052360343 0.0016132351 0.003228203 0.0036632433 0.0053001577
0.018654525 0.002632496 0.007443707 0.003641488 0.003704349 0.0054730843 0.0037136145 0.004817818
0.002030698 0.0066039767 0.0012154992 0.003599407 0.009155007 0.0049669314 0.0029688203 0.0030057991
0.0035475614 0.004421152 0.007351543 0.0029409816 0.0030599541 0.0021596642 0.012009865 0.0020256904
0.004231081 0.010157338 0.007061625 0.006206326 0.0106383 0.0017605962 0.0021741227 0.0031986218
