carl/envs/mario/pcg_smb_env/toadgan/generators/v2/TOAD_GAN_5-1/generators.pth (torch, 624228 bytes, 42 tensors)

weight f4 [64, 11, 3, 3]
000000 5e c5 b6 bd 2a 24 bb 3b 7a 03 af bc 45 c5 28 3c
       -0.089243636 0.005711098 -0.021363962 0.010300939
000010 db d1 d4 3c 2c d3 f7 bb 66 92 c4 ba 61 87 88 3b
       0.025978973 -0.0075630154 -0.0014997243 0.004166529
000020 f1 f1 4e ba ce 91 29 3d 2b 64 99 bd 5e b0 16 3e
       -0.00078943284 0.041398816 -0.07489809 0.14715716
000030 4a 8d ab 3a 87 e9 05 3c ef 75 09 3c 06 d1 7e bb
       0.0013088372 0.008173353 0.008389934 -0.0038881912
000040 28 19 ce 3b fe da fb 3a dd 62 8c 3d 54 44 ac bc
       0.00628962 0.0019215045 0.06854794 -0.021028675
000050 c3 3b 9f bd 68 5d 85 bc 02 93 98 3a 6d 16 8c bc
       -0.077750705 -0.016279891 0.0011640491 -0.017100537
000060 95 97 b5 3a fe af ca b9 3f a3 d4 3a 4b 20 7f 3d
       0.0013854379 -0.00038659567 0.0016222968 0.062286656
000070 62 02 16 bc 19 2a de bc 9f 86 a5 3c 07 83 91 bc
       -0.009155842 -0.027119683 0.020205794 -0.017762674
000080 3f 2a 1f 3c 17 a8 6e 3c 1c 16 2a 3c 5f 24 32 3c
       0.009714662 0.014566443 0.010381248 0.010872929
000090 a5 d4 24 bb a4 ad 34 3d 09 42 8b 3b ba 74 62 bc
       -0.002515116 0.04411091 0.0042498154 -0.013821775
0000a0 9a 2d c4 bc 23 ee 2c 3c 56 e2 66 bb 76 e8 4d 3c
       -0.023947526 0.010554823 -0.0035230122 0.01256763
0000b0 00 c6 46 3c e3 4a b2 3d a5 52 cc bd 8c 69 f4 3c
       0.012132168 0.0870569 -0.09976701 0.029835485
0000c0 3b 79 85 bc 49 91 a6 bb 7d a6 60 3c 23 ba 83 bc
       -0.016293159 -0.0050832373 0.013711569 -0.016079968
0000d0 a2 26 98 3b 08 4b 15 bc e9 ef eb bd 0f d0 64 3e
       0.0046432773 -0.009112127 -0.115203686 0.22344993
0000e0 a5 4e ec bc c1 cc ce bb d8 15 93 bc 67 1a 52 bc
       -0.028846094 -0.0063110297 -0.017954752 -0.012823678
0000f0 8e ab 03 bc c6 51 1f bc d3 ef 30 bc 09 ed be bd
       -0.008036507 -0.009724086 -0.010799366 -0.093225546
000100 d5 87 ac 3d 43 69 6e bd ca cc 90 3c 29 c8 f0 bc
       0.084243454 -0.058205854 0.017675776 -0.029392319
000110 89 9a 81 3a 92 3f 16 3c a2 65 3b 3b 6e 0e 45 bc
       0.0009887974 0.00917043 0.0028594513 -0.012027366
000120 ff 4d 61 3d 60 d3 73 bb bd b7 c9 3d 18 7f 6b 39
       0.055006023 -0.0037204847 0.098494984 0.00022458693
000130 b0 b7 f8 b8 ee fc a5 3c 57 49 c9 3c 71 58 c5 bc
       -0.00011859776 0.020262208 0.024571104 -0.024090024
000140 31 c2 9a bb e5 14 d9 3c 60 06 70 be f2 1f bc 3c
       -0.0047228565 0.026499221 -0.23439932 0.022964451
000150 3a af 88 3c 8d 41 f4 3a 5b ad 7d bb 1e 38 96 3b
       0.016685117 0.0018635258 -0.0038708064 0.0045843264
000160 8e 87 ac bc b1 3b 4c bc e0 7a f1 bc e4 24 0f 3d
       -0.021060731 -0.012465403 -0.029477537 0.03494729
000170 66 c7 9b 3d 73 ed 95 bc ea 4e b3 bb e7 66 ae 3a
       0.076063916 -0.018301701 -0.005472054 0.0013305814
000180 7b e6 9d bb e3 06 a3 3c 4d 7e 6b 3c 94 4b c8 3c
       -0.004818735 0.019900745 0.014373374 0.024450101
000190 50 3f 75 ba 7f 05 04 bc 27 1e 9d bc 69 be 37 3d
       -0.00093554426 -0.008057951 -0.019179417 0.044859324
0001a0 7b 4e 8c bc aa bb ef 3b 00 3f 89 bc 07 36 3f 3c
       -0.017127266 0.0073160725 -0.016753674 0.011670596
0001b0 3c 02 39 3d 6f 07 3a 3d 2e 32 09 bd b5 62 70 3c
       0.045168146 0.045417245 -0.03349512 0.014671971
0001c0 ec 6a 44 3d ee 0c f9 ba d6 08 a3 ba 2e b1 84 bc
       0.04795353 -0.0019001046 -0.0012438546 -0.016197767
0001d0 22 1e 2a 3d 6d 6f f9 bc 33 00 fe 3d 7a 48 14 3d
       0.041532643 -0.03044864 0.12402382 0.03620193
0001e0 a9 d6 40 3d 3c 4c 06 bd 88 b2 6d 3d 48 79 b0 3c
       0.047079716 -0.032787547 0.05803159 0.021542206
0001f0 d5 59 74 3c 1e b3 48 bc 53 d8 ae 3d e8 45 3f bc
       0.014913996 -0.012249736 0.08537354 -0.011674382
000200 e1 31 31 be a1 6d 90 3c 1a 74 26 bc 8f df 2b 3c
       -0.17304184 0.0176304 -0.010159517 0.010490312
000210 34 57 2b bc cf 2f 26 3b 62 f1 2e bc 98 94 8b bd
       -0.010457803 0.0025358086 -0.010677667 -0.068154514
000220 9e fc 98 bc 41 f1 ff bd b5 f7 7b 3c 1e 06 0f bb
       -0.018675145 -0.124971874 0.015378882 -0.0021823714
000230 d5 ee b7 bc a5 cf 31 bd 43 9f bc 3c 7b a8 99 bc
       -0.022452751 -0.043410916 0.02302516 -0.018757096
000240 dd 3f 38 bd ec 91 b1 3d 9e be cb 3c 5e ad 52 3c
       -0.04498278 0.086704105 0.024871167 0.012858717
000250 35 9a 87 bb eb c6 90 bc 1f 59 83 bb dc eb 04 bc
       -0.004138256 -0.017672976 -0.004008427 -0.008112874
000260 01 c1 bd bc 17 0c 20 be d9 e0 93 3c 80 b1 52 bd
       -0.02316332 -0.15629612 0.018051552 -0.05143881
000270 ca e2 e8 3b 0b c8 e1 3b bc 21 8d bc 23 27 13 bd
       0.0071071135 0.006890302 -0.017228 -0.035925996
000280 5a ac 4f 3c f7 33 f9 3c 32 b1 66 bd b8 e0 7f 3d
       0.012675369 0.030420287 -0.05632133 0.062470168
000290 13 eb 83 3d 9d 8a 50 bb 64 61 51 bc b4 85 c2 3c
       0.06441321 -0.0031820901 -0.012779567 0.023745395
0002a0 db c6 a5 bc 17 53 27 3c f5 61 46 bc 73 48 70 3d
       -0.020236423 0.010212681 -0.012108316 0.058662843
0002b0 2e ec 46 bc 26 84 d8 3d 82 b2 aa 3c 27 68 10 3c
       -0.012141271 0.1057208 0.020837072 0.008813894
0002c0 07 ee 03 bb c8 59 a3 3c ab 20 ad 3c c8 c4 f2 bb
       -0.002013089 0.019940272 0.021133741 -0.007408712
0002d0 e7 4a 94 bd 5c b2 1d 3e 6f 9f c8 bd b3 05 87 bc
       -0.07240849 0.1540007 -0.097960345 -0.01648221
0002e0 14 b2 99 bc fe 48 9b bb 0d 7a ff 3b 3e 06 fa bc
       -0.018761672 -0.004738926 0.007796532 -0.030520555
0002f0 0a d4 7d bc 09 e8 1a bc 31 58 85 bd e1 45 0c be
       -0.015492449 -0.009454736 -0.06510962 -0.13698532
000300 65 76 a7 bc 05 a5 c7 3c cf c4 67 3c 3a 14 74 bb
       -0.020442197 0.02437068 0.014146044 -0.0037243501
000310 69 d8 1e 3c 7e aa e2 3c 92 23 8e bc 1c c5 9b 3c
       0.009695151 0.027669188 -0.017350946 0.019014888
000320 e6 30 58 3c 42 be 92 bd 4f f9 f9 bc 6d 52 4b bb
       0.013195252 -0.07165195 -0.030514387 -0.0031024471
000330 5e 9f 56 bc 4a 4c ed bd 96 7b de 3b d8 fa fc 3c
       -0.01309952 -0.115868166 0.006789635 0.03088133
000340 43 49 bc 3d 3d 99 b0 3c 77 5c ec 3c 26 1d 96 3c
       0.09193661 0.021557445 0.028852684 0.018324446
000350 43 15 9e bb 7b de 96 3d 48 5f 91 3c 5d 83 38 3b
       -0.004824312 0.073666535 0.017745629 0.002815447
000360 7f 5d 95 3c 25 d1 fe bc e7 e0 e3 bc 68 28 32 3d
       0.018233059 -0.031105587 -0.027817203 0.043495566
000370 20 61 ba 3c aa 5a 20 bd fb 59 8e 3d f3 c8 36 bd
       0.022751391 -0.039148964 0.06950756 -0.044625234
000380 e1 5a db 3c a3 e6 9a 3c 09 c1 14 bd 0d 56 3f 3c
       0.026776733 0.018908804 -0.036316905 0.011678231
000390 f0 21 a8 3c da e2 d9 bc 5c b6 35 bc 07 03 8b 3d
       0.020523995 -0.026597429 -0.011090841 0.06787687
0003a0 7b 58 b0 3c 35 68 02 bd 10 51 bb 3c 1e 1e b2 3c
       0.021526566 -0.03183766 0.022865802 0.021742877
0003b0 59 30 cf bc b4 cf 71 bc cb 0c 17 3b ec 24 0a bc
       -0.025291609 -0.014758993 0.0023048397 -0.008431654
0003c0 c0 70 4c be 96 49 0a 3e b0 18 01 3c 8a 00 d4 3d
       -0.19964886 0.13504633 0.007879421 0.10351665
0003d0 ff c1 58 bc 30 89 78 bd 8e 0e ed 3c c1 d8 4f bc
       -0.013229846 -0.060677707 0.028937604 -0.0126859555
0003e0 c0 c3 3e bd 92 b1 62 bd 33 bf 4c 3d 82 a9 f6 bd
       -0.0465734 -0.055345125 0.04998703 -0.1204405
0003f0 fb 3d 66 bc 48 96 a4 bc c2 a1 78 3d d1 31 e9 bb
       -0.014052863 -0.020091191 0.06070114 -0.0071165343

bias f4 [64]
000000 ba 8a 8a bc 3c 9d cd bc d4 b6 d2 3d 6b f6 a3 bd
       -0.016911853 -0.02509939 0.10288778 -0.08005985
000010 04 92 03 bd 39 27 b6 3d a0 b6 cd 3d 0a f5 67 3c
       -0.032121673 0.088942 0.100445986 0.014157543
000020 71 a4 f3 3c 7c c4 b0 bc 22 ad 38 3d b3 3c 83 bd
       0.029741498 -0.021578066 0.045086987 -0.06408062
000030 fd ec db 3d 3a d9 c9 3d 0f af 79 bd 64 c2 ae 3d
       0.10738561 0.09855886 -0.060957965 0.08533171
000040 68 3b 36 bb 35 0d 6d b9 59 2f fa 3c ad 4d a3 bc
       -0.0027806405 -0.00022607001 0.030540155 -0.0199345
000050 6c 38 da 3d 77 43 90 3c 99 d2 f2 3b 5a 77 60 bd
       0.10655293 0.017610295 0.007410359 -0.054801323
000060 db 40 a8 3d 7c 2e 99 3d 40 55 af 3d a5 e9 c5 bc
       0.08215495 0.07479569 0.08561182 -0.024159262
000070 e7 f9 8a bc e4 40 1f 3d 6d 2f 9f 3d 64 7e af 3a
       -0.016964866 0.038880244 0.077727176 0.0013389108
000080 ea de 33 3d b3 e2 c5 bd 09 63 21 3d ce e4 6f bd
       0.04391376 -0.0966238 0.039401088 -0.058567815
000090 7c 86 ea 3b f6 10 7a bd b4 8b c4 3d e9 a0 0e 3e
       0.007157145 -0.06105133 0.09596959 0.1392857
0000a0 3f 20 65 bd c0 4a db bc 3c e9 64 3d b9 28 24 3d
       -0.055938955 -0.026769042 0.055886492 0.0400779
0000b0 c8 bf 79 bd c2 6c 4a 3b 5d 16 7f 3d 5e 7d 2a 3d
       -0.060973912 0.0030887579 0.062277187 0.041623466
0000c0 a8 f0 2f bd 52 67 72 bd b8 88 11 3d c0 73 8f 3c
       -0.042954117 -0.059180565 0.035530776 0.017511249
0000d0 35 99 a3 bc 8f 9b a6 3d 69 32 aa bc 1e e9 f6 bc
       -0.019970516 0.08135139 -0.02077599 -0.030140456
0000e0 96 7d 06 bd d7 f0 5f bc 79 e3 11 bc fa 78 84 bd
       -0.03283461 -0.013668261 -0.008904331 -0.06468387
0000f0 a9 4a 87 3d 7f a0 9f 3d ca a6 7c bd 19 99 91 3d
       0.06606037 0.07794284 -0.0616825 0.07109279

weight f4 [64]
000000 11 88 80 3f 01 d7 7e 3f 52 65 79 3f b9 c8 66 3f
       1.0041524 0.9954682 0.9742023 0.9015003
000010 18 15 80 3f c5 74 86 3f 35 ec 7e 3f d3 f9 7d 3f
       1.0006437 1.0504385 0.99579173 0.99209327
000020 8d 61 6b 3f 46 49 90 3f 2e cd 82 3f 9b 46 96 3f
       0.91945726 1.1272361 1.0218866 1.1740297
000030 ad 5e 7c 3f ca 96 88 3f 9d e7 93 3f ae 1c 8e 3f
       0.98581964 1.0671017 1.1555058 1.1102502
000040 fd 6a 8d 3f 2a 11 7d 3f 68 a0 78 3f a8 bd 84 3f
       1.1048275 0.98854315 0.9711976 1.0370378
000050 2b d5 8e 3f 72 b4 76 3f a2 9a 88 3f 31 1e 52 3f
       1.1158804 0.9636909 1.067219 0.8207732
000060 91 4a 8a 3f 4c 16 88 3f ac a8 86 3f 83 16 67 3f
       1.0804006 1.0631804 1.0520225 0.90268725
000070 8b c7 64 3f d7 f8 65 3f 90 e5 82 3f 21 d7 81 3f
       0.8936698 0.89832824 1.0226307 1.0143777
000080 1b 0c 6b 3f 45 7b 76 3f 70 19 6a 3f 77 fe 67 3f
       0.91815346 0.96281844 0.91445065 0.9062266
000090 5c 6d 89 3f 7f 5a 70 3f 6d 3f 6a 3f aa a5 85 3f
       1.0736499 0.93888086 0.9150303 1.0441182
0000a0 55 3f 6d 3f a3 9c 5f 3f 76 10 62 3f 19 b3 7d 3f
       0.9267476 0.87348384 0.8830637 0.99101406
0000b0 68 73 89 3f 9d 76 71 3f 67 da 72 3f 49 b0 66 3f
       1.0738344 0.94321615 0.94864506 0.9011274
0000c0 66 86 71 3f 0f 0c 76 3f b2 6e 74 3f 08 92 78 3f
       0.943457 0.9611215 0.9548141 0.97097826
0000d0 0b 6c 60 3f d0 05 74 3f bb 24 99 3f 2d 2c 5c 3f
       0.8766486 0.9532137 1.1964334 0.86004907
0000e0 0d 6a 7b 3f 7c 55 7a 3f c1 7d 7a 3f 64 f9 82 3f
       0.98208696 0.9778669 0.97848135 1.0232358
0000f0 2e f7 6f 3f 15 8a 67 3f eb 6c 7f 3f 4f c4 74 3f
       0.9373654 0.9044507 0.9977557 0.95612043

bias f4 [64]
000000 6e ce 53 be ac 34 0c be d8 d5 05 bd 29 2f 56 be
       -0.20684215 -0.13691968 -0.03267464 -0.20916428
000010 e2 ca ff bd 90 a8 a0 bd 01 0c 34 be cd 61 06 be
       -0.12489869 -0.07844651 -0.17582704 -0.13123246
000020 b0 9a 8c be 19 81 4b be 29 ae 42 be c6 af 58 be
       -0.27461767 -0.19873466 -0.1901175 -0.21160802
000030 00 95 e4 bd e6 d2 b0 bd 53 bc 3b be 29 3f 4d be
       -0.11161232 -0.08633976 -0.18333559 -0.20043625
000040 f8 cd b8 bd ca d6 09 be 32 6d 0b be 3c 69 ef bd
       -0.090236604 -0.13460842 -0.13615873 -0.11689994
000050 24 8e 31 be a5 ea e2 bd 18 39 47 be 89 df 72 be
       -0.17339379 -0.11079911 -0.19455373 -0.23718084
000060 f2 c3 1f be dc b2 53 be a5 34 50 be d6 86 14 be
       -0.15602091 -0.20673698 -0.20332582 -0.14504561
000070 f4 e5 1f be 32 a0 0c be c4 14 61 be f6 cf 17 be
       -0.15615064 -0.13732985 -0.21980578 -0.14825425
000080 ac a3 6d be 57 70 05 be c7 38 53 be d6 76 38 be
       -0.23206967 -0.13031135 -0.20627128 -0.18014082
000090 41 56 79 be f4 33 55 be d0 71 48 be 19 c9 4d be
       -0.2434931 -0.208206 -0.19574666 -0.20096244
0000a0 73 03 18 be ba 20 2e be a1 0a fe bd b4 dd 1e be
       -0.14845066 -0.17004672 -0.12404371 -0.1551426
0000b0 8c 20 04 be 5c 65 18 be 61 6e 1a be 3a 5d 68 be
       -0.1290304 -0.14882416 -0.15081169 -0.22691813
0000c0 23 cf 47 bd ab d4 14 be 36 ab 19 be 0d 42 4a be
       -0.048781525 -0.14534251 -0.15006718 -0.19751759
0000d0 78 99 6a bd b8 05 46 be 1f 32 26 be 8c 18 59 be
       -0.057275265 -0.19338119 -0.16230057 -0.2120077
0000e0 ec 6b 47 be c6 e6 39 be 77 4f 9b bd d1 66 3c be
       -0.19474763 -0.1815444 -0.07583516 -0.18398596
0000f0 f0 f9 3b be 64 2e fa bd 3f eb 2a be 87 23 d8 bd
       -0.18357062 -0.122158796 -0.16691302 -0.10553651

running_mean f4 [64]
000000 ba eb ad bc 58 f9 bb bc 96 45 cc 3d 6c 64 ad bd
       -0.021230567 -0.022946045 0.0997421 -0.084664196
000010 a6 dc f9 bc 1d ce c4 3d b2 a2 c1 3d a0 f3 84 3c
       -0.030500721 0.096096255 0.0945486 0.01622945
000020 03 1e b4 3c 36 f7 fc bc cf 53 5c 3d 46 79 9a bd
       0.021986967 -0.030879598 0.053790864 -0.07542662
000030 f5 fe dd 3d 94 a9 d0 3d 34 16 75 bd 29 1e c4 3d
       0.10839645 0.101885945 -0.059835628 0.09576065
000040 5c ed f6 ba 0e 3b b0 3b 68 cf 19 3d 4d 66 a7 bc
       -0.0018839049 0.0053781336 0.037551314 -0.020434523
000050 0d 9e e0 3d 2a 86 90 3c 91 6e 44 3c e4 48 6d bd
       0.10967646 0.0176421 0.011989252 -0.057930842
000060 d2 dc 98 3d a0 ba a8 3d 62 da b4 3d a0 d9 0e bd
       0.07463993 0.08238721 0.08830716 -0.034875512
000070 b4 54 4b bc 6d 4a 22 3d 61 88 94 3d 48 73 fc 3a
       -0.0124103315 0.03962176 0.07252575 0.0019260431
000080 e2 94 39 3d 30 a0 cb bd 6a 38 2d 3d 84 37 68 bd
       0.045308 -0.09942663 0.04229013 -0.05669357
000090 16 87 6b 3b fa 67 6a bd f3 b2 cc 3d a3 11 11 3e
       0.0035938672 -0.057228066 0.09995069 0.14166884
0000a0 2a ea 5f bd 24 e7 28 bd ec 2b 80 3d 6c 55 2f 3d
       -0.054666676 -0.041236058 0.062583774 0.042806074
0000b0 ee 10 84 bd 7d 2f 90 3b c8 9a 63 3d 3e 81 31 3d
       -0.064485416 0.0044001923 0.055567533 0.043336146
0000c0 b8 98 35 bd b6 5e 7d bd 7f dd 1b 3d ae cf 75 3c
       -0.044335097 -0.0618579 0.038053032 0.015003128
0000d0 2d 1f a3 bc 0f 46 ae 3d ec 03 61 bc c8 f6 11 bd
       -0.019912327 0.08509456 -0.013733845 -0.03563574
0000e0 e3 c7 08 bd ef 36 5e bc 9d 32 d2 bb 08 c1 90 bd
       -0.03339375 -0.013562902 -0.006414725 -0.07068068
0000f0 aa 35 97 3d 3c 67 9d 3d 1c a4 68 bd 9f 37 94 3d
       0.073832825 0.07685706 -0.056797132 0.072371714

running_var f4 [64]
000000 9b 4e 21 3e df 85 16 3e af 41 2a 3e e0 c6 17 3e
       0.15752642 0.14699505 0.16626619 0.14821959
000010 5f a2 19 3e b7 e8 28 3e ff 2f 24 3e 06 d6 39 3e
       0.15003346 0.16495024 0.16033934 0.1814805
000020 70 27 0d 3e e5 b7 3e 3e 88 6d 24 3e 01 be 3c 3e
       0.13784575 0.18624838 0.16057408 0.18431856
000030 7f 68 19 3e fb 0e 2a 3e f7 49 3f 3e 5f 8f 3e 3e
       0.14981268 0.16607277 0.18680559 0.18609379
000040 78 af 3e 3e 0d d9 16 3e b6 63 27 3e 37 d8 2e 3e
       0.18621624 0.14731236 0.1634663 0.17074667
000050 ec f3 2a 3e b4 a4 1d 3e 03 3d 18 3e 5f 7d 13 3e
       0.16694611 0.1539486 0.14867024 0.14403294
000060 ad ae 25 3e de 40 38 3e 23 fe 38 3e aa ab 16 3e
       0.16179915 0.17993495 0.18065695 0.14713922
000070 ef be 18 3e 2f 7c 1e 3e 36 80 25 3e cd ba 17 3e
       0.14916585 0.1547706 0.1616219 0.14817353
000080 6b 6c 1b 3e 9c e0 23 3e e8 b8 12 3e c1 4d 17 3e
       0.15178077 0.1600365 0.14328349 0.14775755
000090 7b 0e 34 3e a3 86 10 3e e0 a9 21 3e cd 39 27 3e
       0.17583649 0.1411386 0.15787458 0.16330643
0000a0 51 82 0d 3e d1 8a 19 3e 4d de 10 3e c6 b8 18 3e
       0.13819243 0.1499436 0.14147301 0.14914235
0000b0 3c 26 21 3e 36 78 23 3e d9 df 2d 3e 96 d6 0c 3e
       0.15737242 0.15963826 0.16979922 0.13753733
0000c0 41 58 2d 3e a6 fb 35 3e eb cf 28 3e 1f 68 2b 3e
       0.16928197 0.17771778 0.16485564 0.16738938
0000d0 95 01 1d 3e 40 1f 0a 3e 0c 08 42 3e 83 bb 11 3e
       0.15332635 0.13488483 0.18948382 0.14231686
0000e0 96 1d 1e 3e fe 4c 2e 3e f3 3e 19 3e 30 40 1e 3e
       0.15440974 0.17021558 0.1496542 0.15454173
0000f0 12 6b 0e 3e 22 83 14 3e 7f 30 24 3e d2 69 24 3e
       0.13908032 0.14503148 0.16034125 0.16055992

weight f4 [64, 64, 3, 3]
000000 f2 15 be 3c 71 c0 a6 bc 35 90 7d bc 7c b2 84 3c
       0.023203824 -0.020355435 -0.015476276 0.01619839
000010 2f 56 8d 3c 83 c6 20 3d 85 e8 99 3c e9 11 b4 bc
       0.01725301 0.039251816 0.018787632 -0.021981196
000020 64 6b 02 bc d5 24 05 3a e2 e9 8b 3c 5c 65 ed 3c
       -0.007960174 0.0005079036 0.017079297 0.028978996
000030 dd c7 11 bd f2 06 1a 3d 29 65 87 3d a3 e5 f9 3c
       -0.035590995 0.03760428 0.06611092 0.030505007
000040 aa 1c ea 3c 8c c8 80 bc 41 d7 2c 3d c8 56 45 3d
       0.028578121 -0.015720628 0.04219747 0.048178464
000050 4c 67 9a 3b b7 39 e6 bb 15 d3 f3 bc 38 d1 de 3c
       0.004712021 -0.007025923 -0.029763738 0.027199373
000060 7e 21 81 3d 29 f1 e3 bc e8 47 b1 3d 74 09 11 bd
       0.06305216 -0.027824955 0.08656293 -0.035409406
000070 e0 61 c8 3c a8 40 3b bc 9d d6 c1 3c ee 10 5a 3d
       0.024460733 -0.0114289895 0.023661906 0.0532388
000080 64 25 4b 3d db b3 77 3d 08 5c a3 bc 85 3f cb 3c
       0.049596205 0.060474258 -0.019941345 0.024810562
000090 81 f8 c4 bc b7 4e 25 3d af 9b 50 bd 2d be 19 3d
       -0.024044277 0.04035827 -0.05092972 0.03753488
0000a0 6e d1 ad bb 59 fd 49 3d a8 fc a4 3d 28 2c 45 bb
       -0.005304507 0.049313877 0.08056003 -0.0030086134
0000b0 33 54 3d 3d 9a 36 05 3d 85 b9 e4 3c ed 0e c6 bb
       0.046222877 0.032522775 0.027920494 -0.0060442598
0000c0 33 f3 92 3b 76 20 9b 3c 1f c5 8b bc bf cc 0d 3d
       0.004484558 0.018936377 -0.017061768 0.03461909
0000d0 11 56 3a 3c 69 62 ab 3d 50 57 8f 3c 0b b5 a7 3c
       0.011373059 0.083683796 0.017497689 0.02047207
0000e0 1c 69 18 3a 10 1e dd bc 9d d8 1a 3c 63 5a 8c 3d
       0.00058140024 -0.026991874 0.009451059 0.068531774
0000f0 8c b1 e0 3d 1b b6 8f 3d cd a5 c8 3c 43 7e 2f 3c
       0.109713644 0.07017156 0.024493122 0.0107112555
000100 33 6e ae bc 34 76 30 bd dd be 17 3c e0 a7 02 3d
       -0.021292781 -0.043081477 0.009261814 0.03189838
000110 a1 c4 34 3d a6 fc 13 3d de 66 a5 3d fe 1a 67 3c
       0.044132832 0.036129616 0.08076261 0.0141055565
000120 04 c6 18 3d 8a de e6 3c 2c 5c 07 3d b1 21 10 bc
       0.037298217 0.028182287 0.033046886 -0.008797095
000130 82 9f e5 bc 6c 78 91 3d 6d 1d 8c 3b 78 32 7a 3c
       -0.02803016 0.07103047 0.0042759688 0.015270822
000140 f9 30 2d 3d a0 d4 02 bd 0f ef 13 bc d7 39 32 3d
       0.042283032 -0.031941056 -0.009029164 0.04351219
000150 16 44 d9 3b 77 f7 3b 3d 71 82 93 3d 01 31 60 3d
       0.006630431 0.045890298 0.07202614 0.054734234
000160 37 ee f0 3c f5 a0 05 3d 94 6c 31 3b ff b8 33 bd
       0.029410465 0.032624204 0.0027072774 -0.043877598
000170 d7 e1 06 3c f2 12 82 3d e9 af 53 3d e1 d9 0f 3c
       0.008232555 0.0635127 0.051681433 0.008779974
000180 51 67 75 3c 46 2d 31 3d 19 3d 4d bd 01 13 a0 bc
       0.014978246 0.043256067 -0.050107095 -0.019540312
000190 af d0 95 3c 79 2d 14 3d d5 94 3d bc 59 d0 49 bd
       0.018287985 0.03617618 -0.011571129 -0.04927096
0001a0 9e fb 60 3d fb f9 3c bd 09 8b 26 3d 7c 0e e4 3b
       0.05492746 -0.046136837 0.040659938 0.0069597345
0001b0 a8 2b b3 bc 13 20 0b bd df ed b5 bc a6 43 4f bd
       -0.021871403 -0.033966135 -0.022208152 -0.050601624
0001c0 f0 60 23 bd d5 f6 d0 3c cc b3 c4 3d 1b 67 a7 3d
       -0.03988737 0.025508324 0.09604606 0.08173963
0001d0 f0 81 60 3d 91 ca 9a 3d 02 f1 ff 3c f6 e8 85 bd
       0.054811418 0.07558168 0.031242851 -0.065385744
0001e0 c3 9d 06 3d 25 7e a3 3b 67 d6 77 3d 1b 46 0f 3e
       0.032865297 0.004989403 0.060507204 0.13991587
0001f0 79 fb 23 3d cd 17 9f bd e6 5c 6b 3d 09 36 9d 3c
       0.040034745 -0.077682115 0.05746164 0.019190805
000200 77 cf 05 bd 1a a4 29 3e 45 8f b9 3d 30 29 75 3c
       -0.032668557 0.16566506 0.090605296 0.014963433
000210 c6 59 cd 3d 33 1d 28 3b da 82 19 b9 35 42 54 3c
       0.100268885 0.002565217 -0.00014639963 0.012955238
000220 12 c1 84 3c 30 ba 35 bc d9 8f da 3d 77 38 14 3c
       0.016205344 -0.011091754 0.10671968 0.009046665
000230 84 b5 1f bd 61 ad 98 3d 18 b7 2c 3d e4 14 b3 3b
       -0.038991466 0.074549444 0.0421668 0.005465137
000240 a2 80 c9 3c b5 c9 62 38 6c eb 8b bd 7d 15 23 3c
       0.02459747 5.4070453e-05 -0.068320125 0.009953854
000250 bc 51 00 3c 94 64 1c 3d c3 12 84 bc 05 b8 8d 3d
       0.007831987 0.038181856 -0.016122228 0.069198646
000260 60 d7 f7 3d b7 ee 16 bc 90 d6 1d bb 47 0f a1 bb
       0.121016264 -0.0092121875 -0.0024084188 -0.0049151513
000270 15 a8 f8 3c cd 86 72 3d cf 0f 92 3d 1c 27 c6 3d
       0.030353585 0.059210587 0.071319215 0.09675428
000280 6b 22 b1 ba dd 86 d7 bc 39 bd 2c 3d b4 e9 22 3d
       -0.0013514286 -0.026309425 0.042172644 0.039773658
000290 b7 c8 d0 ba 27 21 c4 3d 32 38 db 3c 69 55 11 3d
       -0.0015928958 0.09576636 0.026760194 0.035481844
0002a0 a4 9b 1f bd 84 b1 76 bd f4 dc 3a 3d 14 0d 44 3d
       -0.03896679 -0.060227886 0.045620874 0.047864035
0002b0 e4 3a 72 39 22 45 58 bd 15 dd 44 bd ca e2 02 3c
       0.00023100857 -0.052800305 -0.048062403 0.007988641
0002c0 21 7d 0a 3d 15 d6 29 3e bb da 67 3d 05 bd b9 bd
       0.03381074 0.16585572 0.056605082 -0.09069256
0002d0 5c 56 ac 3c ca 9b 79 3d 93 16 0c bc 3a 0e ed 3d
       0.021037273 0.060939588 -0.008550304 0.11574979
0002e0 3b b8 89 3d 2a aa 42 bc 5c af 10 3e c6 02 2f bc
       0.06724592 -0.011881391 0.14129394 -0.010681814
0002f0 b6 63 d0 bb d6 50 63 bd e3 7a a6 bb 5e f3 eb bb
       -0.0063595427 -0.055497013 -0.005080567 -0.0072006425
000300 1c 68 6e 3c 58 3c 66 3d 1f 90 a9 3c 7c d8 44 3d
       0.014551189 0.056209892 0.020698605 0.048058018
000310 a5 11 1b bc 7a 62 6b 3d df be 8f 3c 7f 1e f4 3b
       -0.009464656 0.05746696 0.01754707 0.0074499245
000320 4b fd 0d bd 28 25 1c 3e a2 12 9d 3c 73 5e d3 bc
       -0.034665387 0.15248549 0.019173924 -0.025801873
000330 45 e3 ab 3d d6 38 31 bd 6a 51 55 bd d3 9b 02 3c
       0.083929576 -0.043267094 -0.052079596 0.007971722
000340 20 70 be 3c ee 09 41 3d 39 76 79 bd 88 97 ba bc
       0.023246825 0.04712861 -0.06090376 -0.022777334
000350 45 b4 68 3c e7 a8 88 bd 8d cb 06 3d 06 c9 09 bd
       0.014203136 -0.066728406 0.032908965 -0.033638977
000360 e4 a3 dd bd a5 e6 0f bd 16 55 1d 3d a2 44 14 bc
       -0.10822275 -0.03513207 0.038411222 -0.009049566
000370 39 06 a3 3b dc a4 4b 3c 53 3b 84 bd df d4 09 3c
       0.004975107 0.012429442 -0.06456628 0.008412569
000380 bb ab b2 bc 28 81 81 bc 14 ae 1a bd 59 09 da bc
       -0.021810403 -0.015808657 -0.03776367 -0.026615785
000390 aa 63 04 3d d3 db 8a 3c f5 77 a8 3d 7e d4 78 3d
       0.03232161 0.016950523 0.08226005 0.060749523
0003a0 0a 24 85 3d 3d 75 9f 3d d8 ce 85 3d 5f 41 14 3d
       0.065010145 0.07786033 0.06533593 0.036195155
0003b0 95 db e1 3b f4 d5 d4 3d 15 56 27 3c b8 47 f8 3c
       0.0068926313 0.10392371 0.010213395 0.030307636
0003c0 e7 18 1e 3e d9 c8 a7 3d e3 61 df ba 22 ba ad bc
       0.15439187 0.081926055 -0.0017042722 -0.02120692
0003d0 b9 6d 4b 3d d8 1f 04 bb a7 8d b7 3c 93 42 44 bc
       0.049665187 -0.0020160582 0.022406412 -0.011978763
0003e0 7a d4 dd bc ae 31 6b bd 1f 58 02 bc 52 82 f9 3c
       -0.027078856 -0.057420425 -0.00795558 0.03045765
0003f0 0a 1d 1c bd 19 ec 1c bd ee a9 ec 3b f8 c3 43 3d
       -0.03811363 -0.038311098 0.0072224056 0.047794312

bias f4 [64]
000000 7b 83 70 3c 6a f9 a8 3b 59 35 27 bc 7d 5a cb 3c
       0.014679785 0.0051566856 -0.01020559 0.024823422
000010 25 93 bd bb 58 e2 cc 3c f4 ae 3a bd 12 52 1f bd
       -0.0057853633 0.025010273 -0.045577005 -0.038896628
000020 f1 7b c9 3b 8d cb 88 3c b6 6a 7b 3b d1 55 1d bd
       0.006148808 0.016698623 0.0038363165 -0.03841192
000030 d2 a1 4c 3d b1 51 6b bc 79 80 5f 3c 0d dd 2b bd
       0.04995901 -0.0143627385 0.01364147 -0.041958857
000040 44 f1 1f 3d 9f d4 23 b9 b4 ef 1e bd 1f d4 fe 3b
       0.03904845 -0.00015624099 -0.038802817 0.0077767516
000050 a3 87 8b 3b 07 f5 b5 3c 01 8e 26 3b 8b 12 4f 3c
       0.0042581125 0.022211565 0.002541423 0.012638698
000060 d7 f8 8c bc 13 ce bd bd b7 4e 00 bd dc 8a 8d b9
       -0.0172085 -0.09267821 -0.03132507 -0.00026997074
000070 8d 5c 6a bc 5e f4 c5 3a ea e7 f4 bc 26 c6 8e bc
       -0.014304292 0.0015102734 -0.029895741 -0.017428469
000080 3c 2a e1 bc 63 39 bd bc 21 9b 5d bd 06 b6 bb 3c
       -0.02748596 -0.023098653 -0.05410302 0.022913944
000090 72 68 9d 3b 29 1c 2f 3d 3c 4e 1c 3d 49 61 12 3c
       0.0048037106 0.042751465 0.038160548 0.008934327
0000a0 9f 40 5a bd a1 cc 8a bd eb b1 83 bc 07 68 04 bb
       -0.053284284 -0.06777311 -0.016076049 -0.0020203607
0000b0 c8 5c 6c bd c5 7e 5e bd e6 50 77 3c da f9 7c bd
       -0.05770567 -0.054320116 0.015094971 -0.061761715
0000c0 9a 00 a5 bc c5 a1 87 3c 77 3e 96 b9 df 49 97 bd
       -0.020141888 0.01655663 -0.0002865677 -0.07387137
0000d0 27 07 84 bd 55 7f 49 bc 3d 2f bf 3b 43 5a 48 bd
       -0.06446677 -0.012298425 0.0058344887 -0.048914205
0000e0 65 12 0f 3d 22 7f 9c 3c b5 33 8f 3d 64 f5 56 bc
       0.03492965 0.01910359 0.06992284 -0.013120029
0000f0 d9 c2 f6 3c 7d 4b 09 3d 63 4f fe bb ae c5 a7 3c
       0.030122207 0.033519257 -0.0077609285 0.020480003

weight f4 [64]
000000 6e a9 9d 3f d1 5b 9d 3f 03 f0 9c 3f d6 a6 9a 3f
       1.2317331 1.2293645 1.2260746 1.2082164
000010 63 9c a0 3f 0e 05 a0 3f 97 42 ae 3f cb c5 af 3f
       1.2547725 1.2501543 1.3614072 1.3732237
000020 03 ec a6 3f 32 73 a2 3f 0e 52 b3 3f 53 7d c6 3f
       1.3040775 1.2691405 1.4009416 1.5506996
000030 9f 8a 9f 3f 90 4b a2 3f bd 11 95 3f c7 cd ba 3f
       1.2464179 1.267931 1.1646038 1.4594048
000040 5b 67 a2 3f d8 9b 97 3f 62 c7 a2 3f d1 f6 9d 3f
       1.2687792 1.1844435 1.2717097 1.2340947
000050 d1 08 a7 3f 1e 57 a5 3f ba 8e ac 3f 2a e3 9b 3f
       1.3049566 1.2917211 1.3481057 1.21787
000060 85 24 a7 3f 3f 99 b0 3f f4 e0 a6 3f ea c1 a8 3f
       1.305802 1.3796767 1.30374 1.3184178
000070 4d 51 a7 3f d9 b4 a4 3f 21 3b a8 3f 7a 61 9c 3f
       1.3071686 1.286769 1.3143045 1.2217247
000080 86 5c aa 3f d2 2c b2 3f 87 74 ac 3f 05 cc a2 3f
       1.3309486 1.3919928 1.3473061 1.2718512
000090 e9 e9 a6 3f c2 bc 99 3f 9f d9 97 3f cc bd 9d 3f
       1.3040134 1.2010729 1.1863288 1.2323546
0000a0 97 a6 af 3f ca 7a ad 3f 51 54 a8 3f 99 9c 9a 3f
       1.3722714 1.3553097 1.3150731 1.207904
0000b0 9e 16 a8 3f 80 2e b9 3f 65 eb 9c 3f d5 6d a8 3f
       1.3131902 1.4467316 1.2259337 1.3158518
0000c0 ff 93 9a 3f 7a ff 95 3f f0 5a a6 3f 5c 4b a3 3f
       1.2076415 1.171859 1.2996502 1.2757373
0000d0 0d 5f b4 3f 7a 0d 9b 3f cd e0 a1 3f c2 dc a2 3f
       1.4091507 1.2113488 1.2646729 1.272362
0000e0 40 c9 9e 3f 87 59 97 3f bc 2b a8 3f 2f 2f a1 3f
       1.2405167 1.1824197 1.3138347 1.2592524
0000f0 58 3c 99 3f fc 25 b2 3f b7 ef 9f 3f bf f4 92 3f
       1.197154 1.3917842 1.249503 1.148094

bias f4 [64]
000000 1c fd 96 3d a2 1f a1 3d 09 d5 d7 3d c8 a7 dc 3d
       0.073724955 0.078673616 0.1053868 0.10774189
000010 e7 f9 e4 3d 5f 36 0b 3d b6 15 f3 3d 53 7e d2 3d
       0.111804776 0.0339874 0.118693754 0.10278001
000020 70 ab 09 3e c4 65 48 3d 5d 71 fd 3d 5d 9a 08 3e
       0.13444304 0.048925176 0.12375138 0.13340135
000030 ee 41 e7 3d f3 64 a2 3d bd 40 88 3d 09 da b9 3d
       0.11291872 0.07929411 0.06652973 0.0907479
000040 b5 1e 9c 3d a6 ed 72 3d 85 67 07 3e e1 a2 d2 3d
       0.076230444 0.05930867 0.13223083 0.10284973
000050 32 79 5f 3d 69 e9 d7 3d 9b 25 1a 3e 1b 2c eb bc
       0.05455894 0.10542566 0.15053408 -0.028707555
000060 0d f3 ca 3d 99 30 90 3d e3 fb ce 3d 9c 72 05 3e
       0.099096395 0.07040519 0.10106637 0.13032001
000070 73 c6 f3 3d b7 28 9c 3d e4 ea 6f 3d bc c4 ac 3d
       0.119030856 0.07624953 0.05857362 0.084359616
000080 2d 3a 5c 3d 5a 4f 8b 3c 0d f0 c7 3c d8 54 10 3e
       0.05376642 0.017005611 0.024406457 0.14094865
000090 39 ff cf 3d 50 58 75 3d 7b 54 65 3d 92 59 a4 3d
       0.10156102 0.059898674 0.05598877 0.08024897
0000a0 39 ca 97 3d d8 4a cb 3d 80 8b c9 bb ba c7 09 3e
       0.07411618 0.09926385 -0.006150663 0.13455096
0000b0 0b d8 cc 3d 10 ed b6 3d c6 12 e7 3d 0a f0 b2 3d
       0.100021444 0.08931935 0.112828776 0.0873719
0000c0 d5 9b af 3d c1 dc 5a 3d de 73 db 3d 75 d5 01 3e
       0.085746445 0.053433184 0.10715459 0.12679084
0000d0 fa df 8b bc 13 38 11 3d 9f b9 f3 3d 05 50 ab 3d
       -0.017074574 0.035453867 0.11900639 0.08364872
0000e0 84 16 c3 3d 78 46 ee 3d 7e 09 ac 3d 4e b5 aa 3d
       0.09525779 0.116345346 0.08400248 0.083353624
0000f0 f5 f0 bf 3d cf bf ce 3d 23 e4 89 3d d5 8f 98 3d
       0.09372131 0.10095178 0.06732967 0.07449309

running_mean f4 [64]
000000 a6 5c f3 3f 52 43 3b 3f 53 ae f4 3f 20 e1 8e 3f
       1.9012649 0.731496 1.91157 1.1162453
000010 26 b6 be 3e 1f 4c ad 3e da 32 3d bd d2 28 06 c0
       0.37248343 0.33847138 -0.046191074 -2.0962415
000020 8b 52 4a 3f 33 b6 e7 3d dd 49 3f 3e e9 2b 0e 3d
       0.790322 0.113140486 0.1868052 0.034709845
000030 93 6d f5 3f 23 c0 0c bd 67 da a9 3e 37 40 cd bf
       1.9174064 -0.034362923 0.3317444 -1.6035222
000040 26 53 58 3f 96 bf 35 be a7 83 4b 3f f4 ce 96 3f
       0.84501874 -0.17748865 0.7949776 1.1781907
000050 5b 2f 8b bf 4d f4 21 3c 6f da 30 3f 70 f3 94 be
       -1.0873827 0.009884906 0.69083303 -0.29091978
000060 18 e4 cd bd 13 4a 24 c0 fd a1 ac bf 62 12 1b 40
       -0.10053271 -2.5670211 -1.3486935 2.422997
000070 27 4c 47 c0 90 e5 73 be 95 fd 2f c0 65 43 53 3e
       -3.114023 -0.2381804 -2.7498524 0.20631178
000080 1c fe 16 be 6d d7 01 c0 28 19 29 c0 09 30 cb 3f
       -0.14745373 -2.0287735 -2.6421604 1.5874034
000090 88 78 35 3f b4 1d 97 3e f6 aa 90 be 89 8c 15 3e
       0.7088704 0.2951485 -0.28255433 0.14604391
0000a0 2e 13 0d c0 3d 63 bf bf a0 3c ef bf d3 2f 96 3f
       -2.2042956 -1.495216 -1.8690376 1.1733345
0000b0 c4 cb f8 bf 02 86 d0 bf de 0c 0f 40 88 0d 35 bf
       -1.9437184 -1.6290896 2.2351604 -0.7072377
0000c0 20 de ed bf 5b 9a 64 3d c8 43 d7 3f 81 a4 03 bf
       -1.8583412 0.055811267 1.681756 -0.5142289
0000d0 1c 0f 26 c0 17 1c ab bf f9 1e d3 3f 80 52 1d c0
       -2.5946722 -1.3367947 1.6493827 -2.4581604
0000e0 92 24 91 3f 0f 96 c1 3f a1 d9 af 3f ee 72 eb 3d
       1.1339285 1.5123919 1.373829 0.114965305
0000f0 55 e2 8c 3f 98 75 ca 3e 85 e4 25 3f 96 72 56 3f
       1.1006571 0.39542842 0.6480182 0.83768594

running_var f4 [64]
000000 4b ff 0f 40 99 c7 93 3f b9 db 13 40 43 d1 15 40
       2.2499568 1.1545287 2.3102858 2.3408973
000010 22 c2 ff 3f f7 f5 dc 3f ca b8 9e 3f cc 54 1e 40
       1.998112 1.7262563 1.2400143 2.4739256
000020 ff d9 c0 3f 86 21 a4 3f 60 08 f8 3f a9 b5 75 3f
       1.5066527 1.282273 1.9377556 0.95980316
000030 de 2f e7 3f 2b 44 06 40 54 a7 94 3f 3e 06 f6 3f
       1.8061483 2.0979106 1.1613564 1.9220655
000040 15 7e c7 3f db 81 b8 3f 30 df e9 3f f2 16 c9 3f
       1.5585352 1.4414629 1.8271236 1.5710127
000050 23 66 ff 3f 69 2b a1 3f d0 6e aa 3f 1a 9a db 3f
       1.9953045 1.2591373 1.3315067 1.7156403
000060 1d ef fb 3f 9d d6 0a 40 fa 18 f0 3f 16 9e 22 40
       1.9682347 2.169349 1.8757622 2.5408988
000070 b6 6a 11 40 6b a4 d9 3f 2e d4 08 40 21 0e b6 3f
       2.272138 1.7003301 2.1379504 1.4223062
000080 6a dd d2 3f 5e 29 f6 3f a9 a0 21 40 53 a3 e5 3f
       1.647382 1.9231374 2.525431 1.7940468
000090 cb 77 b4 3f 44 36 d9 3f 1c de a2 3f 8b f6 00 40
       1.4099058 1.6969686 1.2724032 2.0150478
0000a0 a9 4a c1 3f 38 bc c3 3f d9 86 f9 3f 73 3b f0 3f
       1.510091 1.5291815 1.9494277 1.8768142
0000b0 e8 d3 bd 3f 09 5a f0 3f ee 0b 0b 40 c5 3d dc 3f
       1.4830294 1.8777477 2.1726031 1.720635
0000c0 78 a1 9b 3f 2e af a8 3f 71 3f 25 40 66 7b d3 3f
       1.2158651 1.3178461 2.5819972 1.6522033
0000d0 da e1 28 40 7b c6 ec 3f 12 f1 13 40 be df cf 3f
       2.638785 1.8498071 2.3115888 1.6240156
0000e0 7a e9 9e 3f aa cf 15 40 d1 09 be 3f 11 41 b4 3f
       1.2415001 2.3407998 1.4846746 1.4082357
0000f0 7f 24 ba 3f 3c 66 cb 3f 0d 7a cc 3f 80 74 c5 3f
       1.4542388 1.5890574 1.5974747 1.5426178

weight f4 [11, 64, 3, 3]
000000 ea 3f 42 3d ea 3e b2 3c 00 4f 25 bb 48 8e a1 bd
       0.047424234 0.021758515 -0.002522409 -0.07888466
000010 7e 56 62 3c dc 46 26 3d 90 89 2e be 74 33 0c 3d
       0.013814567 0.04059492 -0.17044663 0.034228757
000020 85 6d 35 bc 58 0e 5d 3d cc b5 81 3c 98 10 05 3d
       -0.011073475 0.053968757 0.015833758 0.03248653
000030 f8 f8 62 bc 69 81 35 bb bf 43 01 3c 94 19 2c 3e
       -0.013853304 -0.0027695543 0.007889687 0.16806632
000040 22 0a be 3d 14 87 db 3d 07 24 80 bc b2 68 ff bc
       0.092792764 0.107191235 -0.01564218 -0.031177852
000050 71 84 ff bc 6f d9 85 be 6c 74 71 be 4c 72 d1 bd
       -0.031191083 -0.2614245 -0.23579568 -0.102268785
000060 8b 53 31 be 59 a6 98 bd 2e 19 e9 bc 1a 39 09 bd
       -0.17317025 -0.07453603 -0.02845439 -0.033501722
000070 36 8b 53 bc 54 78 34 3d ff e1 98 bd 36 ae c9 bd
       -0.012911608 0.044060066 -0.0746498 -0.09847681
000080 6e 4b a1 3c 86 85 10 be c5 fa aa bd c9 ff 37 3d
       0.019689288 -0.14113435 -0.08348612 0.04492167
000090 ad a0 23 bd fd 9f 25 be 06 e3 31 bd 0c 42 28 bd
       -0.039948154 -0.16174312 -0.043429397 -0.041078612
0000a0 ec f1 b0 bd 35 a3 c9 bc 0a f3 d8 bd d5 81 ad bd
       -0.08639893 -0.024613956 -0.10593231 -0.08472029
0000b0 bd 44 41 bc 50 26 18 3e 9b a4 8e 3d 28 2b 15 3e
       -0.011796174 0.14858365 0.0696499 0.14567244
0000c0 5d 5d b1 3d 6f e9 7a 3d 51 f8 8d 3d 73 48 0d 3e
       0.08660386 0.061257776 0.06932128 0.13797168
0000d0 66 9d 21 bd 0a b5 83 3c 44 a2 d5 bd 55 c6 5b bd
       -0.039456747 0.016077537 -0.1043134 -0.05365594
0000e0 2c 01 ce 3c 70 98 03 3e 93 32 90 bd 00 2f 8a bc
       0.025147043 0.12851119 -0.07040896 -0.016868114
0000f0 36 4f f9 3c 9d dc f0 3d 2b 1d a3 3d f2 04 51 be
       0.030433279 0.11760829 0.07964548 -0.20412043
000100 c9 aa c1 3d a9 0d cd 3d 3d 38 56 be d7 ec 10 3d
       0.09456403 0.10012371 -0.2091989 0.035382118
000110 bc d8 70 bc 39 4e 1d be 33 25 10 bd 83 e8 c3 bd
       -0.014700111 -0.15361871 -0.035191726 -0.095658325
000120 8e 8a a0 3d 12 32 37 3c 9f 3c 89 3d 1f ec c3 3d
       0.07838927 0.011181371 0.06701016 0.09566521
000130 6f fa 96 3d 82 d8 1f bc c7 98 95 bd aa c3 de ba
       0.07371985 -0.009756209 -0.073045306 -0.0016995568
000140 ec a4 28 be 2e f0 7b 3d 6c 19 c0 3d f7 1f f9 3d
       -0.16469163 0.06150835 0.09379849 0.121643
000150 7e f9 07 bd c4 62 1d 3d 35 94 a6 3a c0 92 8e 3d
       -0.03319692 0.03842427 0.0012708964 0.06961584
000160 e9 a7 15 3d 0d 2c 00 be ee 5b e5 bd 99 1a e5 bc
       0.036537085 -0.12516804 -0.11199175 -0.027966784
000170 21 c1 40 be f9 78 00 3e 80 16 00 bd 77 a7 15 bd
       -0.18823673 0.12546147 -0.031271458 -0.03653666
000180 6c 16 11 bc 7a 9e 14 be 05 2a c3 bc 22 aa f8 bc
       -0.008855443 -0.14513579 -0.023823747 -0.030354563
000190 dc a7 5c bd 1b 37 c2 bd ae 82 37 3e d1 71 9f bb
       -0.05387102 -0.09483167 0.17920944 -0.004865863
0001a0 66 2d 35 be de b6 7e 3d 29 3b 37 3d 37 1c 6c 3d
       -0.176931 0.062186114 0.044734154 0.057644095
0001b0 a1 9b c4 3c 1d 5a 36 bc 8a 1d c0 bd 48 a8 c7 bd
       0.02399999 -0.011129883 -0.09380634 -0.09748894
0001c0 f5 90 77 bd 46 46 16 bd 6c 79 c8 bd 56 a0 13 bd
       -0.060440976 -0.03668811 -0.097887844 -0.03604158
0001d0 32 6d b2 3c 35 f1 1e bd 2f 47 e8 bd ae ba bb bd
       0.021780584 -0.03880425 -0.11341702 -0.09166466
0001e0 ea f1 d2 bd 80 18 a4 bd 80 1b 38 3d 4f bb ce bd
       -0.10300048 -0.080124855 0.0449481 -0.1009432
0001f0 25 53 14 bd 0c 45 3a 3c c0 4a 81 3d 00 79 33 3b
       -0.036212105 0.011369001 0.063130856 0.0027385354
000200 a1 b5 7d bd b6 f0 d3 3b 1f c1 e6 3b ff 66 53 bd
       -0.061940793 0.006467904 0.007042065 -0.051611897
000210 80 33 ed bc e1 2f cd bb 12 70 c0 3c 60 f8 33 3c
       -0.028955221 -0.006261811 0.02349094 0.01098451
000220 57 50 f3 3c f8 06 2f bd 2b 17 8d 3d 1f f5 8e 3d
       0.029701395 -0.042731255 0.068891846 0.06980347
000230 c9 75 50 3d d5 52 e6 3c f1 f7 d3 bd 8a cc 34 bd
       0.05089358 0.02811567 -0.103500254 -0.044140376
000240 a2 78 23 3e a2 76 6b 3d 79 71 ec 3d d4 ad c4 3d
       0.15963987 0.057486184 0.11545081 0.096034676
000250 cc 55 a9 3d c9 eb 1c 3d a5 9c 60 bd 34 91 99 3d
       0.082683176 0.0383108 -0.054836888 0.074983984
000260 29 86 1c be 1f b6 53 3d 37 5c 99 3d 35 58 0e be
       -0.15285553 0.051687356 0.07488292 -0.13900836
000270 b0 16 31 bd 00 2e 7d bd 27 39 aa bd 93 6b 38 be
       -0.043234527 -0.061811447 -0.08311682 -0.18009786
000280 8e bf 80 ba fb df 2c 3d 31 bd 00 3c 76 5b 8f 3b
       -0.0009822713 0.042205792 0.007857607 0.0043749167
000290 c2 4d a0 3d 07 43 08 3e d1 bd 86 bc 2b f0 b5 3c
       0.07827331 0.13306819 -0.016447933 0.022209248
0002a0 68 87 14 be f1 ad 80 3c ac 49 c8 bb a5 f8 d3 bb
       -0.14504778 0.015707942 -0.006112298 -0.0064688497
0002b0 bc 3c c4 3c ab ed 5a bc c9 60 34 3d f5 f6 f4 3d
       0.023954742 -0.0133623285 0.044037614 0.11961166
0002c0 71 1a 92 3d 54 a5 d8 3c 4a d2 81 3d f3 8a d6 bc
       0.071339495 0.026446022 0.063389376 -0.026189303
0002d0 0e 78 30 3d d3 ad 9e bd b2 74 18 3d 13 86 55 3d
       0.043083243 -0.07747998 0.037220664 0.052129816
0002e0 97 9d dd bd fd 7d 6e 3d 3d 96 5f 3d a5 6b f4 bc
       -0.108210735 0.05822562 0.054586638 -0.029836485
0002f0 25 cf 92 3c cc 39 14 3d ed 07 8f bd 60 fc 34 be
       0.01792104 0.036187932 -0.069839336 -0.17674398
000300 82 e4 c5 3d bb 63 a7 bc 46 db 4a bd fd 91 d5 3c
       0.09662725 -0.020433297 -0.04952552 0.02607059
000310 5e c0 18 bd 02 62 13 bc 3d 9e c5 3d 4e 98 cd 3d
       -0.03729283 -0.008995535 0.09649322 0.100388154
000320 12 e5 63 3d 5c 32 75 3d 97 d2 d3 3b 98 38 f2 3b
       0.05563838 0.05986248 0.0064643133 0.0073920004
000330 3f 69 6a 3a 23 52 ce 3d 86 84 46 bd d9 af b7 3d
       0.00089420745 0.1007426 -0.048466228 0.08969087
000340 1d 88 d2 3b 25 d5 e1 3d b8 a1 b4 3d d0 61 54 bc
       0.0064249174 0.11026982 0.08819908 -0.012962773
000350 a8 79 3a 3d ea 91 5e 3d 79 63 83 bd d6 27 88 bc
       0.045526177 0.054338373 -0.06415457 -0.016620558
000360 07 3d e2 bd bd a2 89 bd b2 d0 00 be fa 3d d7 bd
       -0.11046796 -0.06720493 -0.12579611 -0.10509868
000370 1e dd 08 be 4a 62 41 bd 3b f9 61 bd 3a 94 f8 bb
       -0.133656 -0.047212876 -0.055169325 -0.0075860294
000380 09 2a 61 bb d4 00 20 bd ca b0 37 bc f9 7f 4d 3d
       -0.003435733 -0.03906329 -0.011211583 0.050170872
000390 41 63 0d be f4 a9 7e bd 5b da 44 bd b1 ec 2c be
       -0.13807394 -0.0621738 -0.048059803 -0.16887166
0003a0 8f 75 f1 bd 88 63 a2 bd 98 b2 21 bd d3 32 1d be
       -0.11790001 -0.0792914 -0.03947696 -0.15351419
0003b0 4b be 7e 3d 29 cb 9b 3d 36 15 42 bd 2a f8 90 bc
       0.062193196 0.07607109 -0.04738351 -0.017696459
0003c0 fb f1 55 3d eb 57 32 bd 81 41 2a bd 91 ad 63 bd
       0.052232724 -0.043540876 -0.041566376 -0.055585448
0003d0 ad 6c 10 be 77 38 02 be db 2d 34 be ea db 11 be
       -0.14103957 -0.12716852 -0.17595617 -0.14244047
0003e0 d7 36 13 be a3 ee 03 be 8a 55 9d 3c 1f 2e 9f bb
       -0.14376388 -0.12884001 0.019205827 -0.004857793
0003f0 8a d2 37 be c8 f1 ee bd ca 15 c8 3c 3a aa 85 3c
       -0.17951408 -0.1166721 0.024424452 0.016316522

bias f4 [11]
000000 62 c7 56 bc 6a df ed bc 1a 1b 99 3d 82 28 fa bc
       -0.01310906 -0.029037196 0.07475872 -0.030536894
000010 89 fa 30 bd 6f 5f 96 bd fa b2 21 bc de e2 4e bd
       -0.04320768 -0.07342421 -0.0098693315 -0.050509326
000020 a2 4c 92 bd 9a 7f 5e bd 10 8d ac 3c
       -0.07143523 -0.05432091 0.021063358

weight f4 [64, 11, 3, 3]
000000 2b 09 a2 ba 8c e2 03 3d a1 e3 33 bd 46 27 ba 3c
       -0.0012362351 0.032198474 -0.043918256 0.022723805
000010 b1 c2 16 bc 09 36 63 3c f6 d9 13 bc 62 84 33 bd
       -0.0092016915 0.013867863 -0.009024134 -0.043827422
000020 f2 2b 81 3b 4c b3 1d be 5c b5 9c bd 01 2b c8 3c
       0.0039420063 -0.15400428 -0.07651779 0.024434568
000030 c5 a5 70 bd 8d 0d 79 bc 8d db 0a 3d 5b 78 8d 3d
       -0.05875184 -0.015200985 0.033900786 0.069077216
000040 8a 37 a5 3a 33 74 bd bc 45 9d 8a bb 50 91 d8 3c
       0.0012605053 -0.023126697 -0.004230174 0.026436478
000050 6c 08 c3 ba fd d0 78 3d 59 52 d7 3c ab ec fb bc
       -0.0014879829 0.06074618 0.026284384 -0.0307525
000060 11 54 9a 3b 2e ab 59 bc a6 25 a5 bc 14 82 0b 3d
       0.0047097285 -0.013285441 -0.020159554 0.0340596
000070 be 7c 94 bc ca b1 83 bd 8c 92 58 3c 99 0e 3d 3b
       -0.018125888 -0.06430395 0.013218533 0.0028847812
000080 7d dc 75 bc a9 df e6 bb e8 eb 8d 3d 15 21 63 3a
       -0.015006182 -0.0070457053 0.06929761 0.00086642924
000090 a7 8a 31 3d 96 5b 44 3c 01 10 8e 3d 33 b4 a4 3c
       0.04334512 0.011984726 0.06936646 0.020105457
0000a0 b0 60 74 bd 26 cf a4 3b 5e ee cb 3d 42 98 c2 3c
       -0.05966252 0.005029577 0.09957574 0.023754243
0000b0 fb 5f c4 3b de 20 ff 3c 5f ce 9e 3c bf 77 93 3c
       0.005992887 0.031143602 0.019385515 0.018001435
0000c0 98 a8 5d 3a 5e 05 58 3c bb d5 e0 bc 77 f1 fe 3b
       0.00084556034 0.013184873 -0.027445665 0.0077802497
0000d0 1c de 32 3d 41 f8 a6 3a a2 93 0c be 0e 22 27 be
       0.04366885 0.001273878 -0.13728192 -0.16321585
0000e0 1c 80 95 3c 44 ed 01 be de 15 b3 bd 6c c6 4e 3d
       0.018249564 -0.12688166 -0.08744405 0.0504822
0000f0 60 f4 a2 bb c6 20 65 3d be a5 f6 3d 8b 26 e7 3c
       -0.0049729794 0.05593946 0.120433316 0.02821662
000100 b9 af 94 bc 63 e4 e7 bb 38 33 ae bb 71 5b 72 bc
       -0.018150197 -0.0070767864 -0.0053161643 -0.014792309
000110 15 86 0b bd 1d 13 1a bb 04 5d 23 3d 3b 9b 80 3a
       -0.034063417 -0.0023509928 0.03988363 0.0009811887
000120 cc 00 f3 bb 03 a5 65 bc 4c 46 8a 3c 9a e0 12 bd
       -0.0074158665 -0.014016393 0.016879223 -0.035858728
000130 74 16 a0 bc 21 15 af 3c 5e 5b 84 3b d1 fb 12 ba
       -0.019541956 0.02137238 0.004039212 -0.00056069816
000140 16 5a 1d bb f1 cb a9 3c 5a da 89 bd c6 df 42 bd
       -0.0024009994 0.02072713 -0.067311004 -0.04757669
000150 e6 49 ac 3d b6 1c 33 bc dc e9 47 3c 16 20 1c 3d
       0.084125325 -0.010932138 0.0122017525 0.038116537
000160 bb 6b 79 3d b2 e8 05 3d 0e 27 b5 bd c2 51 82 bd
       0.060893755 0.03269262 -0.0884534 -0.0636325
000170 62 a6 d4 ba 26 97 3d 3d d7 75 4d 3c b7 17 2c 3d
       -0.0016223902 0.046286725 0.012540302 0.042014804
000180 fb 36 ba 3d 3c d3 ac 3d 44 99 d4 3c 0e bc 03 bc
       0.09092518 0.08438727 0.025951989 -0.008040441
000190 22 1a 33 3d c4 99 4a bd 4d 5c 1b 3d c2 e1 77 bb
       0.043726094 -0.04946305 0.03792982 -0.003782377
0001a0 ad dc 8a bc bf 16 b8 3b 4a cd c7 3c 47 0e 05 3d
       -0.01695093 0.005617946 0.024389882 0.03248432
0001b0 49 bd 53 3e 52 93 19 3d 80 65 f7 bc fb 66 f2 3d
       0.20677675 0.03749401 -0.030199766 0.11836048
0001c0 a5 fa 4e bc cf d3 45 bd c7 54 62 3d 9c d0 2d bd
       -0.0126330005 -0.0482977 0.05525663 -0.042435274
0001d0 d1 23 0c bd 5d cf 2f bd be 34 1e bc 22 fe 5a 3d
       -0.034213845 -0.042922366 -0.009656129 0.053465016
0001e0 08 04 45 3c ab bf a9 3c a9 11 55 3d 87 ec f5 bc
       0.012024887 0.020721277 0.052018795 -0.030020012
0001f0 4a 43 45 3c 91 93 fc 3b 8a f9 0a 3d 0e a4 c5 3c
       0.012039969 0.007708021 0.033929385 0.024126079
000200 1c 6e 2e 3c ed 3f e7 3d 15 07 ad 3c 2d bb 60 3d
       0.010646369 0.1129149 0.021121541 0.054866005
000210 60 0c 39 bc f2 0e 62 bd a2 df e6 ba 83 9d f7 3d
       -0.011294454 -0.055190034 -0.0017614255 0.1209059
000220 a1 ae ef 3d 54 11 2b 3b e2 9e 0b 3d 3d 90 0e 3d
       0.1170323 0.0026102858 0.03408707 0.034805525
000230 f9 b9 43 bd e3 8c 54 3d 3c 6f 21 3d 74 04 d4 3a
       -0.04778478 0.051892173 0.039412722 0.0016175644
000240 28 7b ac bc c7 6e 23 3d c6 56 f7 3c 0b e8 f5 3c
       -0.02105482 0.039900567 0.030192744 0.030017873
000250 0d 29 b6 bc 78 f9 ba 3c c0 20 dd bb 5c 06 10 bd
       -0.022236371 0.022824034 -0.006748289 -0.035162315
000260 96 ec 01 3d e0 0c f6 bc 62 e8 a8 bc 43 f4 f5 bc
       0.031719767 -0.030035436 -0.020618621 -0.0300237
000270 87 99 0d bc a6 c9 51 bc 3d 6f 0f 3d 27 b5 53 3d
       -0.008642561 -0.012804424 0.035018194 0.051686432
000280 a2 73 a1 bb f0 1f 15 3b 99 10 c7 bb ad ec 3c 3c
       -0.0049271146 0.0022754632 -0.0060749766 0.011531037
000290 02 77 08 3c e8 13 a8 3c 04 02 d3 3c 61 e6 d7 b9
       0.008329155 0.020517305 0.025757797 -0.0004117964
0002a0 53 50 35 39 4f 80 c8 3c a5 c2 f2 bc 11 5d 5f 3d
       0.00017291428 0.024475245 -0.02963383 0.054532114
0002b0 08 03 1a 3d e1 ff 1b 3c 9d 12 c8 3c af be d0 bc
       0.037600547 0.0095214555 0.024422938 -0.02548155
0002c0 23 34 1f bd 44 0d 2d 3d f8 df 02 3d 21 98 fc bb
       -0.03886808 0.04224898 0.031951874 -0.007708565
0002d0 c6 fe 8f 3c d6 cf 8e 3b 78 d5 8f bd 59 ee c7 3c
       0.01757754 0.004358272 -0.07023138 0.024405645
0002e0 b3 14 da bc 52 33 4f bd 75 cc 28 bb 20 22 98 bc
       -0.026621198 -0.050586052 -0.0025756632 -0.01857096
0002f0 a3 d1 00 3d 76 b5 52 bd 08 e2 86 bd b5 4a 2d bd
       0.031449925 -0.051442586 -0.06586081 -0.042307574
000300 47 d6 38 3d 21 88 ff bb 82 cb 06 bd a8 6c d5 3b
       0.045126226 -0.0077982103 -0.032908924 0.006513197
000310 9f 41 ca 3b 8f 68 c6 3b 93 f8 00 3b 83 4d cb 3d
       0.0061723734 0.006054945 0.0019679412 0.099268936
000320 23 3c ca bc 61 c8 3a bc f0 69 71 3d 19 c0 51 bb
       -0.024686879 -0.011400313 0.05893892 -0.0032005368
000330 d9 b0 53 bb 4c 65 8b bc de 8a e3 bc 71 c4 d7 bd
       -0.0032301454 -0.017016076 -0.027776178 -0.10535515
000340 4f 01 48 bd 14 99 3f bd 13 23 99 bd b6 aa 1d bd
       -0.048829373 -0.046776846 -0.07477393 -0.03849288
000350 49 ad 19 bd e5 12 28 bd 1d e1 05 bd 53 13 3b 3c
       -0.037518773 -0.041033644 -0.032685388 0.0114181815
000360 0a 95 a3 bc 59 2b aa bc 00 ed f0 3c 9a 37 99 bc
       -0.019968528 -0.020772623 0.029409885 -0.01870327
000370 15 e0 1d bd ce 68 75 3d 75 2d 29 3c 00 8e 04 3c
       -0.03854378 0.059914403 0.010325779 0.008090496
000380 f3 4d a2 3b d8 0a f7 3a 2b 69 07 3c f9 5b 59 bd
       0.00495314 0.0018847836 0.00826482 -0.053066228
000390 f9 c7 df 3d f4 65 28 3d 64 7b 1d 3b a8 bb 91 3d
       0.10926814 0.041112855 0.0024029845 0.07115871
0003a0 ad 3c 1d ba c4 fa c7 bb 36 12 02 3d f0 11 08 be
       -0.0005998116 -0.0061028916 0.03175565 -0.13288093
0003b0 7a 9a 0e be 9f fa bf 3d bc 66 29 be b5 31 58 be
       -0.13926116 0.09373974 -0.16543096 -0.21112712
0003c0 63 bd eb 3d a4 40 ad 3c a8 4b 87 bd 01 64 e1 3c
       0.11510732 0.021148987 -0.06606227 0.027513506
0003d0 bf c5 9f 3d f9 a4 9b 3c b3 eb 17 bc aa 59 42 3d
       0.07801389 0.018999564 -0.009272504 0.04744879
0003e0 16 f3 e5 bc cc 01 b8 bc 70 00 55 b9 fd 1a cb 3b
       -0.028070014 -0.022461794 -0.00020313426 0.0061982856
0003f0 a0 58 31 3d 28 4a 38 3d e0 d3 dd 3b c3 80 a9 3d
       0.04329741 0.044992596 0.0067696422 0.082765125

bias f4 [64]
000000 13 18 54 be 22 40 52 bc 56 48 cc bc 43 21 75 3e
       -0.20712309 -0.012832673 -0.024936836 0.2393847
000010 01 54 06 3e a4 0b 17 be 33 16 cd bc 83 8f c8 3c
       0.13117982 -0.14750534 -0.025035 0.024482494
000020 94 1e 31 be 95 39 8e be b1 49 86 bd 87 2a a2 3d
       -0.17296821 -0.27778307 -0.06557024 0.07918268
000030 f8 ba 2b bd 54 98 e6 bd 1c 9b 85 3e b6 b5 61 3d
       -0.041926354 -0.11259523 0.26094902 0.055104934
000040 3e 45 fd bd 7c 08 ff bd 63 5f 6e be 5b 72 02 be
       -0.123667225 -0.1245279 -0.23278575 -0.12738936
000050 05 23 a6 3d c1 ad 7a 3e 69 a8 13 bd 35 90 f3 3d
       0.08112148 0.24480344 -0.03604928 0.1189274
000060 fc 1d c3 bc a4 b4 09 3e e6 e1 20 3e 3f 3a 95 bd
       -0.023818009 0.13447815 0.15711173 -0.072865
000070 ed e0 19 3c 23 79 0b 3d 6b f9 73 3c 58 a3 57 3e
       0.009392005 0.03405107 0.014891009 0.21058404
000080 46 30 9f bc e9 70 78 3d b2 53 95 3d 9f e6 88 3d
       -0.019432198 0.060654555 0.07291354 0.066846125
000090 02 8e 65 3e 85 3c 1e 3e 4c 5d fa 3b 7b 61 2d 3d
       0.22417453 0.15452774 0.0076405164 0.042329293
0000a0 17 f0 0e 3e c9 9d 23 3d 7a e4 46 be d6 11 8e 3d
       0.13958775 0.039945398 -0.19423094 0.06936996
0000b0 bf c1 a5 bd b0 23 08 3d 00 24 09 bd 0f f2 e2 bc
       -0.08093595 0.03323716 -0.033481598 -0.027703313
0000c0 97 7e a6 3c f2 42 bd bc c5 cd dd 3b 3f 1e 90 3d
       0.020324035 -0.023103211 0.0067689144 0.07037019
0000d0 6b 8b 57 bd d8 92 0c 3e 1c c2 cd bc 5d 2d 31 3d
       -0.052623194 0.13727891 -0.025116973 0.043256152
0000e0 41 7d 91 3c 9c c9 42 3d b6 e0 0d bd ac 96 01 3e
       0.017759921 0.04755555 -0.03463813 0.12655133
0000f0 49 da 8d be e7 3c 26 3b 39 fd dc bd a7 8f 70 3d
       -0.277056 0.002536589 -0.10790486 0.058730748

weight f4 [64]
000000 cd 7c 7a 3f 4d 43 79 3f 82 55 75 3f 26 b5 7b 3f
       0.9784668 0.9736832 0.958336 0.98323286
000010 b6 22 72 3f 50 c4 7c 3f bc dd 7c 3f 91 f9 73 3f
       0.94584215 0.9873705 0.9877584 0.95302683
000020 f2 b0 7b 3f 1b c9 81 3f 92 d1 70 3f a5 ef 83 3f
       0.9831687 1.0139498 0.9406978 1.0307509
000030 e0 63 76 3f 81 88 82 3f b0 c6 83 3f ad f2 81 3f
       0.9624615 1.0197908 1.029501 1.0152184
000040 b4 df 76 3f 08 7f 66 3f 7f ea 7b 3f 31 05 81 3f
       0.96435094 0.90037584 0.9840469 1.0079709
000050 fc 08 85 3f 1a 33 8d 3f 83 98 60 3f 1f d4 74 3f
       1.0393367 1.103122 0.87732714 0.9563617
000060 89 ae 82 3f 2b ee 82 3f 90 74 7b 3f 37 0b 76 3f
       1.0209514 1.0228933 0.98224735 0.9611086
000070 ed a6 76 3f 35 f0 85 3f 42 14 77 3f b2 71 6d 3f
       0.9634846 1.046393 0.96515286 0.9275161
000080 e2 f8 6d 3f fd e0 75 3f 55 3a 72 3f 12 34 7e 3f
       0.9295789 0.9604643 0.9462026 0.99298203
000090 72 3f 8d 3f e8 8e 77 3f 78 0c 81 3f d0 b5 69 3f
       1.1034987 0.9670243 1.008193 0.9129305
0000a0 bf 5e 7d 3f 23 d5 7e 3f 9b 5c 83 3f fb a4 80 3f
       0.98972696 0.9954397 1.0262636 1.0050348
0000b0 71 ac 6b 3f d9 40 7a 3f 8c 05 76 3f 87 a0 78 3f
       0.9206 0.977552 0.96102214 0.97119945
0000c0 0a 5c 81 3f 86 c4 70 3f 31 b9 7e 3f 20 ea 7b 3f
       1.0106213 0.9404987 0.9950133 0.9840412
0000d0 32 f2 71 3f f2 39 6b 3f 4c 59 66 3f bd 64 68 3f
       0.94510186 0.9188529 0.89980006 0.90778714
0000e0 4c 46 7e 3f 58 78 5a 3f 7d a7 7f 3f 62 a3 67 3f
       0.99326015 0.8533988 0.9986494 0.9048368
0000f0 9d 4a 78 3f 67 dd 7d 3f 19 f0 7a 3f b0 be 71 3f
       0.9698885 0.9916596 0.9802261 0.9443159
