carl/envs/mario/pcg_smb_env/toadgan/generators/v2/TOAD_GAN_1-1/generators.pth (torch, 638053 bytes, 42 tensors)

weight f4 [64, 12, 3, 3]
0	0xbd9cf294	-0.076634556
1	0x3c80f7b4	0.015743114
2	0xbe1386aa	-0.14406839
3	0x3cacd98e	0.021099832
4	0x3c84cc19	0.016210603
5	0x3be32aec	0.006932607
6	0xbc64ea6c	-0.013971906
7	0xbd0e2725	-0.0347053
8	0xbd426eea	-0.047469057
9	0xbbf4fa5e	-0.007476135
10	0xbde10d1b	-0.10988828
11	0x3e44452a	0.19167009
12	0x3bd91e44	0.0066259224
13	0xbd7b5837	-0.061363425
14	0x3d67905a	0.05653415
15	0x3cfadce9	0.030622916
16	0x3cd96b53	0.026540434
17	0x3a5afa83	0.0008353369
18	0x3d827937	0.06370776
19	0x3d22c8d3	0.039742302
20	0xbcf6a740	-0.030109048
21	0xbc96f47b	-0.018427124
22	0xbd0b9dbf	-0.034085985
23	0x3ce0f85b	0.027462175
24	0x3cce5fe6	0.025192212
25	0x3cbb3e8c	0.022856973
26	0x3d43eaeb	0.047831457
27	0x3c50ebb1	0.012751506
28	0xbc2ce214	-0.010551948
29	0xbd638719	-0.05554876
30	0x3cac7ea4	0.02105648
31	0xbd350713	-0.0441962
32	0x3c3381fc	0.010956284
33	0xbd17a95a	-0.03702674
34	0xbbcef125	-0.0063153678
35	0xbd65c580	-0.056096554
36	0x3b9c2370	0.0047649667
37	0xbc8aa1f1	-0.016922923
38	0x3c46d21b	0.012135054
39	0x3bd834ad	0.0065980763
40	0xbcca5d7f	-0.024702786
41	0xbacf0980	-0.0015795678
42	0xbcbff652	-0.023432884
43	0xb922cc16	-0.00015525552
44	0xbd409773	-0.047019433
45	0xbd21deeb	-0.03951923
46	0xbd43940d	-0.047748614
47	0xbd7a7cf2	-0.061154313
48	0x3d0e439c	0.034732446
49	0xbbb6340d	-0.005560404
50	0x3c00e18e	0.007866276
51	0x3c19cbae	0.00938694
52	0xbb390287	-0.0028230266
53	0xbd88f0b8	-0.066865385
54	0xbd737419	-0.05943689
55	0x3dbeed88	0.09322649
56	0x3bc0e0a8	0.005886156
57	0xbcdcc9df	-0.026951728
58	0xbbd9bdbd	-0.006644933
59	0xbc6b8e2f	-0.014377161
60	0xbc5b0ad0	-0.013369277
61	0x3c4ce665	0.012506102
62	0xbcd0a9ed	-0.025471652
63	0xbdc05fa6	-0.093932435
64	0xbd3543ca	-0.0442541
65	0x3df8603e	0.12127732
66	0x3ca85173	0.02054665
67	0x3b9211e9	0.0044577015
68	0x3bc2301d	0.0059261457
69	0xbc97706b	-0.018486222
70	0xb9a9e214	-0.00032402633
71	0x3cfa4a75	0.030553082
72	0x3c2d6292	0.010582583
73	0xbdff7a52	-0.124745026
74	0x3cb8d4c5	0.022562394
75	0xbbc33d54	-0.0059582386
76	0x3b597c67	0.0033185722
77	0xbc6a8998	-0.0143150315
78	0x3c350296	0.01104798
79	0xbca46085	-0.020065555
80	0x3d060cf9	0.032727215
81	0x3da0b2b7	0.07846587
82	0xbe09725f	-0.13422535
83	0x3d80df9c	0.0629265
84	0xbd400329	-0.046878014
85	0x3d0da7dd	0.034583915
86	0xbc843128	-0.01613672
87	0x3c9222e1	0.017838897
88	0xbaa2b019	-0.00124121
89	0x3bad8480	0.0052953362
90	0x3cae8c45	0.02130712
91	0x3e15e342	0.14637473
92	0x3cd55e68	0.026045993
93	0x3c156bd9	0.009119951
94	0xbc447d5e	-0.0119927805
95	0x3d042ca8	0.03226915
96	0x3cd81843	0.026378756
97	0x3d170375	0.03686853
98	0x3ce25825	0.027629921
99	0x3c06378c	0.008191954
100	0x3cc8ddb9	0.024519788
101	0x3c066f56	0.0082052555
102	0x3cfca170	0.030838698
103	0xbc433bf1	-0.011916147
104	0xbce8690b	-0.0283704
105	0x3d01b8d7	0.031670418
106	0xbd2b781b	-0.04186259
107	0xbd0d06d6	-0.034430347
108	0xbd248876	-0.0401692
109	0x3d55eaed	0.052225996
110	0xbdda3c21	-0.10656
111	0xbb30c4e9	-0.0026972836
112	0xb8de96b1	-0.000106138534
113	0xbbcc283d	-0.0062303827
114	0xbcb80e67	-0.022467805
115	0x3cc38519	0.023867177
116	0xbc8731e0	-0.016503274
117	0xbdb3f6de	-0.087873206
118	0x3dac82d4	0.08423391
119	0x3c0a3866	0.008436298
120	0x3dc44676	0.09583752
121	0xbcc38b6d	-0.023870194
122	0x3d4ad9aa	0.049523987
123	0x3ac5fac9	0.0015104647
124	0xbc9c81de	-0.019104894
125	0x3c591832	0.0132503975
126	0xbc588910	-0.013216272
127	0xbd5bffed	-0.053710867
128	0x3ce705d4	0.028201021
129	0xbc9cdc82	-0.019148115
130	0xbcf3fab4	-0.02978263
131	0x3c415227	0.011799372
132	0x3cdb4ef1	0.02677104
133	0x3d8f263e	0.06989716
134	0x3d29faff	0.041499134
135	0xbd27f772	-0.041007467
136	0xbbc759d9	-0.0060837087
137	0x3cc3c9b2	0.023899887
138	0x3d82fc34	0.0639576
139	0x3bd0596e	0.006358317
140	0x39f165af	0.00046042862
141	0xbc93a10c	-0.01802113
142	0x3ac9fe9a	0.001541096
143	0xbbf900b9	-0.007598963
144	0xbdd87625	-0.10569409
145	0x3def964c	0.11698589
146	0x3ccff8df	0.025387226
147	0xbc701e04	-0.014655594
148	0xbb5dbf62	-0.0033835997
149	0xbc09d663	-0.00841293
150	0xbd7a581c	-0.061119184
151	0xbc058a69	-0.008150675
152	0x3d3f9f6a	0.04678289
153	0xbe3f5967	-0.18686448
154	0xbcc2f7de	-0.023799833
155	0xbca9be15	-0.020720521
156	0x3c325dac	0.010886591
157	0xbc259039	-0.010105186
158	0x3c8352a4	0.016030617
159	0xbd27817d	-0.040894974
160	0xbb4518ca	-0.003007459
161	0xbd86dec2	-0.065854564
162	0xbdec9aac	-0.11552939
163	0xbcfbcee1	-0.030738296
164	0x3db3f815	0.08787552
165	0x3d3ec466	0.04657402
166	0xbd1a4a02	-0.037668236
167	0x3d49292b	0.049111526
168	0x3cbb6955	0.022877375
169	0x3c000ecd	0.007816029
170	0xba957d16	-0.0011405076
171	0xbda567c7	-0.080764346
172	0xbd8d6f0c	-0.06905946
173	0x3cdc4863	0.026889985
174	0xbd0f000f	-0.034912165
175	0x3bebb67f	0.007193386
176	0x3b57fb0c	0.0032956032
177	0xbb884c91	-0.004159518
178	0x3baf67a9	0.0053529334
179	0xbc89fe10	-0.01684478
180	0xbd530d70	-0.051526487
181	0x3dcd2405	0.10016636
182	0xbd8d6afa	-0.0690517
183	0xbb5670c2	-0.0032721017
184	0xbcea4d11	-0.028601201
185	0x3d285c36	0.041103564
186	0xbc003c0c	-0.007826816
187	0xbd20fe5f	-0.039305087
188	0x3afe2ccb	0.0019392011
189	0x3d4ec6fe	0.050482742
190	0x3d018651	0.031622235
191	0x3cc8253b	0.024431815
192	0x3cb85360	0.022500694
193	0xbcef2f99	-0.029197501
194	0x3d1e4ad2	0.038645573
195	0x3d1648c1	0.036690477
196	0xbce7c534	-0.028292276
197	0x3ca3e178	0.020004973
198	0xbe2b8e0b	-0.16753404
199	0xbd143c2a	-0.03619019
200	0xbcaf7d00	-0.02142191
201	0x3c1c7dfb	0.00955152
202	0x3d056f76	0.032577
203	0x3bf0fb88	0.0073542036
204	0xbd38aa5c	-0.045084342
205	0xbc205e2a	-0.009788075
206	0x3cb01b1b	0.0214973
207	0x3c84aa64	0.01619453
208	0x3c9e4e90	0.01932457
209	0xbc8b2027	-0.016983105
210	0xbb7e8e2d	-0.0038842068
211	0x3cc79f26	0.02436788
212	0xbd931b9f	-0.07183003
213	0x3c6ebe87	0.014571792
214	0x3cab04ed	0.020876372
215	0xbc2aae3f	-0.01041752
216	0xbdcb3e10	-0.09923947
217	0x3d3a9ff1	0.04556269
218	0xbbdee421	-0.0068020974
219	0xbc9d5590	-0.019205838
220	0xbba9043c	-0.0051579755
221	0x3c5ae99c	0.013361361
222	0x3cf726b1	0.030169817
223	0x3c5558c8	0.013021655
224	0xbc05e7f7	-0.0081729805
225	0xbcb31622	-0.02186114
226	0xbc043955	-0.00807031
227	0xbd63c9c9	-0.05561236
228	0xbbcc70bf	-0.0062390263
229	0x3c95160f	0.018198995
230	0x3cf703f0	0.030153245
231	0x3c100545	0.008790319
232	0xbd689ec1	-0.056792025
233	0x3c25897c	0.01010358
234	0x3cac415c	0.02102726
235	0xbc4d9578	-0.012547843
236	0xbcc78afa	-0.024358261
237	0xbb3ac0c0	-0.0028496236
238	0xbd06c705	-0.032904644
239	0x3d18b718	0.037283987
240	0xbd999355	-0.074988045
241	0xbbd38e73	-0.0064561903
242	0x3c1d98b9	0.009618931
243	0xbb27123e	-0.002549305
244	0x3d5af318	0.05345449
245	0xbd5ddd79	-0.05416629
246	0xbc616f98	-0.013759516
247	0xbcdcd791	-0.026958259
248	0x3c81921e	0.015816744
249	0x3cf8ed20	0.030386508
250	0x3bc8e496	0.006130765
251	0xbc506eaf	-0.0127217015
252	0xbc6b7415	-0.014370938
253	0x3dfcdaee	0.12346445
254	0x3e66081c	0.22464031
255	0xbc940e13	-0.018073117

bias f4 [64]
0	0xbdb2c77e	-0.08729456
1	0xbcfb7038	-0.030693159
2	0xbd97b466	-0.07407455
3	0xbd8af97a	-0.06785865
4	0x3d6bbf0e	0.05755525
5	0x3c502bc8	0.012705751
6	0xbd95e5ea	-0.07319243
7	0x3d292e89	0.041304145
8	0x3dc1028b	0.09424313
9	0x3bbe8f98	0.0058154576
10	0xbda3da7e	-0.080006585
11	0x3d15274d	0.036414433
12	0xbd64bda4	-0.055844918
13	0xbd885af0	-0.0665797
14	0xbd1505f5	-0.036382634
15	0x3c840ad9	0.016118454
16	0x3d8be487	0.068306975
17	0xbc65f577	-0.014035574
18	0xbd9e353e	-0.07724999
19	0xbcc629a6	-0.024189781
20	0x3d236f46	0.03990104
21	0x3d9d4869	0.07679827
22	0xbd85f67a	-0.06541152
23	0xbd81c8c8	-0.06337124
24	0xbc4ed5d8	-0.0126242265
25	0x3daa6f61	0.08322025
26	0xbd818ada	-0.06325312
27	0xbca4890f	-0.020084886
28	0xbc20860a	-0.009797582
29	0x3db4c8f3	0.088273905
30	0x3d21d672	0.03951115
31	0x3b2d1bdd	0.0026414313
32	0xbd2852ff	-0.041094776
33	0x3cdb8b27	0.026799751
34	0xbd83fb8d	-0.06444464
35	0xbc842325	-0.01613004
36	0x3d88d293	0.06680789
37	0xbd596ee7	-0.05308428
38	0xbc062335	-0.008187105
39	0x3d65f06b	0.056137484
40	0xbd179633	-0.037008476
41	0x3d4bf0d4	0.04979022
42	0xba4a1d71	-0.00077100756
43	0xbc88f1d1	-0.01671687
44	0xbc9518f1	-0.01820037
45	0x3d383cc5	0.04497983
46	0x3d30dbc7	0.043178346
47	0xbd6a497e	-0.057198994
48	0x3d488ece	0.048964314
49	0x3e08424d	0.13306542
50	0x3e0077fe	0.12545773
51	0xbd925254	-0.07144609
52	0x3e02a998	0.12760007
53	0xbd96fcb2	-0.073724166
54	0xbd99aacd	-0.07503281
55	0x3dbd1b3a	0.09233709
56	0xbd70c84a	-0.05878476
57	0x3dd12499	0.102120586
58	0x3d1fdf3e	0.03903126
59	0xbd96ff91	-0.07372964
60	0x3d8e6da8	0.06954509
61	0xbd19c92f	-0.03754538
62	0xbcf08608	-0.029360786
63	0x3cec4e70	0.028845996

weight f4 [64]
0	0x3f83cdea	1.0297215
1	0x3f6bda19	0.92129666
2	0x3f7a4171	0.97756106
3	0x3f6a5f98	0.91552114
4	0x3f93b6f7	1.1540211
5	0x3f669d5f	0.9008388
6	0x3f84ddee	1.0380228
7	0x3f8d28c2	1.1028063
8	0x3f82cccc	1.0218749
9	0x3f7ac115	0.9795087
10	0x3f7a0903	0.9767
11	0x3f623e31	0.88376147
12	0x3f7ec5cb	0.9952056
13	0x3f81b892	1.0134451
14	0x3f79c630	0.97568035
15	0x3f6303ce	0.8867768
16	0x3f6dcc2d	0.9288967
17	0x3f7eec3b	0.9957921
18	0x3f629074	0.8850167
19	0x3f850b0b	1.0393995
20	0x3f84d58d	1.037767
21	0x3f825aa9	1.0183917
22	0x3f6c4873	0.9229805
23	0x3f734e34	0.95041203
24	0x3f8c664c	1.0968719
25	0x3f8951ee	1.0728128
26	0x3f89829d	1.0742985
27	0x3f75600e	0.9584969
28	0x3f8829c4	1.0637746
29	0x3f800565	1.0001646
30	0x3f77fe02	0.9687196
31	0x3f87c651	1.0607396
32	0x3f6cd297	0.92508835
33	0x3f7b358e	0.9812859
34	0x3f8e65cf	1.112482
35	0x3f705dee	0.93893325
36	0x3f703c72	0.9384223
37	0x3f7bd577	0.98372597
38	0x3f79dfbc	0.97607017
39	0x3f81d08c	1.0141768
40	0x3f5af2a9	0.8552652
41	0x3f71a507	0.94392437
42	0x3f7a476b	0.97765225
43	0x3f8b7c73	1.0897354
44	0x3f87efe3	1.0620083
45	0x3f7ceefa	0.9880215
46	0x3f69c75e	0.91319835
47	0x3f7238a4	0.94617677
48	0x3f6548b9	0.8956409
49	0x3f7f0409	0.9961553
50	0x3f8d39c9	1.103326
51	0x3f80a1f2	1.0049422
52	0x3f68b4c3	0.9090082
53	0x3f90cde7	1.1312836
54	0x3f7429c2	0.9537622
55	0x3f65a789	0.89708763
56	0x3f81eea9	1.0150958
57	0x3f780195	0.96877414
58	0x3f6a3602	0.9148866
59	0x3f8834b9	1.064109
60	0x3f7f04d4	0.9961674
61	0x3f8366f4	1.0265794
62	0x3f735700	0.95054626
63	0x3f8547f1	1.041258

bias f4 [64]
0	0xbe688602	-0.2270737
1	0xbdf6950a	-0.12040146
2	0xbe06182a	-0.13095155
3	0xbe0b603f	-0.13610934
4	0xbe6c076c	-0.23049706
5	0xbe827bbc	-0.25485027
6	0xbe0c14f0	-0.13679862
7	0xbe6c4286	-0.23072252
8	0xbdc9aab2	-0.09847011
9	0xbe86db7a	-0.26339322
10	0xbe7e54c3	-0.24837022
11	0xbe00904a	-0.12555042
12	0xbdc88854	-0.097916275
13	0xbe7b4f8c	-0.24542063
14	0xbe26533d	-0.1624269
15	0xbe7de8de	-0.24795863
16	0xbdec37b1	-0.1153406
17	0xbe032277	-0.12806116
18	0xbe922a3b	-0.28547844
19	0xbe46ae34	-0.1940239
20	0xbe389ff6	-0.1802977
21	0xbdfd499c	-0.123675555
22	0xbe378769	-0.17922749
23	0xbe41797d	-0.18894
24	0xbe72b8a2	-0.23703244
25	0xbe22c863	-0.15896754
26	0xbe7d87ae	-0.24758789
27	0xbe3231fd	-0.17401882
28	0xbe2159b1	-0.15756871
29	0xbe5a495c	-0.21317047
30	0xbe44c4d5	-0.1921571
31	0xbdac963b	-0.08427092
32	0xbe486aa5	-0.19571932
33	0xbe776ea7	-0.24163304
34	0xbe1be017	-0.15222202
35	0xbe5a1a0e	-0.21299002
36	0xbe374547	-0.17897521
37	0xbe22820a	-0.15869918
38	0xbe2e4c85	-0.17021377
39	0xbe38afc0	-0.18035793
40	0xbe6e7382	-0.2328625
41	0xbe71de22	-0.23619893
42	0xbe262319	-0.16224326
43	0xbe5bd547	-0.21468078
44	0xbe412787	-0.18862735
45	0xbe5bd8b5	-0.21469386
46	0xbe2b1164	-0.16705853
47	0xbe4809e0	-0.19535017
48	0xbe25264b	-0.16127889
49	0xbe1fa6a8	-0.15590918
50	0xbe8feda6	-0.28111
51	0xbe300e15	-0.17192872
52	0xbe955d8c	-0.29172933
53	0xbe679f9e	-0.22619483
54	0xbdfe0216	-0.124027416
55	0xbe4f8af9	-0.20267858
56	0xbe3d43e6	-0.18482932
57	0xbe3d569f	-0.18490075
58	0xbe537f09	-0.20653929
59	0xbdf463b5	-0.1193308
60	0xbe7cb6bb	-0.24679081
61	0xbe15b2e4	-0.14619023
62	0xbe3f25e8	-0.18666804
63	0xbdcdc117	-0.100465946

running_mean f4 [64]
0	0xbdbbe0c7	-0.09173732
1	0xbc96857e	-0.0183742
2	0xbd966ad0	-0.073445916
3	0xbd82bcb3	-0.06383648
4	0x3d4b5fab	0.049651783
5	0x3c84bd85	0.016203651
6	0xbd8ca9d7	-0.06868332
7	0x3d28ebdd	0.04124056
8	0x3dbc03bf	0.09180402
9	0x3c01023e	0.00787407
10	0xbda7c27f	-0.08191394
11	0x3d2cd29d	0.042193044
12	0xbd3fe237	-0.046846595
13	0xbd754c78	-0.05988738
14	0xbcf6038d	-0.03003099
15	0x3cc4b3bd	0.024011487
16	0x3d8c08c0	0.068376064
17	0xbc24277e	-0.010019181
18	0xbda0a652	-0.07844223
19	0xbcef8268	-0.029236987
20	0x3d4bb75e	0.04973542
21	0x3d8cd0e7	0.068757825
22	0xbd7dbd24	-0.061947957
23	0xbd84d57e	-0.06486033
24	0xbc4a462a	-0.01234583
25	0x3db1e3e7	0.08686047
26	0xbd8d20b0	-0.06891
27	0xbc8ffddd	-0.017577106
28	0xbc28a640	-0.010293543
29	0x3da4817c	0.0803251
30	0x3d270dd9	0.04078469
31	0x3c07b5c6	0.008283084
32	0xbd323065	-0.043503184
33	0x3cdc45f1	0.02688882
34	0xbd78b0b4	-0.060715392
35	0xbc84b486	-0.016199362
36	0x3d8a45c8	0.06751591
37	0xbd577d66	-0.052609824
38	0xbc5ebfea	-0.013595561
39	0x3d53a52a	0.051671185
40	0xbd256d9e	-0.040387742
41	0x3d5d0810	0.053962767
42	0xba389342	-0.0007040986
43	0xbc848ea3	-0.016181296
44	0xbc8a99d4	-0.016919054
45	0x3d4168d7	0.047219124
46	0x3d14b683	0.03630687
47	0xbd81b27e	-0.06332873
48	0x3d164b2c	0.036692783
49	0x3e095d4e	0.13414499
50	0x3e02c116	0.12768969
51	0xbda15de0	-0.07879233
52	0x3e00531d	0.12531705
53	0xbd862870	-0.065506816
54	0xbdabaf6a	-0.08383067
55	0x3da914cc	0.0825592
56	0xbd7c9c80	-0.061672688
57	0x3de1fef1	0.11034954
58	0x3d1e6bf0	0.038677156
59	0xbda274a8	-0.07932407
60	0x3d88e997	0.06685179
61	0xbcf97eef	-0.030456034
62	0xbcbe8588	-0.023257032
63	0x3cd37497	0.02581243

running_var f4 [64]
0	0x3e25e1a8	0.16199362
1	0x3e279fd0	0.16369557
2	0x3e2c38da	0.16818562
3	0x3e0fda38	0.14048088
4	0x3e4b2e6b	0.19841926
5	0x3e163e64	0.14672238
6	0x3e4a05bf	0.19728754
7	0x3e444464	0.19166714
8	0x3e2f9ec9	0.17150415
9	0x3e25d157	0.16193138
10	0x3e2fdab3	0.17173271
11	0x3e1f82af	0.15577196
12	0x3e38a7f1	0.18032815
13	0x3e43967c	0.19100374
14	0x3e26dda8	0.16295493
15	0x3e26e673	0.16298847
16	0x3e2b9f34	0.1675995
17	0x3e339148	0.17535889
18	0x3e14e153	0.1453908
19	0x3e2febae	0.17179748
20	0x3e41099d	0.18851323
21	0x3e3eca41	0.18631841
22	0x3e273bc0	0.16331387
23	0x3e3ff5c1	0.18746091
24	0x3e41acee	0.18913624
25	0x3e495ca0	0.1966424
26	0x3e5b2d42	0.21403983
27	0x3e2f3976	0.17111763
28	0x3e32e199	0.17468871
29	0x3e31e0c4	0.17370898
30	0x3e2f81eb	0.17139404
31	0x3e201933	0.15634613
32	0x3e1eba82	0.15500835
33	0x3e3be4fb	0.18349068
34	0x3e2c1777	0.16805826
35	0x3e2b1888	0.16708577
36	0x3e2a0d31	0.16606595
37	0x3e29dccb	0.16588132
38	0x3e2b5536	0.16731724
39	0x3e3a56ff	0.18197249
40	0x3e114016	0.14184603
41	0x3e352d87	0.17693149
42	0x3e44d272	0.19220904
43	0x3e383e36	0.17992482
44	0x3e3d7481	0.18501474
45	0x3e334788	0.17507756
46	0x3e1c3b5e	0.15257022
47	0x3e34b405	0.17646797
48	0x3e34628c	0.17615718
49	0x3e3f1098	0.18658674
50	0x3e4db42d	0.20088263
51	0x3e2703f4	0.16310102
52	0x3e2fdea8	0.1717478
53	0x3e4681cb	0.1938545
54	0x3e2d0045	0.16894634
55	0x3e282b39	0.16422738
56	0x3e3c373e	0.18380448
57	0x3e3f48b4	0.18680078
58	0x3e2b1f8f	0.16711257
59	0x3e2fd269	0.17170109
60	0x3e3e645b	0.1859297
61	0x3e3b90dd	0.1831698
62	0x3e23b526	0.15987071
63	0x3e335687	0.17513476

weight f4 [64, 64, 3, 3]
0	0x3d0e60b9	0.03476021
1	0x3cfdf1e1	0.030999126
2	0xbd383c53	-0.044979405
3	0x3c5b2b61	0.013377042
4	0xbd3b5204	-0.045732513
5	0xbc97fb02	-0.018552307
6	0xbd1109e5	-0.035409827
7	0x3d319363	0.04335345
8	0x3d2fe5fd	0.042943943
9	0x3c57ce23	0.013171705
10	0x3cfb300d	0.03066256
11	0xbcda6de6	-0.026663732
12	0xbcfdf308	-0.030999675
13	0xbd739862	-0.059471495
14	0x3d1ff254	0.03904946
15	0xbd0cea48	-0.034403116
16	0xbd39fb59	-0.04540572
17	0xbc99df8b	-0.018783351
18	0xbcf59650	-0.029978901
19	0xbd78ca8b	-0.060740035
20	0xbc87b507	-0.016565813
21	0xbbc039ed	-0.0058662803
22	0xbd47c1ba	-0.048768736
23	0x3dd268a2	0.102738634
24	0x3cd86c48	0.02641882
25	0xbd16d140	-0.03682065
26	0x3cc71396	0.024301331
27	0x39ba774a	0.00035565562
28	0x3c8b2de2	0.016989652
29	0xbc2636bb	-0.010144885
30	0xbcb78fd1	-0.022407444
31	0x3b3050fa	0.0026903735
32	0xbd4eb809	-0.05046848
33	0xbd63dc12	-0.055629797
34	0xbb9d6463	-0.004803227
35	0xba4f4bdb	-0.00079077267
36	0x3da91da1	0.082576044
37	0x3da08b06	0.078390166
38	0xbbf5048e	-0.0074773496
39	0xbc114ce7	-0.008868433
40	0xbc4e8a4b	-0.012606214
41	0x3cc75416	0.024332087
42	0x3e07f549	0.13277163
43	0x3d7b8b7f	0.06141233
44	0x3ddeeef1	0.10885418
45	0xbcb3c960	-0.021946609
46	0xbcc2d468	-0.023782924
47	0x3d35f550	0.0444234
48	0xbda5d621	-0.080974825
49	0xbc34413d	-0.011001882
50	0x3c96e457	0.018419428
51	0x3d31fd66	0.04345455
52	0xbd50ab05	-0.050944347
53	0x3db2bce0	0.08727431
54	0xbcf95db9	-0.030440198
55	0xbd515c80	-0.051113605
56	0x3d7c563b	0.061605673
57	0x3d1b9a94	0.037989214
58	0x3d0ba1cd	0.034089852
59	0xbbc56442	-0.0060239146
60	0x3e071b49	0.13194002
61	0x3deab572	0.11460389
62	0x3d8ae1e6	0.06781368
63	0xbd61b617	-0.055105295
64	0x3d364989	0.044503722
65	0xbabcc30b	-0.0014401389
66	0xbe01ef87	-0.12689029
67	0xbc6ae0cf	-0.014335825
68	0xbd13024d	-0.035890866
69	0x3cf910e5	0.030403564
70	0x3d54abe3	0.051921736
71	0x3c80698a	0.015675325
72	0x3ba53cfc	0.0050426703
73	0xbcc8c9db	-0.024510315
74	0xbb86014f	-0.0040895115
75	0x3ccebda6	0.025236916
76	0x3cd8b9bc	0.026455753
77	0x3ca19b98	0.019727513
78	0xbcf64108	-0.030060306
79	0xb9aba036	-0.00032735028
80	0x3e0fdb0c	0.14048404
81	0xbc6006c5	-0.013673489
82	0xbc53be76	-0.012923827
83	0x3d28d5ce	0.041219525
84	0xbdc98c57	-0.09841221
85	0x3cc45c0e	0.023969676
86	0x3b06644c	0.002050656
87	0xbd984f59	-0.07437009
88	0x3ba0727d	0.0048964606
89	0x3ce8ae7f	0.028403519
90	0xbc903d65	-0.0176074
91	0xbac3b452	-0.0014931059
92	0xbc328e04	-0.010898117
93	0x3d3c9248	0.046037942
94	0xbd563877	-0.052299943
95	0xbb9e23e2	-0.004826055
96	0x3ca5720d	0.020195985
97	0x3ce042b2	0.027375553
98	0x3d736b3d	0.059428442
99	0xbc7aa970	-0.015299186
100	0xbcdebf63	-0.02719087
101	0x3b40ea10	0.0029436387
102	0x3be3322e	0.006933472
103	0xbc5fcc6c	-0.013659578
104	0x3d02fbfd	0.031978596
105	0xbc520df3	-0.012820709
106	0x3daebfc2	0.08532669
107	0x3d73b030	0.059494197
108	0x3d16f702	0.03685666
109	0x3c8b31f2	0.01699159
110	0xbbfeec35	-0.007779623
111	0x3d0771df	0.03306758
112	0x3d9a7171	0.075411685
113	0x3d676a19	0.056497667
114	0x3d5c1abf	0.053736445
115	0x3d5f4f7d	0.054519165
116	0x3d327d88	0.043576747
117	0xbc9e919c	-0.019356541
118	0x3d12cac1	0.035837892
119	0xbda06ede	-0.07833646
120	0x3bd012d9	0.006349903
121	0x3c57834c	0.013153862
122	0x3b4ed1f1	0.003155824
123	0x3d8bf29a	0.06833382
124	0x3e2934ac	0.16523999
125	0x3cb6a787	0.02229668
126	0x3cf57c55	0.029966513
127	0xbcb83cb9	-0.022489892
128	0x3c33e767	0.010980464
129	0x3d59c816	0.053169332
130	0xbc30da58	-0.010794245
131	0x3d6af7da	0.057365276
132	0x3db50701	0.088392265
133	0x3d1b9d35	0.03799172
134	0xbcf26bb1	-0.029592367
135	0x3cb673f9	0.022272097
136	0xbbe9b16c	-0.007131746
137	0x3c762286	0.0150228795
138	0xbd8f0571	-0.0698346
139	0xbc123251	-0.008923129
140	0x3b6435fd	0.0034822219
141	0xbc22b1f2	-0.009930121
142	0x3ddb1d39	0.10698933
143	0x3d183f34	0.03716965
144	0xbd36666e	-0.04453128
145	0x3d66bd02	0.056332596
146	0xbd17ed11	-0.03709132
147	0xbd18c0e0	-0.037293315
148	0x3ccefd17	0.025267167
149	0xbc4df94f	-0.012571647
150	0xbbd73d40	-0.006568581
151	0x3d71d661	0.05904234
152	0xbd3f70f0	-0.046738565
153	0xbd363d95	-0.044492323
154	0x3bfb77fd	0.007674216
155	0x3c8b0690	0.016970903
156	0xbd1c228a	-0.038118877
157	0xbd93de80	-0.07220173
158	0x3d1f63d9	0.03891358
159	0x3db77cb0	0.08959329
160	0xbd286a30	-0.041116893
161	0xbd9e194b	-0.07719668
162	0xbd3b0115	-0.04565533
163	0x3da18e95	0.078885235
164	0x3ca9aa84	0.020711191
165	0xbd249bf7	-0.040187802
166	0x3aa1eaa0	0.0012353249
167	0x3df6dadf	0.12053465
168	0x3d2a3925	0.041558404
169	0x3ce5add3	0.028036987
170	0x3c6aa45a	0.014321411
171	0xbc443641	-0.011975826
172	0xbc90a1a0	-0.017655194
173	0xbce1398f	-0.027493266
174	0xbd9d34c2	-0.076760784
175	0xbca078f7	-0.01958893
176	0x3bd3a0d1	0.00645838
177	0xbd27d3a8	-0.040973336
178	0x3d46c396	0.04852637
179	0xbdc79b32	-0.09746398
180	0x3d1cdd67	0.038297083
181	0xbbeb49ef	-0.0071804444
182	0xbd9ee683	-0.0775881
183	0xbc8afbf4	-0.016965844
184	0x3d8eabc9	0.06966359
185	0xbcffbcdf	-0.03121799
186	0x3e0baf72	0.13641146
187	0x3e0dcfb6	0.13848767
188	0x3dab1585	0.08353714
189	0x3d51b8c4	0.051201597
190	0xbdcc56e9	-0.09977514
191	0x3c5dd370	0.01353918
192	0xbc9a9351	-0.018869074
193	0xbd4bc3a3	-0.04974712
194	0x3cee10a7	0.029060675
195	0xbdc38160	-0.09546161
196	0xbceb91f5	-0.028756121
197	0x3baf6638	0.0053527616
198	0xbb92eed9	-0.0044840393
199	0x3d89f767	0.067366414
200	0xbd5e38a4	-0.054253235
201	0xbac35b1c	-0.0014904472
202	0xbc8a7b8a	-0.016904611
203	0xbd9ae660	-0.07563472
204	0x3cf53539	0.029932605
205	0x3d3053e6	0.04304876
206	0xbcc0ebf3	-0.02355001
207	0xbd6bd030	-0.05757159
208	0x3aacef84	0.001319394
209	0xbca7bd8c	-0.020476125
210	0xbc3db43a	-0.011578614
211	0xbba8b147	-0.005148086
212	0x3c96cfc0	0.01840961
213	0x3c54c523	0.012986454
214	0xbced5e0d	-0.028975511
215	0x3bf5d9eb	0.0075027845
216	0x3d7f1559	0.062276218
217	0x3bc0a64a	0.005879198
218	0x3d07554c	0.03304033
219	0xbcb38b1c	-0.021916918
220	0xbce0216d	-0.027359689
221	0xbd40c51b	-0.047062974
222	0x3d8ad93a	0.06779714
223	0x3c128881	0.008943678
224	0x3d774950	0.06037265
225	0xbd107615	-0.03526886
226	0xbd08d514	-0.033406332
227	0xbc706676	-0.014672866
228	0x3d822197	0.06354063
229	0x3d38997e	0.045068257
230	0xbce592f8	-0.028024182
231	0x3df724e3	0.120675825
232	0x3e1a5229	0.15070404
233	0xbc5bdce4	-0.013419364
234	0x3ba31460	0.004976794
235	0xbd05b5b5	-0.032643992
236	0xbd4271d4	-0.047471836
237	0x3ce36ce6	0.027761888
238	0xbbcdadfa	-0.006276843
239	0x3d480f19	0.048842523
240	0x3dcbf2c9	0.09958417
241	0x3d3fc314	0.0468169
242	0x3d91bc78	0.07116026
243	0x3d6813fc	0.056659684
244	0xbcc957d1	-0.024578007
245	0xbd149d03	-0.03628255
246	0xbdb877af	-0.09007203
247	0x3cd2f49c	0.025751404
248	0xbcaf4727	-0.021396233
249	0xbd0d4e22	-0.03449834
250	0x3d70da2e	0.058801822
251	0xbd250464	-0.04028739
252	0x3d5e9614	0.054342344
253	0x3d20c462	0.039249785
254	0xba1579bf	-0.00057020405
255	0x3c9e3c2f	0.019315807

bias f4 [64]
0	0x3d31f7ab	0.043449085
1	0xbd061a0e	-0.03273969
2	0x3ce0f79d	0.027461821
3	0xbd4564d8	-0.048191875
4	0x3d117b4b	0.035517972
5	0xbc770e26	-0.015079057
6	0xbd7f2cc7	-0.062298562
7	0xbd583b25	-0.05279078
8	0xb9cb7075	-0.00038802964
9	0xbd8da02f	-0.06915318
10	0xbd6f36b4	-0.05840178
11	0xbce59f36	-0.02803002
12	0x3d2563cc	0.040378377
13	0x3ccfa081	0.025345089
14	0xbb5ead6a	-0.0033977875
15	0xbca1c134	-0.019745447
16	0x3d503de1	0.050840262
17	0x3cfc6066	0.030807685
18	0x3bb2f0d0	0.005460836
19	0x3cfef10b	0.031120798
20	0xbd87bc93	-0.066277646
21	0xbd10e8c4	-0.035378233
22	0xbd0400b0	-0.03222722
23	0xbb8415df	-0.0040309276
24	0x3ca2c67c	0.019870035
25	0xbd24d022	-0.040237553
26	0xbd813797	-0.06309431
27	0x3d6438e1	0.055718306
28	0xba840fdc	-0.0010075527
29	0xbd0e2a92	-0.034708567
30	0xbd20cdb2	-0.039258666
31	0xbd78112c	-0.06056325
32	0x3c57a46a	0.013161758
33	0xbcd9d036	-0.02658854
34	0x3cadf057	0.021232767
35	0x3d47a913	0.048745226
36	0x3b30469b	0.0026897553
37	0xbcbbe914	-0.022938289
38	0xbc996f45	-0.018729815
39	0xbcdf9e90	-0.027297288
40	0xbc92e376	-0.017930727
41	0xbd655698	-0.055990785
42	0xbd8a03b2	-0.06738986
43	0x3c82edb1	0.01598248
44	0xbd0904f3	-0.033451986
45	0xbb8f5871	-0.0043745567
46	0x3d566be8	0.052349
47	0xbd91aee9	-0.071134396
48	0xbc222942	-0.009897532
49	0xbc72832a	-0.01480178
50	0x3d4a828d	0.04944091
51	0x3c733adb	0.014845575
52	0xbc690807	-0.014223105
53	0xbcf9b518	-0.03048186
54	0x3c328640	0.0108962655
55	0xbd2960b8	-0.041352004
56	0x3d034c59	0.032055233
57	0x3b22db58	0.0024849977
58	0xbaeef752	-0.0018231666
59	0xbcfe5af7	-0.031049235
60	0x3c6b287b	0.014352913
61	0x3d595157	0.053056087
62	0x3c207804	0.009794239
63	0x3d563f8a	0.05230669

weight f4 [64]
0	0x3f988d1d	1.1918064
1	0x3f93b3de	1.1539266
2	0x3f8f2001	1.1181642
3	0x3f9e4777	1.2365559
4	0x3f9888e5	1.1916777
5	0x3f974888	1.181901
6	0x3fba0311	1.4532186
7	0x3fa9e33c	1.3272471
8	0x3f95ca19	1.17023
9	0x3fa723d4	1.3057809
10	0x3fb0d6fb	1.3815607
11	0x3fa3c7aa	1.2795308
12	0x3f99e245	1.2022177
13	0x3f95472d	1.1662346
14	0x3fa0004f	1.2500094
15	0x3f9697d0	1.176508
16	0x3f9496d6	1.1608531
17	0x3f9746d6	1.1818492
18	0x3fa2133a	1.2662117
19	0x3f928381	1.1446382
20	0x3fa3cb1f	1.2796363
21	0x3f9fe19e	1.2490728
22	0x3fa257a1	1.2682992
23	0x3fa1661b	1.2609285
24	0x3f9dda8e	1.2332323
25	0x3fb4659b	1.4093508
26	0x3fae90a6	1.3637893
27	0x3f939093	1.1528496
28	0x3fa2019e	1.2656744
29	0x3f9b927d	1.215408
30	0x3fa4a038	1.2861395
31	0x3fa9d1b2	1.3267119
32	0x3f9788ab	1.1838583
33	0x3f9516f7	1.1647633
34	0x3f9b3905	1.2126776
35	0x3fa472cc	1.2847533
36	0x3f9b103f	1.2114333
37	0x3f933051	1.149912
38	0x3f9e3462	1.2359736
39	0x3fa64f4c	1.299295
40	0x3fac6710	1.3468952
41	0x3fa5dab2	1.2957366
42	0x3fa33f10	1.275362
43	0x3f9b8c1b	1.2152132
44	0x3fa16614	1.2609277
45	0x3faf4718	1.3693571
46	0x3f993e8c	1.1972213
47	0x3fa7c875	1.310805
48	0x3fa9ab19	1.325534
49	0x3f985f7f	1.1904143
50	0x3fa01891	1.2507497
51	0x3f9f9b41	1.2469255
52	0x3fa0a332	1.2549803
53	0x3f8a0323	1.0782207
54	0x3f9769c3	1.1829151
55	0x3fa2a5dc	1.2706866
56	0x3fa33794	1.2751336
57	0x3f9eb453	1.239878
58	0x3f8f131e	1.1177709
59	0x3fa914f8	1.3209524
60	0x3f8dc0d0	1.1074467
61	0x3fa1bc10	1.2635517
62	0x3f9f963a	1.246772
63	0x3fa04b4a	1.2522976

bias f4 [64]
0	0x3d40906b	0.047012728
1	0x3d7ab76d	0.061210085
2	0x3d3593a7	0.044330265
3	0x3dc3d89d	0.095628
4	0x3b6f9666	0.003655815
5	0x3a8d4880	0.0010779053
6	0x3df621e0	0.1201818
7	0x3de53989	0.111926146
8	0x3da973a6	0.08274011
9	0x3db13dbd	0.08654354
10	0x3db01346	0.08597426
11	0x3e05ff5b	0.13085692
12	0x3dc016b9	0.09379334
13	0x3dc20368	0.09473306
14	0x3defa220	0.11700845
15	0x3b85dbcf	0.004085041
16	0x3dc3a93a	0.09553762
17	0x3d8c8fc6	0.0686336
18	0x3de0cdce	0.10976754
19	0x3d60b86d	0.054863382
20	0x3def7857	0.11692875
21	0x3e0b6fc7	0.13616858
22	0x3e1cc602	0.15309909
23	0xbd855815	-0.06510941
24	0x3e032608	0.12807477
25	0x3dec1ede	0.11529325
26	0x3e2f202a	0.17102113
27	0xbb6afb57	-0.0035855377
28	0x3deb0ee4	0.114774495
29	0x3dc62336	0.09674685
30	0x3db0cd54	0.08632913
31	0x3e0acc9e	0.13554618
32	0xbc19d143	-0.009388271
33	0xbd0c37d9	-0.034232948
34	0x3b69307f	0.0035581884
35	0x3dd5f1c1	0.104465015
36	0x3e0bc53a	0.13649455
37	0x3d92ca45	0.07167486
38	0x3de61cde	0.11235975
39	0x3df18e72	0.117947474
40	0x3d3fa981	0.04679251
41	0x3d7aaba0	0.06119883
42	0x3d1f258f	0.038854178
43	0x3de19b3f	0.11015939
44	0x3dfe66fa	0.12421985
45	0x3e0becf9	0.13664617
46	0x3d99f580	0.075175285
47	0x3da206c8	0.0791145
48	0x3e0618c8	0.13095391
49	0x3ce12d19	0.027487325
50	0x3d9b42e7	0.0758112
51	0x3e0de3f8	0.13856494
52	0x3d3600e2	0.044434436
53	0x3d293b03	0.041316044
54	0x3d9e4563	0.07728078
55	0x3d9f714a	0.0778528
56	0x3e0434d3	0.12910776
57	0x3d81df91	0.0634147
58	0x3d2d2a7f	0.042276856
59	0x3e06b8f3	0.1315649
60	0xbd05175b	-0.032492977
61	0x3e103c31	0.14085461
62	0x3c964c26	0.018346857
63	0x3de00b89	0.109397

running_mean f4 [64]
0	0x3f04673c	0.51720023
1	0xbe3b0c2e	-0.18266365
2	0xbecb3afd	-0.39693442
3	0x3e3bd670	0.1834352
4	0x3f28e045	0.6596721
5	0x3f9ac085	1.2090002
6	0xbf8500cd	-1.0390869
7	0xbfcb4421	-1.5880166
8	0x3fd3700c	1.6518569
9	0xbfbd99e0	-1.4812584
10	0xbf82c2a2	-1.0215647
11	0xbebd0d9f	-0.36924455
12	0x3fbaf87a	1.4607079
13	0xbf2a88e7	-0.66615146
14	0xbf4e4f54	-0.80589795
15	0x3f77ccf0	0.96797085
16	0x3fc688dc	1.5510516
17	0x3f46addc	0.7760904
18	0x3c0b6884	0.008508805
19	0xbf2cdb7d	-0.6752241
20	0x3e41a49a	0.18910447
21	0xbfbe37ef	-1.486082
22	0xbfd9ac93	-1.700579
23	0xbf1dd16a	-0.61647666
24	0x3ee5e422	0.44900614
25	0xc0197cd3	-2.3982437
26	0xc0215c32	-2.5212522
27	0x3f500ba9	0.8126779
28	0xc0139bc1	-2.3063815
29	0xbfd76cf0	-1.683012
30	0xc0101da4	-2.2518091
31	0xbe6499da	-0.22324315
32	0x3d272ed6	0.04081615
33	0xbe974228	-0.2954266
34	0x3ecd9da7	0.40159342
35	0x3f8831bd	1.0640179
36	0x3f44afc8	0.7683072
37	0x3e107fdd	0.14111276
38	0xbd33c9a1	-0.04389346
39	0x3ecb94ba	0.39761907
40	0xbf4abfb6	-0.7919878
41	0xbfced62d	-1.6159111
42	0xbfbeba74	-1.4900651
43	0x3fc9da34	1.5769715
44	0xbffc1f56	-1.9697063
45	0xc02f266a	-2.7367196
46	0x3f8c719d	1.0972172
47	0xbfa4688d	-1.2844406
48	0xbfe9c4db	-1.82632
49	0xbf30fac4	-0.6913264
50	0x3fd35945	1.6511618
51	0x3f1d1752	0.6136371
52	0xbed4b169	-0.41541603
53	0xbd8daa78	-0.0691728
54	0xbd1d5d84	-0.03841926
55	0xbfcabeb9	-1.5839454
56	0x3f9b0c63	1.2113155
57	0x3fb30590	1.3986073
58	0x3f43ae53	0.7643787
59	0xbf9a225d	-1.2041737
60	0x3fcbb548	1.5914698
61	0x3f84f12e	1.0386102
62	0x3eee2eef	0.46520182
63	0x3fbe15e1	1.4850427

running_var f4 [64]
0	0x3fbca9e7	1.473935
1	0x3fbba48b	1.465959
2	0x3f957fef	1.1679667
3	0x3feaaf3b	1.8334726
4	0x3fdc6e43	1.7221149
5	0x3fa8bc22	1.3182414
6	0x3fbee3b2	1.4913237
7	0x3ff73c25	1.931523
8	0x3fba48ce	1.4553468
9	0x4004ac8b	2.0730312
10	0x3fea349c	1.8297305
11	0x3fd0e0d6	1.6318614
12	0x3fcdff3f	1.609352
13	0x3facd46b	1.3502325
14	0x3fa2a426	1.2706344
15	0x3fcb583a	1.58863
16	0x3fa5b691	1.294634
17	0x3fcc52ee	1.5962808
18	0x3fc06952	1.5032141
19	0x3fba105e	1.4536245
20	0x3fbe887b	1.48854
21	0x3f9d94e7	1.2311066
22	0x3f9d563c	1.2291942
23	0x3fc3f882	1.5310214
24	0x3fd05b80	1.6277924
25	0x40010513	2.0159347
26	0x3fe4c388	1.7872171
27	0x3fa91a3d	1.3211132
28	0x3ff7cedc	1.9360003
29	0x3f93290b	1.14969
30	0x3fd7013f	1.6797255
31	0x3f8d1601	1.102234
32	0x3fa7b6b0	1.3102627
33	0x3fc6fce2	1.5545924
34	0x3ffcd263	1.9751705
35	0x3fa50bf4	1.2894273
36	0x3fc6a680	1.5519562
37	0x3fbfc254	1.4981179
38	0x3fb551dc	1.4165606
39	0x3fabe205	1.3428351
40	0x3fc6267b	1.5480493
41	0x3ff0d22b	1.8814138
42	0x3fb5fdba	1.4218056
43	0x3fe8e071	1.8193494
44	0x3fdb5058	1.7133894
45	0x3ffa7aad	1.9568688
46	0x40014259	2.0196745
47	0x40221616	2.532598
48	0x3fd49ae3	1.6609768
49	0x3f9c3a72	1.2205336
50	0x3fba7c1d	1.4569126
51	0x3fd1c520	1.6388283
52	0x3fc7a8ef	1.559843
53	0x40040527	2.0628145
54	0x3f83798f	1.0271472
55	0x3f9698f0	1.1765423
56	0x3fa4a0bb	1.2861551
57	0x3fcea3e8	1.614377
58	0x3fb512da	1.4146378
59	0x3fb401db	1.4063066
60	0x3fc1b0e2	1.5132105
61	0x3fc665b7	1.5499791
62	0x3fa9643f	1.3233718
63	0x3fb3aafe	1.4036558

weight f4 [12, 64, 3, 3]
0	0xbbc92a0c	-0.0061390456
1	0xbda63adf	-0.081166975
2	0x3d65dce2	0.056118853
3	0x3d376606	0.04477503
4	0x3d50d22b	0.05098168
5	0x3dc886c1	0.09791327
6	0x3d802788	0.0625754
7	0xbdf652e5	-0.120275296
8	0xbe1c0496	-0.15236124
9	0x3c06a589	0.008218178
10	0x3d3fba62	0.046808608
11	0xbcc6c9f4	-0.02426622
12	0xbde52fda	-0.111907676
13	0x3d8115c0	0.063029766
14	0x3dc2d9b4	0.0951418
15	0xbe2d9212	-0.16950253
16	0xbd0952eb	-0.033526342
17	0x3bfa7ff1	0.0076446463
18	0xbc3ea247	-0.01163537
19	0x3ceadbd8	0.028669283
20	0x3e2f7698	0.17135084
21	0xbe00751e	-0.12544677
22	0xbc543962	-0.012953134
23	0xbd873d08	-0.06603438
24	0xbdf21166	-0.11819725
25	0xbd3d044c	-0.046146676
26	0xbb246a14	-0.0025087642
27	0xbc81a79b	-0.01582699
28	0xbda22061	-0.07916332
29	0xbc9cb283	-0.01912809
30	0x3c83dc33	0.01609621
31	0xbd0882d9	-0.03332791
32	0x3e09a872	0.13443163
33	0xbe995a26	-0.2995159
34	0xbdd37748	-0.103254855
35	0x3d2445e6	0.040105723
36	0x3cf7f0f6	0.030266266
37	0xbdea82c8	-0.11450726
38	0xbdbc45b9	-0.09192986
39	0x3b95fd7b	0.0045773364
40	0xbd87b872	-0.06626977
41	0x3d38aa57	0.045084324
42	0x3dc6c004	0.09704593
43	0xbcc72465	-0.024309346
44	0x3c8187f7	0.015811903
45	0x3d685961	0.056725863
46	0x3bb0b514	0.00539268
47	0x3de3ab8f	0.111167066
48	0xbd63aee9	-0.05558673
49	0x3d45e482	0.048313625
50	0x3c993b9a	0.018705178
51	0x3d2f7fce	0.042846493
52	0x3e049411	0.12947108
53	0x3e06a725	0.13149698
54	0xbd9f5ba7	-0.07781153
55	0xbd5b6f78	-0.0535731
56	0x3df77323	0.120825075
57	0xbcc5b1d1	-0.024132641
58	0xbe19868c	-0.14992732
59	0xbe24e11b	-0.16101496
60	0xbe8efa33	-0.27925262
61	0x3dbad49c	0.09122583
62	0x3df81959	0.1211421
63	0x3d4b0722	0.04956735
64	0x3d5ff467	0.05467644
65	0xbcc5d0e5	-0.02414746
66	0xbcb6e212	-0.022324596
67	0x3b18c619	0.0023311435
68	0x3d12760d	0.035757113
69	0xbccaef53	-0.024772322
70	0x3c53b89f	0.012922435
71	0xbe081871	-0.13290574
72	0x3e33735e	0.17524478
73	0xbd4e71ef	-0.050401624
74	0x3d106bd0	0.035259068
75	0x3e0e922c	0.13922948
76	0x3cabc6e9	0.020968871
77	0x3dd8fb29	0.1059478
78	0xbc4d9dfb	-0.0125498725
79	0xbdd74587	-0.10511308
80	0xbdf2596d	-0.11833463
81	0x3d1bd8f0	0.038048685
82	0x3d37f4a0	0.044911027
83	0x3d4b9d9a	0.049710847
84	0xbd7962e2	-0.060885318
85	0x3d2c19b9	0.04201672
86	0xbca5fc01	-0.020261766
87	0xbdf19c12	-0.11797346
88	0xbe29e0dc	-0.16589683
89	0xbe731f34	-0.23742372
90	0xbe1719c9	-0.1475593
91	0x3d5a84b8	0.053349227
92	0x3e1584f7	0.14601503
93	0xbafd9e3a	-0.0019349523
94	0xbcd86d50	-0.026419312
95	0xbd718ebb	-0.05897401
96	0xbe166ce3	-0.14689974
97	0xbddffb7b	-0.10936638
98	0x3da0f43c	0.07859084
99	0xbd8b28ee	-0.06794916
100	0xbd85ea1c	-0.065387934
101	0x3d2a2177	0.04153582
102	0x3c97ecf4	0.018545605
103	0x3d6697e1	0.056297187
104	0xbe1ff8ae	-0.15622208
105	0x3dddd147	0.10830932
106	0xbdb97447	-0.09055381
107	0xbd22c270	-0.03973621
108	0x3a58915e	0.00082614075
109	0x3baa3ce6	0.005195248
110	0x3d9b213e	0.075747
111	0xbd0ee6bb	-0.03488801
112	0xbc73f0db	-0.014888967
113	0x3d44dca9	0.048062
114	0x3d1ab2ab	0.037768047
115	0xbc9c6980	-0.019093275
116	0x3e0baf94	0.13641196
117	0xbd8aed89	-0.067835875
118	0xbdacdef0	-0.084409595
119	0x3d2cfcc1	0.042233232
120	0x3dc0685a	0.093949035
121	0x3dad2726	0.084547326
122	0x3d9435ac	0.072367996
123	0xbe3b92d7	-0.18317734
124	0xbd8bae60	-0.06820369
125	0xbe11519f	-0.14191292
126	0xbe16aa7d	-0.14713474
127	0xbd750cd9	-0.059826706
128	0x3cf29821	0.029613556
129	0x3da66d62	0.08126332
130	0xbd7d1f97	-0.061797705
131	0xbe23196a	-0.15927663
132	0xbe28aeac	-0.16472882
133	0xbe3c57a4	-0.18392807
134	0x3c738efa	0.014865631
135	0x3d81293d	0.06306694
136	0x3cb23830	0.021755308
137	0x3cda7799	0.026668357
138	0xbe3035f3	-0.1720808
139	0x3d4e086d	0.050301004
140	0xbd828d34	-0.063745886
141	0xbe1d13b7	-0.15339552
142	0xbd18d0b3	-0.037308406
143	0xbc0c55ad	-0.008565349
144	0x3e0cff51	0.1376927
145	0x3de16fcd	0.110076524
146	0x3baceba5	0.0052771145
147	0x3db0e926	0.086382195
148	0x3d1c7429	0.038196716
149	0x3d6872af	0.056749996
150	0xbd56088d	-0.05225425
151	0x3c0d24ce	0.008614732
152	0xbde690b9	-0.112580724
153	0xbc0d41e8	-0.00862167
154	0x3c96e1d7	0.018418236
155	0xbd0819ec	-0.033227846
156	0x3df5f23d	0.12009094
157	0x3cfb33ef	0.030664412
158	0x3d8798a9	0.066209145
159	0xbe454a3e	-0.19266602
160	0xbe2173e6	-0.15766868
161	0xbdb780fd	-0.089601494
162	0xbd6579c4	-0.056024328
163	0x3c721cac	0.014777344
164	0xba07c0f1	-0.0005178592
165	0x3df4e723	0.11958148
166	0x3cdec684	0.027194269
167	0x3d35e3b5	0.04440661
168	0xbe946c2f	-0.28988788
169	0xbdc4bd1b	-0.096063815
170	0xbe0a8f6c	-0.13531274
171	0x3dabb2a4	0.08383682
172	0xbd4586a3	-0.048224103
173	0x3d18e8e7	0.037331488
174	0x3d201145	0.03907897
175	0x3de67314	0.11252418
176	0x3cc6eafa	0.024281967
177	0x3dc9ca84	0.0985308
178	0xbd2899c3	-0.041162264
179	0xbdf17da2	-0.11791541
180	0xbd529e35	-0.05142041
181	0xbd76d3ea	-0.06026069
182	0xbd9de191	-0.07709039
183	0x3cce8894	0.02521161
184	0xbe04fe7b	-0.12987702
185	0xbbc19e17	-0.0059087384
186	0xbd213ac1	-0.039362673
187	0xbe17617e	-0.14783284
188	0xbd0edb76	-0.034877263
189	0xbd4503b5	-0.04809924
190	0xbdc3a122	-0.09552218
191	0xbd922615	-0.0713617
192	0xbd065fa7	-0.032806065
193	0x3d50a5de	0.050939433
194	0xbd5ee0a7	-0.054413464
195	0xbc16b6a7	-0.009198821
196	0xbda68782	-0.08131315
197	0xbcaabde9	-0.02084251
198	0x3d6db567	0.058034327
199	0xbc3bce0d	-0.011462701
200	0x3a53d32d	0.0008080479
201	0xbd2017f7	-0.039085355
202	0x3d2ebeec	0.042662546
203	0xbd96ccf0	-0.073633075
204	0xbbba3b88	-0.005683366
205	0xbdbfc47c	-0.09363648
206	0xbdcd5ef7	-0.10027879
207	0x3d974abd	0.07387302
208	0x3d30613d	0.043061484
209	0xbc4ace62	-0.012378307
210	0xbe34ad90	-0.17644334
211	0xbe001646	-0.12508497
212	0xbdec8cf7	-0.115503244
213	0xbd9ee959	-0.07759351
214	0xbdb894aa	-0.090127304
215	0xbe20fb76	-0.15720925
216	0xbd412af8	-0.04716012
217	0x3b61ba12	0.0034443182
218	0xbc14f71f	-0.009092121
219	0x3d455433	0.048176
220	0x3d948959	0.072527595
221	0x3c3055f8	0.010762684
222	0x3db6ad1f	0.08919739
223	0xbd821fbc	-0.06353709
224	0x3d18c02a	0.037292637
225	0xbc247f79	-0.0100401575
226	0xbcb6787d	-0.02227425
227	0x3d03c1f2	0.032167383
228	0xbd7dfa16	-0.06200608
229	0xbded71cb	-0.1159397
230	0xbc1d47ed	-0.009599668
231	0xbe0db06d	-0.13836832
232	0xbe095f89	-0.1341535
233	0xbd95bd83	-0.07311537
234	0xbe256cc7	-0.16154777
235	0xbe32caa2	-0.17460111
236	0xbccacf85	-0.024757156
237	0xbe1a076e	-0.15041897
238	0x3d23e357	0.04001173
239	0x3d93ebea	0.072227314
240	0xbdb2fecd	-0.08740006
241	0xbce56b8d	-0.028005386
242	0xbd44200a	-0.047882117
243	0x3cdf690c	0.02727177
244	0x3c867988	0.016415372
245	0xbdb32b14	-0.08748451
246	0xbe10e147	-0.14148436
247	0xbe14b84b	-0.14523427
248	0xbd8cc24e	-0.06872998
249	0xbba58f35	-0.005052472
250	0x3c12287e	0.008920787
251	0xbc56fdc2	-0.013122024
252	0xbe290eb3	-0.16509514
253	0xbe1ba508	-0.15199673
254	0xbdfa30fc	-0.12216374
255	0xbd58ea61	-0.052957896

bias f4 [12]
0	0xbd0c88ed	-0.03431027
1	0xbd6046db	-0.054755073
2	0x3d24bc0a	0.04021839
3	0x3c115859	0.008871161
4	0xbc577ef8	-0.01315283
5	0xbd854973	-0.0650815
6	0x3cce0ad5	0.02515165
7	0xbda01c3b	-0.078178845
8	0xbd815fbb	-0.06317087
9	0xbd191c7f	-0.03738069
10	0xbd0d36d9	-0.034476135
11	0xbd89800d	-0.06713877

weight f4 [64, 12, 3, 3]
0	0xbd09d350	-0.03364879
1	0x3dfe8ed4	0.12429586
2	0x3d5084ab	0.050907772
3	0xbdd4b9ce	-0.10387002
4	0x3d300a67	0.04297867
5	0x3c806999	0.015675353
6	0xbd10e745	-0.035376806
7	0xbd844437	-0.064583234
8	0xbd3cb2e3	-0.046069037
9	0xbde1e3af	-0.11029755
10	0xbd93abcf	-0.07210504
11	0xbc7a0634	-0.015260268
12	0xbd4a9214	-0.049455717
13	0x3bfcfc2f	0.0077204923
14	0xbc347567	-0.011014319
15	0x3d9430af	0.07235848
16	0x3c9fd9a9	0.019512968
17	0xbbddeaf6	-0.0067723943
18	0x3d0d5658	0.034506172
19	0xbb7bead5	-0.0038439531
20	0xbbbc9f9b	-0.005756331
21	0x3d461011	0.048355166
22	0xbd3080a4	-0.04309143
23	0xbd7fb90f	-0.062432345
24	0xbc604aa0	-0.013689667
25	0xbca1867f	-0.019717453
26	0xbc6aaf27	-0.014323986
27	0xbd296e2e	-0.04136484
28	0xbcdbfa37	-0.02685271
29	0xbd4341fc	-0.04767035
30	0x3ac0153b	0.0014654765
31	0x3d32801c	0.043579206
32	0xbc91d233	-0.017800426
33	0xbc8ac3cd	-0.016939068
34	0xbb95c1d4	-0.0045702253
35	0xbca64ad1	-0.020299347
36	0xbd158e9d	-0.03651296
37	0xbc10de5d	-0.008842078
38	0xbbaaa6d5	-0.005207876
39	0xbc20d4c4	-0.009816352
40	0xbcc56698	-0.024096772
41	0xbcbea1de	-0.023270544
42	0x3cc226eb	0.023700198
43	0x3ccc24cd	0.024919892
44	0x3c5d477d	0.013505814
45	0x3acb8e6f	0.0015530119
46	0x3d3ecc55	0.046581585
47	0xbd19fe7f	-0.037596222
48	0xbc2adc79	-0.010428541
49	0x3cb2f9ae	0.021847572
50	0xba495aa3	-0.00076810474
51	0xbd3ae9bd	-0.045633066
52	0xbd9d9945	-0.076952495
53	0xbd0321a3	-0.0320145
54	0x3cb02df3	0.021506285
55	0xbd64017a	-0.05566547
56	0x3b726ea2	0.0036992212
57	0xbd021699	-0.031759832
58	0xbd2da978	-0.042397946
59	0xbc52c0e1	-0.012863369
60	0xbcfec55c	-0.031099968
61	0x3c8f5dda	0.017500807
62	0x3c92f22f	0.017937748
63	0xbb96b556	-0.0045992536
64	0x3d0973c5	0.033557672
65	0xbc5758f7	-0.013143769
66	0x382ba355	4.0921692e-05
67	0x3d8939eb	0.067005
68	0xbaf5447f	-0.001871243
69	0xbcf983bf	-0.03045833
70	0xbd0e5535	-0.03474923
71	0xbd0d6ce7	-0.034527685
72	0xbcbb6232	-0.022873972
73	0xbca430e5	-0.020042846
74	0xbc98dbe2	-0.018659536
75	0xbc7f825b	-0.015595044
76	0xbc5868b3	-0.013208556
77	0x3c4c2d1f	0.01246193
78	0x3cbf93a6	0.023385834
79	0xbc30adbe	-0.010783611
80	0xbd70000e	-0.058593802
81	0x3d5d0f99	0.053969953
82	0xbd930c74	-0.071801096
83	0xbd325a37	-0.043543067
84	0x3d5f1542	0.054463632
85	0xbd0403ac	-0.032230064
86	0x3bd51515	0.0065027573
87	0xbc9feced	-0.019522155
88	0xbd0439e6	-0.03228178
89	0x3cc0e039	0.023544418
90	0xbd026794	-0.03183706
91	0xbd4efd76	-0.050534688
92	0xbd091b7a	-0.03347347
93	0xbcf37c18	-0.029722258
94	0x3cf5d725	0.030009815
95	0x3bf31375	0.007418091
96	0xbd84c89e	-0.06483577
97	0xbcd180a6	-0.02557404
98	0xbcb143d4	-0.021638788
99	0xbc8e4e73	-0.017371392
100	0x3c93eed2	0.018058214
101	0xbd5a1f88	-0.053252727
102	0x3d3e0d96	0.046399675
103	0x3cc98f7b	0.02460455
104	0xbd778757	-0.060431805
105	0x3bbc6368	0.005749155
106	0xbd1dcb97	-0.038524237
107	0xbd882122	-0.066469446
108	0x3d856560	0.06513476
109	0x3d9256e3	0.071454786
110	0x3d574169	0.052552614
111	0x3d174980	0.03693533
112	0xbd3b7d95	-0.04577406
113	0x3c4ab182	0.012371423
114	0x3bbcc332	0.005760574
115	0xbce5b998	-0.0280426
116	0xbc9241fb	-0.017853728
117	0xbd95b54f	-0.073099725
118	0x3c02ba95	0.007979055
119	0x3da43de1	0.08019615
120	0xbc44e2cf	-0.012016966
121	0x3c031fda	0.0080031995
122	0x3d7e47b4	0.0620801
123	0xbc91fc7a	-0.017820586
124	0x3c21e9c8	0.009882398
125	0x3cd5797d	0.026058907
126	0x3c316611	0.010827557
127	0x3d6b1fae	0.05740326
128	0x3c25144d	0.010075641
129	0x3d839bf6	0.064262316
130	0x3d149615	0.036275942
131	0x3b5f75a3	0.0034097217
132	0xbc8c84da	-0.017153192
133	0xbc621a83	-0.013800266
134	0xbd17ecf9	-0.03709123
135	0x3d958568	0.07300836
136	0x3d83d737	0.06437533
137	0x3ce90b2c	0.02844771
138	0xbbd33162	-0.006445096
139	0xbbd126c4	-0.006382795
140	0xbd02c770	-0.03192848
141	0xbcd77c36	-0.026304346
142	0xbd122fb1	-0.035690013
143	0xbd202f1e	-0.039107434
144	0x3d00f586	0.03148415
145	0xbd4a8964	-0.049447432
146	0x3c56ed60	0.013118118
147	0x3c9e31fc	0.019310944
148	0xbc43674b	-0.011926482
149	0x3d2c8f74	0.042128995
150	0x3ccb9870	0.024852961
151	0x3cbb7939	0.022884952
152	0x3daacd28	0.08339912
153	0x3ce651a2	0.028115097
154	0x3d4c48b9	0.04987404
155	0x3d4a72b5	0.0494258
156	0xbc8f4bcd	-0.0174922
157	0x3a01e286	0.0004954714
158	0xbb80d2ae	-0.003931365
159	0x3a871a69	0.0010307553
160	0x3d8d4239	0.068973966
161	0x3d07d51e	0.03316223
162	0xbc1e2bd9	-0.009654009
163	0x3dacd98a	0.0843993
164	0x3dbd27e2	0.09236123
165	0xbcdab6fe	-0.026698586
166	0x3caa23de	0.020769056
167	0x3d809a0b	0.06279381
168	0xbd9e9bc2	-0.07744552
169	0x3ad2a478	0.0016070744
170	0x3c47aa00	0.012186527
171	0x3cadbe97	0.021209044
172	0x3c0f4847	0.00874526
173	0x3d36ac00	0.044597626
174	0xbb958c3d	-0.004563837
175	0xbd3f007e	-0.04663133
176	0xbd0ae49a	-0.033909418
177	0x3cb7fcfb	0.022459498
178	0x3cdfd385	0.02732254
179	0x3d028473	0.031864595
180	0xbbafe1a8	-0.0053674765
181	0xbc7fa7ab	-0.01560394
182	0x3bf1f2df	0.007383689
183	0xbcb77692	-0.022395406
184	0xbcf56b94	-0.029958524
185	0xbcb3525c	-0.021889858
186	0x3ca3ed1b	0.020010522
187	0x3ccaea1b	0.024769833
188	0x3d404e51	0.04694969
189	0xbd3dd320	-0.046343923
190	0xbd9bcfca	-0.07607992
191	0x3d36a376	0.044589482
192	0xbbb44909	-0.0055018705
193	0xbc5495ba	-0.012975151
194	0x3cc30077	0.023803933
195	0x3cae63ee	0.021287885
196	0xbc6b7ce0	-0.014373034
197	0x3c4eb6ac	0.012616795
198	0x3d3d2d37	0.0461857
199	0xbca812b9	-0.02051674
200	0xbdb0451e	-0.08606933
201	0x3b8ed4b4	0.0043588523
202	0x3b722848	0.003695028
203	0x3cb9e8b0	0.022693962
204	0xbc4eb069	-0.012615302
205	0xbcd0dead	-0.025496805
206	0x3d2a9256	0.041643463
207	0x3cf3cf42	0.029761914
208	0xbd0f6eec	-0.035017893
209	0x39160ffd	0.00014311071
210	0x3d203bf3	0.039119672
211	0x3c33d9ee	0.010977251
212	0xbcdaf377	-0.026727421
213	0x3a9c7a3b	0.0011938283
214	0x3cd14a91	0.025548251
215	0xbbf52eff	-0.007482409
216	0xbcd7aa55	-0.026326338
217	0x3c5664ec	0.013085585
218	0x3c9cb565	0.019129464
219	0xbc8aa82b	-0.016925892
220	0xbc2a9dab	-0.010413568
221	0x3d25977b	0.040427666
222	0x3cb7da9b	0.022443106
223	0x3cfa0704	0.030520923
224	0xbc8014c4	-0.015634902
225	0xbd7086b5	-0.058722217
226	0x3bb88593	0.0056311577
227	0xbd2e4b02	-0.042552
228	0x3d3c39b1	0.045953456
229	0xbb1a626b	-0.0023557197
230	0xbc055f1f	-0.008140354
231	0x3cc0cccb	0.023535153
232	0x3c10242e	0.008797688
233	0x3d513579	0.051076386
234	0x3d1931d7	0.037401047
235	0x3d0cf511	0.0344134
236	0xbcd4e215	-0.02598671
237	0xbc821f53	-0.015884077
238	0xbc8ef42e	-0.017450418
239	0xbd0e4150	-0.034730256
240	0x3d5d657d	0.054051865
241	0x3cb8d27f	0.02256131
242	0xbca166a6	-0.019702267
243	0x3a6af6b7	0.0008963155
244	0xbcabac47	-0.020956172
245	0x3c80d7bb	0.015727868
246	0xbc8ed63c	-0.01743614
247	0xbd1edf8f	-0.03878742
248	0x3bb5f544	0.0055529196
249	0x3c9e5994	0.019329824
250	0x3c8b5bad	0.017011488
251	0x3cc1ef45	0.023673663
252	0xbb3decbd	-0.0028980218
253	0xbcb762ff	-0.022386072
254	0x3c6632bb	0.014050181
255	0x3d121af7	0.035670247

bias f4 [64]
0	0xbb7cc70e	-0.0038570794
1	0xbd976374	-0.07392016
2	0x3d029336	0.031878673
3	0x3ca38d2b	0.019964775
4	0x3e061fe1	0.13098098
5	0x3d950913	0.072771214
6	0x3d210ae4	0.039317027
7	0xbe02e633	-0.12783127
8	0x3d4875b4	0.048940375
9	0x3d26b76e	0.040702276
10	0xbea6f38f	-0.32607695
11	0x3dba35e4	0.0909231
12	0x3e5f0f2f	0.21783136
13	0xbdb9c380	-0.09070492
14	0xbe0ce76e	-0.13760158
15	0x3eb2c49e	0.34915632
16	0x3cdf5b26	0.027265143
17	0xbd03d947	-0.032189634
18	0xbd83ee52	-0.0644194
19	0xbb13b410	-0.0022537746
20	0xbd34e0d1	-0.044159714
21	0xbe503730	-0.20333552
22	0xbe0afddf	-0.13573407
23	0xbb63a676	-0.003473667
24	0x3d941d6c	0.07232174
25	0x3d963012	0.073333874
26	0xbe02176a	-0.12704244
27	0x3c513e2c	0.012771171
28	0x3d68e6cc	0.05686073
29	0xbe63ab24	-0.22233254
30	0xbb81a436	-0.003956343
31	0xbd9ef101	-0.077608116
32	0x3dc4c21d	0.09607337
33	0x3d341f8f	0.04397541
34	0xbd16bb0a	-0.036799468
35	0xbb2d59f4	-0.0026451321
36	0x3be187a5	0.006882625
37	0x3cd315c7	0.02576722
38	0xbd79a824	-0.060951367
39	0xbd8a1020	-0.06741357
40	0x3d874d1b	0.066065036
41	0x3d8575cc	0.065166086
42	0xbea3544e	-0.31900257
43	0xbd99f8a5	-0.07518128
44	0x3d74f57a	0.059804417
45	0x3e1839fc	0.1486587
46	0x3d9ef6b0	0.07761896
47	0xbe37e7e4	-0.17959553
48	0x3d156dff	0.036481854
49	0x3d0f5330	0.034991443
50	0x3dded8fc	0.1088123
51	0x3e03a94e	0.12857553
52	0x3dc42885	0.09578041
53	0x3d3b579b	0.045737844
54	0xbde5e6ef	-0.11225688
55	0xbda70947	-0.081560664
56	0x3d7537d6	0.059867702
57	0xbd5e6df2	-0.05430407
58	0xbe2c2d9e	-0.16814277
59	0xbc9abcc0	-0.018888831
60	0xbce6cf48	-0.028175011
61	0xbcf75d52	-0.030195866
62	0x3d41e05f	0.047333118
63	0xbd7569c0	-0.059915304

weight f4 [64]
0	0x3f92f573	1.1481155
1	0x3f83eb21	1.0306131
2	0x3f709106	0.9397129
3	0x3f9b8caa	1.2152302
4	0x3f6f7741	0.9354134
5	0x3f7c2a40	0.9850197
6	0x3f751cc2	0.95747006
7	0x3f7cbb8b	0.9872367
8	0x3f8771e9	1.0581638
9	0x3f78ef76	0.9724039
10	0x3f82f50f	1.0231036
11	0x3f878a44	1.058907
12	0x3f87ae03	1.0599979
13	0x3f8d8341	1.105568
14	0x3f66f379	0.9021526
15	0x3f82ec40	1.0228348
16	0x3f8033a0	1.0015755
17	0x3f7c01f2	0.9844047
18	0x3f6b9527	0.92024463
19	0x3f6b52d8	0.91923285
20	0x3f8a9cdd	1.0829121
21	0x3f8ec05c	1.1152453
22	0x3f7511a6	0.95730054
23	0x3f7cd390	0.9876032
24	0x3f59b11c	0.8503587
25	0x3f76adad	0.9635876
26	0x3f70ba53	0.9403431
27	0x3f822a04	1.0169072
28	0x3f6d76eb	0.9275958
29	0x3f622299	0.8833404
30	0x3f7212bd	0.9455984
31	0x3f6b5a8a	0.91935027
32	0x3f7e66af	0.9937543
33	0x3f809b72	1.0047438
34	0x3f6cef95	0.92553073
35	0x3f70886d	0.9395817
36	0x3f794ba8	0.9738107
37	0x3f6d94f7	0.9280543
38	0x3f829c04	1.0203862
39	0x3f69885b	0.91223687
40	0x3f85283a	1.0402901
41	0x3f8155b4	1.010428
42	0x3f7532c8	0.9578061
43	0x3f77cf71	0.96800905
44	0x3f6f5af0	0.93498135
45	0x3f72b204	0.9480288
46	0x3f6dbe61	0.9286862
47	0x3f6c5c24	0.92328095
48	0x3f7de64d	0.99179536
49	0x3f804aa0	1.0022774
50	0x3f7684f5	0.96296626
51	0x3f658df0	0.89669704
52	0x3f70ce13	0.94064444
53	0x3f6fc39a	0.9365784
54	0x3f939a34	1.1531434
55	0x3f7170cd	0.94312745
56	0x3f728ecd	0.94749147
57	0x3f6d1468	0.9260926
58	0x3f6ae860	0.91760826
59	0x3f817c61	1.0116082
60	0x3f7ffa04	0.9999087
61	0x3f70c13c	0.9404485
62	0x3f82156f	1.0162791
63	0x3f5d1c71	0.86371523

bias f4 [64]
0	0xbea810c1	-0.32825282
1	0xbd3768d2	-0.0447777
2	0xbe15dcdb	-0.14635031
3	0xbecc8451	-0.399447
4	0xbf05f81f	-0.5233173
5	0xbe3c452c	-0.18385762
6	0xbe3d6185	-0.18494232
7	0xbeb94980	-0.3618889
8	0xbf0b19ee	-0.5433644
9	0xbdcb11fa	-0.09915538
10	0xbec7c3ab	-0.3901647
11	0xbe918db8	-0.28428435
12	0xbed4c78f	-0.415585
13	0xbefffc25	-0.4999706
14	0xbe96e9ad	-0.29475155
15	0xbef69b1a	-0.48165208
16	0xbe4a7904	-0.19772726
17	0xbde09051	-0.10965026
18	0xbdb269be	-0.08711575
19	0xbe280f75	-0.16412146
20	0xbeefb623	-0.46818647
21	0xbec84542	-0.3911534
22	0xbc944731	-0.018100353
23	0xbdb3cdfb	-0.08779522
24	0xbea946c4	-0.33061802
25	0xbe8fafaa	-0.2806371
26	0xbefdd78e	-0.49578518
27	0xbe6aad00	-0.22917557
28	0xbe768e34	-0.24077684
29	0xbee4729f	-0.446187
30	0xbd96a509	-0.07355697
31	0xbe3c89c1	-0.18411924
32	0xbd91465d	-0.07093499
33	0xbe4d2bbc	-0.20036215
34	0xbdc9590b	-0.09831437
35	0xbd20de05	-0.039274234
36	0xbeea0cd9	-0.45712927
37	0xbe3becf7	-0.18352114
38	0xbf03c112	-0.51466477
39	0xbda89f70	-0.08233535
40	0xbda5e42c	-0.08100161
41	0xbe884f2e	-0.2662291
42	0xbee3d33b	-0.44497094
43	0xbde7f254	-0.11325517
44	0xbe614460	-0.21998739
45	0xbea5c66c	-0.32377946
46	0xbdc74c9e	-0.097314104
47	0xbefd5660	-0.4947996
48	0xbd0a0fa8	-0.033706337
49	0xbe06f1af	-0.13178132
50	0xbe2aa375	-0.16663916
51	0xbeef08e7	-0.4668648
52	0xbe2822ec	-0.16419572
53	0xbe0a23be	-0.13490197
54	0xbef37fbc	-0.4755839
55	0xbebcd912	-0.36884362
56	0x3e5151a3	0.20441298
57	0xbe1cf86b	-0.15329139
58	0xbed10a8f	-0.40828368
59	0xbe920167	-0.28516695
60	0xbd19119e	-0.037370317
61	0xbee23bf1	-0.44186357
62	0xbd0364b9	-0.03207848
63	0xbe4b172b	-0.19833057
