carl/envs/mario/pcg_smb_env/toadgan/generators/v2/TOAD_GAN_6-2/generators.pth (torch, 638053 bytes, 42 tensors)

weight f4 [64, 12, 3, 3]
0	0x3c33135b	0.010929908
1	0x3d8019ed	0.06254945
2	0xbd7fa8f7	-0.062416997
3	0xbd071bdc	-0.032985553
4	0x3c744911	0.0149099985
5	0xbc20690e	-0.009790672
6	0xbc52b6c4	-0.0128609575
7	0x3d7dd74e	0.06197291
8	0xbd073300	-0.03300762
9	0xbd6ddfa0	-0.058074594
10	0xbd44d1fb	-0.048051815
11	0x3d609aea	0.054835238
12	0x3bbfd62d	0.005854389
13	0x3b79f8c4	0.003814266
14	0x3d3363d0	0.04379636
15	0x3d43b263	0.047777545
16	0xbd495624	-0.049154416
17	0x3d8c38e8	0.068467915
18	0xbcd3bd90	-0.025847226
19	0xbc36766a	-0.011136631
20	0xbcc7e80c	-0.02440264
21	0x3ce21fc1	0.027603032
22	0x3d2df520	0.042470098
23	0xbd2c1b82	-0.04201842
24	0xbd21bf82	-0.039489277
25	0xbd651863	-0.05593146
26	0x3a81e12a	0.0009909023
27	0x3b924746	0.004464063
28	0x3d815af1	0.06316174
29	0xbe02a31f	-0.12757538
30	0xbbc8429b	-0.0061114556
31	0x3cbc855f	0.023012815
32	0xbd00385c	-0.03130375
33	0x3d779ec5	0.06045415
34	0xbc1c895d	-0.009554234
35	0xbcc01ea3	-0.023452109
36	0x3d2a3707	0.041556384
37	0xbd6c3d40	-0.0576756
38	0x3d188c34	0.037243083
39	0xbcb52e77	-0.022116883
40	0xbd096e86	-0.03355267
41	0xbd086916	-0.033303343
42	0xbb1d988a	-0.002404722
43	0xbc453446	-0.012036389
44	0xbd8d1887	-0.06889444
45	0x3d384e7d	0.044996727
46	0x3b963be2	0.0045847753
47	0xbc74e045	-0.014946048
48	0x3d6d26d6	0.057898365
49	0x3c81be01	0.015837671
50	0xbc64a857	-0.013956151
51	0xbd9e3a76	-0.07725994
52	0x3d43aae2	0.04777039
53	0x3c2f968f	0.010717048
54	0x3d7e357d	0.06206273
55	0x3d34b0e9	0.044114027
56	0xbd0f90ae	-0.035050087
57	0xbc7c6274	-0.015404332
58	0x3bba5aa6	0.0056870757
59	0x3d2ff62c	0.042959377
60	0xbccbe076	-0.024887305
61	0x3bd0552d	0.00635781
62	0x3da5dabc	0.08098361
63	0xbe02e0c6	-0.12781057
64	0xbdd23d83	-0.10265639
65	0xbc9bd8aa	-0.019024212
66	0x3d1fdc4b	0.039028447
67	0xbddfe400	-0.109321594
68	0xbd0d0c76	-0.03443571
69	0xbd20cdab	-0.03925864
70	0xbdb4fcaf	-0.08837258
71	0xbd441c7a	-0.04787872
72	0xbd9aa94d	-0.07551823
73	0xbd9c40d9	-0.07629556
74	0xbd151c77	-0.0364041
75	0xbd570445	-0.052494306
76	0xbcb33eaa	-0.021880466
77	0xbd07997c	-0.03310536
78	0xbc59ac2f	-0.013285681
79	0xbdb01dcd	-0.08599434
80	0xbdca6c76	-0.098839685
81	0xbcf207a4	-0.029544659
82	0xbd82d430	-0.06388128
83	0xbcaaae0f	-0.02083495
84	0xbce7a5e4	-0.028277345
85	0x3d142c57	0.0361751
86	0x3da8f03d	0.08248947
87	0x3d645c97	0.055752363
88	0x3cd8d67d	0.026469463
89	0xbb8aa5af	-0.004231177
90	0x3d8b33e2	0.06797005
91	0x3db87bd2	0.09007992
92	0x3c4dcfda	0.012561763
93	0x3d425e46	0.047453187
94	0x3db24e73	0.08706369
95	0xbbeeeae9	-0.007291187
96	0xbd39cd3c	-0.045361742
97	0xbd72f63a	-0.05931685
98	0xbd588881	-0.052864555
99	0x3bb659f6	0.0055649234
100	0xbd13679b	-0.035987478
101	0x3ba1102c	0.004915258
102	0xbd427882	-0.047478206
103	0x3cc68ccd	0.02423706
104	0xbc365a70	-0.01112996
105	0xbca9268e	-0.020648267
106	0xbca16d04	-0.019705303
107	0xbdf53d13	-0.119745396
108	0x3b60f2bd	0.003432437
109	0x3beefaf2	0.0072930986
110	0xbd40cdaa	-0.047071137
111	0xbd301303	-0.04298688
112	0x3d96d1a7	0.07364207
113	0x3cf01e57	0.029311342
114	0x3d8f48f2	0.06996335
115	0xb9f52e9e	-0.00046764774
116	0xbda48aa0	-0.08034253
117	0xbd0eec87	-0.03489354
118	0x3da1de86	0.07903771
119	0xbd20df54	-0.039275482
120	0x3d5592b2	0.052141853
121	0xbc21685c	-0.009851541
122	0xbc3f861c	-0.011689689
123	0x3da50b6c	0.08058819
124	0xbc1927cc	-0.009347867
125	0x3d452da8	0.048139244
126	0xba83c6ab	-0.0010053715
127	0x3c6943f5	0.014237394
128	0xbd6095eb	-0.054830473
129	0xbcd3aab7	-0.02583824
130	0xbcd9ef4a	-0.02660336
131	0x3cfdb4fe	0.030970093
132	0x3d0a5f37	0.03378221
133	0x3c6be5bb	0.014398034
134	0xbdcbe134	-0.099550635
135	0xbd99c46f	-0.0750817
136	0x3c7fb5ad	0.01560728
137	0xbcc35047	-0.02384199
138	0xbd392853	-0.04520447
139	0x3bdde9aa	0.0067722397
140	0x3d23e97a	0.040017582
141	0xbd81b60d	-0.063335516
142	0xbd439c24	-0.04775633
143	0xbd00eb45	-0.03147437
144	0xbd1ac2f1	-0.037783567
145	0xbd8d3139	-0.06894154
146	0x3d8ae3c4	0.06781724
147	0x3b1ce39d	0.002393938
148	0xbc826afe	-0.015920158
149	0xbd1d913b	-0.03846858
150	0xbce6be17	-0.028166814
151	0x3b6dfc5f	0.0036313755
152	0x3d6dd82c	0.058067486
153	0x3d16c899	0.0368124
154	0x3ba36ca7	0.0049873176
155	0xbd07bd6d	-0.033139635
156	0x3be88ee3	0.0070971115
157	0x3d3e9421	0.046527985
158	0x3d029fe0	0.03189075
159	0x3cda0827	0.026615215
160	0x3cf6cc7d	0.030126804
161	0xbdbc8f7e	-0.092070565
162	0xbddf96d6	-0.109174415
163	0x3d82674c	0.063673586
164	0x3d8fd785	0.07023529
165	0xbc7ee838	-0.015558295
166	0xbb987a50	-0.0046532527
167	0x3c3c81f3	0.011505592
168	0xbc685fe0	-0.014183015
169	0x3d81b943	0.06334164
170	0x3c2091b6	0.009800365
171	0x3e21aae0	0.1578784
172	0xbdd506a7	-0.104016595
173	0x3bd5ca70	0.0065243766
174	0xbd6ad0c0	-0.057327986
175	0x3d41039e	0.04712259
176	0x3cba70a4	0.02275879
177	0x3da2bae7	0.07945805
178	0x3d24ffcf	0.04028302
179	0xbd6d1e96	-0.057890497
180	0x3b93ac37	0.0045066136
181	0x3d9aad3e	0.075525746
182	0xbc5c8700	-0.013459921
183	0xbd605622	-0.054769643
184	0xbc1d4034	-0.009597827
185	0x3cd9d873	0.026592469
186	0xbd7487d1	-0.059699837
187	0x3d254963	0.04035319
188	0xbba7dbff	-0.005122661
189	0xbc3f3e83	-0.011672619
190	0xbdb8858a	-0.090098456
191	0x3cc8a21d	0.024491364
192	0x3d853998	0.06505126
193	0xbbf36d8a	-0.0074288296
194	0xbd241bae	-0.04006546
195	0xbce6ca90	-0.028172761
196	0x3d5d30fb	0.05400179
197	0x3da1a6fb	0.07893177
198	0xbc3ef150	-0.011654213
199	0xbc7b27bd	-0.015329299
200	0xbe368910	-0.17825723
201	0xbc86cfe4	-0.016456552
202	0xbd52d194	-0.0514694
203	0x3ca254a7	0.019815756
204	0xbb861eb0	-0.0040930137
205	0xbc8b6fe1	-0.017021121
206	0xbd61aa2b	-0.055093925
207	0x3c0bb180	0.008526206
208	0xba8c650d	-0.0010711268
209	0x3bbb6214	0.005718479
210	0x3c359426	0.011082685
211	0x3c6ec036	0.014572194
212	0xbc4408ea	-0.011965016
213	0x3d0c416c	0.03424208
214	0xbb89cbfd	-0.0042052255
215	0xbcb4265b	-0.021990946
216	0xbdb17f9f	-0.0866692
217	0x3d35af22	0.044356473
218	0x3bb1e7e8	0.0054292567
219	0x3d52c57f	0.05145788
220	0xbb821df9	-0.003970858
221	0xbc20b578	-0.0098088905
222	0xbcb9a251	-0.022660406
223	0xbd2b32cd	-0.041796494
224	0xbcb160bb	-0.02165257
225	0x3d27d21a	0.040971853
226	0xbe1d086d	-0.15335245
227	0x3da64be9	0.081199475
228	0x3bf13526	0.007361072
229	0x3d11c4f3	0.035588216
230	0x3cd2517b	0.025673619
231	0x3d42662a	0.047460712
232	0xbd2bfadc	-0.041987285
233	0xbcc89610	-0.024485618
234	0xbcfffa71	-0.03124735
235	0xbc1c4cb9	-0.0095397765
236	0xbb0d8f49	-0.0021600297
237	0xbcfb8f74	-0.030708052
238	0xbcc2db3d	-0.023786182
239	0x3bbec0b8	0.0058213137
240	0xbe06a846	-0.13150129
241	0x3d548a8d	0.051889945
242	0xbdb28360	-0.08716464
243	0x3dbc2681	0.091870315
244	0x3dff6e41	0.12472201
245	0xbdb657f4	-0.089034945
246	0x3d550221	0.052003983
247	0xbd5f4600	-0.054510117
248	0x3d72f96b	0.059319895
249	0xbd7a2872	-0.061073728
250	0x3d00af8a	0.031417407
251	0x3c947a8c	0.018124841
252	0xbdb1c49c	-0.086800784
253	0xbd2b0876	-0.041756116
254	0x3db5b1f4	0.088718325
255	0xbc51fc65	-0.012816523

bias f4 [64]
0	0xbd8e7cb0	-0.06957376
1	0x3b872030	0.00412371
2	0xbd92c59a	-0.07166596
3	0xbd9be84d	-0.07612667
4	0x3db53d96	0.08849637
5	0xbbf682b5	-0.0075229057
6	0xbd6626a3	-0.05618919
7	0x3d27452b	0.040837448
8	0x3db9243f	0.090401165
9	0x3cc720e3	0.024307674
10	0xbd08be45	-0.03338458
11	0x3d8229c3	0.06355622
12	0xbd36727f	-0.044542786
13	0xbd1ce7c5	-0.03830697
14	0xbce4048a	-0.027834196
15	0xbd2b1510	-0.041768134
16	0x3df774d8	0.12082833
17	0x3ab06d93	0.001346039
18	0xbdb44c76	-0.08803646
19	0xbcb2832e	-0.021791067
20	0x3da8e7c0	0.08247328
21	0x3d046bba	0.0323293
22	0xbdb524f2	-0.088449374
23	0xbd0b06e6	-0.033942126
24	0xbcc7254c	-0.024309777
25	0x3bbf780b	0.0058431677
26	0xbd495e76	-0.04916235
27	0x3cdcd82d	0.02695855
28	0xbadb6235	-0.0016737642
29	0x3cf318a9	0.029674845
30	0x3d81c3e7	0.063361935
31	0x3d46121b	0.04835711
32	0xbc3dfceb	-0.011595945
33	0x3d4c5df9	0.049894307
34	0xbcdff954	-0.027340569
35	0xbcee09eb	-0.029057464
36	0x3d8fade1	0.07015587
37	0xbc5e77ad	-0.013578338
38	0xbcd7b1f7	-0.026329977
39	0x3c77bb19	0.015120291
40	0xbd5eddcb	-0.054410737
41	0x3d62313f	0.055222746
42	0xbcaeab1b	-0.021321824
43	0x3c9222e7	0.017838908
44	0x3c5d6f27	0.01351527
45	0x3d39b4aa	0.04533831
46	0x3ca70b77	0.020391209
47	0xbd51f966	-0.051263236
48	0x3dc74902	0.09730722
49	0x3ddd0e37	0.10793727
50	0x3daf751c	0.08567259
51	0xbd495757	-0.04915556
52	0x3e079044	0.13238627
53	0xbd0cebea	-0.034404673
54	0xbd93b4b5	-0.072122015
55	0x3dc7f7f2	0.09764089
56	0xbd8ef29b	-0.06979867
57	0x3da1d82c	0.0790256
58	0x3dec6547	0.115427546
59	0xbda1dc77	-0.079033785
60	0x3dae3dd0	0.085078835
61	0xbd1ab8d5	-0.037773926
62	0xbc189ec9	-0.009315201
63	0x3cd4c27e	0.025971647

weight f4 [64]
0	0x3f872ba8	1.0560198
1	0x3f60a9d4	0.8775914
2	0x3f81a60a	1.0128796
3	0x3f8229ab	1.0168966
4	0x3f8b1d6a	1.0868351
5	0x3f707173	0.9392311
6	0x3f7d0ef0	0.9885092
7	0x3f759a9a	0.9593903
8	0x3f6f574c	0.9349258
9	0x3f8ceafa	1.1009209
10	0x3f84e3b5	1.0381991
11	0x3f6ad2ab	0.91727704
12	0x3f82f5d2	1.0231268
13	0x3f7d4fff	0.9895019
14	0x3f8327ab	1.0246481
15	0x3f679e89	0.9047628
16	0x3f81a80e	1.0129411
17	0x3f74cb34	0.95622563
18	0x3f8127d8	1.0090284
19	0x3f81933d	1.0123059
20	0x3f889a35	1.067206
21	0x3f65f04e	0.898198
22	0x3f8766ca	1.0578244
23	0x3f78c76a	0.9717928
24	0x3f7f31d1	0.9968539
25	0x3f8be8f4	1.0930467
26	0x3f736c2c	0.9508693
27	0x3f70ec3f	0.9411048
28	0x3f8a1dd8	1.0790358
29	0x3f82c2dd	1.0215718
30	0x3f82861c	1.0197177
31	0x3f805283	1.002518
32	0x3f75b61e	0.95981014
33	0x3f8fa154	1.1221108
34	0x3f94c740	1.1623306
35	0x3f71c7c9	0.9444547
36	0x3f6b57c0	0.9193077
37	0x3f77f0f2	0.9685203
38	0x3f7f7839	0.9979282
39	0x3f6e50a0	0.93091774
40	0x3f6730e1	0.9030896
41	0x3f5f48cc	0.87220454
42	0x3f64b837	0.8934359
43	0x3f846662	1.0343745
44	0x3f78029b	0.96878976
45	0x3f8d31a6	1.1030777
46	0x3f767484	0.9627154
47	0x3f8284ef	1.0196818
48	0x3f6fd4f6	0.9368433
49	0x3f7bf6f9	0.98423725
50	0x3f73f878	0.9530101
51	0x3f857b0f	1.042818
52	0x3f708b52	0.93962586
53	0x3f8cb68c	1.0993209
54	0x3f8cbcf3	1.0995163
55	0x3f61d431	0.88214403
56	0x3f8d7347	1.1050805
57	0x3f87a5a2	1.0597422
58	0x3f809707	1.004609
59	0x3f682cf0	0.9069357
60	0x3f7fe2ec	0.9995563
61	0x3f80ae6c	1.0053229
62	0x3f7f13ad	0.996394
63	0x3f74e382	0.9565965

bias f4 [64]
0	0xbe133824	-0.14376885
1	0xbe1c9624	-0.15291649
2	0xbdcc49f2	-0.099750414
3	0xbdee693b	-0.11641165
4	0xbe489b1e	-0.19590423
5	0xbe84c98f	-0.25935027
6	0xbe60a668	-0.21938479
7	0xbe2f9d32	-0.17149809
8	0xbe0f63df	-0.14002942
9	0xbe42e130	-0.19031215
10	0xbe106ce5	-0.1410404
11	0xbe57d487	-0.21077166
12	0xbe25536b	-0.16145103
13	0xbe1675ca	-0.1469337
14	0xbe276038	-0.16345298
15	0xbe159c14	-0.1461032
16	0xbe3fab22	-0.18717626
17	0xbe69b808	-0.22824109
18	0xbe58fd85	-0.2119046
19	0xbe3b34ad	-0.18281813
20	0xbdfe7efd	-0.12426565
21	0xbe64f446	-0.22358808
22	0xbdcfa965	-0.10139731
23	0xbe61a530	-0.2203567
24	0xbde4d93a	-0.11174245
25	0xbe417e17	-0.18895756
26	0xbe1e5eec	-0.15465897
27	0xbe0c5c25	-0.13707025
28	0xbe399eb0	-0.1812694
29	0xbe120ceb	-0.1426274
30	0xbe3f4e7c	-0.18682283
31	0xbe98b0b5	-0.29822317
32	0xbe2cfa0e	-0.16892263
33	0xbe411521	-0.18855716
34	0xbe4dfc00	-0.20115662
35	0xbe00a838	-0.1256417
36	0xbe64b485	-0.22334488
37	0xbe82ef28	-0.25573087
38	0xbdc31c3d	-0.095268704
39	0xbe30d6c1	-0.17269422
40	0xbe3e330e	-0.18574163
41	0xbe54d0aa	-0.20782724
42	0xbdc4bc4b	-0.096062265
43	0xbdf79647	-0.1208921
44	0xbe122f29	-0.14275803
45	0xbe146001	-0.14489748
46	0xbe1a7307	-0.15082942
47	0xbe6d369d	-0.23165365
48	0xbe8c90d6	-0.2745425
49	0xbde6d63d	-0.112713315
50	0xbe2afba1	-0.16697551
51	0xbe34b517	-0.17647205
52	0xbe29be57	-0.16576515
53	0xbe38b5ce	-0.18038103
54	0xbdcc49f4	-0.09975043
55	0xbe22e847	-0.1590892
56	0xbe22a6b6	-0.15883908
57	0xbe139000	-0.144104
58	0xbe0a7d86	-0.13524446
59	0xbddbc538	-0.10730976
60	0xbe24be73	-0.16088276
61	0xbe4fa16a	-0.20276418
62	0xbd270bf8	-0.0407829
63	0xbe34d28d	-0.17658444

running_mean f4 [64]
0	0xbd8c8fee	-0.0686339
1	0x3ab9a50e	0.001416357
2	0xbda90cc0	-0.08254385
3	0xbd9159b7	-0.0709719
4	0x3dc67a15	0.09691254
5	0xbc4101f2	-0.011780249
6	0xbd59140e	-0.05299764
7	0x3d328d60	0.043591857
8	0x3daa042c	0.08301577
9	0x3d000c57	0.03126177
10	0xbd0db7df	-0.03459918
11	0x3d7041e3	0.058656584
12	0xbd0a7229	-0.033800278
13	0xbd2cd200	-0.04219246
14	0xbd0ea08c	-0.03482108
15	0xbd2cac0b	-0.04215626
16	0x3dfd2f0e	0.123624906
17	0x3b96eea9	0.004606087
18	0xbdaa860b	-0.08326348
19	0xbc83e6ef	-0.016101329
20	0x3da42fb7	0.080169134
21	0x3cfcf51e	0.0308786
22	0xbdaa986c	-0.083298534
23	0xbd0ac0b8	-0.033875197
24	0xbcaf5ca5	-0.021406481
25	0x3bda0fcc	0.006654715
26	0xbd3dbbc2	-0.046321638
27	0x3cd1362f	0.025538532
28	0xbacc0b8b	-0.0015567405
29	0x3d0c330c	0.03422837
30	0x3d64147c	0.055683598
31	0x3d27e53c	0.0409901
32	0xbc8794fe	-0.016550537
33	0x3d42f4a2	0.04759658
34	0xbd1260c6	-0.03573682
35	0xbcc0b809	-0.023525255
36	0x3d85f881	0.06541539
37	0x36e52984	6.829565e-06
38	0xbcc01f49	-0.023452418
39	0x3c8737c4	0.016506083
40	0xbd512045	-0.051056165
41	0x3d302c71	0.043011133
42	0xbc7cdde8	-0.015433766
43	0x3c2d4716	0.01057603
44	0x3c8cfdbe	0.017210837
45	0x3d1a1a85	0.037622947
46	0x3c8b069c	0.016970925
47	0xbd63a579	-0.05557773
48	0x3dd029c3	0.101642154
49	0x3de8adba	0.11361261
50	0x3daeffd6	0.085448906
51	0xbd2c301b	-0.042038064
52	0x3e08524a	0.13312641
53	0xbcebc0da	-0.028778482
54	0xbd884d15	-0.06655327
55	0x3db760c7	0.08954006
56	0xbd937589	-0.072001524
57	0x3da80f4e	0.08206044
58	0x3dd377b2	0.103255644
59	0xbdb49833	-0.08818092
60	0x3dcc7851	0.09983886
61	0xbd0bfc9a	-0.034176446
62	0xbbc95aea	-0.006144871
63	0x3cc75139	0.024330722

running_var f4 [64]
0	0x3e33ac7f	0.17546271
1	0x3e2dba60	0.16965628
2	0x3e3fcfb4	0.18731576
3	0x3e3a3588	0.18184483
4	0x3e4bb9e4	0.1989513
5	0x3e2098f9	0.15683354
6	0x3e345600	0.17610931
7	0x3e2730f3	0.16327266
8	0x3e30b2d3	0.17255716
9	0x3e5023ad	0.20326109
10	0x3e355b20	0.17710543
11	0x3e2f9b46	0.17149076
12	0x3e3a5ce9	0.18199505
13	0x3e3e7fa9	0.18603386
14	0x3e3d681a	0.18496743
15	0x3e309645	0.17244823
16	0x3e417dcd	0.18895645
17	0x3e2fe677	0.17177759
18	0x3e2ff383	0.17182736
19	0x3e28f571	0.16499878
20	0x3e36851b	0.17824213
21	0x3e2595d8	0.16170442
22	0x3e32044f	0.17384456
23	0x3e23d91c	0.1600079
24	0x3e33c2d2	0.17554787
25	0x3e51c27d	0.20484348
26	0x3e414d7a	0.18877211
27	0x3e3005df	0.1718974
28	0x3e31025d	0.17286058
29	0x3e324b11	0.17411448
30	0x3e3bda87	0.1834508
31	0x3e2279e7	0.15866815
32	0x3e26e737	0.16299139
33	0x3e3a3e2f	0.18187784
34	0x3e482972	0.1954706
35	0x3e2d2e8a	0.16912284
36	0x3e3f9ccd	0.18712159
37	0x3e37d4f9	0.17952336
38	0x3e22502c	0.15850896
39	0x3e35d824	0.17758232
40	0x3e2df15d	0.16986604
41	0x3e203ac7	0.15647422
42	0x3e436ce1	0.19084503
43	0x3e35c791	0.1775191
44	0x3e34560f	0.17610954
45	0x3e2fc4ab	0.17164867
46	0x3e37b090	0.17938447
47	0x3e4500a9	0.19238533
48	0x3e2d4cf2	0.16923884
49	0x3e27a016	0.16369662
50	0x3e3bce7f	0.18340491
51	0x3e354459	0.17701854
52	0x3e399d8f	0.1812651
53	0x3e37be15	0.17943604
54	0x3e459966	0.19296798
55	0x3e23f383	0.16010861
56	0x3e42cff7	0.19024645
57	0x3e49b08a	0.1969625
58	0x3e225430	0.15852427
59	0x3e323c3f	0.17405795
60	0x3e3ade21	0.18248798
61	0x3e379258	0.1792692
62	0x3e309d43	0.1724749
63	0x3e3ce433	0.18446426

weight f4 [64, 64, 3, 3]
0	0x3d07421a	0.033022024
1	0x3d01e62a	0.031713642
2	0xbd160a5f	-0.036630984
3	0xbc6eb6f1	-0.014569984
4	0xbc1c157b	-0.009526606
5	0x3d96efda	0.07369967
6	0x3d558302	0.052126892
7	0xbc20c000	-0.009811401
8	0x3cf8d2b1	0.030373903
9	0xbcf09920	-0.02936989
10	0x3b4a1046	0.0030832454
11	0xbb8b7b82	-0.0042566666
12	0x3c3ce096	0.011528155
13	0x3d0965a1	0.033544187
14	0x3c621a24	0.013800178
15	0xbd38cf35	-0.045119483
16	0xbaa3c3b8	-0.0012494242
17	0xbbdd3a0c	-0.0067513045
18	0xbd519f0b	-0.051177066
19	0xbcb0deca	-0.02159061
20	0x3cee0456	0.029054802
21	0xbb80745d	-0.0039201216
22	0xbd894adf	-0.06703734
23	0x3c01388c	0.007887017
24	0x3d22c8e6	0.039742373
25	0xbd8d0da1	-0.06887365
26	0xbd1bf4af	-0.038075145
27	0xbda49366	-0.080359265
28	0x3cb129fa	0.021626461
29	0x3be26c20	0.006909862
30	0xbd23a95d	-0.03995644
31	0x3bc611f8	0.0060446225
32	0x3d80f93d	0.062975384
33	0x3d9316b8	0.07182068
34	0xbc067f33	-0.008209038
35	0x3daa6446	0.08319907
36	0xbd2d9e1a	-0.042387106
37	0xbc543fae	-0.012954636
38	0xbd0926b1	-0.033484165
39	0xbc592d72	-0.013255464
40	0xbcf882f5	-0.030335883
41	0x3ca05e86	0.019576322
42	0xbc4b53b6	-0.012410095
43	0x3daec2a3	0.08533218
44	0x3c5de927	0.013544357
45	0xbcdd9a77	-0.027051194
46	0x3b88bbb8	0.0041727684
47	0xbd68aeec	-0.056807443
48	0x3d00e29c	0.03146611
49	0x3d0759f5	0.033044774
50	0x3e084fbd	0.13311668
51	0xbcc6db71	-0.02427456
52	0xbc105de7	-0.008811451
53	0x3c9767fd	0.018482203
54	0xbd37a72c	-0.044837162
55	0xbd39f0ae	-0.045395546
56	0x3bac2308	0.0052531995
57	0xbd0dbf5b	-0.03460632
58	0x3d8c37f2	0.06846608
59	0x3d37d829	0.04488388
60	0xbbe19c0a	-0.0068850564
61	0x3ce38b94	0.027776517
62	0xbd860179	-0.0654325
63	0xbcf4d36f	-0.029885976
64	0xbdb3d776	-0.0878133
65	0xbd811380	-0.063025475
66	0xbc3ba657	-0.011453233
67	0xbc26d57f	-0.010182737
68	0x3be43f7d	0.006965576
69	0x3bc04e15	0.005868683
70	0x3c077d19	0.008269572
71	0x3da5bd95	0.080928005
72	0x3c5d5598	0.013509177
73	0x3b5c47f7	0.003361223
74	0xbd5dd442	-0.054157503
75	0xbd4d378e	-0.05010181
76	0x3d1f8d9e	0.038953416
77	0x3be9ac7a	0.0071311565
78	0xbcf5ccb1	-0.030004831
79	0xbc8efdf0	-0.017455071
80	0x3e0ecbe1	0.13944961
81	0x3c108201	0.008820058
82	0x3cab496c	0.020909034
83	0x3d9071bd	0.07052944
84	0x3d8047ac	0.0626367
85	0x3cf2d717	0.029643578
86	0x3de224a5	0.11042146
87	0xbd9ef28b	-0.07761105
88	0xbba7fb86	-0.0051264195
89	0xbd4e139e	-0.050311677
90	0x3d870a9f	0.06593823
91	0xbd823c44	-0.06359151
92	0x394d2310	0.00019563385
93	0x3c495973	0.012289393
94	0x3ce74472	0.02823088
95	0x3d5f09d6	0.05445274
96	0xbce56e49	-0.02800669
97	0xbd7f180e	-0.0622788
98	0xbd337d43	-0.04382063
99	0xbb931e5a	-0.004489702
100	0x3d699752	0.057029076
101	0x3d078794	0.03308828
102	0x3d4363e0	0.04770267
103	0x3d7d9e3d	0.061918486
104	0x3d4f8640	0.05066514
105	0xba0dc052	-0.0005407381
106	0xbe045d51	-0.12926222
107	0xbd1e8197	-0.038697805
108	0x3d33a22c	0.04385583
109	0x3cf3b0b8	0.029747352
110	0x3d322426	0.043491505
111	0x3d70b8a8	0.058769852
112	0x3d8a2f34	0.067472845
113	0x3df841e2	0.12121941
114	0xbdbadfbf	-0.091247074
115	0x3c0f5a8b	0.0087496145
116	0xbb6c651d	-0.003607101
117	0xbda8e42f	-0.082466476
118	0x3b525185	0.0032092046
119	0x3c475c2c	0.012167972
120	0xbd7a4729	-0.06110302
121	0x3cc2b54f	0.023768095
122	0x3dd674d0	0.10471499
123	0xbc368ee4	-0.011142466
124	0x3c3476d0	0.011014655
125	0x3cad92dc	0.021188192
126	0x3c41450c	0.011796247
127	0xbca1e1b5	-0.019760946
128	0x3cf6bf02	0.030120376
129	0x3ccc61e6	0.024949025
130	0x3d1fcb2e	0.039012127
131	0x3d59dc1a	0.05318842
132	0xbd28313c	-0.04106258
133	0xbd787b8a	-0.06066469
134	0xbde17ffe	-0.11010741
135	0xbc6cc5e5	-0.014451479
136	0x3c22880c	0.009920131
137	0xba5df69c	-0.00084672286
138	0xbcf6c984	-0.030125387
139	0x3d3eed93	0.046613287
140	0xbd1a71c1	-0.03770614
141	0xbd9e4589	-0.077281065
142	0xbbda9831	-0.0066709747
143	0x3daeaeec	0.085294574
144	0xbd999708	-0.0749951
145	0x3cfcd0ac	0.030861221
146	0xbd0be0dc	-0.03414999
147	0xbc868422	-0.016420428
148	0xbce027f1	-0.027362796
149	0x3b203947	0.0024448202
150	0x3dad91a7	0.084750466
151	0xbbb89b6f	-0.0056337635
152	0x3d9b6284	0.0758715
153	0xbd3ac8d2	-0.045601673
154	0xbce44ae3	-0.02786774
155	0xbd811267	-0.06302338
156	0x3d22d3c1	0.039752726
157	0x3d6a5673	0.05721135
158	0x3d8543a6	0.065070435
159	0xbd179b5d	-0.0370134
160	0xbb3a3970	-0.0028415583
161	0x3c8004a1	0.015627207
162	0xbc553a83	-0.013014439
163	0x3d11d673	0.035604905
164	0x3c8f7b94	0.017514981
165	0x3dcf27cc	0.101150125
166	0x3dd1a26b	0.10236057
167	0x3dfa606e	0.12225424
168	0x3c6882b5	0.014191319
169	0xbd1a6bff	-0.03770065
170	0x3bee43fd	0.0072712884
171	0xbd476697	-0.04868182
172	0x3cc1b668	0.023646548
173	0xbd2be8a8	-0.041969925
174	0x3c0596c5	0.008153622
175	0xbd597b58	-0.053096145
176	0xbb1350a8	-0.0022478495
177	0xbb03b9bb	-0.0020099718
178	0x3cb152f6	0.021646004
179	0x3d95fb31	0.073233016
180	0xbc025d79	-0.007956856
181	0xbcfc6483	-0.030809646
182	0xbd36f18c	-0.04466395
183	0xbc51b035	-0.012798359
184	0x3d99e863	0.075150274
185	0xbd2b22a7	-0.041781094
186	0x3c360da5	0.011111652
187	0x3cde489c	0.027134232
188	0x3d06305c	0.032760963
189	0x3c943338	0.01809083
190	0xbd5b582b	-0.05355088
191	0xbdaff320	-0.08591294
192	0xbcae519f	-0.021279154
193	0x3d240610	0.040044844
194	0x3ce77fe7	0.02825923
195	0x3daabf88	0.08337313
196	0x3b7f0707	0.00389141
197	0x3d9d9be3	0.07695749
198	0xbda46478	-0.080269754
199	0xbceebe1f	-0.029143391
200	0x3c84fab5	0.016232828
201	0x3c911673	0.0177109
202	0x3c1e52d1	0.0096633
203	0x3d2bf4e4	0.041981593
204	0x3cef7e84	0.029235132
205	0xbdf8bd0c	-0.12145433
206	0xbd359ce6	-0.044339083
207	0xbccd1ccc	-0.025038145
208	0xbcebf69e	-0.02880412
209	0x3be3dee8	0.0069540627
210	0xbb8b520f	-0.0042517255
211	0x3d1d9342	0.038470514
212	0xbcf1b651	-0.02950588
213	0xbd59ec0e	-0.053203635
214	0x3d950508	0.0727635
215	0x3cc096af	0.023509352
216	0xbc61563f	-0.013753473
217	0x3ab350c6	0.0013680689
218	0xbcd89e7b	-0.026442757
219	0x3ca9f447	0.020746363
220	0xbc7d0bd9	-0.015444719
221	0x3de2e2cd	0.11078415
222	0xbd3d35ee	-0.04619401
223	0x3d3fa616	0.04678925
224	0x3cd188cc	0.025577925
225	0xbd0f9369	-0.03505269
226	0x3c87773d	0.01653635
227	0x3ca5602e	0.020187464
228	0x3e1eaf3a	0.15496531
229	0x3d63f3be	0.055652373
230	0x3dd41f4b	0.10357531
231	0xbdc4ac2d	-0.096031524
232	0xbdb81db6	-0.08990042
233	0xbe07d504	-0.13264853
234	0xbb1208b6	-0.0022283024
235	0xbca3d59c	-0.019999318
236	0xbc7da280	-0.015480638
237	0xbba15dd3	-0.004924515
238	0xbb203a03	-0.002444864
239	0x3de122d3	0.1099297
240	0x3d866405	0.06562046
241	0x3df1ad0d	0.11800585
242	0xbd47e0f8	-0.04879853
243	0x3c8b70fa	0.017021645
244	0x3c9a0642	0.018801812
245	0xbd3a5373	-0.04548974
246	0x3d8c491a	0.068498805
247	0x3c1c3122	0.009533199
248	0x3cbf0f64	0.023322769
249	0x3b7248ff	0.0036969779
250	0x3cca9ab6	0.024731975
251	0xb9ee6f6d	-0.00045477916
252	0x3d4d76ff	0.05016231
253	0xbc4feafa	-0.0126903
254	0xbd47a86f	-0.048744615
255	0x3dad4763	0.084608816

bias f4 [64]
0	0x3bf3a596	0.007435511
1	0x3b678ff2	0.00353336
2	0x3d2e4c02	0.042552955
3	0xbdb81130	-0.08987653
4	0x3d827ded	0.06371675
5	0xbbd9d3f2	-0.0066475803
6	0xbd197832	-0.037468143
7	0xbdbb48bb	-0.091447316
8	0x3c84445a	0.016145874
9	0xbdb17114	-0.08664146
10	0xbd2d2c44	-0.042278543
11	0x3cb7302e	0.022361841
12	0xbcb66889	-0.022266643
13	0xbd84a7ee	-0.064773425
14	0x3d5ddd32	0.054166026
15	0x3c908dc2	0.01764572
16	0x3d59c7d2	0.05316908
17	0x3d8950df	0.06704878
18	0xbbcff2b2	-0.00634607
19	0x3d5aac9b	0.053387266
20	0x3a388340	0.0007038601
21	0xbd545e1e	-0.05184757
22	0x3d4bc504	0.049748436
23	0x3ac221a4	0.0014811051
24	0xbda5138c	-0.08060369
25	0xbccd67c2	-0.02507389
26	0x3d456112	0.048188277
27	0x3b7fc706	0.003902854
28	0x3ca46458	0.020067379
29	0x3c4dab89	0.012553104
30	0xbd43ffbe	-0.047851317
31	0x3b146550	0.0022643395
32	0x3d09a5a7	0.033605244
33	0xbaf9da02	-0.0019062164
34	0x3d21b3cb	0.039478105
35	0x3c1ae565	0.009454106
36	0xbdb0aa39	-0.086262174
37	0x3d7f95da	0.06239877
38	0x3c829a57	0.015942736
39	0x3cf2f404	0.029657371
40	0x3c4a2ca2	0.012339743
41	0xbd16b513	-0.03679378
42	0xbde2d2f3	-0.110753916
43	0x3d54f256	0.051988922
44	0xbd275615	-0.04085358
45	0x3d846c1b	0.06465932
46	0x3d7605fc	0.0600643
47	0xbd9fff84	-0.078124076
48	0x3d859d28	0.06524116
49	0xbcb236cd	-0.021754647
50	0x3d8435c6	0.06455569
51	0xbd9b68df	-0.07588362
52	0x3cdea683	0.027179008
53	0xbd611646	-0.054952882
54	0x3cc6bf03	0.024261003
55	0x3bf8106b	0.0075703165
56	0x3dd3a889	0.1033488
57	0xbd6aeb7f	-0.057353493
58	0x3c0d8a85	0.008638983
59	0x3d4f939b	0.050677877
60	0x3db0f4b3	0.08640423
61	0x3c9505d0	0.018191248
62	0xbb3e4fd8	-0.002903929
63	0x3d36246a	0.04446832

weight f4 [64]
0	0x3fa78a9d	1.3089176
1	0x3f8c8b6b	1.0980047
2	0x3faa6927	1.331334
3	0x3fa02760	1.2512016
4	0x3fa166c4	1.2609487
5	0x3f98fa2c	1.1951346
6	0x3fb1ecc4	1.390038
7	0x3fabb871	1.3415662
8	0x3f8f1d33	1.1180786
9	0x3fb43179	1.4077598
10	0x3faf7fb4	1.3710847
11	0x3f9599ce	1.1687562
12	0x3fb0f40c	1.3824477
13	0x3fbd07cf	1.4768008
14	0x3f95f890	1.171648
15	0x3f9ee955	1.2414957
16	0x3f9545b8	1.1661901
17	0x3fa2952d	1.2701775
18	0x3f96843c	1.1759105
19	0x3f8ca750	1.098856
20	0x3f9ce54a	1.2257473
21	0x3fa65bc5	1.2996756
22	0x3f94ce71	1.1625501
23	0x3fa2aa9a	1.2708313
24	0x3fade2a5	1.3584791
25	0x3f9cd727	1.2253159
26	0x3f95b3e7	1.1695527
27	0x3fa92a9d	1.321613
28	0x3f9f30de	1.2436788
29	0x3fa103ac	1.2579246
30	0x3fa6c2f2	1.3028243
31	0x3fa69d4f	1.3016757
32	0x3f9ce657	1.2257794
33	0x3f9d75a7	1.230153
34	0x3f9ad310	1.2095661
35	0x3f9ef0cf	1.2417239
36	0x3fb93608	1.4469614
37	0x3f96ba54	1.1775613
38	0x3f897a5b	1.0740465
39	0x3f90e746	1.1320579
40	0x3fc068b4	1.5031953
41	0x3fa5b792	1.2946646
42	0x3faa4dc1	1.3304979
43	0x3f9e4482	1.2364657
44	0x3fa69f06	1.301728
45	0x3fa5b057	1.294444
46	0x3f8f0731	1.117407
47	0x3f9b4bb3	1.2132477
48	0x3f9c2602	1.2199099
49	0x3f95f688	1.171586
50	0x3fa432ce	1.2828004
51	0x3fb9abec	1.4505591
52	0x3f97804e	1.183603
53	0x3f9a3092	1.2046072
54	0x3f9526ea	1.1652501
55	0x3f9adc84	1.2098546
56	0x3f9afb53	1.2107948
57	0x3fa9439f	1.3223761
58	0x3f8bc01b	1.0918001
59	0x3fa24956	1.267863
60	0x3f9e5f09	1.2372752
61	0x3fa2afa9	1.2709857
62	0x3facf6eb	1.3512853
63	0x3f920706	1.1408393

bias f4 [64]
0	0x3c5fca9b	0.013659145
1	0xbd9468ce	-0.072465524
2	0x3d971b16	0.07378213
3	0x3deeb0aa	0.1165479
4	0x3dc0e3c3	0.09418442
5	0x3d5e804a	0.054321565
6	0x3d27d9e1	0.04097927
7	0x3d858273	0.06519022
8	0x3d066eaa	0.03282038
9	0x3dc25f08	0.09490782
10	0x3cdbc78f	0.026828555
11	0x3d47f1b3	0.048814487
12	0x3d7a29a2	0.06107486
13	0x3dc95b7b	0.09831902
14	0xbc25a881	-0.010110975
15	0x3d893a4f	0.067005746
16	0x3cf61f25	0.030044148
17	0x3db3af33	0.08773651
18	0xbd5eec6b	-0.054424684
19	0xbc9febba	-0.019521583
20	0xbd13264a	-0.035925187
21	0x3c99fb38	0.018796548
22	0xbb9b388a	-0.0047369646
23	0x3d3a9277	0.045549836
24	0x3d359774	0.04433389
25	0x3dc9f8ab	0.09861883
26	0x3db0442d	0.086067535
27	0x3da92b1c	0.082601756
28	0x3c618810	0.01376535
29	0xbd0ee20f	-0.034883555
30	0x3c0ed207	0.008717067
31	0x3dd5b703	0.10435297
32	0x39921b3e	0.00027867587
33	0x3d1e2854	0.03861268
34	0x3ccc6a57	0.02495305
35	0x3db8d613	0.090252064
36	0x3c108c7e	0.008822558
37	0xbca5dbd7	-0.02024643
38	0xbd34368e	-0.04399734
39	0xbb1656cb	-0.0022939916
40	0x3e456eae	0.19280502
41	0xbd1fbaaa	-0.038996376
42	0x3de33ecc	0.11095962
43	0x3aa8364c	0.0012833565
44	0x3dde6908	0.10859877
45	0xbd6d2003	-0.057891857
46	0x3cb0c2cc	0.021577261
47	0x3cd4c105	0.025970945
48	0x3d03776b	0.032096308
49	0x3c3cc18b	0.011520754
50	0x3dd0044b	0.10157069
51	0x3e171069	0.14752354
52	0x3d356e3d	0.044294585
53	0x3db68a50	0.089131
54	0x3df1a33b	0.11798712
55	0xbccc99a9	-0.024975615
56	0x3d7e3712	0.062064238
57	0x3db1a389	0.0867377
58	0xbd53ab8f	-0.051677283
59	0xbd846a6e	-0.06465612
60	0x3c8f4412	0.017488513
61	0x3dc3edad	0.095668174
62	0x3d644f74	0.055739835
63	0x3ce1d541	0.027567508

running_mean f4 [64]
0	0xbe78aa0c	-0.24283618
1	0xbf3db198	-0.7409911
2	0x3e2a564c	0.16634482
3	0xc00c379d	-2.1908944
4	0xc0050a20	-2.078743
5	0x3fb52f18	1.4154997
6	0xc0038795	-2.0551503
7	0xbfdfbdbd	-1.7479779
8	0xbe85d106	-0.26136035
9	0xc01d2ee6	-2.4559875
10	0xbf927a6a	-1.1443608
11	0xbe106510	-0.14101052
12	0xbf9cdcb0	-1.2254848
13	0xc01e763c	-2.4759665
14	0x3f69aff3	0.912841
15	0xbe125e32	-0.14293745
16	0xbe629cf7	-0.2213019
17	0xbe8d6b99	-0.27621153
18	0x3f32018f	0.6953363
19	0x3f150c42	0.5822183
20	0x3f24f532	0.6443664
21	0xbfc8a68d	-1.5675827
22	0x40057051	2.0849802
23	0x3ee183bb	0.44045815
24	0xc0089384	-2.1340036
25	0xbfde15f1	-1.7350446
26	0x3f8affb1	1.0859281
27	0xbf083782	-0.532097
28	0xbf9780a2	-1.1836131
29	0x3e82ca94	0.2554518
30	0xc01546f7	-2.3324564
31	0x3f6663e8	0.89996195
32	0x3f3ed48a	0.7454306
33	0x3f2aed9b	0.6676881
34	0xbee55bd5	-0.44796625
35	0xbf2c5619	-0.67318875
36	0xc00fb53f	-2.2454374
37	0x3fa4f6d3	1.2887825
38	0x3f59941a	0.8499161
39	0x3f54afb1	0.83080584
40	0xc01118bc	-2.2671347
41	0xbe8fc173	-0.28077278
42	0xbff8e611	-1.9445211
43	0x3f61db50	0.8822527
44	0xc005b259	-2.0890105
45	0xbebd4840	-0.36969185
46	0x3f8c126e	1.0943124
47	0xbf9bad4f	-1.2162265
48	0x3f1e394e	0.6180619
49	0xbeaeb9f2	-0.3412624
50	0x3ef86af7	0.48519108
51	0xbf8d8bd1	-1.1058294
52	0x3d7b6341	0.061373953
53	0xbfe686fe	-1.8009946
54	0x3dea85d5	0.11451308
55	0xbf7f1549	-0.99641854
56	0x3ff0c72b	1.8810781
57	0xc0147332	-2.319531
58	0x3f681f27	0.90672535
59	0x3efc8a3d	0.49324217
60	0x3f45c09e	0.77247036
61	0xbf21745a	-0.63068163
62	0xbf68a845	-0.9088176
63	0xbf88c734	-1.0685792

running_var f4 [64]
0	0x3fa568cb	1.2922605
1	0x3fd3aae0	1.6536522
2	0x3fc40b2b	1.5315908
3	0x3fdaffe6	1.7109344
4	0x4006d04e	2.106464
5	0x3f8bea53	1.0930885
6	0x3fd93100	1.6968079
7	0x3fad4f95	1.3539912
8	0x3fb36276	1.4014423
9	0x40015813	2.0210006
10	0x3fdd58b7	1.7292699
11	0x3fd18ea0	1.6371651
12	0x3fe59359	1.7935592
13	0x401cf659	2.4525359
14	0x3fbb4471	1.4630262
15	0x400da72f	2.213329
16	0x3fafeba3	1.3743786
17	0x3f9d4099	1.2285339
18	0x3fb2a23b	1.3955759
19	0x3fc818e8	1.5632601
20	0x3ffc4371	1.9708081
21	0x3fe046c1	1.7521592
22	0x3fb4fa57	1.4138898
23	0x3ffc8d96	1.9730709
24	0x3ff88205	1.9414679
25	0x3fa354ac	1.2760215
26	0x3fb20a8f	1.3909472
27	0x3fa14b0c	1.2601027
28	0x3f9dc886	1.232682
29	0x3fcc6666	1.596875
30	0x40015567	2.0208375
31	0x3fbf51d7	1.494685
32	0x3fb82ca6	1.4388626
33	0x3fcd07bd	1.6017987
34	0x3fa4e696	1.2882869
35	0x3ff3babe	1.9041364
36	0x3fde49bf	1.7366256
37	0x3fce4a8e	1.6116502
38	0x3fd50903	1.6643375
39	0x3fe5ef3c	1.7963634
40	0x4013641a	2.3029847
41	0x3ff3be69	1.9042484
42	0x400ad537	2.1692636
43	0x3fd15d3a	1.6356575
44	0x3fffc6cb	1.9982542
45	0x3ff67134	1.9253297
46	0x3fbf92c2	1.4966662
47	0x3fab8268	1.3399172
48	0x3f9d0394	1.2266717
49	0x3faad8c9	1.3347408
50	0x3fe09475	1.7545305
51	0x3fc66890	1.550066
52	0x3fb525d0	1.4152164
53	0x3ffba84a	1.9660733
54	0x3fa1aff9	1.2631828
55	0x3fb880af	1.4414271
56	0x3fc12bad	1.5091454
57	0x3ff3773f	1.9020766
58	0x3f94deae	1.1630456
59	0x3fb4127f	1.4068145
60	0x3fc006f7	1.5002126
61	0x40005c66	2.0056396
62	0x3fa9af38	1.3256598
63	0x3fde05a6	1.7345474

weight f4 [12, 64, 3, 3]
0	0xbe1432ab	-0.14472453
1	0xbd164173	-0.03668351
2	0xbd8f4802	-0.06996156
3	0xbd0f6c30	-0.035015285
4	0x3cfd5087	0.030922187
5	0xbdaf5c29	-0.085625
6	0xbdba8abd	-0.091084935
7	0x3d05bd93	0.032651495
8	0xbe2b91d0	-0.16754842
9	0x3ddc85c4	0.10767701
10	0x3df0bbe5	0.11754588
11	0x3d5d770e	0.054068618
12	0x3ccde824	0.025135107
13	0x3d674114	0.056458548
14	0x3d55ac8b	0.052166503
15	0x3d4a7461	0.049427394
16	0x3d37c70b	0.044867557
17	0x3d5beb60	0.053691268
18	0xbd9e9f48	-0.07745224
19	0x3d28bcdd	0.04119574
20	0x3d50b058	0.050949425
21	0xbd9d9b59	-0.07695646
22	0x3bbe7155	0.00581185
23	0xbd7a1110	-0.06105143
24	0x3d1da7ad	0.038489986
25	0x3d5d6332	0.05404968
26	0xbc75adf9	-0.014995092
27	0xbd4cb271	-0.049974862
28	0xbdb52375	-0.088446535
29	0xbd8fe06b	-0.07025226
30	0xbdaf5cf7	-0.085626535
31	0xbdcb4b9f	-0.09926533
32	0xbbc2d86a	-0.0059462087
33	0xbda6780e	-0.08128367
34	0xbdc952ae	-0.09830223
35	0xbcc7921c	-0.024361663
36	0xbda5b390	-0.080908895
37	0xbd833b8e	-0.064078435
38	0xbc607007	-0.013698584
39	0xbe033990	-0.12814927
40	0xbdfb03a2	-0.12256552
41	0xbdc99777	-0.09843343
42	0xbdbb1e6c	-0.09136662
43	0xbde6b13a	-0.11264272
44	0xbd104b7f	-0.03522825
45	0x3d909f61	0.07061649
46	0x3c63f0b7	0.013912371
47	0x3d1b5c5e	0.037929885
48	0x3d9e0586	0.07715897
49	0x3d974884	0.07386878
50	0xbd08ebc2	-0.03342796
51	0x3dcfd8aa	0.10148747
52	0x3dbe7b71	0.09300888
53	0x3d167b40	0.036738634
54	0xbd56ac85	-0.05241062
55	0xbda3e7bb	-0.080031835
56	0x3e00b34b	0.12568395
57	0x3d42488b	0.047432464
58	0x3c8adfcb	0.016952416
59	0x3e35185f	0.17685078
60	0x3b870507	0.0041204724
61	0x3ce92cf3	0.028463816
62	0x3e599831	0.21249463
63	0xbd6419eb	-0.05568878
64	0x3d8ce5dd	0.068797804
65	0x3db734ed	0.08945642
66	0xbdd46791	-0.10371316
67	0x3b8cefe3	0.0043010577
68	0xbdd6a3c5	-0.10480455
69	0xbe06ddd9	-0.13170566
70	0xbd951b50	-0.072806
71	0xbd97bb40	-0.07408762
72	0x3d643280	0.055712223
73	0xbc8182d8	-0.015809461
74	0x3ce3fe1a	0.027831126
75	0xbb40080c	-0.0029301671
76	0xbb0084e2	-0.0019610454
77	0x3d517fd6	0.051147304
78	0xbe147f42	-0.1450167
79	0xbd096560	-0.033543944
80	0xbda05637	-0.07828944
81	0xbd01da38	-0.03170225
82	0x3d24f5fb	0.040273648
83	0xbcf17870	-0.029476374
84	0xbd8b7879	-0.06810088
85	0xbb851315	-0.0040611126
86	0xbdd90284	-0.10596183
87	0x3c4bb17f	0.012432455
88	0xbc6ce7a9	-0.014459529
89	0xbda80c2c	-0.082054466
90	0xbd6111e1	-0.05494869
91	0xbccc01c9	-0.024903195
92	0xbe35168d	-0.17684384
93	0x3e07b06e	0.13250896
94	0x3dac0924	0.08400181
95	0xbe09a529	-0.1344191
96	0xbb9078b5	-0.0044089206
97	0xbe0f1bbe	-0.13975427
98	0xbe260c13	-0.16215543
99	0xbcdf6279	-0.027268635
100	0x3da8204b	0.082092844
101	0xbc922238	-0.017838582
102	0x3c599e8a	0.013282428
103	0x3d3a5177	0.045487847
104	0xbd56d6fe	-0.052451126
105	0x3c37b8c2	0.011213483
106	0x3d55fe09	0.05224422
107	0xbbdc0a38	-0.0067150854
108	0xbd1edf53	-0.038787197
109	0xbd5858ae	-0.052818947
110	0x3d8d8d4a	0.069117144
111	0xbcb87f66	-0.022521686
112	0xbc4b69dc	-0.012415376
113	0x3959331c	0.00020713772
114	0xbd6967c1	-0.056983713
115	0xbdd538fb	-0.10411259
116	0x3d073ecc	0.033018872
117	0xbdc949c3	-0.09828522
118	0xbd9aedac	-0.075648636
119	0xbdca0351	-0.09863914
120	0xbe109348	-0.14118683
121	0x3c7b14e9	0.01532481
122	0xbae825bf	-0.0017711445
123	0xbe144e3c	-0.14482969
124	0x3bbaa9cd	0.0056965114
125	0xbdc7f13c	-0.09762809
126	0xbdb82783	-0.08991911
127	0xbd4f9ab9	-0.050684664
128	0xbe3580c5	-0.17724903
129	0x3d2cb97f	0.04216909
130	0xbd93a059	-0.07208318
131	0xbe385372	-0.18000582
132	0xbdd1cd49	-0.10244233
133	0xbd72cc36	-0.059276782
134	0xbdc16ecf	-0.09444963
135	0xbab08486	-0.001346723
136	0x3d46deea	0.04855243
137	0x3c0c8ada	0.008578027
138	0xbe42af48	-0.19012177
139	0xbba4401e	-0.005012526
140	0xbd950ee9	-0.072782345
141	0xbe1bec1e	-0.1522679
142	0xbdb92f6a	-0.09042247
143	0xbda21b74	-0.079153925
144	0x3d39d7d7	0.045371857
145	0x3a2d44f0	0.0006609699
146	0x3cbee906	0.023304474
147	0x3cdc6322	0.026902739
148	0xbd429da8	-0.047513634
149	0x3d49cc9e	0.049267404
150	0x3daf9115	0.08572594
151	0x3df58d52	0.11989845
152	0x3d23e530	0.040013492
153	0xbddf7194	-0.10910335
154	0x3d815a4c	0.06316051
155	0xbdc792a8	-0.09744769
156	0xbe17c4fd	-0.14821239
157	0x3cc342e8	0.023835614
158	0xbe0703c4	-0.1318503
159	0xbe305b31	-0.17222287
160	0xbd480de0	-0.048841357
161	0xbde2639f	-0.110541575
162	0xbbf461a3	-0.0074579283
163	0x3d1556f3	0.036459874
164	0x3dfd631d	0.1237242
165	0x3d88efee	0.06686388
166	0x3d049314	0.032366827
167	0x3cffbd51	0.031218203
168	0x3ca58322	0.02020413
169	0x3da7a410	0.08185589
170	0x3c302072	0.010749923
171	0x3ce29c17	0.02766232
172	0xbdbd6a52	-0.092487946
173	0xbd81f71e	-0.06345962
174	0x3d87fe34	0.06640282
175	0x3bef8279	0.0073092547
176	0x3d489b24	0.04897608
177	0xbc8b9936	-0.01704083
178	0xbd1e6441	-0.03866983
179	0xbc367ae4	-0.011137698
180	0x3d673554	0.056447342
181	0xbddad8f4	-0.10685912
182	0x3d03920b	0.0321217
183	0x3de7fd53	0.11327615
184	0xbb02db43	-0.0019967116
185	0x3de8d12e	0.11368023
186	0x3dc9c8b9	0.09852738
187	0xbb4c4908	-0.003117146
188	0x3df32097	0.118714504
189	0xbd408be8	-0.047008425
190	0xbc160a4c	-0.009157728
191	0xbe5ff574	-0.21870977
192	0x3c452587	0.012032873
193	0x3c4e70ca	0.012600133
194	0xbe13afe1	-0.14422561
195	0xbb38b788	-0.0028185565
196	0xbd64e4c9	-0.05588225
197	0xbdcb5344	-0.09927991
198	0x3d9ca30a	0.07648285
199	0x3d14b995	0.036309797
200	0x3caceaae	0.021107998
201	0x3d1cf397	0.038318243
202	0x3dd709f7	0.104999475
203	0x3cc39d9b	0.023878863
204	0x3e0e20de	0.13879725
205	0x3e08382c	0.13302678
206	0x3dd22e3e	0.10262726
207	0x3d44b383	0.04802276
208	0x3dcf1bbc	0.10112712
209	0xbe1f8e7b	-0.15581696
210	0xbcb882e1	-0.022523345
211	0x3d839676	0.064251825
212	0xbdc2163c	-0.09476897
213	0xbd85a3ea	-0.06525405
214	0xbd26c8b1	-0.040718738
215	0xbe002d3d	-0.12517257
216	0xbc85fe76	-0.016356688
217	0xbd195591	-0.037435118
218	0xbe232835	-0.15933307
219	0xbdd361ba	-0.10321374
220	0xbdc5448a	-0.096322134
221	0xbd91825a	-0.07104941
222	0xbdc504ca	-0.09620054
223	0xbd4e2340	-0.050326586
224	0xbd860516	-0.06543939
225	0xbe1d8355	-0.1538213
226	0xbdef820f	-0.116947286
227	0xbde6b4a8	-0.11264926
228	0xbde4834c	-0.111578554
229	0xbd6dab1b	-0.058024507
230	0xbd8641b5	-0.06555501
231	0xbd850d08	-0.06496626
232	0xbdd65037	-0.104645185
233	0x3d35c18e	0.04437404
234	0x3d0d682d	0.034523178
235	0xbcad252a	-0.021135885
236	0x3da0bb7a	0.07848258
237	0x3d8dfc79	0.06932921
238	0x3c87e8cc	0.016590498
239	0x3d924a5b	0.071430884
240	0x3d119ce2	0.035550006
241	0xbaf5a91d	-0.0018742416
242	0x3c77d366	0.015126085
243	0xbdd54b05	-0.104146995
244	0xbd46077b	-0.048346978
245	0xbe60efe2	-0.21966508
246	0xbd8c4965	-0.068499364
247	0xbdbb7ad4	-0.09154287
248	0xbe0f04d9	-0.13966693
249	0xbcc0af87	-0.023521198
250	0x3cc1a7f2	0.023639653
251	0xbd4387e6	-0.047737025
252	0xbcd38238	-0.02581893
253	0x3d2aac0c	0.041667983
254	0x3d7b6299	0.061373327
255	0x3c3765cf	0.011193707

bias f4 [12]
0	0xbd3e5fac	-0.04647796
1	0xbc0ff576	-0.00878655
2	0xbd930fe9	-0.07180769
3	0x3c1bfefe	0.009521244
4	0xbd335325	-0.043780465
5	0xbb36baa0	-0.0027882233
6	0x3cc40c34	0.0239316
7	0xbd98e543	-0.07465603
8	0xbd8f0229	-0.06982834
9	0xbd814563	-0.063120626
10	0xbcffb950	-0.031216294
11	0xbda638eb	-0.08116325

weight f4 [64, 12, 3, 3]
0	0xbca93ab2	-0.02065787
1	0xbcb39cb7	-0.021925313
2	0xbd6aa836	-0.057289325
3	0xbb858ffd	-0.0040760026
4	0xbd1ed6d4	-0.038779095
5	0xbcbd43df	-0.023103653
6	0xba4bc345	-0.0007772933
7	0xbd89969c	-0.067181796
8	0xbca68e3e	-0.020331498
9	0xbc0aa195	-0.008461376
10	0x3bd239a5	0.006415563
11	0x3c0adee4	0.008475993
12	0x3c597123	0.013271603
13	0x3c9353fe	0.017984387
14	0xbb35acdd	-0.0027721443
15	0x3d8404f8	0.0644626
16	0x3c6ab9f9	0.014326566
17	0xbc122c6e	-0.008921726
18	0xbd265297	-0.040606108
19	0xbb93697c	-0.0044986587
20	0x3d9ac149	0.075563975
21	0x3cd59883	0.0260737
22	0xbbce8faf	-0.0063037495
23	0x3c5510a4	0.013004456
24	0x3c0db59b	0.008649255
25	0x3d4b5a5d	0.049646724
26	0x3c75ef93	0.015010732
27	0x3cee13ea	0.02906223
28	0xbcc54ed1	-0.024085434
29	0x3c940511	0.018068822
30	0x3c884821	0.016635956
31	0x3c6105fa	0.013734335
32	0x3cc52b63	0.02406854
33	0xbd4f5fba	-0.0506284
34	0x3d21de1e	0.039518468
35	0x3ba897e5	0.0051450604
36	0x3d47e847	0.0488055
37	0xbd058588	-0.03259805
38	0xbd118a3c	-0.03553222
39	0x3d019b65	0.031642336
40	0xbcecc0f7	-0.028900607
41	0xbcd3a382	-0.025834803
42	0xbc7ee193	-0.015556711
43	0x3cd592cf	0.02607098
44	0x3cd0b866	0.025478553
45	0x3d30bbc3	0.043147814
46	0x3d9900c1	0.07470847
47	0x3d21e619	0.03952608
48	0x3d1bfc1a	0.03808222
49	0xbb1a3c84	-0.0023534605
50	0xbcaa80c9	-0.020813363
51	0xbced9e87	-0.029006256
52	0xbe21e6d9	-0.15810718
53	0xbd8cef5c	-0.06881592
54	0xbd165788	-0.03670457
55	0x3cc64189	0.024201171
56	0x3c6522d6	0.013985356
57	0xbdf7f8a0	-0.12107968
58	0x3baa54fb	0.0051981187
59	0x3d2968ef	0.041359838
60	0xbd3a6836	-0.04550954
61	0x3d0aaf8d	0.033858825
62	0x3d4d3462	0.050098784
63	0x3cb41ea3	0.021987265
64	0x3baaeb9a	0.005216074
65	0x3c598c85	0.013278131
66	0x3c6eefa9	0.014583507
67	0xbbb29aff	-0.005450606
68	0x3d28ecbd	0.041241396
69	0x3cf7df8d	0.030257965
70	0x3cdf12b1	0.027230592
71	0xbc983189	-0.018578308
72	0x3b97358f	0.004614539
73	0xbbe5803a	-0.007003811
74	0x3c57bc0c	0.013167392
75	0xbc72d3f3	-0.01482104
76	0xba424450	-0.0007410692
77	0xbb34eed0	-0.0027608164
78	0xbce24bc4	-0.027624018
79	0x3b74c5e8	0.0037349407
80	0xbbb4c768	-0.005516935
81	0x3c827dfb	0.015929213
82	0xbd94a7e7	-0.07258587
83	0xbcce6396	-0.02519397
84	0x3da4f34d	0.080542184
85	0xbd8a0ec1	-0.06741095
86	0xbca74b68	-0.020421699
87	0x3da081dc	0.07837269
88	0x3cbf2701	0.023334028
89	0xbbae91dc	-0.0053274464
90	0x3c897970	0.016781539
91	0xbd13183e	-0.03591179
92	0xbb673d2f	-0.003528427
93	0x3d99cbd0	0.07509577
94	0xbd08e1c4	-0.033418432
95	0x3d1221bc	0.035676703
96	0x3d547f34	0.051879123
97	0x3aa6050d	0.00126663
98	0x3d5ee924	0.05442156
99	0x3d0b1551	0.033955876
100	0x3c6f5aeb	0.014609079
101	0x3ca09b09	0.019605177
102	0x3d9d9ba5	0.076957025
103	0xbc256f1d	-0.010097292
104	0x3c27601b	0.010215784
105	0x3c981f26	0.01856954
106	0x3caf606f	0.021408288
107	0xbc606c07	-0.013697631
108	0x3d9e7d15	0.07738701
109	0x3c8a4adf	0.016881404
110	0xbd4460ad	-0.04794376
111	0x3d140ce8	0.03614512
112	0xbd0025cf	-0.031286057
113	0xbcca7aa6	-0.024716686
114	0xbcbe0787	-0.023196949
115	0xbca92cdc	-0.020651273
116	0xbd3d3dd4	-0.046201542
117	0xbcd9773a	-0.02654611
118	0xbbac9e2d	-0.0052678795
119	0x3d8dd25b	0.06924888
120	0x3cf6518a	0.030068178
121	0x3bfda979	0.00774115
122	0x3cdc693c	0.026905648
123	0xbcc3a960	-0.023884475
124	0x3bb35af3	0.0054734885
125	0x3c263678	0.010144822
126	0xbcbe5ec5	-0.023238549
127	0xba316e63	-0.0006768463
128	0x3b82a7df	0.003987297
129	0x3cd5a1b9	0.026078092
130	0xbbef9438	-0.00731137
131	0x3c10e781	0.008844257
132	0x3cd69082	0.026191954
133	0xbd2e6b57	-0.042582836
134	0xbd0aac74	-0.03385587
135	0x3d08f20b	0.033433955
136	0x3cc03ba3	0.023465937
137	0x3d3c142b	0.04591767
138	0x3d0977d2	0.033561535
139	0x3cfcde17	0.03086762
140	0xb9f1c081	-0.0004611053
141	0x3c9b2f97	0.018943591
142	0x3c62e8d5	0.013849457
143	0xbc4fa0c6	-0.012672609
144	0x3b1a6085	0.0023556065
145	0x3d1834cf	0.037159737
146	0x3cbfe4b0	0.023424476
147	0xbbc241fe	-0.005928277
148	0x3bcb264d	0.006199634
149	0x3c0f7999	0.0087570185
150	0xbbd30954	-0.006440321
151	0xbc3711ab	-0.011173646
152	0x3cc11842	0.023571137
153	0xbd4cbda9	-0.04998556
154	0x3c975a81	0.018475773
155	0x3d4ae6e5	0.049536604
156	0xba8ac741	-0.0010587947
157	0x3cfe95eb	0.031077346
158	0x3d371b36	0.044703685
159	0x3cd94df0	0.026526421
160	0x3bafd824	0.005366342
161	0x3bb185db	0.005417568
162	0xbd1fffec	-0.039062425
163	0x3d14c709	0.036322627
164	0xbac182d7	-0.0014763725
165	0xbbe76e46	-0.007062706
166	0x3d610b6f	0.054942545
167	0x3d3b48c7	0.045723703
168	0xbd68f46c	-0.056873724
169	0xbd0618a0	-0.032738328
170	0xbd08a334	-0.033358768
171	0xbcb7bf46	-0.022430073
172	0x3ca3d0dd	0.019997055
173	0xbce3406f	-0.027740685
174	0x3ca59049	0.020210402
175	0x3cda7761	0.026668252
176	0x3ca71897	0.020397468
177	0x3b426191	0.0029660205
178	0xbb874bd6	-0.0041289134
179	0x3caeda53	0.02134434
180	0xbbf5ff00	-0.007507205
181	0xbd4cb309	-0.04997543
182	0xbd99b7b0	-0.07505739
183	0xbcb6c861	-0.022312345
184	0xbd243cf2	-0.040097184
185	0xbd21715a	-0.03941474
186	0x3c7fd6a1	0.015615136
187	0x3d1d3e8f	0.03838974
188	0x3d7b74de	0.06139075
189	0x3cf2c371	0.02963421
190	0x3c0739ff	0.008253573
191	0x3a889ad9	0.0010422125
192	0x3d686f64	0.056746855
193	0x3cbabc12	0.022794757
194	0xbb8cb3d0	-0.0042938963
195	0x3d6f85dd	0.05847727
196	0x3c3e3c67	0.011611081
197	0xba9614ec	-0.0011450327
198	0x3d938285	0.07202629
199	0x3dfb64fc	0.122751206
200	0xbcb346c2	-0.021884326
201	0xbb01f8a6	-0.0019832044
202	0x3d963c96	0.073357746
203	0x3c867288	0.016412035
204	0xbd8c5cd6	-0.068536445
205	0xbadf4104	-0.0017032926
206	0xbc95049d	-0.018190676
207	0x3c175477	0.009236447
208	0x3aa26da8	0.0012392299
209	0x3c6e1877	0.0145322
210	0x3d505095	0.0508581
211	0x3c1cde8f	0.0095745465
212	0xbc54fdba	-0.012999946
213	0x3c257b32	0.010100173
214	0x3ab2ea0b	0.0013650073
215	0xbd36cc34	-0.044628337
216	0xbd28364e	-0.041067414
217	0xbb17318b	-0.0023070301
218	0xbb9e3770	-0.004828386
219	0xbcc5484b	-0.024082324
220	0xbbf77e46	-0.0075528948
221	0xbc2996d7	-0.010350904
222	0xbc0dde63	-0.008658978
223	0x3cf272ef	0.02959582
224	0x3c3f22d4	0.0116660185
225	0xbcc1f3c4	-0.023675807
226	0x3d07f223	0.033189904
227	0xbbec1ac4	-0.007205339
228	0x3d15b0ec	0.03654568
229	0xbba74be8	-0.0051054843
230	0xbb838bbc	-0.0040144604
231	0x3cc6d07e	0.024269339
232	0x3c2d59c9	0.0105804885
233	0x3d23299b	0.0398346
234	0x3d748b7c	0.059703335
235	0x3c44fb46	0.012022799
236	0x3d1a9a9c	0.037745103
237	0x3d594c5c	0.053051338
238	0x3bd9fccb	0.0066524497
239	0x3ce92465	0.028459737
240	0x3c50979c	0.012731459
241	0x3cedabaf	0.02901253
242	0x3cf1790f	0.02947667
243	0x3d661ed3	0.05618174
244	0x3dad7c22	0.08470942
245	0x3d810665	0.06300048
246	0x3c2bf220	0.010494739
247	0x3d209bad	0.039210964
248	0x3cba9f81	0.022781136
249	0xbd33991e	-0.043847196
250	0xbc05b580	-0.008160949
251	0x3b4eeba9	0.003157357
252	0x3cf908a0	0.03039962
253	0xbd072812	-0.0329972
254	0xba33cb21	-0.00068585767
255	0x3d165107	0.036698367

bias f4 [64]
0	0xbd8ab523	-0.0677283
1	0xbd32a4dc	-0.043614253
2	0xbce249ed	-0.027623141
3	0xbca10a13	-0.019658124
4	0x3e0f4f5a	0.13995114
5	0x3d6e6681	0.058203224
6	0x3d28dd8b	0.041226905
7	0xbcdf6bce	-0.027273085
8	0x3ed70220	0.4199381
9	0x3ea6526a	0.32484752
10	0xbd0710f5	-0.032975156
11	0x3d8d803a	0.06909223
12	0x3ce1134f	0.027475027
13	0x3e4ae965	0.19815595
14	0xbd50ae49	-0.05094746
15	0x3cea8e94	0.02863244
16	0x3d578ad8	0.052622646
17	0xbce28eb2	-0.027655933
18	0xbc21065e	-0.009828178
19	0x3d49560d	0.04915433
20	0xbe7c5bf7	-0.24644457
21	0xb8bf9a19	-9.136293e-05
22	0xbd9cc717	-0.07655161
23	0xbcd64a7e	-0.026158568
24	0x3e8e8f00	0.27843475
25	0x3db4a218	0.088199794
26	0xbde0094c	-0.10939273
27	0xbe86dba9	-0.26339462
28	0x3da645b5	0.08118764
29	0xbcd48019	-0.025939988
30	0x3d0ecd5b	0.03486381
31	0xbe856876	-0.2605626
32	0x3d9da1fe	0.07696913
33	0x3d6ac778	0.057319134
34	0x3d19cca3	0.037548672
35	0xbdca9c81	-0.09893132
36	0xbec4084d	-0.38287583
37	0x3eeee11c	0.4665612
38	0x3b6b514d	0.0035906613
39	0xbee91be4	-0.4552909
40	0x3ca61a34	0.020276166
41	0x3e07bfd6	0.13256773
42	0xbd548bba	-0.051891066
43	0xbda84420	-0.08216119
44	0x3e106a70	0.14103103
45	0x3ddad277	0.10684674
46	0x3f186381	0.5952683
47	0xbe5055f6	-0.20345291
48	0x3e861015	0.26184145
49	0x3d8d1f2b	0.068907104
50	0x3e6acb6f	0.22929166
51	0x3d637096	0.055527292
52	0xbd12a83e	-0.03580498
53	0xbd6f2011	-0.05838019
54	0xbd45d709	-0.048300777
55	0xbec83237	-0.3910081
56	0x3d3eb62f	0.046560463
57	0xbd28e50b	-0.041234057
58	0xbc3cc6ad	-0.011521977
59	0xbd5ebbce	-0.054378323
60	0xbc37734f	-0.011196925
61	0xbd06e1a8	-0.032930046
62	0x3d894a73	0.06703653
63	0x3b2a24ee	0.0025961953

weight f4 [64]
0	0x3f6f4e7a	0.9347912
1	0x3f8515db	1.0397295
2	0x3f7b17bb	0.98083085
3	0x3f8411f7	1.0317982
4	0x3f82c797	1.021716
5	0x3f78e794	0.9722836
6	0x3f75f874	0.96082234
7	0x3f7fc0dd	0.9990366
8	0x3f7ffea5	0.9999793
9	0x3f80c9b0	1.006155
10	0x3f7033f5	0.9382928
11	0x3f77d432	0.9680816
12	0x3f731d31	0.9496642
13	0x3f73433e	0.9502448
14	0x3f7d61cd	0.9897736
15	0x3f733351	0.9500018
16	0x3f75c390	0.9600153
17	0x3f7bb14a	0.98317397
18	0x3f7a9f3f	0.9789924
19	0x3f84a623	1.0363201
20	0x3f8753e7	1.057248
21	0x3f81afa9	1.0131732
22	0x3f61fe59	0.8827873
23	0x3f747553	0.9549152
24	0x3f70ba5b	0.94034356
25	0x3f68592d	0.9076107
26	0x3f8484fb	1.0353082
27	0x3f6d5ae0	0.9271679
28	0x3f6f4255	0.9346059
29	0x3f7fb205	0.9988101
30	0x3f6c1ec7	0.9223446
31	0x3f745d40	0.9545479
32	0x3f82247b	1.0167383
33	0x3f6bf223	0.92166346
34	0x3f816cc6	1.011132
35	0x3f807a3d	1.0037304
36	0x3f7c19cd	0.9847687
37	0x3f7c43bf	0.9854087
38	0x3f73b94f	0.95204633
39	0x3f7443ac	0.9541576
40	0x3f8168da	1.0110123
41	0x3f8846ca	1.0646603
42	0x3f7fa875	0.9986642
43	0x3f7c7c1f	0.98626894
44	0x3f7a5303	0.97782916
45	0x3f63f9c2	0.89052975
46	0x3f6d8c74	0.9279244
47	0x3f778daa	0.9670054
48	0x3f80e563	1.0070003
49	0x3f746a23	0.9547445
50	0x3f7b1e80	0.98093414
51	0x3f841468	1.0318727
52	0x3f797118	0.9743819
53	0x3f860cdb	1.0472673
54	0x3f777dd3	0.9667637
55	0x3f7b96cc	0.9827697
56	0x3f75487f	0.95813745
57	0x3f6fc674	0.9366219
58	0x3f6d751b	0.92756814
59	0x3f7e3423	0.99298304
60	0x3f7cc1c8	0.98733187
61	0x3f789964	0.97109056
62	0x3f89a4bb	1.0753397
63	0x3f785cf2	0.97016823

bias f4 [64]
0	0xbd098747	-0.033576276
1	0xbcc241bc	-0.023712985
2	0xbdcff0e3	-0.10153367
3	0xbea1b614	-0.31584227
4	0x3dbe8210	0.09302151
5	0xbdd68409	-0.104744025
6	0xbe97ed9a	-0.29673463
7	0xbe327a7e	-0.1742954
8	0xbee9f7bc	-0.4569682
9	0xbedd3466	-0.4320404
10	0xbe84ccf5	-0.2593762
11	0xbeb93ff5	-0.36181608
12	0xbbea3374	-0.007147247
13	0xbe96111f	-0.29309937
14	0xbdea560f	-0.114421956
15	0xbdc16216	-0.094425365
16	0xbe8d9aa0	-0.27657032
17	0xbe3f9522	-0.18709233
18	0xbeb01c3c	-0.3439654
19	0xbe6670b6	-0.22503933
20	0xbec55b37	-0.38546154
21	0xbe2d53c7	-0.1692649
22	0xbe3f16f5	-0.18661101
23	0xbe6ac988	-0.2292844
24	0xbefb3fd6	-0.4907214
25	0xbe74473a	-0.23855296
26	0xbe9a48db	-0.3013371
27	0xbf1a4d17	-0.6027388
28	0xbe7950fa	-0.24347296
29	0xbe3d5997	-0.18491207
30	0xbe3162d4	-0.17322856
31	0xbeb1553c	-0.3463534
32	0xbe9c17f2	-0.3048702
33	0xbea2b1d5	-0.317763
34	0xbdeca373	-0.11554613
35	0xbec4307c	-0.3831824
36	0xbed4eeb1	-0.41588357
37	0xbebb96dc	-0.36638534
38	0xbe26235b	-0.16224425
39	0xbef584ae	-0.4795279
40	0xbe2d7c5b	-0.16941969
41	0xbeb2000a	-0.34765655
42	0xbe2d24b1	-0.16908528
43	0xbcce485a	-0.025180984
44	0xbd5657fa	-0.052329995
45	0xbea098c2	-0.31366545
46	0xbef67e00	-0.48143005
47	0xbec4c12a	-0.38428622
48	0xbebf13fe	-0.3731994
49	0xbeea0d98	-0.45713496
50	0xbd1a9231	-0.037737075
51	0x3b7faa33	0.0039011359
52	0xbea7b7a0	-0.32757282
53	0xbe0b0725	-0.13576944
54	0xbe17ca6c	-0.14823312
55	0xbe7ca168	-0.24670947
56	0xbe807021	-0.25085548
57	0xbeca8790	-0.3955655
58	0xbd44bf2b	-0.048033874
59	0xbe4112bd	-0.18854804
60	0xbdabc14f	-0.0838648
61	0xbeb9c009	-0.36279324
62	0xbe8a3e2c	-0.27000558
63	0xbe8a16cc	-0.26970518
