carl/envs/mario/pcg_smb_env/toadgan/generators/v1/TOAD_GAN_1-3/generators.pth (torch_old, 836631 bytes, 56 tensors)

weight f4 [64, 11, 3, 3]
00000000: 0c95 98bd 36e7 6f3d 3a57 df3c c8ce 0abc
00000010: dcb1 133e dfbc 8c3d 7ad1 9e3d 56fa 06bd
00000020: f32d e73d b634 9c3d d502 19bc a3fc d3bc
00000030: 0ee4 b1bd 6444 483d cd73 2ebd 3087 563d
00000040: 15ef d1bd 8d45 9f3d 8c69 923c f511 9bbc
00000050: f607 bebc c574 33bc 6dd9 5cb8 8047 a63c
00000060: 6ff8 31bd 51b3 09bc e95b c1bc c491 7c3c
00000070: 48dd 20bc 98b9 d3bc 420e cf3c f9a6 9abb
00000080: 62a8 ae3c 1479 65bb deb8 da3d c315 9d3c
00000090: 3282 053d fdbd 4e3d 24f9 31bc 84b3 11bd
000000a0: f52b 42bd 7bb8 023d e685 07bd 9017 8dbc
000000b0: b754 4ebd e0fe 943b bcd9 1d3d 561a 8f3b
000000c0: 3e7a 20bd f6f3 49bd 0d49 003d a283 64b9
000000d0: 547f 403d fbde 1e3d d6b8 453c 3bf7 213d
000000e0: 842f 4dbc 28a8 88bd 27af 923d e7c5 d7bc
000000f0: 0394 0fba f1d0 8e3c 0b75 46bd 5084 d6bd
00000100: 97d9 093c e098 a9bc 3ccb 313d bf0e 72bd
00000110: 4c22 d8bc 1ea9 b23c 1f59 f1ba 4f92 72bd
00000120: 550c 183c b67a 173d 6c3b a73d 3ae7 523d
00000130: e932 3bbc baac b23d 318b 15be 5555 4abb
00000140: 1f4b 173d 330f 4d3c d0b4 ddbc 7ad1 0c3d
00000150: ca09 c53b b846 b23c d645 9abd c544 0e3e
00000160: 1e68 fbba 03eb b7bb fc23 783b 6cbc 453d
00000170: 7191 e73b 7926 44bd c465 2c3c 823d 0ebc
00000180: f29c 843d c80d 8cbd 8e84 a2bd 6146 d6bb
00000190: 0a66 5bbc ddd8 2d3d eef2 20bc ea9c a4bc
000001a0: 4a4d 00bd a5c0 293e ee3a 7cbc b025 b53d
000001b0: e59b 273c 684d adba 8aa1 a9bb 54d6 323d
000001c0: 9762 ce3c d6ee 04bc 28b5 4bbd 3289 8e3c
000001d0: 9dfd c4bd 36e6 1ebd ff57 a83c 627d f33c
000001e0: 83f1 af3b dfc8 1b3c 3ffd d7bc 7533 a3bd
000001f0: 8743 213d a02d 9a3d edf9 cb3c aa51 763c
00000200: 7551 3f3c 2b4e 52ba f8ea 05bc 9ec7 b43a
00000210: e03f bf3c 824e c43d d334 a8bb f87e 6abb
00000220: b598 3dbd 60a8 0cbc e455 25bb 2995 9cbc
00000230: 9538 b7bc 160f 59be d69b d7bd 0d6e f6bd
00000240: 9429 e2bc cfee 423c b5c9 7e39 9cd4 abbb
00000250: fad6 abbc 8acf f33c 6cee b7bc 5352 e43d
00000260: 8756 48bd 4f35 93bb 6dd7 9aba 5049 02ba
00000270: e714 bcbc 0400 d63a 3af6 0abd c691 0e3e
00000280: d52f cebc 5dd1 133d 4e94 1ebc bbcc 783c
00000290: a3ac 66bb eb0f 043d 1722 9cba f0ea 17bc
000002a0: 9e62 8dbd 690f 993d f38c 79bd b7c1 e9ba
000002b0: b6b4 5a3b 689d 383c c335 31bd 829b 3fbc
000002c0: 41dc c5bc 5c1d c93c 2efc 26be ede6 4bbd
000002d0: c6ec 653b 8bbb ca3a d709 48bd 95d8 d739
000002e0: 436d b93c 70d3 d03b 453d 363e 719c ebbd
000002f0: faf4 833d a2bc dabc 20d1 0cbc 7427 92bc
00000300: 020a d4bb 5c84 953b 7ccc c1bc 9e25 6939
00000310: 1d03 bcbb 92eb 35bc cd9a 82bd b6f2 513d
00000320: 842d 093d 03f3 6bbc 67c1 16bd 2782 653b
00000330: 4d70 3c3d 8f21 03bd d145 433d affc afbd
00000340: 2672 203d 59f5 1d3d ad6d 183c 351a fc3c
00000350: a235 92bc a2e0 b3bd c2c8 8fbb 7021 6b3d
00000360: 43fb babd b29d 8b3d 9ab8 1c3b 39d2 703c
00000370: 93ec 28bb f3d7 923d 8737 72bd bfce af3c
00000380: 494f 863d 1287 82bc 9cc4 963d e7a9 3f3d
00000390: 5f94 a8bc 2abf 63bc 3925 88bc 8cfd a33d
000003a0: 099a ae3c 34b6 79bd ef55 f13c 5e48 87bc
000003b0: 7686 cabd 2de8 1dbd f3a0 1a3d f5f4 a2bc
000003c0: cb19 28bc e5ed 993d c53e 31bd 4c70 913c
000003d0: 1930 e5bd bd81 003d e3e5 efbc 69a0 113c
000003e0: 1bdf a33c 7994 8bbd 43a1 893c ed55 bcbd
000003f0: fc6a c73d 473e 40bc 71b1 393d 3cfa 94bc
-0.074503034 0.05857011 0.027263273 -0.008472152 0.14423317 0.06871962 0.07754798 -0.032953583
0.11288061 0.07627241 -0.009339054 -0.025877303 -0.08686076 0.048893347 -0.042590905 0.05237502
-0.102506794 0.07776938 0.017872594 -0.018929461 -0.023197155 -0.010953133 -5.265458e-05 0.020297766
-0.043449815 -0.008404569 -0.023603396 0.015415613 -0.009818383 -0.025845334 0.025275353 -0.0047196117
0.021320526 -0.0035014795 0.10679792 0.019175416 0.032594867 0.050474156 -0.010862622 -0.03557159
-0.047405202 0.031914216 -0.03308668 -0.01722315 -0.05037376 0.004546985 0.038537726 0.004367153
-0.03917908 -0.049304925 0.031319667 -0.00021792811 0.04699643 0.03878687 0.012067994 0.039542418
-0.012523536 -0.06672698 0.07162314 -0.026339484 -0.00054770726 0.017433615 -0.048451465 -0.10474455
0.008413694 -0.02070278 0.04340671 -0.059096094 -0.026383542 0.021809157 -0.0018413401 -0.059221562
0.009280284 0.03698226 0.08165631 0.051490046 -0.011425712 0.08724351 -0.14603879 -0.0030873616
0.036936875 0.012515831 -0.027063757 0.03437946 0.00601313 0.021762237 -0.075328514 0.13893421
-0.001918081 -0.0056127324 0.0037863245 0.048275396 0.0070668985 -0.047888253 0.01052231 -0.008681657
0.064752474 -0.06838566 -0.07935439 -0.0065391515 -0.013391027 0.042443145 -0.009823544 -0.020094354
-0.03132371 0.16577394 -0.015394909 0.08845079 0.010230039 -0.0013221921 -0.0051767277 0.04366143
0.025193496 -0.008113584 -0.04973331 0.017399404 -0.096186854 -0.038793765 0.020549772 0.029722873
0.0053693666 0.009508341 -0.026365874 -0.07968799 0.03937104 0.075282335 0.024899447 0.015034119
0.011677136 -0.0008022512 -0.008173697 0.0013792401 0.023345888 0.09585287 -0.0051332503 -0.0035781246
-0.04628821 -0.008585066 -0.0025228197 -0.019114094 -0.022365848 -0.21197161 -0.1052777 -0.12032709
-0.027607717 0.011897757 0.0002429847 -0.005243851 -0.020976532 0.029762048 -0.022452556 0.111485146
-0.048910644 -0.004492439 -0.001181347 -0.0004970031 -0.022959186 0.0016326909 -0.033926226 0.13922796
-0.025169292 0.036088336 -0.009678913 0.01518553 -0.0035198114 0.032241743 -0.0011912015 -0.009272322
-0.06903575 0.074736424 -0.060925435 -0.0017834221 0.0033371872 0.011267997 -0.04326416 -0.011694791
-0.024152877 0.024550132 -0.16307136 -0.049780775 0.0035083755 0.0015467269 -0.04883751 0.00041169362
0.022635108 0.0063728616 0.1779681 -0.11504448 0.0644321 -0.026701275 -0.008594781 -0.017841078
-0.0064709196 0.0045628976 -0.023657076 0.00022234625 -0.005737676 -0.011103528 -0.06377182 0.051256858
0.033490673 -0.0144012 -0.036805537 0.0035020204 0.046005536 -0.032014426 0.047674004 -0.085931174
0.03917136 0.03856406 0.0093034925 0.030774215 -0.01784784 -0.0878308 -0.004387946 0.057404935
-0.091299556 0.06817187 0.0023913742 0.0146985585 -0.0025775775 0.07170095 -0.059134986 0.021460889
0.06558091 -0.015933547 0.07361719 0.04679289 -0.020578561 -0.0139005575 -0.016619312 0.080073446
0.021313684 -0.060964778 0.029459922 -0.016514 -0.09888928 -0.0385515 0.03775115 -0.019892195
-0.010260056 0.07516078 -0.043272752 0.017753743 -0.111908145 0.031373728 -0.029284423 0.008888342
0.020003846 -0.06815428 0.016800528 -0.091960765 0.097372025 -0.011733598 0.045335237 -0.018185727

bias f4 [64]
00000000: c5bb e6bc f008 c23d 70bc febd 88b6 f8bd
00000010: aaef 84bd 4b07 74bd f1ba 9a3c 7f78 a0bd
00000020: 425b a9bb 96e7 623d 496c 5f3c 32ff 0abe
00000030: c5bd 343d a3da 00bd 972e b53c 9e0d 403d
00000040: 231b 953d 7d62 82bd 962c 023d bdfc 13bd
00000050: e4b7 dbbc bbae 0fbe 30f1 e33c 7870 86bd
00000060: 0298 513d 6abe b23d 3078 61bd 4626 e33c
00000070: 1003 c6bd 159b 2ebe d629 aebc e246 0abe
00000080: 0a77 c13d 0413 05bd 2dff 38bd 6726 883c
00000090: daf5 253d 26af a23d 79eb 7d3d 7634 323c
000000a0: 33ed c03d 4811 3dbc b5b5 da3c a0f3 833d
000000b0: a16f c03c e131 f83c 43ce 74bc 4132 bfbd
000000c0: d930 a53d 34b2 9abd c98d 953d 6d04 9b3d
000000d0: 41a0 95bd 04a3 64bd 0051 a13c 0eb1 543d
000000e0: a419 023d a324 37bd 7bd3 9cbd dcf4 09be
000000f0: 151a 78bd 03f7 f73c d260 4fbc 901d 7a3d
-0.028165707 0.09474361 -0.12438285 -0.1214419 -0.06491025 -0.059577268 0.018887969 -0.07835483
-0.0051683495 0.05539664 0.013636657 -0.13573912 0.04412629 -0.03145851 0.022116942 0.046887986
0.072805665 -0.063664414 0.0317808 -0.036129702 -0.026821084 -0.14031498 0.027824968 -0.065644205
0.051170357 0.08727725 -0.05504626 0.027728211 -0.09668553 -0.17051347 -0.021260183 -0.13503602
0.09446533 -0.032488838 -0.04516523 0.016619874 0.040517665 0.07943563 0.061992142 0.0108767655
0.09420242 -0.011539765 0.026697973 0.06442952 0.023490729 0.030297222 -0.014941755 -0.09335757
0.080659576 -0.07553521 0.07302434 0.075692035 -0.07305957 -0.055819526 0.019691944 0.051926665
0.031762734 -0.044712674 -0.07657524 -0.13472313 -0.06057175 0.030269152 -0.012657361 0.06106335

weight f4 [64]
00000000: 76dd 5d3f e607 903f 0d5a 623f 990a 753f
00000010: f0ac 833f 4bf9 873f 7da1 6f3f 917d 763f
00000020: fc42 7a3f 4754 603f 84e2 843f 13f8 6a3f
00000030: d1da 653f 73da 903f b853 893f 56bc 8e3f
00000040: a985 6b3f 2451 793f cd2f 8a3f 80de 833f
00000050: da4e 743f 426e 763f f407 7d3f 498f 773f
00000060: fc30 7a3f c2ac 7c3f fd58 693f 7388 6c3f
00000070: 9c0e 7f3f ca65 793f 1bce 723f 7b77 7c3f
00000080: e7bc 843f d780 843f b73b 6f3f 35e0 703f
00000090: 4897 743f ea12 823f 62c7 673f 3bd0 923f
000000a0: 436f 583f f0bf 833f 39da 623f e4ef 6b3f
000000b0: 3270 803f b10f 7f3f afe5 933f 5e6b 8b3f
000000c0: 1a8c 843f 6b55 803f c2f2 803f 76f0 793f
000000d0: ad96 7f3f d338 6a3f 1f60 773f aebe 593f
000000e0: 8147 603f 7fa2 863f afa4 743f cf2b 683f
000000f0: dfec 723f c699 633f ecac 6b3f 9410 833f
0.8666605 1.125241 0.88418657 0.95719296 1.0287151 1.0622953 0.93605787 0.9628535
0.9775846 0.876286 1.0381627 0.9178478 0.8978701 1.1316665 1.0728674 1.1151226
0.92000824 0.97389436 1.0795838 1.0302277 0.9543282 0.9626199 0.9884026 0.9670301
0.97730994 0.9870111 0.9115141 0.92395705 0.9963167 0.9742094 0.9484574 0.9861981
1.0370148 1.0351819 0.9345049 0.9409211 0.95543337 1.0162022 0.9053861 1.1469797
0.8454477 1.029295 0.8861423 0.9216292 1.0034239 0.9963332 1.1554469 1.0892141
1.0355256 1.0026067 1.0074084 0.9763254 0.9983929 0.91492957 0.96631044 0.8505658
0.87609106 1.051834 0.9556379 0.90691847 0.94892687 0.88906515 0.9206073 1.0239434

bias f4 [64]
00000000: add1 11be 58d8 cebd 76d3 64be a06e 33be
00000010: 5dff 0ebe 7087 3cbe 22aa 91be 9fd4 8dbe
00000020: 7145 63be 8ccb 76be 5e44 9bbe c0ad 49be
00000030: aa2a 8cbe 83ce 49be 6714 5fbe 9ce8 51be
00000040: 952b 6cbe f44a 6ebe dba8 84be 9939 64be
00000050: fa17 2abe 7ff9 79be 13bf 3abe a528 65be
00000060: f35b 38be 64a5 6cbe fa30 13be 2ac4 85be
00000070: efe2 78be 37cb 68be 05de 35be 242b 6abe
00000080: a694 5cbe 36f1 79be 21c8 fdbd 6076 99be
00000090: dba6 75be 4c2c 37be 6189 42be 6eb8 2fbe
000000a0: cc6b 77be 41b9 b0be 51f0 03be 505e 80be
000000b0: f1f5 31be 00dd 8cbe 0546 2bbe e887 22be
000000c0: 6183 87be 2bac 25be 53fb 86be 7da0 83be
000000d0: 4895 86be 157d a2be 7c51 84be 3a82 71be
000000e0: c923 70be c239 2ebe b045 6dbe afa8 8bbe
000000f0: 2243 95be a689 99be b1cc 45be 42e5 92be
-0.14240141 -0.10099858 -0.22346291 -0.17522669 -0.13964601 -0.1841104 -0.28450114 -0.2770128
-0.22194459 -0.24101084 -0.30325598 -0.19695187 -0.273763 -0.19707684 -0.21785127 -0.2049889
-0.230635 -0.2327078 -0.25910076 -0.22287597 -0.16610709 -0.24411581 -0.18236952 -0.22378786
-0.18003826 -0.23109967 -0.14374152 -0.26126224 -0.24305318 -0.2273377 -0.17760475 -0.2286802
-0.2154108 -0.24408421 -0.12391687 -0.29973125 -0.23989432 -0.17887992 -0.18997718 -0.17160198
-0.24162215 -0.34516338 -0.12884642 -0.25071955 -0.17378975 -0.2751236 -0.16725929 -0.15872157
-0.26467422 -0.16178958 -0.2636362 -0.2570838 -0.26285768 -0.31736055 -0.25843418 -0.23584834
-0.23451151 -0.1701422 -0.23171115 -0.27277133 -0.2915278 -0.2998783 -0.19316365 -0.28690535

running_mean f4 [64]
00000000: 4cba eabc abe3 d63d be5f 02be 5818 11be
00000010: fea5 84bd 6391 7fbd 533c 5e3c 3676 aebd
00000020: b2b5 50bc 2d28 573d 2bf1 ca3c 378c 1abe
00000030: ca86 383d 4e49 08bc 3f8c 573c f426 533d
00000040: bad8 813d c53e 9dbd 9fcf 153d 0539 76bd
00000050: 514f 97bc 09c5 0bbe 4706 bc3c cc07 85bd
00000060: bfec f43c e273 a23d 9a4d 82bd 1daa 2c3d
00000070: 61c9 bdbd ff55 20be 51f5 d1bc 3907 18be
00000080: 9016 bd3d 8229 08bd 05d0 48bd e2e9 f53c
00000090: 973c ac3c 616b ac3d 8690 7f3d f001 0e3d
000000a0: 9c26 8d3d 5f84 1cbb 398e ca3c 8c6d 6e3d
000000b0: a544 d23c 5bc3 363d 4762 abbc 4db4 c9bd
000000c0: d2f4 a43d 9751 94bd 7025 b43d 5e35 be3d
000000d0: f37e 71bd 7ed9 3ebd 46b7 c83c 198c 573d
000000e0: d4c1 393d 219a 68bd f664 9fbd 6445 fbbd
000000f0: 2a18 8cbd 0465 bc3c 9eda bbbc 67ee 9f3d
-0.028653286 0.10492643 -0.12731835 -0.14169443 -0.06476973 -0.06239451 0.013564187 -0.08518641
-0.012738632 0.05252855 0.024773201 -0.1509255 0.04505042 -0.008318258 0.013155996 0.05155082
0.063401654 -0.07677988 0.036574956 -0.06011297 -0.018470438 -0.13649382 0.022952212 -0.06495628
0.029898046 0.07932259 -0.063624576 0.04215442 -0.092669256 -0.15657805 -0.025629671 -0.14846505
0.09232819 -0.03324271 -0.049026508 0.03001875 0.021024985 0.084189184 0.062393688 0.034669816
0.0689213 -0.002388261 0.02472602 0.05820994 0.025667498 0.0446199 -0.020920886 -0.09848843
0.08054508 -0.072421245 0.08796203 0.09287523 -0.05895896 -0.046594135 0.024501454 0.052623842
0.045350865 -0.056787614 -0.07782929 -0.122690946 -0.068405464 0.022997387 -0.022931393 0.078091435

running_var f4 [64]
00000000: 5ea4 293e e085 423e fcd5 1c3e 784f 1e3e
00000010: 67d1 283e 3841 243e 7b3b 1c3e b000 203e
00000020: e10b 1c3e c623 283e e939 1d3e 9243 193e
00000030: e1be 113e ce89 3b3e 39d0 353e d0d5 363e
00000040: 01d6 163e 813e 113e c706 293e 8b8d 333e
00000050: 12d8 413e 5817 283e f992 1e3e 0612 2d3e
00000060: 9788 1f3e 19b1 203e a334 303e eaa0 2f3e
00000070: f509 2f3e eb2e 273e e20a 263e 04ac 203e
00000080: a65b 293e 87cd 283e 4289 0e3e 77ad 263e
00000090: f444 153e 5f1d 2a3e ec5d 383e 2b07 293e
000000a0: 1acf 213e 0332 243e 8029 203e 7a00 283e
000000b0: aaac 2a3e 27b4 1f3e 2edc 333e c55e 3d3e
000000c0: 5355 3b3e 3704 1c3e 1973 223e dc35 223e
000000d0: 2acd 163e 6fbe 1a3e b3c4 1c3e 756e 143e
000000e0: 9dba 293e 662c 273e 30ae 203e 84ca 1b3e
000000f0: 84f2 253e a41f 1d3e c86b 183e f7ab 2b3e
0.16566607 0.18996382 0.15316004 0.15460002 0.1648613 0.16040504 0.15257065 0.15625262
0.15238906 0.16419896 0.15354122 0.14967182 0.14232971 0.18314287 0.17755212 0.17855
0.14730074 0.14184 0.16506492 0.17534463 0.1893008 0.16415155 0.15485753 0.16901407
0.15579449 0.15692557 0.1720758 0.17151228 0.17093642 0.16326492 0.16215089 0.15690619
0.16538867 0.16484652 0.13919547 0.16277109 0.14577085 0.16612767 0.18004578 0.1650664
0.15801659 0.16034703 0.15640831 0.16406432 0.16667429 0.15596066 0.1756446 0.18493183
0.18294267 0.15235983 0.15864219 0.15840858 0.14726701 0.15111707 0.1530941 0.14495261
0.16575094 0.1632553 0.15691447 0.15213972 0.16205794 0.15344101 0.14884865 0.16764818

weight f4 [64, 64, 3, 3]
00000000: daa6 a63d 9c3e d8bd bd32 b1bc fc48 113d
00000010: 044c bb3c 481f da3c a840 aebd 6e00 93bc
00000020: 2113 c93b 2496 983c f194 c2bc 61b5 3c3c
00000030: 7932 593c cc90 9bbb afde 403c e648 95bd
00000040: 593a c6bc 02fb 3fbc ed4e 5e3d 4569 8c3d
00000050: 65e6 fe3a 39ba 05bd 3cbd ecbb 7167 693d
00000060: 208f 67bd f22d 19bd 1668 9bbc 4290 183d
00000070: 17ec b2bc 6080 303c bdd3 883b be69 993c
00000080: c89f 3ebc 2cd9 1dbd 871e e3bc d1c4 a43b
00000090: 831e 103d ca7f 723d 40e1 ae3c 4221 22bd
000000a0: 66c5 3d3c 5c8e d4bc 45b1 22bc 330c 0bbd
000000b0: 6b0f 9cbd 0e7e 103d c7f3 1dbb 8bac 19bd
000000c0: b962 9bbd 7887 273d 63ae 493d f1bc 88bd
000000d0: e54c ccbd 0d33 bcbd c223 d93d 5511 823d
000000e0: 2f3d edbc 4e57 2abd c6a8 1b3b c97c 7a3c
000000f0: 6ff4 263c 1044 0fbd ae53 48bc 6d73 353d
00000100: 3228 e53c 5a5e 37bc 21c6 f2bc 3356 acbd
00000110: 5192 8dbb dfb7 b2ba 2af2 4fbd 6fd2 4bbb
00000120: 84b4 b03d c1a8 a23c 38f4 02bd 220c 89bc
00000130: 5c58 9a3c f0f8 3cbd 0129 abbc 9aea b9bc
00000140: ebda 61bd da14 273c 77ef 30bb 69e0 37bd
00000150: 6702 84bb f467 81bd 5457 013d 9775 943c
00000160: 885b 11bc ce93 9abd 5a0b 60bd cee5 633b
00000170: 9d97 ce3b 9ee5 8dbc 517a c5bc 75de 17bd
00000180: 21ef f6bc 0023 0fbe d403 a6bd e6e0 adbc
00000190: 0e23 f83b beb2 a93d b45b 003c 6b2c bfbb
000001a0: dfa5 90bc 4ab7 3abd a016 e7bc a6a7 b73b
000001b0: 3621 c13d 1eeb 413d d64d 4b3c 4a2b 5abc
000001c0: 014b f13c 6422 5b3d 0ee8 acbb 050b 02bd
000001d0: 6516 a4bd 74e6 143b 2779 87bd de68 96bd
000001e0: cf2f 50bb 4e49 0dbd e926 fdbb 8ba9 48bd
000001f0: 35c1 a1bd fc83 84bb c09a c2bb 6316 be3c
00000200: 367a 853d 69d3 03bc f9b3 15bd 783d 30bd
00000210: b803 a7bd 0b4b a8bd 677a 24bd ce8f a43d
00000220: d478 c6bc 914b a2bd 93ab d1bd 4b13 0cbd
00000230: 1377 1ebe cc35 21bd 99f5 02bd 39a2 47be
00000240: 66c7 62bd 3e42 7fbc ddd7 753d bd4b 7fbb
00000250: 6d37 e33b 5119 02bc 0efe 98bd de42 78bd
00000260: a32d 81bd 4bf1 643d d784 163e 4b59 043e
00000270: 7c4c 3a3c 6604 5cbc 234e 24bd 7d12 51bc
00000280: 7455 113d 97ee 41bd 9579 58ba 4dda 583d
00000290: 2034 bd3c 2bfd 9fbc 826c d4bc c0e4 d9bc
000002a0: 2a26 48bd c96e 0fbe 0e0a 9fbd c873 243d
000002b0: 60c5 fc3c 9a42 b1bc e9fd 9c3c 9db1 cd3b
000002c0: ff8a a73d f2a2 21bd a763 b5bc 4914 b4bd
000002d0: 0d96 69bd 7932 d33d 3599 babd 6aa3 31bd
000002e0: 3c55 113c 47bd 2bbd c017 d8bc 134a 11bd
000002f0: cff0 89bd 2c6f 823c d1f6 f43c 6587 a53d
00000300: 1713 863d aced 843d 95aa aa3c d582 5cbd
00000310: 4954 86bc 2442 693b cddb 933d 209e 553d
00000320: f86a aabd b566 4ebb 83ac 9abc a061 0cbd
00000330: ddb2 12bd 2027 96bd 60f7 b63c 1d33 a3bb
00000340: 6761 a3bb c6a1 5bbd fcba 78bc c7c6 ad3c
00000350: 97c5 96bc 2808 f4bc d873 343c c33e a6bc
00000360: bdf2 8d3c 90b0 36bd 2827 2bbc 749d 8b3d
00000370: 593f 513c 4941 67bc 7c4d 30bd bd51 c13c
00000380: 55d7 763c 57d5 df3a e83f 173d 121b da3b
00000390: aba3 aabd 1234 19bd 50b4 2b3d d71d 0ebd
000003a0: 37fd ed3b 08d0 933b ee5b b33d 8c99 333c
000003b0: 4a9d ac3c 9ebf 87bd e0fb a0ba 3895 ddbc
000003c0: d66a 87bd 5803 7bba 0bc8 d43c 13a4 833d
000003d0: c215 6fbc ec77 2abd 89f0 95bd ab36 8abd
000003e0: 2503 cc3c dd88 443b 4c65 25bd 198e 20bd
000003f0: 4939 3d3d b759 833d c4b0 c4bb 172c 4ebc
0.08137293 -0.10558817 -0.02163064 0.035469994 0.022863396 0.026626244 -0.08508426 -0.01794454
0.0061363135 0.01862628 -0.023752661 0.0115178535 0.0132566625 -0.0047474857 0.011771842 -0.07289295
-0.024197744 -0.01171756 0.05427449 0.06856016 0.0019447325 -0.0326483 -0.007224707 0.056983415
-0.05653298 -0.037397332 -0.01897053 0.03724695 -0.021841092 0.0107727945 0.004175632 0.01872718
-0.0116347745 -0.03853719 -0.027724518 0.005028345 0.03518535 0.0592039 0.021347642 -0.0395825
0.011582708 -0.025946788 -0.00992996 -0.03394718 -0.07620128 0.035276465 -0.0024101601 -0.037518065
-0.07587189 0.040900677 0.049238574 -0.06676663 -0.09975604 -0.09189425 0.106025234 0.06350962
-0.028959839 -0.041587166 0.002375172 0.01528854 0.010190113 -0.03497702 -0.012226982 0.04429953
0.027973268 -0.011191929 -0.02963549 -0.08414879 -0.004320421 -0.001363512 -0.050768055 -0.003110077
0.086281806 0.019855859 -0.031971186 -0.016729418 0.018840961 -0.046135843 -0.020893576 -0.022694875
-0.055140417 0.0101978425 -0.00269982 -0.04489175 -0.0040286067 -0.063186556 0.031577423 0.018122477
-0.00887192 -0.07547723 -0.054698326 0.0034774425 0.006304695 -0.017321404 -0.024106177 -0.037077386
-0.030143322 -0.13978195 -0.08106199 -0.021225404 0.007572538 0.082860455 0.007834364 -0.0058341525
-0.017657219 -0.045584954 -0.02820903 0.005604702 0.094301626 0.047343366 0.012408694 -0.013315985
0.02945471 0.053499594 -0.0052766865 -0.03174879 -0.08012084 0.0022720369 -0.06614905 -0.073442206
-0.0031766777 -0.034493737 -0.0077255857 -0.048989814 -0.078981794 -0.004044054 -0.005938858 0.023204034
0.065174505 -0.00804601 -0.03654859 -0.04302737 -0.08155006 -0.08217438 -0.040155794 0.08035241
-0.024227537 -0.079245694 -0.10237803 -0.034198087 -0.1547511 -0.039357945 -0.0319725 -0.19495477
-0.055365942 -0.015579758 0.060020316 -0.0038955056 0.0069340975 -0.007940606 -0.07470332 -0.060610645
-0.06307533 0.055894177 0.14699112 0.12924688 0.011370774 -0.013428783 -0.04011358 -0.012760756
0.035481885 -0.047346678 -0.0008257863 0.052942563 0.023096144 -0.0195299 -0.025930647 -0.026598334
-0.04886452 -0.14007105 -0.0776559 0.04014948 0.030855834 -0.021638203 0.019164043 0.0062772767
0.08180808 -0.039462037 -0.022142245 -0.087929316 -0.057027865 0.10312361 -0.09111253 -0.043368734
0.008870419 -0.041928556 -0.026378512 -0.035471033 -0.06735384 0.015922152 0.029902847 0.08082465
0.0654661 0.06490645 0.020833293 -0.05383571 -0.016397612 0.0035592401 0.07219658 0.052152753
-0.08321184 -0.0031494324 -0.018881088 -0.03427279 -0.03581511 -0.07331681 0.022334754 -0.0049804584
-0.0049859765 -0.053621076 -0.015181299 0.021212948 -0.018404765 -0.029789045 0.011013947 -0.020293599
0.01732766 -0.044601977 -0.010446347 0.06817141 0.012771451 -0.014114686 -0.043042645 0.023598546
0.015065988 0.001707713 0.03692618 0.006656059 -0.083319984 -0.037403174 0.041920006 -0.034696426
0.0072628516 0.0045108832 0.087577686 0.010961901 0.021071095 -0.06628345 -0.0012282096 -0.027048692
-0.06612174 -0.00095753884 0.025974294 0.06427779 -0.01459259 -0.041618273 -0.07321269 -0.06748708
0.024903843 0.0029988803 -0.040379807 -0.039198015 0.04619721 0.06413596 -0.0060025174 -0.012583754

bias f4 [64]
00000000: 84ce 0f3c 2aab 6dbd 8330 9bbc 1074 13bd
00000010: 688a 9fbc b09f 893b 6331 1d3c d302 1fba
00000020: 0200 0bbd 1dee 3bbc 829f 593b bd68 bc3c
00000030: 2f6d 7c3c a1b4 5fbc 9ff9 3bba 6966 873c
00000040: bae0 a9bc bb9d 80bd eb83 0f3d 4688 47bd
00000050: 4bf1 593c f2b5 2b3c ff1f 8bbc 13d5 733b
00000060: a639 473d b8e1 43bc 9545 4ebc 2e71 c33c
00000070: 64e5 3d3d 00bc 833c 705c 29bd 67d6 28bb
00000080: 1d65 8b3c 17e4 77bd 60f0 da3c 0db8 7d3d
00000090: 5f26 16bd f403 0f3d 3eff 4fbd 1020 9a3b
000000a0: 05a7 68bc 5702 b13b 8867 afbc e36a 5b3d
000000b0: 127e 9e3c 88d8 aabc 5720 69bd 974f 213d
000000c0: 94be 703a 2026 793d d13d 583d 4376 733c
000000d0: 2b76 e33c ea11 22ba 4de1 313d bdec a53c
000000e0: 0106 de3c e1ff 943c 547a 40bc 31dc 183d
000000f0: e311 ce3c 06c8 6bbd 0a58 52bd 772a 083d
0.0087772645 -0.058024563 -0.01894403 -0.035999358 -0.019475177 0.0041999444 0.009594294 -0.00060657895
-0.033935554 -0.011470345 0.0033206646 0.022999162 0.015406891 -0.013653905 -0.00071706803 0.016528325
-0.02073704 -0.06280085 0.035037916 -0.048713945 0.013302158 0.010480391 -0.01698303 0.003720586
0.048638962 -0.011955671 -0.012589832 0.02385768 0.046361342 0.016080856 -0.04134792 -0.002576256
0.017015988 -0.060520258 0.026725948 0.061943103 -0.036657687 0.03491588 -0.050780527 0.004703529
-0.014199977 0.0054018903 -0.021411672 0.053568732 0.019347224 -0.020855203 -0.056915607 0.039382543
0.0009183672 0.060827374 0.052793328 0.014859739 0.027766308 -0.0006182479 0.043427754 0.020254487
0.027102472 0.018188419 -0.011747915 0.037319366 0.025155013 -0.057563804 -0.05135349 0.033243623

weight f4 [64]
00000000: 7736 9f3f e8d0 a03f 9bbe a53f cab5 a83f
00000010: 0e44 ad3f 4487 953f 8ee1 9e3f 5271 a53f
00000020: 02dd 9d3f a5c8 a73f 4d1e 943f 71d5 9b3f
00000030: 533e 993f 8941 963f fd9a 9d3f 20e8 cd3f
00000040: 3ce1 983f 284c 9c3f 6486 983f d27c af3f
00000050: 94ff ae3f e06e a83f d1d9 9e3f b7b9 9a3f
00000060: 794d 8f3f 9570 aa3f 0ba4 a63f c25e ba3f
00000070: 6cc0 a83f 0521 a23f 728b 953f 1a87 a43f
00000080: e371 a13f 3db8 963f ff73 ab3f 424a a33f
00000090: 1b4b a13f 0a05 983f 8acd a23f 4f68 983f
000000a0: feb3 9c3f 95cc a23f 26cd a03f 1df8 bf3f
000000b0: 373d a93f 7ac7 ad3f e35e 9a3f a432 a43f
000000c0: b7c5 c43f ae1d 993f 506b 9c3f 910c 983f
000000d0: dd73 ac3f 471f c03f 3651 ab3f db92 a43f
000000e0: 258a a83f 0b64 a93f b56d 973f fd0f a03f
000000f0: ad67 a53f b2eb ae3f 74d7 9b3f ff88 943f
1.2438496 1.2563753 1.2948793 1.3180478 1.3536394 1.1681905 1.2412584 1.2925208
1.2333071 1.3108107 1.1571747 1.2174512 1.1972145 1.173875 1.2312924 1.6086464
1.1943736 1.2210741 1.1916013 1.3709967 1.3671746 1.3158836 1.2410222 1.2087926
1.1195518 1.3315607 1.3018812 1.4560168 1.3183722 1.2666327 1.168318 1.285373
1.261288 1.1774975 1.3394774 1.2757037 1.2601045 1.1876538 1.2718976 1.1906832
1.2242429 1.2718683 1.2562606 1.4997593 1.3221806 1.35765 1.2060207 1.2827954
1.5372838 1.1962183 1.2220249 1.1878835 1.3472859 1.5009545 1.3384159 1.2857317
1.3167158 1.3233656 1.1830355 1.2504879 1.2922264 1.3665679 1.2175126 1.1604308

bias f4 [64]
00000000: 8d1e 8c3c 197f 7e3d 4501 b43d 1a12 fb3c
00000010: 27a6 aa3d 33fe 973d 8bbb 2d3d 7bd8 12bc
00000020: d232 793d 7e1b b9bb 7103 02bd abd0 133d
00000030: 61ef 1f3c 248b b53d 3538 0d3c dc72 ae3d
00000040: de9e aebc 01c8 793d 6696 7a3d 3254 543d
00000050: a3ce 3abd 3d5f b73d 37e4 a83d f099 243d
00000060: 8271 ec3b 1f3b 363d 31f3 e43d 0df4 393d
00000070: 9172 f13d b9e6 253d ee70 b9bb aab8 b63c
00000080: feca e13d 5fa9 153d 5959 d43d c206 ec3d
00000090: f511 373d 3a65 d1bb 82ce 9c3d 6adb 6d3d
000000a0: ed35 893d 433b 6a3d 44e1 c83b d93a 053e
000000b0: 8220 c5bc 9d2e cb3c 4d8b bebc 6849 983d
000000c0: d3df b13d dd99 b33d fc3f a63d 21ec 753c
000000d0: 5de5 b23c 5df7 d83d 6b34 643d a17a f33d
000000e0: f3c0 a03d a83b 9b3d 0656 ed3c 5cb4 9f3d
000000f0: e0bc e03d 09f9 c3bc a326 1d3d 4e45 153d
0.017104411 0.06213293 0.08789305 0.03064828 0.08332472 0.074215315 0.042415183 -0.008962746
0.06083948 -0.0056490293 -0.031741563 0.036087673 0.009761662 0.088644296 0.008619358 0.085180014
-0.021315988 0.060981754 0.061178587 0.051838107 -0.04560722 0.08953712 0.082466535 0.04018587
0.0072156796 0.044489976 0.111791976 0.04539876 0.1178943 0.040503237 -0.005659214 0.022304852
0.11025046 0.036538478 0.10368604 0.115247265 0.04469486 -0.006390241 0.07656576 0.058070578
0.06699739 0.057185423 0.0061303694 0.1301073 -0.024063352 0.0248025 -0.023259783 0.07435876
0.08685269 0.087695815 0.08117673 0.015009911 0.021837885 0.10594056 0.055714052 0.11888624
0.07849302 0.07579738 0.028971683 0.07798073 0.10973525 -0.02392246 0.038366925 0.036443047

running_mean f4 [64]
00000000: cd71 87bf d584 66bf 5bbd 30bf db58 2fbf
00000010: ec5f 2c3f ad5e aebe 9bba 76bf 01ca c5bf
00000020: 3357 ee3e bc07 193e aedd fd3d 32b1 a63e
00000030: 0b1c fe3e ceee a33f e459 d63e 83a6 c7bf
00000040: 305e c23e 7c9e 933e 64d9 01c0 63c1 7cbe
00000050: 4ac3 cebf 6cce 58bf 9ca5 eb3f 2899 dc3e
00000060: e817 e63e a3de bd3e 4fb3 7cbd 692b 8bbf
00000070: 339d 06bf c786 aabf 9c40 c63e 9c0a ea3f
00000080: 670a 0c3f 43c1 04bf bf2b 74be f390 213e
00000090: b2b5 093f b10c f13e caab ea3e 0f0d 98bf
000000a0: 7a8e 4b3e d1ec b4bf a413 babe 9668 d3bf
000000b0: 64db f93e 726a 8bbf 598c 803f 4e68 8dbe
000000c0: 7f84 d9bf 469d 7d3e 3b88 3c3e 46a6 183f
000000d0: 089f f3bf 0c41 33c0 9896 c9bf eb38 823e
000000e0: ddea 0abe 574e 0ec0 394e 123f cea3 debf
000000f0: e9ee 9cbe f303 053f 0f78 90bf 5707 a7be
-1.0581604 -0.90046436 -0.69038934 -0.6849496 0.67333865 -0.34056607 -0.9637849 -1.5452272
0.46550903 0.14944357 0.12395798 0.32557064 0.4963077 1.2807252 0.41865456 -1.559769
0.37962484 0.2883185 -2.0288935 -0.24683146 -1.6153347 -0.84689975 1.8409915 0.430856
0.44940114 0.3708392 -0.06169444 -1.0872623 -0.52583617 -1.3322381 0.38721168 1.8284488
0.5470337 -0.51857394 -0.23844813 0.1577795 0.5379287 0.47079995 0.4583419 -1.1878985
0.19878569 -1.4134771 -0.3634311 -1.6516292 0.48800194 -1.089186 1.0042831 -0.2761864
-1.699356 0.24767026 0.18411343 0.59628713 -1.9032907 -2.8008451 -1.5749083 0.2543405
-0.13566156 -2.2235315 0.5715061 -1.7393739 -0.30651024 0.5195915 -1.1286639 -0.32622787

running_var f4 [64]
00000000: a05e ec3f c086 0840 c0b4 de3f d687 cd3f
00000010: f8b3 d43f bb3a 9b3f 97b6 ba3f 8292 dd3f
00000020: 64a2 0c40 de52 883f 5e55 b43f f87f a03f
00000030: 8e2b a43f c5f3 a83f 45bd e03f 9c25 ca3f
00000040: 1714 b73f 1bbc 8e3f 5c49 cf3f cf85 c23f
00000050: df52 d13f a5e0 d73f b652 d13f 3e36 5a3f
00000060: 9118 ab3f 9262 cd3f dfbf b63f 82b5 8c3f
00000070: fe9a fc3f 057d db3f 3d2d ca3f 41f4 d93f
00000080: 2e50 d33f c617 a83f 2339 b33f 986a ba3f
00000090: bd69 a73f ddf5 0340 43d3 0340 7f23 cd3f
000000a0: 9481 883f 4f4a a53f 2d60 c73f bba4 a03f
000000b0: c6cd a53f 40ba be3f 6638 e73f 8405 d33f
000000c0: 0f7b ef3f b80e ab3f 16d5 f03f db2f 863f
000000d0: cb98 fe3f 5348 0e40 a5d8 d83f e3f7 c93f
000000e0: 7f20 bd3f efec 0940 2f21 8e3f a049 cb3f
000000f0: 2e2d cd3f d688 df3f 6790 a43f 8060 a43f
1.8466377 2.1332245 1.739891 1.6057079 1.6617422 1.2127298 1.4586972 1.7310336
2.1974115 1.0650289 1.4088552 1.2539053 1.2825792 1.3199393 1.755776 1.5792727
1.4303006 1.1151155 1.6194263 1.5197085 1.6353415 1.6865431 1.6353366 0.85239017
1.3366872 1.6045706 1.4277304 1.0992892 1.97348 1.7147528 1.5795056 1.7027665
1.6508844 1.3132255 1.4001812 1.456378 1.3079144 2.0618813 2.0597694 1.6026458
1.0664544 1.2913302 1.5576226 1.2550272 1.2953422 1.4900589 1.8064086 1.6486058
1.870943 1.3363867 1.8815029 1.0483354 1.9890379 2.2231643 1.6941115 1.5778774
1.4775542 2.1550863 1.1103877 1.5881844 1.6029413 1.7463634 1.2856568 1.284195

weight f4 [11, 64, 3, 3]
00000000: 7b3e 3d3e 5b90 cc3d 415e f83d a91a 083e
00000010: 9284 3e3d 7774 9e3c a257 e7bb 30a8 09bb
00000020: b060 5bbb 5be2 863c 689c 6e3b d74c 8dbd
00000030: 386f 8cbd eeed c4bd 2248 f2bd 119b 7abe
00000040: 4d50 ebbd f639 38be 1893 13be d0ed 47be
00000050: 80b4 16be aea7 87bd 1587 57bd fb91 91bc
00000060: 7a01 c8bd 9744 e2bd a080 12bd e1e5 42bc
00000070: 2739 33bd 6e6d babc 869e dabc 3463 31bd
00000080: 9a7c c13b b8a2 123b 3cd4 c73b b43f ffbc
00000090: 02a9 3dbc 1446 04bd 33e2 06bd 643e 49bd
000000a0: b150 07be c7ab 79bd 32bc a7be 3190 82be
000000b0: b7a7 90be 2f09 84bc 06ef f5bd 8e2f 89bd
000000c0: d23b 50be f0ad dfbd 89b1 02be 4cc0 8ebe
000000d0: 4f54 97bd 486e b7bc 870d 293e c8db f43d
000000e0: d8db 143e 071d 933d f6e8 37bc e1ef b03d
000000f0: 6a34 103e ea8e 9a3d 47d0 6cbc 8fca e2bd
00000100: 8376 a8bd 1914 43bd 06df 39be 1b19 cabd
00000110: 5acc d43b 8f22 1cbe 0356 babd 3931 153d
00000120: d4b9 ccbd 6a4c 92bd 61a1 e8bd 05be 68bb
00000130: d8e7 f7bd b7bf 0bbc 9afb 1fbe e1a7 e6bd
00000140: 8143 2fbc dbd1 f53c 5ac6 83bc d347 b6bd
00000150: 0c8b 98bd 09de 9ebd 5cda a9bd 2c1e c1bd
00000160: df50 4dbd def2 68bd 7bbd 9bbc bbb2 38bd
00000170: fa1a c0bd 5035 9f3d 639e 963b 551b f7bc
00000180: 1f64 663d 2cbb ec3c 9b5b 163d 3e24 b33c
00000190: b253 26be b439 46bd 3311 55bd ac04 aebd
000001a0: 5681 fabb 89e2 29be 4638 0cbe 7a3a 1e3d
000001b0: 626b 943d 751b cfbc 2618 3abd a8ce 80bd
000001c0: 2133 033c 4bde ddbd e003 dcbc 2aa2 8dbd
000001d0: 32e5 00be bd57 af3a 0dd7 8abc 2224 203d
000001e0: fdc8 83bc 0238 77bc 575c 16bd 906d c9bc
000001f0: be1c 38bd b8ff 67bd 3c0e a1bc 7910 17be
00000200: 3c36 a0bd 8f1f c3bd 0d1b f3bd b5f4 0ebe
00000210: 0bc1 3dbe b91f b6bd 2eba 62bd 925c 8fbe
00000220: 6e4f 88be 30a6 7dbe 6f4a debd 60b7 b2bd
00000230: 7627 11be 7c33 bfbd fe71 e5bd 5ab3 fbbd
00000240: 906a 0cbc c1f8 933b 6885 2bbe e439 7d3c
00000250: 10d5 47bc 5b4f 52be 19cf 40be ac6d 86bd
00000260: f6fd ccbd e56f ef3d 30f1 b03d 997f 1d3e
00000270: 5f0f 4f3d 938e 673d cee6 823d 3cc6 1b3e
00000280: 4e2e dc3d b34d a73d 1ab4 853d ee85 1fbe
00000290: fa24 d9bd 4ce1 f0bd 4cc7 febd 0d80 ebbd
000002a0: 6ac4 8dbe 4656 2cbe e845 01be 7f2c 06bd
000002b0: 5d68 29bd 2237 d6bc c528 9bbd 408c cdbd
000002c0: f06a 16be 1fcb 5cbe 6299 82be 7876 48be
000002d0: 2964 dabd 54b6 9dbd 6a8c 8cbb 92e4 f2bd
000002e0: 8b84 d3bc 2c83 bcbc 1218 92bd acf4 dbbb
000002f0: be9c 8bbc c3d8 1ebe f8c9 ccbd 2016 8bbd
00000300: 22e5 d4bd 6a0d 27bd c527 853d b64f 9dbe
00000310: ba6b 63be 0638 cebd 70fd fb3c 869a 253c
00000320: 43e9 723d 208d 7dbd 3298 80bd 94fe a0bc
00000330: c06e 27be 6c4e 18be 1a38 c2bd baba 023d
00000340: 7090 363b 4cad c03d fb79 84bd b221 03bd
00000350: 474b 473d ab8f 21be 2b26 4abd 48ce 0a3d
00000360: 2627 de3b ba6f 15bd 010b 263d 3dcf 64bd
00000370: 1fcd bbbb dcaa 0cbd 7e05 ffbb e93e 14be
00000380: a4a9 e03b c431 5fbd ec24 113d b01e cb3c
00000390: 51e3 d1bd 352a 76bc 28ec 0d3d ac2f 8fbd
000003a0: 1d88 9ebd 7224 77bc 9bba e63b d47c 2cbc
000003b0: 8b48 8abd 6d44 99bc e9ec aabb b014 06be
000003c0: 0f5e dcbd cd28 05be 0e2f c1bd 2b8f 953a
000003d0: 462a 21be 412f 273d b6b1 99bd e3c4 b2bd
000003e0: 957a 1cbe 8828 78bd e25e 2abd 782f 68bd
000003f0: aaf2 98bd cb7c 3bbd 51f8 8ebd 24f8 09bd
0.18480866 0.09988471 0.121273525 0.1329142 0.046513148 0.019342644 -0.007060007 -0.0021004789
-0.0033474378 0.016465357 0.0036409143 -0.06899422 -0.06857151 -0.09615694 -0.118301645 -0.24473216
-0.114899255 -0.1799086 -0.1441158 -0.19524312 -0.14717293 -0.06623779 -0.05261906 -0.017769804
-0.09765907 -0.11048239 -0.035767198 -0.011895628 -0.043755677 -0.022757258 -0.026686918 -0.043307498
0.0059047462 0.002237482 0.0060982984 -0.031158306 -0.011575939 -0.032293394 -0.032930564 -0.049131766
-0.13214375 -0.060954835 -0.3276077 -0.25500634 -0.28252956 -0.01611766 -0.12008481 -0.066985235
-0.2033532 -0.10921848 -0.12763037 -0.27881086 -0.073891275 -0.022391453 0.16509067 0.119559824
0.14536989 0.07183271 -0.011224976 0.08639503 0.14082494 0.0754679 -0.014453954 -0.11073791
-0.08225729 -0.04762659 -0.18151483 -0.0986807 0.006494087 -0.15247558 -0.09098437 0.036423896
-0.099963814 -0.07143481 -0.113589056 -0.003551365 -0.121047676 -0.008529595 -0.15623322 -0.11262489
-0.0106972465 0.030007293 -0.016085792 -0.08900418 -0.07448396 -0.077571936 -0.08293602 -0.09429583
-0.050125953 -0.05687224 -0.01901125 -0.045092326 -0.09380145 0.077738404 0.004596518 -0.0301644
0.056247827 0.028897844 0.036708456 0.021867868 -0.16242865 -0.048394874 -0.052018356 -0.08496985
-0.0076448126 -0.16590323 -0.13693342 0.038629986 0.07247044 -0.025281647 -0.045433186 -0.062894166
0.008007796 -0.10833415 -0.026857316 -0.06915696 -0.12587431 0.0013377588 -0.016948247 0.03909696
-0.01608705 -0.015089037 -0.036709156 -0.024588376 -0.044949286 -0.056640357 -0.019660108 -0.14752378
-0.078228444 -0.09527504 -0.11870394 -0.13960536 -0.18530671 -0.08892769 -0.055353336 -0.28000313
-0.266231 -0.24770427 -0.10854041 -0.08726382 -0.1417521 -0.09335992 -0.11203383 -0.12290068
-0.008570328 0.0045157378 -0.16750109 0.015455697 -0.012196794 -0.20538084 -0.18829001 -0.06563887
-0.10009377 0.11691264 0.08639753 0.15380706 0.05055177 0.056532454 0.06391679 0.15212339
0.107510194 0.08169117 0.06528492 -0.15578434 -0.10602756 -0.11761722 -0.124403566 -0.11499033
-0.27688915 -0.16829786 -0.12624323 -0.03275728 -0.041359294 -0.026149336 -0.075761355 -0.10036516
-0.14689231 -0.2156186 -0.25507647 -0.19576442 -0.10663635 -0.07700792 -0.0042891996 -0.118600026
-0.025820037 -0.023011766 -0.07133497 -0.006712517 -0.017042514 -0.15512376 -0.0999946 -0.067913294
-0.10395266 -0.040784277 0.06501726 -0.30724877 -0.22209063 -0.100692794 0.030760497 0.010107642
0.059304487 -0.061902165 -0.06279029 -0.019652642 -0.16350842 -0.14873666 -0.09483357 0.031916358
0.0027857088 0.09408054 -0.064685784 -0.032014556 0.048655774 -0.15777461 -0.049352806 0.03388813
0.006779569 -0.036483504 0.040537838 -0.0558617 -0.0057312394 -0.03434263 -0.007782637 -0.14477123
0.0068561602 -0.05449082 0.035435602 0.024794906 -0.10248435 -0.015024711 0.034649044 -0.069915146
-0.07740805 -0.015084373 0.007041288 -0.010527808 -0.06752118 -0.018709386 -0.00521623 -0.13093829
-0.10760128 -0.13003846 -0.09432803 0.0011410465 -0.15738782 0.04081655 -0.07504599 -0.087289594
-0.15281136 -0.06058553 -0.041594394 -0.056685895 -0.074681595 -0.04577331 -0.06980956 -0.03368391

bias f4 [11]
00000000: 71df 3abc aafa ce3a a98d 9b3b 3c90 7dbd
00000010: 7429 4cbd 46c5 69bd 4889 b0bd 8cbc 84bd
00000020: 0c51 c0bc c174 2a3c 3518 72bb
-0.011405812 0.0015791256 0.004747112 -0.06190513 -0.04984422 -0.0570729 -0.08619934 -0.06481275
-0.023476146 0.010403813 -0.0036940698

weight f4 [64, 11, 3, 3]
00000000: 2622 183d 14b0 a1bd c233 2dbb 611e 5b3c
00000010: 2d3b 98bd 75a4 90bc ac06 bb3b c140 16bd
00000020: b118 483d 7fe0 4d3d aa62 b03b ea12 71bc
00000030: 7ee6 553c 227c 233d ef63 1f3d fb36 883b
00000040: f178 71ba d415 6d3d 04b6 4c3c b249 043e
00000050: b2b4 963d 1e32 fd3c 4477 c4bc 6757 213c
00000060: beb3 413d 2589 3bbc 9ab6 d8bc 6c2e cb3d
00000070: 17ac 753d cec1 98bc e5f5 273c 7d57 223d
00000080: 4106 963c 78cf 9dbd 060a dbbc d5cf adbc
00000090: 7343 88bd 8ca4 07bd 85d6 1cbd f242 35bc
000000a0: 5382 0dbd 363c 303c dba9 d0bd ea2f fbbc
000000b0: f36b 213d a8b2 9b3b cdb1 f03c 555b e2bd
000000c0: 3607 bebc 48c7 063d f75b a9bb c453 363d
000000d0: abfb 763d f5d7 b53c 881c 193c 94e5 88bc
000000e0: 5fb1 993c 38db 833c 6c24 e53b cb10 9e3d
000000f0: b157 4f3d da2b f33b 0a1d 033d 9496 9439
00000100: 7174 873c 9090 d23d 82d2 d8bc f83f 84bb
00000110: e544 9f3d f6c1 00bd cc14 36bd 33c6 bfbd
00000120: f053 5cbd 4bac 42bc 29f6 98bd fd5c 163d
00000130: 0f1b b13d 8e33 c6bc c36c e1bc 2faa ac3c
00000140: 4cbd 40bd 70ac 0f3c a117 b23c d3bc f33d
00000150: d12c cb3c 4124 86ba ab18 bbbc 6071 c9bc
00000160: 78f3 803c 4953 fdbc dbd7 30bb 761b 83bd
00000170: cce8 46bc 9f58 f4bb 6742 1abb a736 4dbc
00000180: 101a 06bd e7d6 3a3d e35d 043d 5b31 02bc
00000190: abf0 073d da45 243d f52d 62bc 39f4 0cbc
000001a0: 002b 463d 73ff b93c 1082 773b db5f a6bc
000001b0: 18be 5bbc 3503 903d 38a5 813d 166a 8f3c
000001c0: 285f bfbb 3fd4 09bc 6462 d93c 9871 be3c
000001d0: ea90 9bbd 60a7 083d 6061 133c 6f67 32bd
000001e0: 753f 543b 5cec 1e3d 1a64 97bd 27ec e8bc
000001f0: c99c 073d e46a 22bd a665 c2bc c97f 8aba
00000200: 5ece 543c 9e0b 833c 0782 863c 6f7c 823c
00000210: 373e 91bb c83a 47bb 76fe 5fbc 7bc6 06bd
00000220: ccd7 9cbc d536 29bd 3184 633c 8ff1 413d
00000230: 1649 a33d d229 433a cc03 1bbd cdaf a0bd
00000240: f692 7e3d 2053 283d 701d 7dbd 4dcd b83c
00000250: 02f8 283d e5ce 3c3d 8be6 35bc c8d3 67bd
00000260: 8991 93bd cb8a d13c 8ffa 3b3d 28fa 3cbc
00000270: bd15 17bc c352 dbbc 3172 1bbc 271d 0c3c
00000280: 3ade 8abd 1e46 9c3c 3525 7bbd 1aa1 83bc
00000290: c275 0dbd be2c b83c 543b e53c 06f7 cdbc
000002a0: 2b28 c53c 2ec0 ae3b d897 76bd 4a19 35bd
000002b0: e0ef dcbc 18bd 253d c7bc 783c 4ca9 0cbd
000002c0: 2880 43bd 9bd1 5a3d a367 943d 9502 53bd
000002d0: 157f ed3b 7b04 59bd 4e47 69bd 24fc 2cbd
000002e0: 07f8 293d 2fb2 0d3b 70d7 623b 7404 ffbb
000002f0: a426 20bd d5cb ab3d 8cd6 80bd 1772 263d
00000300: d801 0cbd 93ee 9ebd ba48 443d 5284 c3bd
00000310: 092b 06be a1b8 723d 3277 80bd cf18 293c
00000320: efd1 63bb 8d06 45ba aea2 3a3d 99d6 033d
00000330: 39a8 f939 5107 013d 2d1e 05bd b6f0 593d
00000340: 11bc 383d 102c 9c3d f34d af3a fa5f 113d
00000350: 9fa8 683d 6f15 06bd 0219 1dbd 5f00 22bd
00000360: 626a 9ebb 2cc4 3dbd 92bc 15bc 0f17 b43b
00000370: 987e 143c 12c2 2b3d 61ef 903a 188d a7bc
00000380: e735 f4bb 484f 28bc 4f65 ccbc 7f37 bdbc
00000390: 2e7f 1cbd fe25 b1bc a964 80bd e9de 36bd
000003a0: b1cc 153d afd6 39bc d660 263d 4d4f d8bb
000003b0: 4f76 f9bc 5a23 903c f10e aa3c b6bb 633b
000003c0: 1aee 6ebd ae87 45bc 30c7 2dbd a557 e63d
000003d0: a043 343d 770d 643d 972d a43d c745 42b9
000003e0: 4ad3 c4ba a9e4 953d 701b 6f3d d655 0ebc
000003f0: e3f1 5dbd 1842 123c 08db 54bd d13e cb3c
0.03714194 -0.07894912 -0.0026428555 0.013373942 -0.07433162 -0.017656544 0.0057075825 -0.036682848
0.048851673 0.050262924 0.0053828554 -0.014713982 0.013055442 0.039913304 0.038913663 0.004156945
-0.0009211442 0.057882145 0.012494568 0.12918738 0.07358684 0.030907687 -0.023982652 0.0098474985
0.047290556 -0.011446272 -0.026454259 0.09920964 0.05997857 -0.0186471 0.010251497 0.039634217
0.018313529 -0.07705587 -0.026738178 -0.021217266 -0.0665349 -0.03311591 -0.03829052 -0.011063324
-0.034548115 0.010756543 -0.10188647 -0.030662496 0.03940959 0.004751522 0.029381657 -0.110525765
-0.023196798 0.032904893 -0.0051684338 0.04451348 0.060298603 0.022197703 0.009345181 -0.016711034
0.018761335 0.016095743 0.006992867 0.07718047 0.05062074 0.007420999 0.032010116 0.0002834095
0.016535016 0.10281479 -0.026467565 -0.004035946 0.077768125 -0.031434976 -0.044453427 -0.093639754
-0.053790987 -0.011881898 -0.07468826 0.036709774 0.08647739 -0.024194505 -0.027517682 0.021077244
-0.047055528 0.00876914 0.021739783 0.1190125 0.024801644 -0.0010234193 -0.022838911 -0.024590194
0.015741095 -0.030923503 -0.0026984129 -0.06401722 -0.012140464 -0.0074568535 -0.0023538114 -0.012525237
-0.0327397 0.045615103 0.0323161 -0.007946338 0.033188503 0.04010568 -0.013804902 -0.008603149
0.04838085 0.022704815 0.0037766732 -0.02030938 -0.013412021 0.07031862 0.06330341 0.01750664
-0.005840201 -0.00841242 0.026536174 0.023247525 -0.075959995 0.033362746 0.008995384 -0.043555673
0.0032386456 0.03879963 -0.0739214 -0.028432919 0.033108506 -0.03965272 -0.02373011 -0.0010566647
0.012988655 0.01599675 0.016419424 0.015928475 -0.0044324654 -0.0030400027 -0.013671508 -0.03290413
-0.019145869 -0.041312058 0.013886497 0.04734951 0.079729244 0.00074448914 -0.037845418 -0.07846031
0.06215187 0.0410949 -0.061795652 0.022558833 0.041252144 0.046095748 -0.011102329 -0.056598455
-0.07205493 0.025578877 0.04589325 -0.011534251 -0.009221491 -0.026772862 -0.009487675 0.008551872
-0.067806676 0.019076403 -0.06131478 -0.01606803 -0.03453613 0.022482272 0.027982391 -0.025142204
0.024067005 0.005332968 -0.060203403 -0.04421357 -0.02696985 0.040463537 0.015181727 -0.03434114
-0.04772964 0.05342255 0.0724633 -0.051516134 0.0072478154 -0.05298279 -0.056952767 -0.042232648
0.041496303 0.0021621098 0.0034613274 -0.0077825133 -0.03909935 0.08388487 -0.062909216 0.04063615
-0.034181446 -0.07760348 0.04792092 -0.095467225 -0.13102354 0.059258107 -0.06272735 0.010320856
-0.0034762581 -0.000751593 0.0455653 0.03218708 0.00047618317 0.031501118 -0.03249948 0.053208075
0.04510123 0.07625592 0.0013374671 0.03549192 0.056801435 -0.032735284 -0.038353927 -0.039551135
-0.004834459 -0.046329662 -0.009139197 0.005495913 0.009063385 0.041933127 0.0011057669 -0.02045302
-0.0074527147 -0.010272808 -0.024950651 -0.023097752 -0.038207226 -0.021624561 -0.062691994 -0.044646177
0.036572162 -0.011342688 0.040619694 -0.0066012503 -0.030451922 0.017594982 0.020759078 0.0034749336
-0.05833254 -0.012056274 -0.042426288 0.112471856 0.044009805 0.055676904 0.08016508 -0.00018527276
-0.0015016582 0.07319004 0.058375776 -0.008687457 -0.05418576 0.008926891 -0.051966697 0.024810227

bias f4 [64]
00000000: 6d03 853c 9a6a de3b 69b1 04be 9f0e 7f3d
00000010: 4647 4bbd 224c ddbb 6bba 43bd be75 99bd
00000020: 9fdd f1bd cb54 ce3b 00f2 4dbd 306c 6cbb
00000030: 8c42 0c3d ee79 703d d133 833d b3a7 513c
00000040: 1434 abbd 9a7a e43b 9df2 7e3b 316d bebd
00000050: 8666 8dbd b833 ef3c d28f c7bc 713f a0bd
00000060: 898c 8b3d d35b c8bd 6fd2 cdbc e03c 8fbd
00000070: 7b34 043d 1133 85bc 0f8c b5bd a3b5 2bbd
00000080: 8f6c ca3b 338e 8abd 4977 81bd 10a6 b0bd
00000090: c9cd 943d 3c63 f2bd d7e3 853d 5aa9 ab3c
000000a0: 7768 453c 7976 913c 5329 afbd d524 4f3b
000000b0: 3038 673d 65a0 f7bc d7f9 0ebe a2e2 35bc
000000c0: 41f4 acbd b099 c53b e17b c83d 6048 84bd
000000d0: e754 bb3d 9401 8bbc adc3 923d 852c a33b
000000e0: 95f7 213d 6b5a e5bc b1db 053d 6e14 21bd
000000f0: 7f57 95bc 59c9 553d 1c5b ca3d 1706 96bd
0.016236985 0.0067876102 -0.12958302 0.062269803 -0.04962852 -0.0067534605 -0.047785204 -0.07493161
-0.11809849 0.006296729 -0.050279617 -0.0036075227 0.03424315 0.05871003 0.064063676 0.01279633
-0.083595425 0.006972623 0.0038901933 -0.0929817 -0.069043204 0.029199466 -0.024360571 -0.078246005
0.06813914 -0.09783139 -0.025124757 -0.06994033 0.03227661 -0.016259702 -0.08864605 -0.04192127
0.006177492 -0.067654036 -0.0632158 -0.08625424 0.07265813 -0.11835334 0.065375976 0.020954777
0.012048832 0.017756687 -0.08552804 0.0031607647 0.05645007 -0.03022785 -0.13962494 -0.011101397
-0.08445025 0.006030284 0.09789253 -0.06459117 0.09147053 -0.016968526 0.071662284 0.0049796724
0.039542753 -0.027997216 0.032680217 -0.039326124 -0.018230198 0.052193973 0.09880659 -0.0732538

weight f4 [64]
00000000: 8b15 713f dbff 873f 4941 803f d100 743f
00000010: fbfa 6d3f 9158 7f3f 0340 743f 4829 6a3f
00000020: f930 7a3f 8c1e 7b3f aac3 763f 1b6a 793f
00000030: 068c 753f cf27 863f 8eb3 713f 9439 863f
00000040: 848b 753f 426f 763f e69a 733f 4fce 803f
00000050: 4ef7 773f 2ddc 783f 1719 713f c8dd 833f
00000060: e78a 713f 7715 5d3f 0676 793f f969 7e3f
00000070: 394b 793f b749 823f 1e6d 803f 373a 6e3f
00000080: 6763 743f b8a5 723f a183 783f db22 883f
00000090: dcbc 7b3f 1cf7 6a3f a961 6a3f 2aee 7f3f
000000a0: d17f 7e3f 1bc7 7e3f b9c6 773f 490f 6c3f
000000b0: 9e55 743f d0b9 7e3f fa7a 5b3f c1a6 653f
000000c0: ff69 8b3f 472a 833f 1a21 783f a21f 803f
000000d0: 9aea 793f d647 7a3f b018 643f 4030 6c3f
000000e0: 14de 683f bcbe 7b3f 64c6 753f 7a07 853f
000000f0: 28d7 793f cfd8 853f d2e2 603f c92c 753f
0.94173497 1.0624956 1.0019923 0.95313746 0.9296109 0.99744517 0.95410174 0.9146924
0.97730976 0.98093486 0.9639231 0.9742753 0.95916784 1.0480899 0.94414604 1.0486321
0.9591601 0.96263516 0.9515823 1.006296 0.9686173 0.9721096 0.9417891 1.0302057
0.94352573 0.8636088 0.97445714 0.9938045 0.97380406 1.0178746 1.00333 0.9305758
0.95464176 0.94784117 0.9707585 1.0635637 0.9833505 0.9178331 0.9155527 0.99972785
0.9941378 0.9952256 0.967876 0.92210823 0.9544314 0.9950228 0.8573452 0.8970757
1.0891722 1.0247277 0.9692551 1.0009654 0.976236 0.9776586 0.8910017 0.92261124
0.90963864 0.9833791 0.96005845 1.0392907 0.9759393 1.045679 0.878461 0.9577146

bias f4 [64]
00000000: 61d7 b8bd 7949 cfbe a2ea c8be 923d 4abe
00000010: 4749 64be ecbe 60be e319 84be 03f4 87be
00000020: 36d1 d4be 50d9 eabd 4c03 93bd cfb1 9abe
00000030: a91f d6bd 7f0a d5be 9f3f b0be b82c 91be
00000040: ce33 c1be b352 59be b934 0dbe 5de9 2dbf
00000050: e566 f6be c05b fabd 52da aabd 8176 9fbe
00000060: 1675 83be e92c 9fbe 525d 6cbe e5f4 8dbd
00000070: b7e9 57be 0592 0abe 6680 99be fc67 babe
00000080: 6cae 90be c52e 87be fff4 19be c3f2 15be
00000090: ee57 04be 9a0b 9abe 558f a2be 5abc c6be
000000a0: dcc0 ed3b 8e34 9cbe 7d4c 7ebe ed2a 8cbe
000000b0: 75e5 69be df71 b3be c2c4 63be d4db 9ebe
000000c0: 39e6 dabd 4f37 dabe d13f 77bd 2dae 62be
000000d0: 6de9 2fbd f92f 06be 1c8a e3be ea47 57be
000000e0: 5558 82be 92bb 4abe a5ce 3abe be4e dabd
000000f0: 8958 6bbe 5730 b0bd 90ce a2be 4813 86be
-0.09025455 -0.40485743 -0.3924151 -0.1975005 -0.22293578 -0.21947831 -0.25801 -0.26553354
-0.41565865 -0.1146723 -0.07178363 -0.30213782 -0.104552574 -0.4160957 -0.3442354 -0.2835443
-0.37734836 -0.21222953 -0.13789643 -0.6793421 -0.48125377 -0.12224531 -0.083424225 -0.311451
-0.25675267 -0.3108895 -0.23082474 -0.069314755 -0.21085249 -0.13532265 -0.29980773 -0.3640746
-0.28258073 -0.2640287 -0.15034865 -0.14643387 -0.12924168 -0.30086976 -0.3174998 -0.38815576
0.0072556566 -0.30508846 -0.24833865 -0.273765 -0.22841437 -0.35047814 -0.22243026 -0.3102709
-0.10688443 -0.42620322 -0.060363594 -0.22136755 -0.04294722 -0.13104238 -0.44441307 -0.21023527
-0.25458017 -0.19798115 -0.18242891 -0.1065955 -0.22982992 -0.0860297 -0.3179822 -0.26186585

running_mean f4 [64]
00000000: 2256 123e dc71 17bd 7ca7 f3bd 0d7f afbb
00000010: be8d c9bd b6fc d3bd 39f0 ebbd 9ddb a1bd
00000020: d2a8 0fbe d315 5b3d 3b36 a03d e48b 0fbd
00000030: a481 703d 1727 6d3d 8489 583c 9d2f 36bd
00000040: 4dae b2bd 69a0 dbbc a445 50bd cbd0 31be
00000050: 9d43 04be 46ea 823c e2a9 33bd 1068 19be
00000060: ae5e 1f3d c7f7 cdbd 0c73 2bbd 48e0 05be
00000070: 8d67 a0bd ac3e edbd 2db2 94bd e3ec 92bc
00000080: 999e 63bd 5841 b3bd 76e8 5d3d 1396 7bbe
00000090: b227 cd3d c31e 0ebe 25d3 7ebb 0c07 94bd
000000a0: 48c4 433d ea3b 51bc 8da6 e8bd a77e 6a3d
000000b0: aea7 0f3e 3987 c9bd d6c4 48be 41a7 7dbd
000000c0: d14b 5dbe 503f 1cbd c6b2 f73d ca25 663d
000000d0: 0a9f 053e d54f 933d 32b8 153d c8a0 de3d
000000e0: 1011 68bd 6aa0 983d f231 aa3d d2c6 91bd
000000f0: 71fc b73d 31e5 04be 300b ac3d 07b1 e8bd
0.1429067 -0.03697382 -0.118971795 -0.005355722 -0.09841488 -0.10350935 -0.11520428 -0.07903216
-0.14029244 0.05348761 0.07822844 -0.03504552 0.058717385 0.057898607 0.01321638 -0.044479
-0.087246515 -0.026809888 -0.050847664 -0.17364804 -0.12916417 0.01598085 -0.043863185 -0.14981103
0.038908653 -0.100570254 -0.041857764 -0.13073838 -0.07832251 -0.11584219 -0.07260547 -0.017935222
-0.055571172 -0.08752698 0.05417677 -0.24568968 0.10017337 -0.13878922 -0.0038883176 -0.072279066
0.04779461 -0.012770632 -0.11359892 0.05724969 0.14028808 -0.09840245 -0.19606337 -0.061927084
-0.21610953 -0.038146317 0.12094645 0.056188382 0.1304895 0.07192961 0.036552615 0.1087051
-0.056656897 0.074524716 0.083103076 -0.07118 0.08983696 -0.12978055 0.08400571 -0.1136189

running_var f4 [64]
00000000: 2d49 3e3c 3b76 993b 285a 123c 794b c33b
00000010: 9659 1c3b c73c 053c c91d 4f3c 17a8 c33b
00000020: f74b 0f3b e74c e23b b880 023c 0607 163b
00000030: 433b 513c 4d3f a33c 8632 693b 4fd1 893b
00000040: 299c 653b ef0d 573b 2cb5 103b 0fbb 233c
00000050: ebcd 1d3b bd1e d03b 2550 233c 6b7d 883b
00000060: cd53 3b3b 188a 4c3b e1d6 a73b a078 523b
00000070: 7760 3e3c 3301 b43b 1262 b33b 6471 9e3b
00000080: 7e4a 923b db0e 653b e8cc fe3b 5229 3b3c
00000090: 37ce b83b 98f3 4c3b d969 943b d880 8f3b
000000a0: f2f5 313c 94da 943b 8bed 1c3b 87b0 bb3b
000000b0: fed5 a53b 0b07 a53b 6775 2b3b 95fb 523b
000000c0: 26be ce3b 9656 3d3b 35f0 b83b c432 9d3b
000000d0: 84f7 cb3b f16c a23b d1df 3d3b f540 9f3b
000000e0: 2767 9c3b ea1c 7a3b 6699 a53b 0b62 263c
000000f0: 4fde 673b ba2f 313c ebd6 4b3b 4b1b 693b
0.011614126 0.0046832836 0.008932628 0.005959925 0.0023857108 0.008132166 0.012641379 0.0059709656
0.0021865347 0.00690614 0.007965259 0.002289237 0.012770477 0.019927645 0.0035583093 0.0042058597
0.0035035706 0.0032814702 0.0022080643 0.009993329 0.0024079036 0.0063513205 0.009967838 0.0041653416
0.0028583885 0.003121024 0.005122051 0.0032115355 0.011619679 0.005493307 0.0054743374 0.0048352946
0.0044644466 0.0034951482 0.0077758916 0.011423426 0.005639817 0.0031273123 0.0045292196 0.004379373
0.010861861 0.004542658 0.0023945298 0.005727831 0.0050609102 0.00503624 0.0026162507 0.0032193412
0.0063092886 0.002889072 0.0056438693 0.0047973115 0.0062245745 0.0049568345 0.0028972516 0.0048600384
0.004773039 0.0038164207 0.005053687 0.010155211 0.003538031 0.010814602 0.0031103443 0.0035569246
