carl/envs/mario/pcg_smb_env/toadgan/generators/v1/TOAD_GAN_4-1/generators.pth (torch_old, 836631 bytes, 56 tensors)

weight f4 [64, 11, 3, 3]
-0.05159574 0.0023147503 -0.034779385 0.010795241 0.001240653 -0.008110554 0.040634032 -0.044738255
-0.032177124 -0.028214186 0.034432516 -0.011678847 0.01871303 0.006969589 -0.006002524 -0.003203805
-0.014041912 -0.014132107 0.100596726 0.0051687807 0.056653094 0.09010285 0.0060173105 -0.019611146
0.06499732 0.0057568294 -0.044460714 0.06350417 0.06006996 0.062247872 -0.042009953 -2.2730941e-05
0.05498621 0.014021449 -0.03052119 0.02946819 -0.04430305 -0.029771065 -0.058474604 -0.02998429
-0.024261616 -0.034225706 0.064767435 -0.05553968 0.001556911 -0.10124004 0.06189094 -0.14541487
-0.045967434 -0.046907183 -0.00671853 -0.105260976 -0.08359385 0.0070718536 0.031959414 -0.048920922
0.0025872032 0.032835707 -0.02653555 -0.049075205 0.10707159 -0.008860727 0.045954097 -0.03973906
0.053979594 0.014838552 0.06729024 -0.020646892 0.089343086 0.054023974 0.049154103 0.005404756
0.066332296 -0.0942465 -0.048023522 -0.059281826 0.023305045 -0.025542092 -0.086918466 0.015241913
0.011192114 0.032690022 0.028836532 0.08756555 0.0393135 -0.008442956 0.08230528 0.0705597
-0.0075815977 0.0008797489 -0.093776874 -0.04743863 -0.062636845 -0.09930525 -0.019327499 -0.003987508
0.0026235695 -0.045724705 -0.016788838 -0.12972714 0.10381395 0.014310364 0.00022510854 -0.012517461
-0.007955762 -0.000737779 0.0018071599 -0.010897928 -0.089756906 0.014386815 -0.016872505 -0.021513106
-0.01700317 0.0023975377 -0.004860647 0.0036158175 0.017449578 -0.09930803 -0.047999907 0.078101106
-0.012867006 0.009925448 -0.016138881 -0.011761018 -0.010441099 -0.013511886 -0.015621982 -0.09529143
0.10435935 -0.0055841208 -0.00526149 0.021695575 -0.008829261 0.0037308303 0.015126594 0.15347958
-0.06216872 0.042640053 0.02627801 -0.008010897 0.0025338023 -0.0003459442 -1.9853935e-05 -0.0057718065
0.015606393 0.110000774 -0.027365834 0.026401125 -0.046599515 -0.0049416423 -0.004933761 -0.016629044
-0.020064272 -0.0003444373 0.052447904 -0.104874186 -0.012711312 0.008571274 -0.013826848 0.013536545
-0.007247748 0.022715418 0.03888348 -0.084768206 -0.0042090863 0.023874376 -0.015029325 -0.0059504723
0.012797547 -0.016742328 -0.014712776 0.18333158 -0.050095506 0.16177799 -0.011403915 0.008182162
0.0072976314 0.021028943 0.004245003 -0.0020972379 -0.03344142 0.029651633 -0.07769848 -0.00041260608
0.010333887 0.0314226 0.0011444427 0.012791496 0.019885736 0.14943212 0.04316988 0.047254007
-0.001082323 -0.005233562 -0.012276632 -0.02832344 -0.004027453 -0.019721493 0.039363116 0.08380176
-0.12120573 -0.017403215 0.007427265 0.03890355 0.026204096 0.018056499 -0.004177838 -0.023136307
-0.14209634 0.14877033 -0.004704903 -0.03378748 0.0054677287 0.02807253 -0.015817763 -0.021725513
-0.0013614205 -0.019927049 0.23273507 -0.0025980116 -0.00190349 0.017559255 0.026509581 0.058032874
0.010542912 0.13840166 -0.12657548 -0.059052564 0.017878603 -0.05194163 -0.029112807 -0.02306844
-0.0034920957 -0.040351797 0.01823961 -0.037102528 -0.07092681 -0.021927135 -0.01114429 0.019806698
-0.017325431 -0.004443085 -0.0036328365 0.039534494 -0.037577692 -0.12751089 0.01103907 0.02995996
-0.01964528 0.03507996 -0.040229615 -0.035972055 -0.057717487 0.011205975 0.026453713 -0.006550623
00000000: 0e56 53bd 11b3 173b d474 0ebd 86de 303c
00000010: 689d a23a 21e2 04bc df6f 263d 763f 37bd
00000020: 29cc 03bd 7021 e7bc 1c09 0d3d a258 3fbc
00000030: 114c 993c 2661 e43b d2b0 c4bb eef6 51bb
00000040: 0c10 66bc 5a8a 67bc a805 ce3d e05e a93b
00000050: 130d 683d d887 b83d dc2c c53b 8ea7 a0bc
00000060: 511d 853d c9a3 bc3b 701c 36bd 790e 823d
00000070: eb0b 763d a0f7 7e3d a112 2cbd 53ae beb7
00000080: 3839 613d 38ba 653c 9307 fabc 4667 f13c
00000090: 1d77 35bd 73e2 f3bc 1183 6fbd 9da1 f5bc
000000a0: 4cc0 c6bc 4130 0cbd caa4 843d 937d 63bd
000000b0: 4411 cc3a f056 cfbd 5b81 7d3d a3e7 14be
000000c0: 5948 3cbd bf21 40bd 1d27 dcbb 1193 d7bd
000000d0: 4133 abbd 02bb e73b e0e7 023d 4e61 48bd
000000e0: 118e 293b bc7e 063d 1561 d9bc 1503 49bd
000000f0: 5a48 db3d 952c 11bc 5d3a 3c3d 6dc5 22bd
00000100: b519 5d3d 661d 733c 77cf 893d ac23 a9bc
00000110: 82f9 b63d 3e48 5d3d d055 493d 611a b13b
00000120: 3ad9 873d 4f04 c1bd 50b4 44bd 80d1 72bd
00000130: 39ea be3c a63d d1bc 4f02 b2bd 37b9 793c
00000140: 215f 373c f9e5 053d 973a ec3c 9155 b33d
00000150: 3107 213d 5354 0abc ac8f a83d 9b81 903d
00000160: 0d6f f8bb f39e 663a 170e c0bd 024f 42bd
00000170: bf47 80bd 8d60 cbbd b454 9ebc a4a9 82bb
00000180: 31f0 2b3b d449 3bbd bf88 89bc 31d7 04be
00000190: 699c d43d 0476 6a3c 1d0b 6c39 0916 4dbc
000001a0: e258 02bc 8367 41ba 39de ec3a 398d 32bc
000001b0: 78d2 b7bd adb6 6b3c 3538 8abc 413c b0bc
000001c0: 3b4a 8bbc 0220 1d3b 1046 9fbb 5af7 6c3b
000001d0: 6bf2 8e3c 0262 cbbd 8d9b 44bd 79f3 9f3d
000001e0: 22d0 52bc 599e 223c b035 84bc 49b1 40bc
000001f0: 2511 2bbc f560 5dbc 57f3 7fbc 2728 c3bd
00000200: 5bba d53d 00fb b6bb 9468 acbb ebba b13c
00000210: 9ba8 10bc f280 743b 89d5 773c c029 1d3e
00000220: a1a4 7ebd 56a7 2e3d fb44 d73c 2340 03bc
00000230: 260e 263b d85f b5b9 008c a6b7 6c21 bdbb
00000240: f5b1 7f3c 1648 e13d 502e e0bc 2c47 d83c
00000250: 22df 3ebd 80ed a1bb 63ab a1bb a239 88bc
00000260: d45d a4bc 9895 b4b9 9dd3 563d 47c8 d6bd
00000270: 1b43 50bc 876e 0c3c 018a 62bc 63c8 5d3c
00000280: 847e edbb af15 ba3c 4944 1f3d f49a adbd
00000290: 60ec 89bb 3294 c33c 8f3d 76bc 2efc c2bb
000002a0: cdac 513c 3527 89bc db0d 71bc 46bb 3b3e
000002b0: f230 4dbd 21a9 253e 7cd7 3abc 7a0e 063c
000002c0: f820 ef3b e444 ac3c ab19 8b3b d071 09bb
000002d0: dff9 08bd fbe7 f23c 6120 9fbd 0d53 d8b9
000002e0: 774f 293c fcb4 003d 2001 963a 6c93 513c
000002f0: 69e7 a23c bc04 193e e6d2 303d 6b8d 413d
00000300: bcdc 8dba 4d7e abbb ed23 49bc 8f06 e8bc
00000310: b9f8 83bb f88e a1bc 383b 213d 42a0 ab3d
00000320: b63a f8bd 3091 8ebc 6a60 f33b 5459 1f3d
00000330: f9a9 d63c 39eb 933c 3fe6 88bb 5a88 bdbc
00000340: b481 11be 4057 183e 962b 9abb be64 0abd
00000350: a22a b33b 5df8 e53c 4194 81bc b4f9 b1bc
00000360: b171 b2ba 0d3e a3bc 1a52 6e3e 6743 2abb
00000370: 877e f9ba 6dd8 8f3c 9f2a d93c e1b3 6d3d
00000380: 2ebc 2c3c 2ab9 0d3e 019d 01be 1ae1 71bd
00000390: 2676 923c bfc0 54bd fb7d eebc 06fa bcbc
000003a0: a5db 64bb ed47 25bd 3c6b 953c d2f8 17bd
000003b0: 1342 91bd 89a0 b3bc 8a96 36bc a841 a23c
000003c0: 10ee 8dbc 4c97 91bb e214 6ebb ecee 213d
000003d0: 11eb 19bd 3792 02be 37dd 343c 976e f53c
000003e0: 23ef a0bc 01b0 0f3d cfc7 24bd 6f57 13bd
000003f0: 2c69 6cbd 4499 373c 75b5 d83c 9ca6 d6bb

bias f4 [64]
0.07981157 -0.0027549295 0.10081646 -0.036080297 -0.03066748 0.03537048 0.048716836 0.09029553
-0.03694737 0.010829005 -0.06834408 -0.0638416 0.059784703 0.086931065 -0.0032467388 0.10811915
0.10661733 0.09790848 0.030209802 0.12436857 0.05078418 -0.0420375 -0.038061567 -0.09378109
0.06975584 -0.07058093 0.038588546 -0.060639676 -0.06935458 0.0778754 0.039753206 -0.0533395
0.073883936 0.021749848 0.06348892 -0.03298323 0.0030883653 0.05942332 -0.101382054 -0.09560912
0.01036197 -0.043286353 0.112690546 -0.07155998 -0.07238787 0.0044880128 0.027949935 0.00037886095
-0.0060481587 -0.04513125 0.036324807 -0.037932057 0.025707109 -0.019199092 -0.04548404 -0.081605926
-0.040592186 0.010441012 0.062724695 0.11024694 -0.06579862 0.040847283 -0.056383003 0.030427169
00000000: 4074 a33d 0c8c 34bb dc78 ce3d efc8 13bd
00000010: 5e3a fbbc a3e0 103d 4e8b 473d ddec b83d
00000020: 2056 17bd 246c 313c fbf7 8bbd 63bf 82bd
00000030: cee0 743d ea08 b23d 3dc7 54bb 936d dd3d
00000040: 305a da3d 3e84 c83d 8c7a f73c f3b4 fe3d
00000050: 1303 503d 832f 2cbd 72e6 1bbd 4d10 c0bd
00000060: 26dc 8e3d bc8c 90bd 060f 1e3d 4f61 78bd
00000070: c609 8ebd 237d 9f3d 42d4 223d 857a 5abd
00000080: 7650 973d bd2c b23c 7b06 823d 6c19 07bd
00000090: 2c66 4a3b de65 733d 65a1 cfbd b7ce c3bd
000000a0: 41c5 293c 084d 31bd 4dca e63d 0a8e 92bd
000000b0: 1740 94bd 2e10 933b 43f7 e43c dba1 c639
000000c0: a22f c6bb 8cdb 38bd 52c9 143d a55e 1bbd
000000d0: b797 d23c 6a47 9dbc 794d 3abd 0221 a7bd
000000e0: fe43 26bd c710 2b3c ce75 803d 26c9 e13d
000000f0: 6dc1 86bd 7b4f 273d ddf1 66bd 6642 f93c

weight f4 [64]
0.9457631 0.97035354 0.9370659 1.0062758 0.9414047 0.9840924 0.9619289 0.97168994
1.054613 0.94782716 0.9542914 1.0122749 0.9787623 0.9150487 1.0014546 0.9452049
1.0600824 1.1409857 0.83511066 0.9948572 0.96997 1.0646955 1.0368176 0.83347845
1.0503004 0.98045653 1.0859749 1.0467178 1.0261292 0.9400826 0.98086095 1.0779233
0.8677541 0.91231143 0.9684747 0.9232398 1.0079947 0.9285564 0.9327329 1.0930287
1.1190907 0.9294637 0.905705 1.0656862 0.8937008 0.9394466 0.9388028 1.0150253
0.99793774 0.98130274 0.89906955 1.1079193 1.1351838 1.0859721 1.0057417 0.9617234
1.0000135 1.0310484 0.9247593 1.0200478 0.96361905 1.0443417 0.97246116 0.8751322
00000000: 881d 723f 1769 783f 8de3 6f3f a5cd 803f
00000010: e6ff 703f 7bed 7b3f f940 763f acc0 783f
00000020: 8ffd 863f cda4 723f 714c 743f 3992 813f
00000030: 2b90 7a3f a240 6a3f aa2f 803f f3f8 713f
00000040: c8b0 873f d20b 923f d0c9 553f f6ae 7e3f
00000050: f44f 783f f147 883f 70b6 843f d85e 553f
00000060: 3e70 863f 33ff 7a3f 3a01 8b3f d9fa 853f
00000070: 3458 833f 41a9 703f b419 7b3f 64f9 893f
00000080: 2225 5e3f 3e8d 693f f5ed 773f 7259 6c3f
00000090: f805 813f dfb5 6d3f 95c7 6e3f 5de8 8b3f
000000a0: 5d3e 8f3f 55f1 6d3f 48dc 673f 6868 883f
000000b0: 93c9 643f 937f 703f 6155 703f 59ec 813f
000000c0: d978 7f3f a836 7b3f 6c29 663f 4dd0 8d3f
000000d0: b44d 913f 2201 8b3f 25bc 803f 8133 763f
000000e0: 7100 803f 65f9 833f 07bd 6c3f ed90 823f
000000f0: bdaf 763f fdac 853f 37f3 783f aa08 603f

bias f4 [64]
-0.20870161 -0.1437118 -0.1946123 -0.194354 -0.18109204 -0.19930089 -0.20051359 -0.22097237
-0.10730738 -0.15679061 -0.18062298 -0.10066755 -0.17276782 -0.229259 -0.28148907 -0.28136256
-0.1684348 -0.18859394 -0.3127958 -0.26401404 -0.1569943 -0.10432457 -0.25345343 -0.23346558
-0.18822767 -0.13272445 -0.14216621 -0.28639767 -0.14614485 -0.061714254 -0.181597 -0.19322418
-0.16707794 -0.19197373 -0.25820974 -0.28621 -0.21125884 -0.16236816 -0.16437759 -0.08908294
-0.18993166 -0.16654117 -0.24472067 -0.18602887 -0.22792238 -0.22499876 -0.26999792 -0.09220626
-0.19873028 -0.22402912 -0.26435193 -0.17831784 -0.16546786 -0.18570767 -0.25406376 -0.16979876
-0.18080163 -0.17915124 -0.30738956 -0.2294399 -0.18713048 -0.17475241 -0.157646 -0.174329
00000000: e0b5 55be 3029 13be 7248 47be bc04 47be
00000010: 3170 39be 8815 4cbe 6f53 4dbe 9546 62be
00000020: f9c3 dbbd b88d 20be 3bf5 38be ca2a cebd
00000030: 0cea 30be dfc2 6abe 561f 90be c10e 90be
00000040: 2c7a 2cbe c51e 41be c526 a0be d92c 87be
00000050: 1dc3 20be 1fa8 d5bd a6c4 81be 9a11 6fbe
00000060: c1be 40be ebe8 07be 0594 11be b7a2 92be
00000070: ffa6 15be 16c8 7cbd 90f4 39be 8fdc 45be
00000080: 7b16 2bbe c394 44be 1134 84be 1e8a 92be
00000090: 3d54 58be d743 26be 9952 28be 1e71 b6bd
000000a0: 727d 42be c589 2abe 0e98 7abe 5a7e 3ebe
000000b0: 7c64 69be 1366 66be 2b3d 8abe a3d6 bcbd
000000c0: f37f 4bbe e467 65be 2359 87be f498 36be
000000d0: 6870 29be 272a 3ebe a514 82be badf 2dbe
000000e0: 1024 39be 6c73 37be 2a62 9dbe 4bf2 6abe
000000f0: 229f 3fbe 4cf2 32be f46d 21be 4d83 32be

running_mean f4 [64]
0.07897105 0.00023873989 0.10254565 -0.02537109 -0.03644001 0.038918544 0.046548057 0.083261415
-0.04485141 0.016452711 -0.07713181 -0.059426893 0.072718896 0.104834445 -0.002267106 0.110257044
0.11495735 0.10375088 0.02362979 0.122235626 0.04372753 -0.051309682 -0.0402612 -0.08629161
0.07179736 -0.06668826 0.021898454 -0.043368652 -0.06362699 0.08598428 0.039828032 -0.059758857
0.07700298 0.009280843 0.063152984 -0.038091943 -0.0017039006 0.053355284 -0.10530852 -0.10044552
0.0048626694 -0.037999626 0.119825184 -0.07669681 -0.06713041 0.0032166482 0.033201337 0.00023976598
-0.015902694 -0.061253376 0.03989764 -0.03608218 0.020152394 -0.020547412 -0.043721154 -0.09351274
-0.034422915 0.018367298 0.06371514 0.10842689 -0.060618192 0.032882612 -0.06211999 0.03470487
00000000: 93bb a13d 4056 7a39 7403 d23d 08d7 cfbc
00000010: 1f42 15bd 0d69 1f3d 2da9 3e3d f684 aa3d
00000020: 1db6 37bd d6c7 863c 48f7 9dbd 9d69 73bd
00000030: a5ed 943d 71b3 d63d ba93 14bb 72ce e13d
00000040: c26e eb3d 577b d43d 4393 c13c ac56 fa3d
00000050: a31b 333d 1a2a 52bd eee8 24bd a8b9 b0bd
00000060: 7f0a 933d db93 88bd 6364 b33c 54a3 31bd
00000070: de4e 82bd 8718 b03d b822 233d b4c5 74bd
00000080: bdb3 9d3d ad0e 183c 5a56 813d 4c06 1cbd
00000090: 6b55 dfba 128b 5a3d feab d7bd 61b6 cdbd
000000a0: 0757 9f3b 7fa5 1bbd e866 f53d 3813 9dbd
000000b0: ab7b 89bd 67ce 523b 20fe 073d b169 7b39
000000c0: 5e46 82bc d2e4 7abd b56b 233d e8ca 13bd
000000d0: a216 a53c 0c53 a8bc f414 33bd 9c83 bfbd
000000e0: 0bff 0cbd 0477 963c 157d 823d eb0e de3d
000000f0: c84a 78bd ebaf 063d 8871 7ebd b226 0e3d

running_var f4 [64]
0.16550304 0.15968658 0.15840104 0.17650343 0.14431778 0.18344139 0.17226453 0.14968608
0.16087742 0.13292718 0.15046242 0.15506467 0.17612441 0.1567339 0.15112534 0.16883683
0.16966945 0.17870212 0.16273291 0.16864851 0.1634523 0.16911383 0.17736855 0.14690354
0.1832998 0.16026242 0.16391999 0.16143751 0.16374505 0.16368943 0.16568966 0.16414924
0.16138856 0.16370933 0.15962698 0.14491145 0.16921647 0.14521703 0.17152299 0.17308785
0.16783626 0.1553025 0.14575417 0.16430777 0.1519221 0.16099672 0.15017577 0.16017556
0.17563334 0.1515613 0.15186606 0.17433208 0.18384737 0.18695466 0.16058965 0.1658401
0.16188304 0.15606162 0.15464856 0.16633312 0.16015004 0.17009899 0.15176508 0.16248272
00000000: a179 293e e184 233e e233 223e 51bd 343e
00000010: 0ac8 133e 0fd8 3b3e 1d66 303e 4f47 193e
00000020: 0dbd 243e 101e 083e d212 1a3e 46c9 1e3e
00000030: f559 343e da7e 203e 9ac0 1a3e 90e3 2c3e
00000040: d4bd 2d3e b0fd 363e 75a3 263e 32b2 2c3e
00000050: 0a60 273e 2d2c 2d3e 1aa0 353e e26d 163e
00000060: f1b2 3b3e d51b 243e a4da 273e e04f 253e
00000070: c8ac 273e 349e 273e 8daa 293e bd16 283e
00000080: 0b43 253e 6ba3 273e 4175 233e ab63 143e
00000090: 1547 2d3e c6b3 143e b9a3 2f3e f13d 313e
000000a0: 45dd 2b3e 9e07 1f3e 9540 153e 4c40 283e
000000b0: 7891 1b3e 53dc 243e adc7 193e 1005 243e
000000c0: 3ad9 333e e332 1b3e c782 1b3e 1c84 323e
000000d0: 7c42 3c3e 0b71 3f3e 9d71 243e fdd1 293e
000000e0: abc4 253e 9ece 1f3e 315c 1e3e 3b53 2a3e
000000f0: 5ffe 233e 6e2e 2e3e 4e68 1b3e df61 263e

weight f4 [64, 64, 3, 3]
-0.0063764537 -0.01821943 -0.060733348 -0.04761138 -0.022386031 0.01569652 0.014781269 -0.017746335
0.016885921 -0.06045516 -0.02101792 -0.0011396781 -0.0048521357 0.00056657114 -0.0026531254 0.032541506
0.012390281 0.0043347417 0.055265784 -0.048864298 -0.027885549 -0.037332337 0.057810973 0.017774109
0.038736034 0.020501008 0.045542303 0.09461705 -0.0058111004 0.016238336 -0.015704023 0.008942176
0.052346855 -0.0123785725 0.08099192 0.021620654 0.09794074 0.011281572 0.052722897 -0.015814863
0.045693953 0.05712115 0.06000966 0.007362841 -0.03490499 -0.007280291 -0.0528537 0.011092843
-0.01415764 -0.040859688 -0.015255072 -0.012890045 -0.021979079 0.0005549252 -0.018681087 -0.04365624
-0.05267361 0.02841701 -0.04127012 -0.0019248358 0.03393654 0.006905571 -0.0035254264 -0.040786825
0.054817267 -0.015567709 0.007482271 0.06763645 -0.06307221 0.050646972 0.07598243 0.03869172
0.09439563 -0.0417782 0.06224216 0.01932631 -0.08871061 0.07882269 0.046142656 0.011537956
0.033688784 -0.0089179315 -0.026729628 0.009652671 0.023466457 0.05722716 0.015109125 0.012223625
0.01460361 0.019584578 -0.008059235 0.045946974 0.025872527 0.007478699 -0.0072489637 -0.0058393585
0.011250061 0.023658998 -0.01718597 -0.048658837 -0.07369843 -0.040423326 0.050313503 0.032151844
0.030927952 -0.008661141 0.070669524 0.083684675 -0.021908052 0.018465938 0.06644668 -0.02074212
0.025218148 0.050341256 -0.0017406198 0.10143875 0.012494894 -0.014389657 0.002926252 0.0034374213
-0.030236317 0.06114055 0.01685392 0.021028917 0.05050558 0.021821992 0.006433995 0.00726524
0.056011185 -0.025583724 -0.0243149 0.04445406 -0.07886975 -0.112300664 -0.084747724 -0.020204047
-0.032363947 -0.037068583 -0.025250396 -0.040926997 0.0053733154 -0.02009668 0.0064982595 -0.029629134
-0.07843548 0.011359204 0.05767905 0.041979562 0.042103298 0.027259145 -0.06126874 -0.112476155
-0.17916775 -0.02476714 -0.030173376 -0.038549826 0.105395295 0.1092939 0.038600836 -0.16281497
-0.11509255 -0.07068515 -0.110328816 -0.051026817 -0.0044200406 0.012042647 -0.001227841 0.0009524511
0.08063559 0.050989944 -0.0102450345 -0.050871182 -0.0401802 -0.033941325 -0.06694787 -0.06766271
-0.06858779 -0.059473332 -0.014024374 -0.04517235 -0.061226267 -0.011665566 0.026437424 0.05798469
0.011022187 0.08782495 -0.01708342 -0.070907846 0.032633156 -0.0030313262 -0.07035294 -0.075347506
0.0035791206 0.029370356 0.027245943 0.036566593 0.025964996 0.037705477 -0.043148063 -0.035554472
-0.027806867 0.043812133 -0.008737563 -0.0013235852 -0.090129614 -0.04407262 -0.08866991 -0.021918008
-0.0043592956 -0.043695275 0.045139767 0.005914544 -0.016554225 0.019607479 -0.020652091 -0.018265609
-0.037449066 0.052326627 0.01675336 0.05473133 0.04804952 0.028563252 -0.0020064684 -0.041486554
0.0017864986 0.030909766 0.008383169 -0.027869081 0.022016406 0.056034952 0.08682901 -0.0134293465
-0.009563989 -0.07181506 -0.046598025 -0.055414133 -0.055191487 -0.00822082 -0.026362134 0.021910846
-0.0360952 -0.031745635 -0.052215803 0.05754606 0.02914704 0.010142869 0.073204756 0.09274443
0.08262503 -0.05345727 0.0065581193 -0.07670617 0.0012832615 0.024304617 0.025922695 0.012265242
00000000: 92f1 d0bb ea40 95bc 88c3 78bd 2704 43bd
00000010: e962 b7bc fd95 803c 232d 723c c360 91bc
00000020: 5854 8a3c d49f 77bd c62d acbc 4061 95ba
00000030: aafe 9ebb f285 143a 0fe0 2dbb 3e4a 053d
00000040: 9b00 4b3c 730a 8e3b 605e 623d ee25 48bd
00000050: 3c70 e4bc cbe9 18bd 33cb 6c3d 029b 913c
00000060: ada9 1e3d bbf1 a73c 918a 3a3d 95c6 c13d
00000070: 0b6b bebb 4206 853c b9a5 80bc 3482 123c
00000080: a869 563d 7fcf 4abc 17df a53d cc1d b13c
00000090: 2895 c83d 58d6 383c f7f3 573d 2c8e 81bc
000000a0: 9529 3b3d def7 693d b0cc 753d fd43 f13b
000000b0: 89f8 0ebd 828f eebb 1f7d 58bd c1be 353c
000000c0: 72f5 67bc 7d5c 27bd 69f0 79bc c430 53bc
000000d0: 780d b4bc 6678 113a 1409 99bc e3d0 32bd
000000e0: 49c0 57bd caca e83c db0a 29bd c64a fcba
000000f0: 0b01 0b3d 2148 e23b d70a 67bb 1610 27bd
00000100: 1288 603d b40f 7fbc d72d f53b fb84 8a3d
00000110: 012c 81bd 3373 4f3d ad9c 9b3d 367b 1e3d
00000120: 7f52 c13d 9e1f 2bbd a3f1 7e3d 3652 9e3c
00000130: e9ad b5bd ca6d a13d 1500 3d3d b209 3d3c
00000140: 40fd 093d 841c 12bc 18f8 dabc 3d26 1e3c
00000150: ba3c c03c 0767 6a3d 438c 773c 9945 483c
00000160: fb43 6f3c d66f a03c e20a 04bc e532 3c3d
00000170: 9ff2 d33c e00f f53b b788 edbb 1758 bfbb
00000180: 2d52 383c 84d0 c13c 97c9 8cbc 7d4e 47bd
00000190: 34ef 96bd ee92 25bd 8815 4e3d a7b1 033d
000001a0: 9e5c fd3c 75e7 0dbc 2fbb 903d df62 ab3d
000001b0: 8478 b3bc e145 973c 3215 883d 61eb a9bc
000001c0: 4a96 ce3c a232 4e3d 8225 e4ba 1fbf cf3d
000001d0: 62b7 4c3c 99c2 6bbc 5dc6 3f3b 5c46 613b
000001e0: 27b2 f7bc 836e 7a3d 3b11 8a3c d644 ac3c
000001f0: f0de 4e3d 09c4 b23c 43d4 d23b 4011 ee3b
00000200: fc6b 653d f594 d1bc 0b30 c7bc 7615 363d
00000210: 7786 a1bd e4fd e5bd 3790 adbd f582 a5bc
00000220: 0f90 04bd 3ad5 17bd ebd9 cebc 11a3 27bd
00000230: a312 b03b cba1 a4bc 5aef d43b ccb8 f2bc
00000240: c8a2 a0bd f41b 3a3c de40 6c3d c3f2 2b3d
00000250: 8274 2c3d 924e df3c eef4 7abd e659 e6bd
00000260: c077 37be 75e4 cabc 282e f7bc 6ce6 1dbd
00000270: 7dd9 d73d 7bd5 df3d e91b 1e3d f8b8 26be
00000280: a5b5 ebbd 60c3 90bd 13f4 e1bd 7f01 51bd
00000290: fdd5 90bb 864e 453c 82ef a0ba e9ad 793a
000002a0: 4624 a53d d5da 503d cada 27bc 4d5e 50bd
000002b0: fe93 24bd 0f06 0bbd f71b 89bd bf92 8abd
000002c0: c177 8cbd 4f9a 73bd 7dc6 65bc a406 39bd
000002d0: 65c8 7abd ee20 3fbc 4c93 d83c 5b81 6d3d
000002e0: 6796 343c 91dd b33d 87f2 8bbc 2238 91bd
000002f0: 58aa 053d 37a9 46bb 3415 90bd cb4f 9abd
00000300: ae8f 6a3b 1a9a f03c e232 df3c dac6 153d
00000310: 8bb4 d43c 0f71 1a3d 06bc 30bd 91a1 11bd
00000320: 3acb e3bc 5a74 333d ff27 0fbc 267c adba
00000330: e095 b8bd 7e85 34bd 9298 b5bd 658d b3bc
00000340: 6cd8 8ebb d1f9 32bd 7ae4 383d cbce c13b
00000350: ba9c 87bc dd9f a03c 932e a9bc c2a1 95bc
00000360: 3164 19bd 7254 563d 583e 893c f62d 603d
00000370: 93cf 443d 7bfd e93c f47e 03bb ceed 29bd
00000380: f228 ea3a 7a36 fd3c 8f59 093c b34d e4bc
00000390: c05b b43c e884 653d 68d3 b13d c306 5cbc
000003a0: 47b2 1cbc c613 93bd 92dd 3ebd eef9 62bd
000003b0: 7810 62bd 9eb0 06bc 67f5 d7bc 607e b33c
000003c0: 8fd8 13bd b607 02bd 3de0 55bd 6bb5 6b3d
000003d0: c6c5 ee3c 472e 263c 60ec 953d cbf0 bd3d
000003e0: 5037 a93d 03f6 5abd 7ee5 d63b 2018 9dbd
000003f0: 1c33 a83a 7a1a c73c d55b d43c 27f4 483c

bias f4 [64]
0.009125014 -0.015774278 -0.04521628 -0.00626587 -0.045271017 -0.012784536 -0.025984641 -0.014221172
0.010158636 -0.06723673 -6.068587e-05 -0.015027605 0.0033501794 0.005789186 -0.014624551 0.014399746
-0.02238043 0.018984985 -0.027859855 0.0461065 -0.003067651 0.009439538 -0.014955346 0.020043308
0.024983631 -0.03003185 0.020644667 0.001988441 -0.0071961805 0.010278002 -0.0009721966 -0.0005515793
-0.015527173 0.038290575 -0.0018171205 -0.017351765 0.02415985 0.031719435 0.035078388 0.03743242
-0.017617168 0.009629061 0.017469233 -0.024846578 -0.020381527 0.008198137 0.0041086017 0.04027604
-0.030306058 0.035569873 -0.02330492 -0.03903508 -0.0008493263 0.025114933 -0.007962831 0.028127365
-0.013755849 0.014287967 0.02782044 0.013454818 -0.04357597 0.024853649 0.029902074 -0.027911471
00000000: 1581 153c 0f39 81bc b534 39bd ed51 cdbb
00000010: 1a6e 39bd 3b76 51bc bedd d4bc ebff 68bc
00000020: 6870 263c 69b3 89bd f588 7eb8 5836 76bc
00000030: af8e 5b3b 36b3 bd3b d09b 6fbc eaec 6b3c
00000040: 2a57 b7bc 6686 9b3c 5a3a e4bc 2bda 3c3d
00000050: a50a 49bb 4ba8 1a3c 4407 75bc dd31 a43c
00000060: 79aa cc3c 5b05 f6bc 011f a93c 8150 023b
00000070: f0cd ebbb 1165 283c 02db 7eba dc97 10ba
00000080: af65 7ebc 94d6 1c3d 722c eeba 4a25 8ebc
00000090: e1ea c53c 3dec 013d 5bae 0f3d bd52 193d
000000a0: e151 90bc 36c3 1d3c a31b 8f3c 0d8b cbbc
000000b0: 29f7 a6bc 7b51 063c 73a1 863b 7df8 243d
000000c0: 6944 f8bc b7b1 113d f6e9 bebc 3fe3 1fbd
000000d0: 53a5 5eba d5bd cd3c 8976 02bc 5c6b e63c
000000e0: 3660 61bc 1418 6a3c b1e7 e33c 9971 5c3c
000000f0: b77c 32bd e199 cb3c 32f5 f43c 99a6 e4bc

weight f4 [64]
1.3677627 1.196876 1.3122691 1.3368669 1.2305359 1.2851963 1.1837901 1.3377483
1.242888 1.2962548 1.2807026 1.3032925 1.2985024 1.2802899 1.2945487 1.312415
1.2006981 1.3392212 1.3545815 1.2546033 1.171817 1.3143114 1.2045298 1.5554721
1.3721902 1.331736 1.2572842 1.324875 1.1873902 1.2740233 1.1621647 1.2562544
1.3350071 1.2811908 1.3133942 1.3446121 1.3159347 1.3234185 1.4294271 1.1950444
1.2289306 1.3343185 1.3632433 1.2565312 1.189499 1.3318499 1.4211476 1.1419499
1.2452277 1.3364328 1.172159 1.343991 1.15835 1.2425495 1.262671 1.2654994
1.2011735 1.3647361 1.292078 1.286174 1.3105077 1.2468456 1.2970783 1.1289579
00000000: d912 af3f 3c33 993f 6ff8 a73f 741e ab3f
00000010: 3382 9d3f 5081 a43f 6f86 973f 563b ab3f
00000020: f416 9f3f adeb a53f 10ee a33f 4ad2 a63f
00000030: 5435 a63f 8ae0 a33f c6b3 a53f 37fd a73f
00000040: 7ab0 993f 9a6b ab3f ed62 ad3f d796 a03f
00000050: 19fe 953f 5b3b a83f 082e 9a3f b619 c73f
00000060: eea3 af3f 5376 aa3f b0ee a03f 8195 a93f
00000070: 67fc 973f 3213 a33f d0c1 943f f2cc a03f
00000080: 83e1 aa3f 0ffe a33f 4d1d a83f 401c ac3f
00000090: 8c70 a83f c765 a93f 78f7 b63f 37f7 983f
000000a0: 994d 9d3f f3ca aa3f c27e ae3f 04d6 a03f
000000b0: 8141 983f 0f7a aa3f 2ae8 b53f 6a2b 923f
000000c0: 9f63 9f3f 3b10 ab3f 4e09 963f e607 ac3f
000000d0: d044 943f dd0b 9f3f 349f a13f e2fb a13f
000000e0: 0ec0 993f acaf ae3f d062 a53f 5aa1 a43f
000000f0: b7be a73f a398 9f3f a906 a63f b181 903f

bias f4 [64]
0.18276538 0.043708574 0.20058796 0.100302726 0.020616507 0.08619648 0.05431094 0.13668987
0.15033858 0.18798383 0.055993624 0.14599812 0.12987699 0.15602979 0.13895455 0.14141203
-0.087921076 0.13613081 0.18585762 0.14016823 0.107254885 0.008269035 0.009596782 0.15290228
0.060710184 0.11200695 0.08577729 0.08200266 0.11149982 0.14551981 0.053568847 0.14130168
0.20557262 0.14999652 0.11333631 0.11183612 0.15035151 0.093043394 0.20915873 -0.019637316
0.07890246 0.077347234 0.15588354 0.07705312 -0.02688434 0.14563897 0.16136767 -0.08955235
0.040720347 0.1357867 0.10025477 0.08325642 0.013148313 0.093135245 0.1456572 0.14699858
0.031424783 0.14222974 0.14043549 0.074463576 0.111410074 0.13207862 0.16092655 0.04366084
00000000: d926 3b3e c307 333d ee66 4d3e 846b cd3d
00000010: f3e3 a83c c887 b03d 2675 5e3d 6ef8 0b3e
00000020: 5bf2 193e d57e 403e 9259 653d 8880 153e
00000030: 79fe 043e 46c6 1f3e 1a4a 0e3e 51ce 103e
00000040: f70f b4bd e065 0b3e 7651 3e3e 4388 0f3e
00000050: 73a8 db3d d97a 073c d23b 1d3c 6a92 1c3e
00000060: 3eab 783d e663 e53d 01ac af3d 03f1 a73d
00000070: 055a e43d 2503 153e 026b 5b3d 63b1 103e
00000080: a181 523e b098 193e de1c e83d 560a e53d
00000090: bff5 193e 898d be3d b52d 563e 70de a0bc
000000a0: 9d97 a13d 3a68 9e3d ef9f 1f3e 07ce 9d3d
000000b0: 8c3c dcbc 6222 153e 913d 253e 3967 b7bd
000000c0: 61ca 263d ab0b 0b3e 5f52 cd3d 5882 aa3d
000000d0: 066c 573c b1bd be3d 2927 153e cc86 163e
000000e0: 46b7 003d aca4 113e 52ce 0f3e 5c80 983d
000000f0: f72a e43d 9e3f 073e eec9 243e b5d5 323d

running_mean f4 [64]
-0.48938608 -1.2920909 1.2731951 0.18080243 0.470684 -1.4219949 -0.3160527 0.8153407
0.9817666 -0.62423944 -1.8904363 -1.2455976 -1.2951881 -0.080493994 0.7199053 -1.2157184
0.086370245 0.4361658 1.0208731 1.3452125 1.4541695 0.1881047 0.7180295 -1.7026736
0.8366709 1.1340728 0.46980676 -0.52776974 -1.1033862 0.485077 1.5744225 1.772447
1.7688254 1.316568 -1.4580556 -1.9034806 -1.0235125 0.91923636 -0.20030512 -1.551104
0.70957667 -2.0392282 1.6986337 -0.13055336 -1.2884256 1.7247748 -1.9538418 -1.0737609
-1.9470714 -0.9333031 0.8330233 -2.2537742 1.3517091 -1.9669044 -2.4923182 -1.184588
-0.99208796 1.1252549 0.11628065 -0.41124597 -2.2700412 1.1860607 0.90899974 1.1546048
00000000: d090 fabe 3c63 a5bf 0ff8 a23f 4624 393e
00000010: 7efd f03e ee03 b6bf a9d1 a1be 2bba 503f
00000020: 0e55 7b3f 28ce 1fbf d1f9 f1bf be6f 9fbf
00000030: b9c8 a5bf 09da a4bd b74b 383f a99c 9bbf
00000040: e2e2 b03d 2051 df3e f8ab 823f ec2f ac3f
00000050: 3a22 ba3f 859e 403e c8d0 373f 35f1 d9bf
00000060: 1030 563f 4c29 913f 838a f03e eb1b 07bf
00000070: c23b 8dbf 035c f83e ad86 c93f 8bdf e23f
00000080: df68 e23f 4d85 a83f 91a1 babf 41a5 f3bf
00000090: 7502 83bf 1353 6b3f c91c 4dbe 938a c6bf
000000a0: d1a6 353f b782 02c0 d46c d93f c8af 05be
000000b0: 21eb a4bf 6cc5 dc3f 7d17 fabf ff70 89bf
000000c0: a339 f9bf f4ec 6ebf 0441 553f d63d 10c0
000000d0: ce04 ad3f 86c3 fbbf 2482 1fc0 94a0 97bf
000000e0: 7af9 7dbf 5a08 903f 8d24 ee3d d58e d2be
000000f0: 5b48 11c0 d6d0 973f 35b4 683f 17ca 933f

running_var f4 [64]
1.088304 1.984384 2.48818 1.8257178 1.6454382 1.6317382 1.335858 1.8349396
2.2511535 1.2841403 1.9819366 1.4931996 1.1067955 1.1015881 1.9036932 1.707356
1.5871397 1.337256 1.9662652 1.6067848 2.2055485 2.1217253 1.2543582 1.5225557
1.5915326 1.3601131 1.245923 1.3930961 1.366954 1.585374 1.281982 2.1101284
2.5982647 2.1605122 1.556743 1.6925203 1.3543365 1.60916 1.584194 1.9444728
1.5486263 2.5405571 2.1381524 1.0400594 1.912052 2.0943236 1.7350917 2.1681447
2.3566182 1.4023793 2.0837798 2.6801066 1.592421 1.8165957 1.6078948 1.9130008
1.3666285 1.2157593 1.7908897 1.7548459 2.0513525 2.3054314 1.6497738 1.1468134
00000000: 8c4d 8b3f 4b00 fe3f 573e 1f40 1fb1 e93f
00000010: b89d d23f ccdc d03f 65fd aa3f 4ddf ea3f
00000020: e612 1040 b65e a43f 19b0 fd3f 2a21 bf3f
00000030: 7aab 8d3f d700 8d3f 38ac f33f a48a da3f
00000040: 6527 cb3f 342b ab3f 94ae fb3f 20ab cd3f
00000050: b527 0d40 59ca 0740 cf8e a03f 1be3 c23f
00000060: 57b7 cb3f 3018 ae3f 687a 9f3f f950 b23f
00000070: 59f8 ae3f 89ed ca3f fc17 a43f 580c 0740
00000080: f849 2640 d545 0a40 5b43 c73f 81a4 d83f
00000090: e65a ad3f f4f8 cd3f dec6 ca3f 7ce4 f83f
000000a0: 6339 c63f 7d98 2240 7dd7 0840 ab20 853f
000000b0: 1fbe f43f 6609 0640 7c17 de3f e2c2 0a40
000000c0: d5d2 1640 2a81 b33f a65c 0540 de86 2b40
000000d0: 74d4 cb3f 3586 e83f 7fcf cd3f 36dd f43f
000000e0: afed ae3f 009e 9b3f e03b e53f ca9e e03f
000000f0: 5c49 0340 308c 1340 ca2b d33f c8ca 923f

weight f4 [11, 64, 3, 3]
-0.021159343 0.023608858 -0.06090079 -0.06506722 0.0009804157 -0.027960889 -0.0036338281 0.009681139
0.036819726 0.049741063 0.09325028 0.120400615 0.05155912 0.054619063 -0.00781989 0.011207872
0.045294076 -0.033832066 0.03548038 -0.055548802 -0.10227966 0.074417666 -0.16074121 -0.12548493
-0.25189105 -0.116855696 -0.02379892 -0.07034336 0.05743777 0.0016791956 -0.10785592 0.006954494
-0.08502176 -0.23383018 -0.06816385 -0.021233099 0.042437762 -0.040482774 -0.023281958 0.012993741
-0.02630717 -0.0129465945 -0.031508736 -0.03698525 -0.10348738 -0.038641445 0.01938944 -0.123357296
-0.08879613 -0.043150924 -0.10122798 -0.11073385 -0.16203716 -0.07461413 0.051579632 0.09853767
0.11807962 0.022453416 0.06783308 0.005991789 0.06697499 -0.003405982 -0.0066084736 0.09745104
0.034611546 -0.10383143 -0.020423112 -0.11791503 -0.08522864 -0.051672265 -0.018548235 0.0058236523
-0.01189122 -0.07386179 -0.090742074 -0.06460707 -0.072073154 -0.11049407 -0.2585618 -0.05883593
-0.04380011 -0.017394423 0.016155023 0.024451789 -0.060243186 -0.040827032 -0.076329604 -0.021814264
0.058507312 0.05540139 -0.12575519 0.09421898 -0.12434231 -0.04273455 0.01524662 -0.116044484
-0.10164823 -0.11576047 -0.101575404 -0.038658403 0.08873745 -0.03129186 0.028217196 0.060479075
-0.005071545 0.09873965 0.05413335 -0.01114883 -0.006819324 0.090636946 -0.029896151 -0.06412153
0.036426403 -0.06560583 0.036419384 0.04319677 -0.016904594 -0.048801113 0.045745824 -0.12686914
-0.11549845 -0.08834224 -0.13588977 -0.01777346 0.04806381 -0.049052082 0.10516625 0.09310695
-0.019383607 0.09131686 -0.021520972 -0.011043456 -0.04212892 -0.09815448 0.007646832 -0.09627036
0.022837123 -0.035793915 -0.03669524 0.03784652 -0.01406998 -0.10657318 -0.0031893048 0.02208584
0.05723656 -0.00996988 0.06933047 0.07839583 0.056170154 -0.013112742 0.03215642 0.038073547
-0.011715912 0.076063834 -0.0041352347 0.06632453 0.025086235 -0.104916655 0.02382688 -0.07240867
0.0062326547 -0.03230501 -0.024303244 -0.043227043 0.0035400453 -0.045380108 0.03563476 -0.12216529
-0.22284837 -0.11753795 -0.11134411 0.0015617977 -0.06416866 -0.1280885 0.0030571832 -0.025855737
-0.09601699 -0.12516238 -0.014512708 -0.10565908 0.06772418 0.049175337 -0.041258186 -0.02394652
-0.10345767 -0.03639575 -0.04585681 -0.026066959 -0.037143 0.044720795 -0.036339432 0.052218236
-0.0014727997 -0.039795116 0.08853024 0.07963387 -0.017300645 -0.0005763867 -0.034284655 -0.044469543
-0.05706191 -0.02630757 -0.100682944 -0.0043452876 -0.0041719815 -0.025536466 0.06276101 -0.21909028
-0.118773006 -0.22387594 -0.021558499 -0.016482152 -0.060723975 -0.0745879 -0.02296888 0.03130574
0.016799586 0.03710747 0.040851675 -0.0034891444 -0.0610908 -0.02112087 -0.1001701 -0.0561003
0.033403236 0.13261004 0.026015615 0.085088484 0.06341532 0.042740352 0.057192314 0.07373877
0.04017557 -0.0059260284 0.034215115 0.0145984 0.11464422 0.00924172 0.08965194 0.01699656
0.03686308 0.047575533 0.014904759 -0.08453132 -0.041570585 0.047875155 -0.10497096 -0.088442214
0.021961372 -0.022063127 0.011520815 0.02992783 -0.051273473 0.13138732 -0.021707907 -0.08425615
00000000: 5c56 adbc 5d67 c13c 1b73 79bd f641 85bd
00000010: 4b81 803a 3c0e e5bc 8525 6ebb a49d 1e3c
00000020: 48d0 163d 49bd 4b3d 01fa be3d 9994 f63d
00000030: a82f 533d 3db8 5f3d ff1e 00bc 39a1 373c
00000040: 4886 393d 7e93 0abd e053 113d 2487 63bd
00000050: 0078 d1bd 4a68 983d 5899 24be 1f7f 00be
00000060: ddf7 80be 0a52 efbd f4f5 c2bc 2e10 90bd
00000070: de43 6b3d 7418 dc3a 91e3 dcbd 86e2 e33b
00000080: e31f aebd 2e71 6fbe 7d99 8bbd 09f1 adbc
00000090: 38d3 2d3d 44d1 25bd ceb9 bebc b3e3 543c
000000a0: 2282 d7bc f41d 54bc 4e0f 01bd d87d 17bd
000000b0: 31f1 d3bd 7e46 1ebd 9ad6 9e3c c0a2 fcbd
000000c0: bfda b5bd 06bf 30bd 9d50 cfbd 6ec8 e2bd
000000d0: 12ed 25be 4bcf 98bd 2a45 533d 1ece c93d
000000e0: bad3 f13d 3af0 b73c 12ec 8a3d c556 c43b
000000f0: 2f2a 893d e536 5fbb e58b d8bb 6994 c73d
00000100: d6c4 0d3d 93a5 d4bd 5f4e a7bc 6f7d f1bd
00000110: 5a8c aebd 4ca6 53bd 78f2 97bc 56d4 be3b
00000120: 64d3 42bc da44 97bd fbd6 b9bd b650 84bd
00000130: 179b 93bd b74a e2bd 3662 84be f2fd 70bd
00000140: bf67 33bd c07e 8ebc 8a57 843c 1e4f c83c
00000150: 8fc1 76bd 3f3a 27bd b252 9cbd d4b3 b2bc
00000160: 5da5 6f3d 91ec 623d f8c5 00be e1f5 c03d
00000170: 2ea7 febd 6c0a 2fbd f6cc 793c bba8 edbd
00000180: f22c d0bd d313 edbd c406 d0bd 4658 1ebd
00000190: fbbb b53d e52b 00bd c027 e73c e8b8 773d
000001a0: 342f a6bb 0338 ca3d eeba 5d3d 95a9 36bc
000001b0: a374 dfbb dd9f b93d c6e8 f4bc 2652 83bd
000001c0: da33 153d 595c 86bd 7e2c 153d 19ef 303d
000001d0: 817b 8abc ade3 47bd f95f 3b3d fce9 01be
000001e0: 748a ecbd c7ec b4bd b026 0bbe a699 91bc
000001f0: 8fde 443d d6ea 48bd 6761 d73d dbae be3d
00000200: 5fca 9ebc 5504 bb3d c04c b0bc 9def 34bc
00000210: 608f 2cbd 3705 c9bd 4792 fa3b 6529 c5bd
00000220: eb14 bb3c a49c 12bd bf4d 16bd f404 1b3d
00000230: c685 66bc 0a43 dabd a803 51bb 5ded b43c
00000240: e270 6a3d b558 23bc 22fd 8d3d fe8d a03d
00000250: ad12 663d d4d6 56bc 73b6 033d 02f3 1b3d
00000260: 19f4 3fbc 5bc7 9b3d dd80 87bb 28d5 873d
00000270: a681 cd3c 8bde d6bd 9730 c33c ff4a 94bd
00000280: 4c3b cc3b 4252 04bd 9917 c7bc d70e 31bd
00000290: 1b00 683b 7ee0 39bd c1f5 113d cc31 fabd
000002a0: 5d32 64be bdb7 f0bd 6108 e4bd 3cb5 cc3a
000002b0: dc6a 83bd a229 03be 065b 483b 69cf d3bc
000002c0: 8ea4 c4bd 912a 00be b6c6 6dbc ca63 d8bd
000002d0: fab2 8a3d 146c 493d 58fe 28bd 7e2b c4bc
000002e0: 9de1 d3bd b613 15bd 5ad4 3bbd 608a d5bc
000002f0: 4223 18bd 272d 373d a8d8 14bd cae2 553d
00000300: f50a c1ba 3400 23bd 584f b53d 1517 a33d
00000310: 15ba 8dbc a818 17ba 116e 0cbd b225 36bd
00000320: c0b9 69bd f982 d7bc dc32 cebd ea62 8ebb
00000330: 1eb5 88bb da31 d1bc d888 803d 3459 60be
00000340: 433f f3bd bc3f 65be 739b b0bc 9405 87bc
00000350: b4b9 78bd 8ac1 98bd 3c29 bcbc 733a 003d
00000360: 499f 893c 01fe 173d 1654 273d 21aa 64bb
00000370: 593a 7abd ad05 adbc fb25 cdbd 6ec9 65bd
00000380: d5d1 083d edca 073e b31e d53c df42 ae3d
00000390: e4df 813d 8210 2f3d 7d42 6a3d 5a04 973d
000003a0: 238f 243d 212f c2bb 2625 0c3d 212e 6f3c
000003b0: 97ca ea3d 956a 173c 709b b73d 5f3c 8b3c
000003c0: befd 163d 90de 423d 1733 743c c21e adbd
000003d0: eb45 2abd bd18 443d 04fb d6bd 3121 b5bd
000003e0: 56e8 b33c bbbd b4bc cdc1 3c3c 352b f53c
000003f0: 2204 52bd 668a 063e c8d4 b1bc 7d8e acbd

bias f4 [11]
0.00301402 0.04041081 -0.050294857 -0.04004273 -0.011198508 0.022369675 -0.07280228 -0.066822335
-0.13355379 -0.08301235 -0.071571186
00000000: dd86 453b ce85 253d fb01 4ebd d803 24bd
00000010: f279 37bc 9c40 b73c 5d19 95bd 26da 88bd
00000020: 53c2 08be 6102 aabd ea93 92bd

weight f4 [64, 11, 3, 3]
0.19469368 0.15041518 0.1324244 0.10381087 0.059760995 0.04882742 0.2171218 0.16831332
0.11415461 0.005375174 -0.003392733 -0.013564326 0.02014194 -0.03496958 0.012732858 -0.023593847
0.00925883 0.00824204 0.029823199 -0.00049128826 0.023851486 0.0070271175 0.033607244 0.039577648
-0.03717795 -0.032721523 0.008453179 -0.024844084 -0.029010335 -0.11749984 0.048337635 -0.0074176667
-0.07180036 -0.06734405 -0.022896888 -0.031821426 0.018963804 -0.0067300275 0.006608582 0.0060854587
-0.008841853 0.014986346 0.025690837 0.038292587 0.05424085 -0.00893547 -0.020951485 -0.054699283
-0.02871322 0.0544718 -0.015080082 -0.07941296 -0.044550914 -0.05540426 -0.05499583 -0.03050165
-0.1207212 -0.047136 0.027296355 -0.05506357 -0.06911268 -0.012366047 -0.034671236 0.017876113
0.012072258 -0.00770668 0.014151306 0.029163811 -0.004245348 -0.017526047 0.0011100488 0.009446512
0.006865493 -0.005043759 -0.007299724 0.0016227557 -0.011393621 -0.00082352455 -0.017607313 -0.00018207353
-0.0019787776 -0.011929457 -0.021893041 -0.0052173417 0.0033708175 0.030449318 0.015710622 -0.034289595
0.0013921435 0.018739698 -0.0019956618 0.054018486 0.0012838567 0.019792877 0.0343866 -0.0026928275
0.01284509 -0.007661988 0.007687391 0.069520265 0.04821807 0.057609376 -0.0014612165 -0.0628881
0.021871654 0.100767374 0.005462884 0.01409749 -0.035715315 -0.015413576 -0.019776873 -0.008185896
-0.01723739 -0.025029719 -0.0030824007 -0.014583406 -0.017660955 -0.2634826 -0.1416528 -0.099723026
-0.11676952 0.0018342786 -0.008914947 -0.03907195 0.015702905 0.026854208 -0.04177163 0.034043465
-0.120941624 -0.11635635 -0.10575974 -0.14717117 -0.04768908 -0.06883705 -0.166177 -0.0019500992
-0.08644922 -0.026886787 -0.074474975 -0.026303029 0.15361361 -0.040581387 -0.015987929 0.1561426
-0.021976057 -0.015442262 -0.053946696 -0.03469166 -0.010982986 -0.03491651 -0.012386197 -0.0006522821
-0.009227126 -0.08014951 -0.065213926 -0.090977915 -0.177721 -0.13462305 -0.14261283 -0.10494601
-0.07644166 -0.072291195 -0.10287518 0.02876946 0.025453275 -0.089208364 0.06487426 0.10159118
-0.0761421 0.060515087 0.01308903 -0.0055501605 0.009007729 0.026321797 -0.026114449 -0.049941663
-0.0415822 0.0034364786 -0.050443303 -0.05087562 -0.048442602 -0.042226847 -0.08912636 -0.03888062
-0.011020889 -0.03215948 -0.017698469 0.027181715 -0.025962362 0.052842684 0.059993956 0.055766042
-0.013765739 -0.008050522 -0.011194224 0.0028144766 -0.020882444 0.016815241 -0.08451334 -0.023606995
-0.033718206 -0.10886048 -0.037472375 -0.007848392 -0.16881391 -0.12121472 -0.06769182 0.00866325
-0.00942917 -0.024281168 0.016687779 0.008682478 -0.011225829 0.02632601 -0.034954138 -0.057175085
0.07743773 0.086685315 0.041426264 0.049012046 0.01955347 0.029655745 -0.015283722 -0.060822785
0.02899273 0.034520514 0.06759344 0.023380945 0.019479275 0.015502157 -0.06813353 0.057790853
0.113874175 0.09382999 0.04200051 0.08271387 0.041589573 -0.03873271 0.02039851 -0.034150753
-0.045856338 0.021433305 -0.01980416 0.0031786787 0.0011416576 0.08209963 -0.055299748 0.0037148867
0.011040923 -0.020054396 -0.02359776 0.043977153 0.1356188 0.18496947 0.11229519 0.012449048
00000000: c85d 473e 7006 1a3e 439a 073e cb9a d43d
00000010: f2c7 743d 43ff 473d 2d55 5e3e 545a 2c3e
00000020: e4c9 e93d 3a22 b03b 9d58 5ebb e83c 5ebc
00000030: b600 a53c 433c 0fbd 7a9d 503c e247 c1bc
00000040: 59b2 173c 9f09 073c c84f f43c ccc9 00ba
00000050: 3164 c33c bc43 e63b c0a7 093d 2c1c 223d
00000060: e847 18bd 0107 06bd 347f 0a3c d285 cbbc
00000070: 15a7 edbc c2a3 f0bd affd 453d e60f f3bb
00000080: 110c 93bd adeb 89bd 4192 bbbc 2f57 02bd
00000090: fb59 9b3c 9087 dcbb ce8c d83b 8768 c73b
000000a0: 6bdd 10bc 4a89 753c 9775 d23c b0d8 1c3d
000000b0: a72b 5e3d 1466 12bc 73a2 abbc 5b0c 60bd
000000c0: fd37 ebbc d21d 5f3d 7312 77bc 43a3 a2bd
000000d0: 057b 36bd 94ef 62bd 4f43 61bd 99de f9bc
000000e0: ad3c f7bd ae11 41bd 9b9c df3c 578a 61bd
000000f0: f38a 8dbd f69a 4abc 6d03 0ebd ed70 923c
00000100: b8ca 453c 5188 fcbb e1da 673c f2e8 ee3c
00000110: 8f1c 8bbb c992 8fbc 0f7f 913a 8bc5 1a3c
00000120: eef7 e03b 1e46 a5bb 8632 efbb a5b2 d43a
00000130: 4fac 3abc cce1 57ba 363d 90bc feea 3eb9
00000140: 61ae 01bb c573 43bc 0959 b3bc 3cf6 aabb
00000150: efe8 5c3b d970 f93c 90b3 803c 3f73 0cbd
00000160: 9678 b63a ff83 993c a6c9 02bb 7d42 5d3d
00000170: 1547 a83a ac24 a23c f7d8 0c3d 267a 30bb
00000180: 3674 523c 6a11 fbbb 82e6 fb3b a460 8e3d
00000190: 5080 453d cff7 6b3d 4a86 bfba 7acb 80bd
000001a0: 2f2c b33c 205f ce3d fe01 b33b 29f9 663c
000001b0: 394a 12bd 3989 7cbc 1c03 a2bc 231e 06bc
000001c0: 6d35 8dbc 200b cdbc 1a02 4abb 3def 6ebc
000001d0: b5ad 90bc 31e7 86be 6e0d 11be 963b ccbd
000001e0: dc24 efbd 2d6c f03a ff0f 12bc e909 20bd
000001f0: 61a3 803c 5bfd db3c bb18 2bbd 2971 0b3d
00000200: 3eb0 f7bd 3d4c eebd 9098 d8bd 0ab4 16be
00000210: a055 43bd 70fa 8cbd 4e2a 2abe 799a ffba
00000220: 4a0c b1bd ae41 dcbc 5686 98bd 7379 d7bc
00000230: e34c 1d3e ab38 26bd 1ef9 82bc d9e3 1f3e
00000240: 2207 b4bc 8b01 7dbc 36f7 5cbd d818 0ebd
00000250: fbf1 33bc 9d04 0fbd 7aef 4abc e9fd 2aba
00000260: 5f2d 17bc 6d25 a4bd e18e 85bd a152 babd
00000270: 7efc 35be a0da 09be 1909 12be efed d6bd
00000280: 728d 9cbd 680d 94bd 39b0 d2bd eead eb3c
00000290: 6383 d03c e0b2 b6bd ccdc 843d 090f d03d
000002a0: 64f0 9bbd abde 773d 5f73 563c 1fde b5bb
000002b0: 2795 133c cfa0 d73c f8ed d5bc a18f 4cbd
000002c0: 1952 2abd 8b36 613b a39d 4ebd f462 50bd
000002d0: c06b 46bd 0ff6 2cbd e287 b6bd 4941 1fbd
000002e0: f590 34bc a9b9 03bd 61fc 90bc 30ac de3c
000002f0: 05af d4bc 9271 583d 39bc 753d ef6a 643d
00000300: b289 61bc 56e6 03bc fa67 37bc 1573 383b
00000310: a911 abbc 1ec0 893c 5415 adbd 7563 c1bc
00000320: 1a1c 0abd 3ef2 debd a27c 19bd 8b96 00bc
00000330: 8edd 2cbe 6c3f f8bd 02a2 8abd 4ef0 0d3c
00000340: ce7c 1abc 4de9 c6bc cfb4 883c f440 0e3c
00000350: 8aec 37bc a5a9 d73c 122c 0fbd 6c30 6abd
00000360: ac97 9e3d 1288 b13d 96ae 293d dbc0 483d
00000370: 992e a03c 9bf0 f23c 9468 7abc 5021 79bd
00000380: 2982 ed3c 6265 0d3d 6e6e 8a3d 6589 bf3c
00000390: 0093 9f3c c2fc 7d3c 9889 8bbd 1ab6 6c3d
000003a0: dd36 e93d f029 c03d ba08 2c3d e465 a93d
000003b0: d459 2a3d 31a6 1ebd c71a a73c a9e1 0bbd
000003c0: dbd3 3bbd e694 af3c 553c a2bc 6151 503b
000003d0: aca3 953a da23 a83d fd81 62bd 7575 733b
000003e0: fde4 343c 1e49 a4bc 1750 c1bc 6321 343d
000003f0: a8df 0a3e a368 3d3e 05fb e53d 18f7 4b3c

bias f4 [64]
-0.19487688 0.008273378 -0.115184486 0.062233847 0.007345505 0.114898756 -0.15042654 0.10261871
0.0005155721 -0.013248847 0.09210559 0.10763431 -0.021112997 -0.035470903 0.085409574 0.24533491
-0.20995507 -0.0019488535 0.039411332 -0.12145807 -0.04741234 -0.012609368 0.047875773 -0.0693178
0.040618047 0.016585188 0.15244721 -0.0015041695 0.09373523 0.016562283 0.087895356 -0.002411609
0.08489871 -0.056853727 0.021444097 -0.059814796 -0.10722508 0.0877629 -0.043651134 0.100195825
-0.10006033 0.039197985 0.041983347 0.26688403 0.09164105 0.03364412 0.15855807 -0.047345225
-0.0086543765 0.2513483 0.3384549 -0.070692174 0.123512164 0.04650346 -0.02590306 0.09850037
0.008201276 -0.009030074 0.14146507 0.08659877 0.044040464 -0.15040913 0.014887013 -0.09822024
00000000: ce8d 47be 108d 073c d8e5 ebbd ebe8 7e3d
00000010: 90b2 f03b 0a50 eb3d 6a09 1abe c229 d23d
00000020: 7527 073a b111 59bc dba1 bc3d 616f dc3d
00000030: 2af5 acbc f049 11bd 37eb ae3d 1339 7b3e
00000040: 76fe 56be ac70 ffba c76d 213d 02bf f8bd
00000050: 7133 42bd 8697 4ebc 6319 443d 7ef6 8dbd
00000060: 1c5f 263d a9dd 873c 1f1b 1c3e 8e27 c5ba
00000070: 42f8 bf3d a0ad 873c 7b02 b43d 160c 1ebb
00000080: 60df ad3d 74df 68bd 88ab af3c 5c00 75bd
00000090: d398 dbbd 09bd b33d 88cb 32bd 7833 cd3d
000000a0: 6eec ccbd 118e 203d bbf6 2b3d 06a5 883e
000000b0: 4eae bb3d 6bce 093d 0c5d 223e 11ed 41bd
000000c0: 16cb 0dbc b9b0 803e f649 ad3e 0fc7 90bd
000000d0: f2f3 fc3d 697a 3e3d a732 d4bc 90ba c93d
000000e0: a55e 063c e0f2 13bc 38dc 103e b25a b13d
000000f0: c663 343d da04 1abe a8e8 733c b127 c9bd

weight f4 [64]
0.9173747 1.0193856 0.9519009 0.95004183 0.98214155 0.938956 0.96739817 0.96579343
0.94376653 1.0037073 0.9938116 0.86175174 1.0314034 0.94732845 0.9725646 0.9387712
0.9157913 0.9736649 0.98910093 1.1125245 0.92567945 0.89338905 0.9670424 0.869463
0.9849025 0.9930801 1.096047 0.9056554 1.0313185 0.95748293 1.0139754 0.9902152
0.88885254 0.9701457 0.9066124 0.9736967 0.90954566 0.9231062 0.8897898 0.95811564
0.9469795 0.94799125 0.9218243 0.9977356 0.88763064 0.91803485 0.95614284 0.9507618
0.98667675 1.0317162 0.9515533 1.0053804 1.0082365 1.0047005 0.9058798 0.9383354
1.0058687 0.94446623 0.8534541 0.87427104 0.92759436 0.98787993 1.0385517 0.9682877
00000000: 11d9 6a3f 3a7b 823f c7af 733f f135 733f
00000010: a16d 7b3f 6c5f 703f 68a7 773f 3d3e 773f
00000020: af9a 713f 7b79 803f 706a 7e3f c39b 5c3f
00000030: 0705 843f 1e84 723f fef9 783f 4f53 703f
00000040: 4c71 6a3f 1a42 793f b835 7d3f 3467 8e3f
00000050: 54f9 6c3f 25b5 643f 1790 773f 2195 5e3f
00000060: 9222 7c3f 7f3a 7e3f 454b 8c3f 08d9 673f
00000070: 3f02 843f 9a1d 753f f2c9 813f be7e 7d3f
00000080: d78b 633f 785b 783f c017 683f 3044 793f
00000090: fcd7 683f b050 6c3f 44c9 633f 1147 753f
000000a0: 406d 723f 8eaf 723f adfc 6b3f 9a6b 7f3f
000000b0: c33b 633f 5504 6b3f c7c5 743f 2065 733f
000000c0: d996 7c3f 470f 843f ff98 733f 4eb0 803f
000000d0: e50d 813f 079a 803f bde7 673f c036 703f
000000e0: 4ec0 803f 8ac8 713f f87b 5a3f 3ad0 5f3f
000000f0: d376 6d3f b3e5 7c3f 43ef 843f b4e1 773f

bias f4 [64]
-0.6087356 -0.5322773 -0.110976905 -0.25483522 -0.32543465 -0.42737305 -0.3540526 -0.6041031
-0.3781688 -0.4613338 -0.024157997 -0.30029228 -0.014563962 -0.21026058 -0.34653622 -0.38969135
-0.45299104 -0.34695074 -0.33101055 0.033628665 -0.36934608 -0.29016265 -0.0811839 -0.47100404
-0.35674852 -0.2022976 -0.6163009 -0.19479468 -0.4707458 -0.13752386 -0.40401164 -0.060084835
-0.30628186 -0.009171066 -0.23907515 -0.024873272 -0.37453696 -0.23979945 -0.12316253 -0.39110866
-0.37490344 -0.2309355 -0.10502028 -0.2931329 -0.4883408 -0.14177582 -0.33340785 -0.43408647
-0.44348574 -0.2853978 -0.30446458 -0.27497312 0.010264108 -0.33475503 -0.21667285 -0.051315367
-0.41027436 -0.33594543 -0.3730225 -0.28516176 -0.13011241 -0.3949701 -0.3397103 -0.31962237
00000000: 19d6 1bbf 5343 08bf dc47 e3bd c379 82be
00000010: 5f9f a6be a4d0 dabe 6246 b5be 80a6 1abf
00000020: 579f c1be f233 ecbe fee6 c5bc e9bf 99be
00000030: af9d 6ebc 8d4e 57be 326d b1be a085 c7be
00000040: 71ee e7be 87a3 b1be 377a a9be 36be 093d
00000050: ee1a bdbe 3390 94be bf43 a6bd 7127 f1be
00000060: bea7 b6be 1a27 4fbe e5c5 1dbf 4278 47be
00000070: 9805 f1be 0ed3 0cbe 9dda cebe 841b 76bd
00000080: fad0 9cbe 3d42 16bc 1ed0 74be 08c3 cbbc
00000090: 4fc3 bfbe fd8d 75be a33c fcbd 653f c8be
000000a0: 58f3 bfbe 5b7a 6cbe df14 d7bd 8415 96be
000000b0: ce07 fabe ae2d 11be 6fb4 aabe 9540 debe
000000c0: 9010 e3be a91f 92be c8e2 9bbe 47c9 8cbe
000000d0: ca2a 283c 0365 abbe 7ddf 5dbe 1030 52bd
000000e0: 7b0f d2be 0a01 acbe cefc bebe b900 92be
000000f0: 303c 05be 8539 cabe 82ee adbe 8ba5 a3be

running_mean f4 [64]
-0.19334063 -0.10219002 -0.15766162 0.047937885 0.036737848 0.11799997 -0.14855205 0.07130809
-0.08386238 -0.089076504 -0.05100387 0.020670656 0.0662693 -0.082284644 0.029467015 0.22473316
-0.20796433 0.014482035 -0.008550685 -0.033673532 -0.037273694 -0.0072377 0.1579082 -0.092931844
0.03893633 -0.022956993 0.06842503 -0.07964047 0.017211365 -0.18510476 0.015658587 0.08416309
-0.008558234 -0.043988448 0.015892416 -0.23018397 -0.16220239 0.039635 -0.0012385681 0.098402776
-0.13397163 0.08834577 -0.022679422 0.2335591 0.042164158 0.098089404 0.13650225 -0.07325725
-0.0074515473 0.21482927 0.34015146 -0.18392394 0.25106075 0.048478812 6.235043e-05 -0.05786803
-0.04165165 -0.051532507 0.098161235 0.08469356 -0.07747554 -0.17936432 -0.010231825 -0.11890181
00000000: 16fb 45be 0049 d1bd 0c72 21be 845a 443d
00000010: 6d7a 163d f8a9 f13d 071e 18be fa09 923d
00000020: 0ac0 abbd be6d b6bd 6fe9 50bd 8255 a93c
00000030: 33b8 873d da84 a8bd cf64 f13c 7320 663e
00000040: 9af4 54be 0f46 6d3c 2c18 0cbc 42ed 09bd
00000050: 4dac 18bd 3a2a edbb b0b2 213e 0d53 bebd
00000060: b37b 1f3d 4e10 bcbc 6c22 8c3d 8b1a a3bd
00000070: d9fe 8c3c 1a8c 3dbe 7046 803c b35d ac3d
00000080: d637 0cbc 3b2d 34bd d030 823c 59b5 6bbe
00000090: 6218 26be 4f58 223d 7357 a2ba 6587 c93d
000000a0: dc2f 09be a1ee b43d 32ca b9bc 1e2a 6f3e
000000b0: 53b4 2c3d 19e3 c83d 3fc7 0b3e e607 96bd
000000c0: 1c2c f4bb 34fc 5b3e 5528 ae3e 8f56 3cbe
000000d0: 098b 803e b891 463d 22c2 8238 0707 6dbd
000000e0: ec9a 2abd c013 53bd c208 c93d d173 ad3d
000000f0: 7fab 9ebd 48ab 37be 62a3 27bc cb82 f3bd

running_var f4 [64]
0.0075260177 0.0064647286 0.0046174917 0.003019702 0.0018195108 0.0013626844 0.0021213084 0.0009744607
0.003906901 0.002139092 0.01580945 0.0048642624 0.0058733476 0.0031258976 0.001726664 0.001953095
0.0013777468 0.0018193849 0.0044040172 0.0065375287 0.0023538214 0.0018185705 0.0064546927 0.0007540589
0.0029232078 0.0023145622 0.006688002 0.0030078506 0.002574232 0.021883829 0.0021874579 0.008472412
0.00440466 0.0072692065 0.0022747095 0.022639764 0.003213198 0.0013622566 0.0017010461 0.0015922942
0.00082362775 0.0019602308 0.0029813861 0.003322289 0.0016586776 0.0031269295 0.0017101775 0.0020127147
0.0014127728 0.0037194605 0.0013060045 0.012879806 0.009146276 0.004001573 0.0032346009 0.009880477
0.0013937737 0.0016501817 0.0029362957 0.00095294707 0.0040236637 0.002738236 0.0017445183 0.0017975904
00000000: d09c f63b 13d6 d33b 544e 973b 31e6 453b
00000010: a77c ee3a 1a9c b23a a605 0b3b f372 7f3a
00000020: 7605 803b 0230 0c3b d282 813c 6464 9f3b
00000030: 3675 c03b dcdb 4c3b 3b51 e23a fefe ff3a
00000040: 8395 b43a 6d78 ee3a 934f 903b c438 d63b
00000050: 9242 1a3b 1a5d ee3a e381 d33b 09ac 453a
00000060: 4a93 3f3b e9af 173b 0727 db3b 5c1f 453b
00000070: 72b4 283b b745 b33c 745b 0f3b dfcf 0a3c
00000080: f754 903b 8632 ee3b 4b13 153b 0777 b93c
00000090: 8494 523b bf8d b23a a3f5 de3a 87b4 d03a
000000a0: b9e8 573a 3777 003b 5c63 433b c3ba 593b
000000b0: fc67 d93a 2ced 4c3b 0928 e03a c0e7 033b
000000c0: ca2c b93a 31c2 733b 3d2e ab3a d205 533c
000000d0: 43da 153c a11f 833b 99fb 533b b9e1 213c
000000e0: 49af b63a e94a d83a de6e 403b 32cf 793a
000000f0: f0d8 833b fa73 333b 52a8 e43a 209d eb3a
