carl/envs/mario/pcg_smb_env/toadgan/generators/v2/TOAD_GAN_1-2/generators.pth (torch, 679717 bytes, 42 tensors)

weight f4 [64, 15, 3, 3]
0.022446912 -0.005764562 -0.085144475 0.0038663442 -0.008245816 0.03494574 0.013781547 0.0335478
-0.036418814 -0.07830758 -0.124379605 0.15305986 -0.0066735907 0.016939899 0.010880207 0.010925134
-0.01067593 -0.0029857361 0.036413644 -0.0109161725 -0.06386684 0.023708403 -0.0005469592 0.0016978538
0.012977307 -0.00012055867 -0.009511428 0.04034291 0.011123341 -0.07983007 0.008235988 -0.019340476
0.016984826 -0.009429454 -0.0018465876 -0.0012666692 -0.036432136 -0.006663785 0.09132829 0.006446805
0.0012207709 0.023200737 0.014331327 -0.023227232 0.011182284 0.06296683 -0.10045761 -0.14393483
0.0148097295 0.0066402657 0.028495269 -0.0015585918 0.028697845 -0.014741597 0.044110745 0.03861084
-0.06318219 -0.0026281832 0.001649032 0.009779977 -0.008976359 -0.023057137 -0.016429026 -0.042795986
0.06290378 -0.081319354 -0.016562548 -0.0071571697 0.029496133 -0.005319383 -0.0015695235 0.014353739
-0.0018257586 -0.0798037 0.07596164 0.0034086686 0.012847764 0.032383144 0.0016059711 -0.0045396807
0.021816224 0.04483061 -0.24085857 -0.017547391 -0.010586089 -0.010936548 0.015728222 0.0060955235
0.00011401112 -0.00397127 0.01790544 0.12115468 -0.0012762008 0.007360569 -0.016039552 -0.008382054
-0.010089147 -0.010106794 -0.026503444 -0.046825226 -0.011738957 0.06399998 0.010955926 -0.015400885
-0.0013246428 -0.0030118725 0.0111252405 -0.008316516 0.022108927 0.07882528 -0.10467866 -0.02235969
0.010624432 0.00059206405 -0.022570722 -0.007791514 -0.010331076 -0.034849912 0.20608094 -0.059448045
0.009454173 -0.018451788 0.015572135 -0.0066509414 0.01761494 0.019701378 0.038576424 -0.003291634
-0.04696781 0.0020017207 -0.032072984 -0.025327003 -0.008754459 0.030569844 -0.030198667 -0.21279226
0.037872188 -0.044182055 0.0019102525 -0.013993942 0.017007671 -0.014109442 -0.0012345244 0.0034289258
-0.03941674 -0.02675954 0.036476675 -0.0018580031 0.001618164 0.009872623 -0.024455361 -0.0010061633
0.028935486 -0.12151511 -0.027117174 -0.046083927 -0.0012120334 0.008604211 0.008811276 0.024826823
-0.0024469988 0.023334576 -0.06314978 0.07557738 0.0910108 -0.018883543 -0.029500738 0.0075464407
0.010583062 0.00807159 -0.015854489 0.01595241 -0.07443049 -0.094349355 0.010355813 0.0125805205
-0.003147647 -0.007849753 0.02187351 0.020362165 -0.06453499 0.14840119 -0.07452344 0.004798304
0.01014114 0.0034761268 -0.013379292 1.4431792e-05 -0.017515048 0.021210177 -0.06301316 0.018631997
0.008409112 0.0145988045 -0.0057750633 -0.027757177 -0.009547915 -0.028198775 -0.025709208 -0.019262278
-0.022426037 0.0069201468 0.0046632285 -0.025299754 -0.012789073 -0.010031676 -0.0067276 -0.024035098
-0.000991372 0.08702167 0.006147671 -0.0050304234 0.020139948 0.016702756 -0.0003335796 -0.020500261
-0.12424941 0.024377719 0.09272983 0.006924791 0.015297274 -0.0023625407 0.00022870711 0.0032291561
-0.018728578 0.1047116 -0.15169673 0.055877574 0.006915322 -0.0038786794 -0.023087652 0.00785325
0.0033706168 -0.0053221923 6.729967e-05 0.045449477 0.06281329 0.001101033 -0.0063563753 0.009043743
-0.012432465 0.0038944485 -0.003576453 -0.07140296 0.055710167 -0.14033623 0.0036104876 -0.00020803684
-0.0071544275 0.0008719461 0.006951204 0.00021689633 -0.047975328 0.081464715 0.17846428 -0.019592922
00000000: 96e2 b73c a7e4 bcbb 3a60 aebd 7e62 7d3b
00000010: 7619 07bc 4423 0f3d ffcb 613c 6b69 093d
00000020: e52b 15bd b95f a0bd bcba febd b9bb 1c3e
00000030: 23ae dabb 8bc5 8a3c e542 323c 55ff 323c
00000040: 19ea 2ebc 57ac 43bb 7926 153d bfd9 32bc
00000050: 9ecc 82bd 2038 c23c d061 0fba 858a de3a
00000060: c59e 543c 71d4 fcb8 d2d5 1bbc 9b3e 253d
00000070: ac3e 363c f37d a3bd 3df0 063c eb6f 9ebc
00000080: c323 8b3c ff7d 1abc 3309 f2ba 5e06 a6ba
00000090: dd39 15bd e15b dabb 540a bb3d b83f d33b
000000a0: 4602 a03a 790f be3c f1cd 6a3c 0947 bebc
000000b0: e635 373c c1f4 803d b8bc cdbd a763 13be
000000c0: 82a4 723c 9696 d93b e96e e93c aa49 ccba
000000d0: be17 eb3c bd86 71bc 78ad 343d 6626 1e3d
000000e0: aa65 81bd 993d 2cbb 5524 d83a 323c 203c
000000f0: 9411 13bc 52e2 bcbc 2a96 86bc d84a 2fbd
00000100: b2d3 803d c38a a6bd 2eae 87bc b186 eabb
00000110: e0a1 f13c 384e aebb 78b8 cdba f22b 6b3c
00000120: 4b4e efba 1f70 a3bd c791 9b3d f863 5f3b
00000130: 6e7f 523c 30a4 043d 737f d23a 9ac1 94bb
00000140: f0b7 b23c 4da0 373d a1a3 76be 8cbf 8fbc
00000150: 4771 2dbc 352f 33bc 79d8 803c f5bc c73b
00000160: 4119 ef38 6d21 82bb 6eae 923c f21f f83d
00000170: 3146 a7ba ee30 f13b 6165 83bc e254 09bc
00000180: f34c 25bc f796 25bc c01d d9bc cfcb 3fbd
00000190: c154 40bc 6c12 833d 7c80 333c fe53 7cbc
000001a0: a39f adba d662 45bb a446 363c ff41 08bc
000001b0: c81d b53c 266f a13d c461 d6bd ab2b b7bc
000001c0: 1912 2e3c bf34 1b3a 3ce6 b8bc f54f ffbb
000001d0: ac43 29bc c8be 0ebd e206 533e cb7f 73bd
000001e0: ade5 1a3c 3428 97bc 4522 7f3c 24f0 d9bb
000001f0: 354d 903c c964 a13c 5002 1e3d 74b8 57bb
00000200: 5161 40bd 4d2f 033b f65e 03bd 937a cfbc
00000210: dd6e 0fbc 9c6d fa3c 3263 f7bc 37e6 59be
00000220: de1f 1b3d 3ef8 34bd 7061 fa3a d946 65bc
00000230: ac53 8b3c 4a2b 67bc c4cf a1ba d4b7 603b
00000240: 7373 21bd d336 dbbc 9168 153d 3d88 f3ba
00000250: 9318 d43a c8c0 213c 9c56 c8bc 3de1 83ba
00000260: 1d0a ed3c eadc f8bd d624 debc 80c2 3cbd
00000270: 18dd 9eba adf8 0c3c 2c5d 103c 9f61 cb3c
00000280: d45d 20bb 2728 bf3c ac54 81bd 50c8 9a3d
00000290: df63 ba3d a9b1 9abc 88ab f1bc 2248 f73b
000002a0: 9464 2d3c b43e 043c 46e1 81bc a1ae 823c
000002b0: 036f 98bd 3c3a c1bd 6eab 293c 871e 4e3c
000002c0: c148 4ebb 409c 00bc 1330 b33c 8ece a63c
000002d0: ec2a 84bd 7bf6 173e bf9f 98bd 173b 9d3b
000002e0: 0627 263c bbcf 633b d134 5bbc 1320 7237
000002f0: b87b 8fbc f7c0 ad3c 0b0d 81bd 21a2 983c
00000300: 5fc6 093c d32f 6f3c be3c bdbb 0563 e3bc
00000310: dc6e 1cbc 1e01 e7bc 1e9c d2bc edcb 9dbc
00000320: cfb6 b7bc 66c2 e23b ffcd 983b 6e41 cfbc
00000330: 4389 51bc e65b 24bc 3373 dcbb 41e5 c4bc
00000340: edf0 81ba 6b38 b23d 6772 c93b 40d6 a4bb
00000350: 88fc a43c 38d4 883c 4ce4 aeb9 2af0 a7bc
00000360: 7a76 febd c8b3 c73c 23e9 bd3d 5be9 e23b
00000370: 6ba1 7a3c dbd4 1abb 19d1 6f39 40a0 533b
00000380: ad6c 99bc 0973 d63d 6356 1bbe e2df 643d
00000390: ed99 e23b 7131 7ebb 5122 bdbc ebaa 003c
000003a0: 91e5 5c3b c965 aebb 3c23 8d38 3b29 3a3d
000003b0: 41a4 803d 8950 903a 2449 d0bb 352c 143c
000003c0: 8ab1 4bbc 013a 7f3b ed62 6abb b73b 92bd
000003d0: 5830 643d 4db4 0fbe ee9d 6c3b 7724 5ab9
000003e0: b06f eabb 5093 643a edc6 e33b aa6e 6339
000003f0: c781 44bd f9d6 a63d 57bf 363e 5681 a0bc

bias f4 [64]
-0.03700519 0.038056623 0.091067605 -0.019842654 -0.004703281 -0.090912245 -0.05021608 -0.049364515
0.025045613 0.022635246 0.021031778 -0.07562344 0.035775073 0.052271843 -0.013004781 0.031694286
-0.094646454 -0.017179787 0.024548229 0.08923261 0.020408789 -0.02749076 0.02486967 0.070389606
-0.009453184 0.006857637 0.04038049 0.061307713 0.00404522 -0.0844905 -0.09461127 -0.12522061
0.036600728 -0.07141892 -0.047377843 -0.0035272758 -0.0056076776 0.039489727 -0.0015718171 0.06322875
-0.034133866 -0.11173094 0.07452388 -0.022912893 -0.029271299 0.02246558 0.020585896 -0.07070851
-0.006762505 -0.058327463 0.074870184 0.045300294 0.053946264 0.027457707 0.021055378 0.018626546
0.051357534 -0.026717901 0.07123479 0.009313351 0.04290212 -0.05275946 0.03461795 0.044469748
00000000: c192 17bd 43e1 1b3d a781 ba3d 108d a2bc
00000010: fb1d 9abb 3330 babd 60af 4dbd 7232 4abd
00000020: 752c cd3c 8d6d b93c d64a ac3c 76e0 9abd
00000030: e288 123d 001b 563d 0112 55bc ded1 013d
00000040: 00d6 c1bd a0bc 8cbc 5e19 c93c 96bf b63d
00000050: 5530 a73c 4d34 e1bc 7abb cb3c 6d28 903d
00000060: 87e1 1abc 07b6 e03b 0366 253d cc1d 7b3d
00000070: c48d 843b 5b09 adbd 8ec3 c1bd d539 00be
00000080: a5ea 153d 1544 92bd 450f 42bd de29 67bb
00000090: 9cc0 b7bb fbbf 213d 6e05 ceba 137e 813d
000000a0: f4cf 0bbd 31d3 e4bd fa9f 983d d2b3 bbbc
000000b0: 5dca efbc bc09 b83c c1a3 a83c a0cf 90bd
000000c0: 0198 ddbb c7e8 6ebd 8a55 993d cd8c 393d
000000d0: c2f6 5c3d fcee e03c 547c ac3c b396 983c
000000e0: 475c 523d 80df dabc 8ce3 913d 0697 183c
000000f0: 22ba 2f3d 4e1a 58bd 8dcb 0d3d e925 363d

weight f4 [64]
1.0505296 1.0480503 1.074277 0.8962668 1.0029725 1.1148335 0.9698839 0.99611
0.94796336 1.0115376 0.8898826 1.1129165 0.98563844 1.0450191 0.8990476 0.9975284
1.0482942 1.1451507 1.0115954 1.0348845 1.0145612 1.0037409 0.9677693 0.81663764
0.9813161 1.0682713 0.9002232 1.0061545 1.0657886 0.9304055 1.0429423 0.9996346
0.96410596 0.8149331 1.0295355 0.8173984 0.9700334 0.91203487 1.0707825 1.0882626
0.9729326 0.87286985 1.0635203 0.98412853 0.9727729 1.0994346 1.0135679 0.994659
0.9853634 0.9250838 0.95150393 0.9584402 0.9232165 0.92959934 1.099689 0.9440044
0.89141566 0.99071443 1.0007352 1.0366265 1.1052692 0.99174106 1.0047895 0.9478002
00000000: c177 863f 8326 863f e981 893f be71 653f
00000010: 6761 803f ddb2 8e3f 504a 783f 1101 7f3f
00000020: baad 723f 107a 813f 59cf 633f 0c74 8e3f
00000030: cd52 7c3f 30c3 853f fc27 663f 055e 7f3f
00000040: 812e 863f 4c94 923f f57b 813f 1877 843f
00000050: 24dd 813f 957a 803f bbbf 773f 2a0f 513f
00000060: 8837 7b3f 1dbd 883f 0775 663f acc9 803f
00000070: c36b 883f 0e2f 6e3f 227f 853f 0ee8 7f3f
00000080: a6cf 763f 759f 503f d2c7 833f 0641 513f
00000090: 1c54 783f 1e7b 693f 670f 893f 304c 8b3f
000000a0: 1c12 793f 6674 5f3f 6f21 883f d9ef 7b3f
000000b0: a507 793f 46ba 8c3f 98bc 813f f9a1 7e3f
000000c0: c740 7c3f 4bd2 6c3f c395 733f 565c 753f
000000d0: eb57 6c3f 39fa 6d3f 9cc2 8c3f 46aa 713f
000000e0: d133 643f 769f 7d3f 1718 803f 2db0 843f
000000f0: 7679 8d3f bee2 7d3f f19c 803f 09a3 723f

bias f4 [64]
-0.16557346 -0.090418436 -0.21400008 -0.046260905 -0.06761022 -0.18538667 -0.1460071 -0.23557262
-0.08691617 -0.19244067 -0.124063306 -0.08084711 -0.17898494 -0.13454574 -0.18110289 -0.13096654
-0.14933571 -0.08772557 -0.115017936 -0.123843804 -0.1336066 -0.029126696 -0.11186318 -0.16574804
-0.09218643 -0.051351644 -0.14200583 -0.18308759 -0.11725375 -0.07554542 -0.10114852 -0.08475775
-0.15271704 -0.21371648 -0.17621325 -0.09015646 -0.1375486 -0.03988483 -0.2143113 -0.084456064
-0.074336685 -0.2025071 -0.15107279 -0.179361 -0.07027869 -0.052382734 -0.10501733 -0.19598848
-0.04341514 -0.023378637 -0.07689757 -0.08509221 -0.12879124 -0.16917865 -0.1252889 -0.087840706
-0.21084355 -0.05273108 -0.1755896 -0.10210079 -0.19013694 -0.22687882 -0.08251428 -0.15940359
00000000: 178c 29be 4d2d b9bd d622 5bbe 137c 3dbd
00000010: 3a77 8abd 01d6 3dbe e382 15be f339 71be
00000020: 1b01 b2bd 2b0f 45be e714 febd 2b93 a5bd
00000030: d447 37be 5cc6 09be 0973 39be 181c 06be
00000040: 76eb 18be 77a9 b3bd 868e ebbd d2a1 fdbd
00000050: 2bd0 08be 1c9b eebc 8618 e5bd dbb9 29be
00000060: 3dcc bcbd 1a56 52bd fa69 11be 507b 3bbe
00000070: bc22 f0bd 8fb7 9abd f526 cfbd 7995 adbd
00000080: db61 1cbe 7ed8 5abe 3f71 34be f3a3 b8bd
00000090: 8ad9 0cbe 475e 23bd 6c74 5bbe 4df7 acbd
000000a0: d53d 98bd 055e 4fbe d3b2 1abe 69aa 37be
000000b0: 46ee 8fbd 478f 56bd 5313 d7bd 34b1 48be
000000c0: 13d4 31bd 8e84 bfbc 797c 9dbd d344 aebd
000000d0: dae1 03be 2b3d 2dbe bc4b 00be d4e5 b3bd
000000e0: 5fe7 57be 8cfc 57bd c3cd 33be 381a d1bd
000000f0: 42b3 42be ec52 68be 3ffd a8bd b23a 23be

running_mean f4 [64]
-0.038840976 0.02827674 0.101534456 -0.023747789 -0.020068264 -0.092243575 -0.054369897 -0.050543033
0.022340104 0.029347384 0.009456495 -0.07080496 0.043286357 0.052832 -0.018232223 0.032801498
-0.10066716 -0.020649243 0.02987144 0.09029367 0.030121336 -0.027871659 0.01444855 0.07195098
0.0030839331 0.0072421934 0.04448715 0.06744172 0.013476383 -0.07706906 -0.100061215 -0.13282691
0.038515102 -0.07158711 -0.03727516 -0.002462172 -0.014594695 0.037712827 -0.00798401 0.054442238
-0.029797325 -0.10108794 0.08143446 -0.032941733 -0.026629101 0.018930921 0.011319131 -0.058517963
-0.0053249723 -0.06588487 0.06887785 0.042827956 0.06347738 0.023828855 0.012078599 0.01752009
0.042251483 -0.021550622 0.07311306 0.019545138 0.042262617 -0.0540721 0.03972396 0.03992889
00000000: b717 1fbd 9fa4 e73c 4cf1 cf3d b98a c2bc
00000010: 3366 a4bc 33ea bcbd f8b2 5ebd 3606 4fbd
00000020: 9802 b73c ed69 f03c 6aef 1a3c 3102 91bd
00000030: 094d 313d 5e66 583d be5b 95bc dd5a 063d
00000040: 952a cebd 9a28 a9bc f3b4 f43c e3eb b83d
00000050: 05c1 f63c 1b53 e4bc 9cb9 6c3c 095b 933d
00000060: d01b 4a3b ec4f ed3b 2838 363d e21e 8a3d
00000070: 0ccc 5c3c 62d6 9dbd e5ec ccbd c703 08be
00000080: 03c2 1d3d 439c 92bd d7ad 18bd 645c 21bb
00000090: 961e 6fbc c478 1a3d 5dcf 02bc d3fe 5e3d
000000a0: 8519 f4bc 3207 cfbd 1cc7 a63d e9ed 06bd
000000b0: 4625 dabc 0515 9b3c e073 393c 88b0 6fbd
000000c0: 1b7d aebb a6ee 86bd d50f 8d3d 5e6c 2f3d
000000d0: 6e00 823d bb34 c33c 51e5 453c 4b86 8f3c
000000e0: e40f 2d3d ee8a b0bc 4dbc 953d 201d a03c
000000f0: 911b 2d3d b57a 5dbd 97b5 223d 7a8c 233d

running_var f4 [64]
0.18966958 0.19967201 0.227439 0.21366404 0.18623243 0.21625793 0.20111927 0.2035063
0.18998303 0.21795222 0.19933343 0.21086489 0.2068383 0.22090507 0.20791002 0.21362779
0.19740893 0.20444015 0.20573087 0.20671332 0.21152334 0.19214793 0.19299321 0.18495123
0.1988901 0.2092465 0.1737147 0.20315222 0.21743819 0.20076816 0.19531602 0.1982119
0.19460677 0.20275196 0.21327347 0.18827319 0.2155665 0.20143965 0.21968699 0.22796297
0.20266764 0.17376763 0.23662142 0.21796563 0.16802448 0.21987855 0.22310913 0.2018541
0.20790954 0.18110414 0.20558675 0.19058241 0.18386896 0.19558655 0.20732456 0.21368432
0.20598674 0.1986374 0.21465522 0.18417546 0.2615875 0.21979792 0.19847417 0.20702334
00000000: be38 423e d276 4c3e c5e5 683e bfca 5a3e
00000010: b7b3 3e3e b872 5d3e 36f2 4d3e f563 503e
00000020: e98a 423e de2e 5f3e 101e 4c3e f7ec 573e
00000030: 6bcd 533e f034 623e 5de6 543e 3ec1 5a3e
00000040: 9125 4a3e c258 513e 1dab 523e a8ac 533e
00000050: 9399 583e 6dc2 443e 03a0 453e db63 3d3e
00000060: d9a9 4b3e b744 563e 44e2 313e 2307 503e
00000070: 1ea8 5e3e 2b96 4d3e ec00 483e 0ff8 4a3e
00000080: ff46 473e 369e 4f3e 5c64 5a3e b0ca 403e
00000090: 77bd 5c3e 3246 4e3e a0f5 603e 206f 693e
000000a0: 1b88 4f3e 24f0 313e e34c 723e 6232 5f3e
000000b0: 9c0e 2c3e d827 613e b876 643e d7b2 4e3e
000000c0: 3de6 543e 5d73 393e 5585 523e 0928 433e
000000d0: 2548 3c3e d747 483e e44c 543e 10d0 5a3e
000000e0: 30ee 523e 9a67 4b3e 94ce 5b3e 7e98 3c3e
000000f0: ccee 853e b512 613e d03c 4b3e edfd 533e

weight f4 [64, 64, 3, 3]
0.013645366 -0.015372731 -0.016659494 -0.0010343665 -0.0023559574 -0.07143342 -0.042945836 0.0024030244
-0.0713949 -0.044218574 0.010563146 -0.024106847 -0.002247585 -0.009825079 -0.011100596 -0.10079235
-0.016625762 -0.10441577 -0.09344125 -0.034954276 -0.086120866 -0.06538823 -0.025795523 -0.0009775538
0.022446146 -0.010961799 -0.017734189 -0.1376278 -0.035567388 -0.15338944 -0.05327907 -0.024264906
-0.02210278 -0.02266132 0.02836731 -0.051532526 -0.080089994 -0.04642204 -0.1381783 -0.0012939825
-0.019817384 -0.08710806 0.018767698 0.015038059 -0.080089666 -0.0599866 -0.036159456 -0.07757047
-0.00092303974 -0.017308414 -0.010722408 -0.038860146 0.026262736 0.0037934678 -0.07938577 -0.013853323
-0.021134734 -0.055563398 0.014716229 -0.034684837 -0.0043441607 -0.012021983 -0.049268514 0.06293673
0.022495974 -0.04085748 -0.12237658 -0.07544852 -0.03059166 0.015387493 -0.020321283 -0.04565641
-0.049220234 -0.019226227 -0.057610795 -0.02253583 0.023358976 -0.046968628 -0.04482949 0.017372575
-0.0238722 -0.03566447 -0.0057846815 -0.06189305 -0.062668994 -0.009517957 -0.043217815 -0.055484507
-0.0053464035 -0.06663034 -0.07838162 -0.052151233 -0.05342718 -0.058624763 -0.083385505 -0.061697975
-0.024285456 0.00057328946 -0.07301473 -0.102392584 -0.072553456 -0.14175884 -0.019178823 0.013136277
-0.03303596 -0.014079352 0.014114731 -0.06609102 -0.017773675 -0.0037336983 -0.058340125 -0.05460702
-0.04545985 -0.054905325 -0.04662006 0.019513568 -0.079636596 0.0833786 -0.012551337 -0.058770116
-0.013476994 -0.02630361 -0.050756134 0.0076182634 0.024062656 -0.07623182 -0.011338024 -0.017921185
-0.01873903 -0.08846904 0.022686552 -0.04384938 0.000946615 -0.056354105 -0.07196135 -0.002024894
-0.03219924 -0.020516813 -0.011297309 0.010667963 -0.016592152 -0.05429917 -0.026783027 -0.13759023
0.02256876 0.03249668 -0.09508191 -0.062779546 -0.01811285 -0.05175685 -0.01553048 -0.018948546
-0.090624705 -0.07882996 -0.06476794 -0.1124219 -0.045734834 -0.027313124 -0.041700255 -0.026139017
-0.010325854 -0.03993813 -0.047464505 -0.020719483 -0.054146953 0.01896825 -0.0024358546 -0.012597561
-0.003940569 0.016512638 -0.055275384 -0.055997215 -0.009256882 0.02030888 0.014164911 -0.03975758
-0.021562899 -0.04853565 -0.05290662 -0.12559101 -0.07059429 -0.058206294 -0.077731624 0.020709371
-0.0083415285 -0.055996586 -0.012570534 0.02856166 -0.03740754 -0.14907515 -0.0700893 -0.094979644
-0.047818247 0.0050298693 -0.029828515 -0.022854019 -0.06291154 0.017257705 -0.05551137 -0.06045998
-0.088716485 -0.0046878145 -0.050737496 -0.06345823 0.03422229 0.0036199323 -0.0035931298 -0.034641564
-0.04699315 -0.047192357 -0.060315747 -0.0076395916 -0.09237776 -0.031092694 -0.013048019 -0.03022586
-0.0450268 -0.023099156 -0.08355088 -0.007421942 -0.040374644 -0.07304713 -0.016881144 -0.02587971
-0.065139845 -0.070630595 -0.019474005 -0.06585989 0.015251823 0.0045550196 -0.060425937 -0.065750845
-0.049785916 -0.120525144 -0.07754553 0.0033570924 -0.053570308 -0.025613474 -0.027656816 -0.025604472
-0.03503849 0.0012507517 -0.040601924 0.012974148 -0.042265162 -0.034927737 -0.03690602 -0.0327291
-0.06927438 -0.016735721 -0.065298185 -0.07188887 -0.06708107 -0.06282056 -0.11706105 0.029019095
00000000: d090 5f3c e8dd 7bbc 7e79 88bc 9593 87ba
00000010: 6866 1abb af4b 92bd f9e7 2fbd 0f7c 1d3b
00000020: 7d37 92bd 891e 35bd 0c11 2d3c b97b c5bc
00000030: 384c 13bb 5ef9 20bc 46df 35bc 386c cebd
00000040: c032 88bc efd7 d5bd 205e bfbd 372c 0fbd
00000050: 2360 b0bd 44ea 85bd 2251 d3bc 4321 80ba
00000060: fbe0 b73c 1e99 33bc 4a47 91bc 4dee 0cbe
00000070: 1caf 11bd 1f12 1dbe 273b 5abd 32c7 c6bc
00000080: e410 b5bc 3ca4 b9bc 9062 e83c c513 53bd
00000090: 3906 a4bd 0925 3ebd 9d7e 0dbe d99a a9ba
000000a0: 1158 a2bc b665 b2bd b7be 993c 3162 763c
000000b0: 0d06 a4bd 82b4 75bd f01b 14bd 44dd 9ebd
000000c0: 26f8 71ba 60ca 8dbc 0aad 2fbc d12b 1fbd
000000d0: f324 d73c d49b 783b 0295 a2bd 0cf9 62bc
000000e0: c022 adbc 7296 63bd 571c 713c b011 0ebd
000000f0: 7659 8ebb daf7 44bc c8cd 49bd f9e4 803d
00000100: 7a49 b83c 2c5a 27bd 93a0 fabd c184 9abd
00000110: 5c9b fabc d31b 7c3c d278 a6bc 3702 3bbd
00000120: 289b 49bd 5280 9dbc 4cf9 6bbd 109d b8bc
00000130: 535b bf3c 2d62 40bd 219f 37bd ee50 8e3c
00000140: a28f c3bc e814 12bd 6d8d bdbb 9183 7dbd
00000150: 9a58 80bd 35f1 1bbc 2a05 31bd b943 63bd
00000160: e230 afbb 7d75 88bd 8b86 a0bd 889c 55bd
00000170: 75d6 5abd 8520 70bd 05c6 aabd 04b7 7cbd
00000180: 4bf2 c6bc ce48 163a bf88 95bd 34b3 d1bd
00000190: e896 94bd 3b29 11be e81c 9dbc 8a39 573c
000001a0: b750 07bd 15ad 66bc 7941 673c bb5a 87bd
000001b0: 199a 91bc 10b1 74bb 0ef6 6ebd 9cab 5fbd
000001c0: 1c34 3abd 68e4 60bd adf4 3ebd ebda 9f3c
000001d0: 8318 a3bd 66c2 aa3d 1fa4 4dbc efb8 70bd
000001e0: 9cce 5cbc ab7a d7bc aae5 4fbd a0a2 f93b
000001f0: 0c1f c53c 6e1f 9cbd 1fc3 39bc 73cf 92bc
00000200: 9882 99bc 422f b5bd 26d9 b93c 689b 33bd
00000210: 4226 783a 90d3 66bd 7960 93bd 16b4 04bb
00000220: 5ae3 03bd e012 a8bc 5918 39bc aec8 2e3c
00000230: 44ec 87bc ce68 5ebd 1468 dbbc 74e4 0cbe
00000240: 1fe2 b83c 3d1b 053d 4eba c2bd 9092 80bd
00000250: 6661 94bc fefe 53bd 8e73 7ebc fb39 9bbc
00000260: 7299 b9bd 9a71 a1bd 0ea5 84bd 743d e6bd
00000270: 7354 3bbd c6bf dfbc e3cd 2abd 7e21 d6bc
00000280: c52d 29bc 2a96 23bd 246a 42bd e8bb a9bc
00000290: 32c9 5dbd 4e63 9b3c dca2 1fbb 0066 4ebc
000002a0: e31f 81bb 8345 873c 7168 62bd 565d 65bd
000002b0: 2daa 17bc cf5e a63c f113 683c d8d8 22bd
000002c0: ada4 b0bc 51cd 46bd 9db4 58bd ee9a 00be
000002d0: bd93 90bd b969 6ebd c231 9fbd b3a6 a93c
000002e0: e8aa 08bc ad5c 65bd a4f4 4dbc 24fa e93c
000002f0: a638 19bd 28a7 18be fb8a 8fbd b084 c2bd
00000300: 11dd 43bd 9ad1 a43b ee5a f4bc 5a38 bbbc
00000310: c4d7 80bd 0860 8d3c e45f 63bd e2a4 77bd
00000320: fdb0 b5bd 3d9c 99bb 1fd2 4fbd 63f6 81bd
00000330: ac2c 0c3d 633c 6d3b b77a 6bbb 50e4 0dbd
00000340: e47b 40bd c64c 41bd a50d 77bd 8a55 fabb
00000350: 8d30 bdbd 1bb6 febc 5cc7 55bc 399c f7bc
00000360: 066e 38bd 713a bdbc b91c abbd c333 f3bb
00000370: e25f 25bd bc99 95bd 534a 8abc b001 d4bc
00000380: 0a68 85bd c6a6 90bd f387 9fbc 8de1 86bd
00000390: c8e2 793c 4642 953b 3081 77bd 61a8 86bd
000003a0: 51ec 4bbd e3d5 f6bd 31d0 9ebd aa02 5c3b
000003b0: 8a6c 5bbd 59d3 d1bc 8c90 e2bc 78c0 d1bc
000003c0: 8584 0fbd 43f0 a33a 344e 26bd 8591 543c
000003d0: 3c1e 2dbd 6310 0fbd c42a 17bd f30e 06bd
000003e0: badf 8dbd 5a19 89bc 0ebb 85bd 793a 93bd
000003f0: cd61 89bd 11a8 80bd b4bd efbd 74b9 ed3c

bias f4 [64]
-0.24072078 0.00551938 -0.2141138 0.031560093 0.036566693 0.0856087 0.058543056 -0.068816744
0.046056602 0.082727894 -0.23756918 -0.07485445 -0.08747024 0.046617523 -0.107597165 0.03309203
-0.088050745 0.12196371 -0.004743366 0.0069453786 0.10404264 -0.15367764 -0.011880593 0.075951755
-0.08264311 0.02207629 0.024429077 -0.023692697 0.028233605 0.02023209 0.004786129 -0.016081445
0.11128354 0.036857538 0.076969 0.0470198 -0.12761067 0.10442303 0.0055484264 -0.002838866
-0.18864964 -0.14629172 -0.047513176 -0.03930883 -0.06374131 0.026796686 -0.0219099 -0.15446241
-0.15406416 -0.047133554 0.022442909 0.0155608 0.024960842 -0.01706514 0.115525715 0.12849644
0.022786202 -0.11359295 0.020342084 0.04851005 -0.004897002 0.015101612 -0.03571891 0.023213428
00000000: 827f 76be eadb b43b a640 5bbe 2845 013d
00000010: f5c6 153d 9d53 af3d d8ca 6f3d cbef 8cbd
00000020: d9a5 3c3d 3e6d a93d 5645 73be 4a4d 99bd
00000030: 9923 b3bd 04f2 3e3d e75b dcbd 828b 073d
00000040: f353 b4bd 1cc8 f93d 3d6e 9bbb 0f96 e33b
00000050: 4f14 d53d ac5d 1dbe d2a6 42bc 988c 9b3d
00000060: ca40 a9bd 56d9 b43c 7d1f c83c 3017 c2bc
00000070: 294a e73c c5bd a53c f6d4 9c3b 3cbd 83bc
00000080: a0e8 e33d eef7 163d eca1 9d3d d597 403d
00000090: 5fac 02be bedb d53d 93cf b53b 450c 3abb
000000a0: 5f2d 41be 7fcd 15be 2d9d 42bd 4c02 21bd
000000b0: ce8a 82bd b984 db3c 647c b3bc 652b 1ebe
000000c0: ffc2 1dbe 1d0f 41bd 31da b73c baf2 7e3c
000000d0: ae7a cc3c 31cc 8bbc bf98 ec3d 9294 033e
000000e0: 21aa ba3c 6ca3 e8bd 71a4 a63c 79b2 463d
000000f0: 0877 a0bb c06c 773c fe4d 12bd 162a be3c

weight f4 [64]
1.569107 1.1258556 1.5295404 1.228944 1.0541397 1.1163718 1.212946 1.16374
1.2266837 1.1807877 1.5512301 1.3697996 1.3651636 1.261577 1.2134472 1.1807749
1.2690423 1.2000941 1.1328675 1.0937164 1.2759221 1.4567052 1.2009047 1.0896078
1.2474958 1.1304599 1.2301778 1.1923797 1.1757573 1.2276565 1.355422 1.1619452
1.1794189 1.1284779 1.1201392 1.195504 1.3516693 1.1954734 1.1906496 1.0994647
1.5574641 1.4450928 1.1673306 1.059905 1.2158225 1.1890881 1.210996 1.3064373
1.4693788 1.2128028 1.2687798 1.2010852 1.1881349 1.0912402 1.292379 1.2866509
1.2835145 1.2723682 1.1563221 1.2496098 1.281924 1.1031703 1.1583524 1.152867
00000000: 80d8 c83f 091c 903f fbc7 c33f 094e 9d3f
00000010: 0dee 863f 45e5 8e3f d141 9b3f 6ff5 943f
00000020: f903 9d3f 0d24 973f b58e c63f 9855 af3f
00000030: aebd ae3f 5b7b a13f 3d52 9b3f a223 973f
00000040: fa6f a23f af9c 993f cd01 913f e6fe 8b3f
00000050: 6a51 a33f 5175 ba3f 3fb7 993f 4578 8b3f
00000060: f1ad 9f3f e9b2 903f 7776 9d3f e69f 983f
00000070: 377f 963f d923 9d3f 787e ad3f 9fba 943f
00000080: 33f7 963f f771 903f b960 8f3f 4606 993f
00000090: 8003 ad3f 4605 993f 3567 983f 42bb 8c3f
000000a0: fc5a c73f cdf8 b83f 176b 953f f8aa 873f
000000b0: 12a0 9b3f 0a34 983f eb01 9b3f 5639 a73f
000000c0: 9b14 bc3f 1f3d 9b3f 6067 a23f 29bd 993f
000000d0: ce14 983f c2ad 8b3f ad6c a53f fab0 a43f
000000e0: 344a a43f f6dc a23f 5d02 943f 37f3 9f3f
000000f0: 1616 a43f af34 8d3f e444 943f 2591 933f

bias f4 [64]
0.0230633 -0.010662315 0.052173395 0.10723793 0.06509835 -0.021920979 0.072989546 0.040836502
0.0138234245 0.050154384 -0.019651879 0.011466157 -0.1685743 -0.015139642 0.08487063 0.13531299
-0.0243819 0.07975285 0.01705923 0.05521531 0.03147897 0.06996492 0.017664542 0.0007557735
0.11557284 0.019018728 0.060583733 0.06286748 0.019925099 0.10484227 -0.11153504 0.026060628
0.049307104 -0.005415606 0.019290673 0.10816816 0.080671415 0.1344292 0.05462416 0.0843402
0.0017922977 -0.16880241 0.1124531 0.048353687 0.12682725 0.055886477 -0.010182589 0.025202546
-0.12673086 0.10297656 0.061417773 -0.003907062 0.10847935 0.100021765 0.040154662 -0.07298472
0.07033536 0.058682606 0.11554179 0.026259897 0.018548789 0.056475725 0.012536637 0.026223417
00000000: 3fef bc3c feb0 2ebc c5b3 553d 8f9f db3d
00000010: 4952 853d a093 b3bc 8b7b 953d 2d44 273d
00000020: a57b 623c af6e 4d3d fafc a0bc 8cdc 3b3c
00000030: be9e 2cbe 430c 78bc a7d0 ad3d 7d8f 0a3e
00000040: 8dbc c7bc 7655 a33d ccbf 8b3c 7329 623d
00000050: 18f0 003d c549 8f3d 3bb5 903c 1a1f 463a
00000060: 74b1 ec3d 2acd 9b3c a626 783d aac0 803d
00000070: f639 a33c 8bb7 d63d 7c6c e4bd 197d d53c
00000080: 3ff6 493d 6575 b1bb 7907 9e3c 4587 dd3d
00000090: 0e37 a53d cfa7 093e 95bd 5f3d 8eba ac3d
000000a0: 88eb ea3a 8ada 2cbe d04d e63d 840e 463d
000000b0: 01df 013e 38e9 643d e0d4 26bc 9275 ce3c
000000c0: bcc5 01be 60e5 d23d 3491 7b3d d006 80bb
000000d0: 6c2a de3d 36d8 cc3d 3779 243d 0379 95bd
000000e0: fc0b 903d 2c5d 703d 2da1 ec3d ff1e d73c
000000f0: a1f3 973c 1753 673d 7766 4d3c 7ed2 d63c

running_mean f4 [64]
-5.7604094 0.67046416 -4.305783 -1.0304309 0.2675232 0.6040903 0.59483993 -1.954413
0.8454371 1.978074 -5.1104817 -1.9124267 -3.4614804 2.8263755 -1.1678349 0.4409135
-2.0121226 0.953203 0.06450695 -0.06845675 -0.08804859 -5.1063924 -0.37918368 0.49362147
-1.5592853 -0.7977381 -0.49287778 1.9456269 -0.27328682 0.6717636 -1.0462978 -0.32818347
1.2482862 -0.12264071 0.7784142 0.36221734 -1.2975154 1.0685673 -0.3884709 0.41512635
-5.4818797 -3.3647435 -1.763708 -0.3280433 -0.9182662 -0.869855 -2.5683208 -2.736
-3.807278 -0.6753808 1.5119764 3.4729738 0.44770843 -0.8554121 3.7470315 2.9873712
2.7893152 -3.0549457 -0.06647504 0.16522586 -1.6510621 1.39912 -1.1770056 1.632821
00000000: 4655 b8c0 8aa3 2b3f f9c8 89c0 29e5 83bf
00000010: cdf8 883e a9a5 1a3f 6e47 183f 352a fabf
00000020: 916e 583f 8731 fd3f 1189 a3c0 66ca f4bf
00000030: e588 5dc0 56e3 3440 9d7b 95bf 6abf e13e
00000040: 9ec6 00c0 1d05 743f 381c 843d 0d33 8cbd
00000050: d252 b4bd 9167 a3c0 5d24 c2be f4bb fc3e
00000060: a996 c7bf 9038 4cbf 7a5a fcbe 4d0a f93f
00000070: 40ec 8bbe b3f8 2b3f 16ed 85bf aa07 a8be
00000080: d8c7 9f3f 0d2b fbbd 2746 473f 8d74 b93e
00000090: fc14 a6bf d0c6 883f a8e5 c6be 718b d43e
000000a0: 8f6b afc0 f557 57c0 2fc1 e1bf 4bf5 a7be
000000b0: 7e13 6bbf d1ae 5ebf 5e5f 24c0 a01a 2fc0
000000c0: 71aa 73c0 c2e5 2cbf 7188 c13f 3445 5e40
000000d0: 0a3a e53e 4afc 5abf 5dcf 6f40 1731 3f40
000000e0: 2484 3240 3b84 43c0 1124 88bd f830 293e
000000f0: 0156 d3bf 5d16 b33f 1fa8 96bf 4700 d13f

running_var f4 [64]
4.418472 1.5058994 2.801009 1.2504318 0.8843016 1.1839125 2.1341255 1.6337785
0.8277856 1.8401397 3.5223424 1.2012137 2.0389504 2.3324883 1.8778762 1.3111465
1.2953283 1.2349054 1.0534886 1.3571913 1.0299926 3.478909 1.759275 1.1391058
2.2833803 1.0548948 1.8975252 1.9276974 1.4169873 1.3023423 2.06542 1.29895
2.0376713 1.3397895 1.0936282 1.624696 1.6261358 1.0863322 1.3535483 1.5681165
4.029148 1.9826484 1.685164 1.2908722 1.3044003 1.0944092 1.6990708 1.7760253
2.189113 1.715384 1.4718146 2.1216798 1.0993664 1.0814563 2.2710853 1.7033948
1.5630002 1.9796457 1.0546687 1.0264398 1.6204717 1.6916773 1.9596621 2.303364
00000000: 1f64 8d40 50c1 c03f bb43 3340 260e a03f
00000010: 9761 623f 728a 973f 8395 0840 a71f d13f
00000020: c2e9 533f b389 eb3f 0f6e 6140 5fc1 993f
00000030: 2a7e 0240 7d47 1540 3f5e f03f a6d3 a73f
00000040: 51cd a53f 6111 9e3f b7d8 863f 72b8 ad3f
00000050: ccd6 833f 72a6 5e40 ec2f e13f 38ce 913f
00000060: e722 1240 cb06 873f 1be2 f23f cabe f63f
00000070: d75f b53f 27b3 a63f d72f 0440 fe43 a63f
00000080: 3569 0240 397e ab3f 02fc 8b3f 0af6 cf3f
00000090: 3825 d03f ef0c 8b3f 1241 ad3f 0bb8 c83f
000000a0: c8ee 8040 6cc7 fd3f 74b3 d73f 4d3b a53f
000000b0: 97f6 a63f 9a15 8c3f 277b d93f cc54 e33f
000000c0: 6d1a 0c40 b491 db3f 6c64 bc3f 9ac9 0740
000000d0: 0ab8 8c3f 296d 8a3f 7659 1140 d708 da3f
000000e0: 6410 c83f 0865 fd3f 62ff 863f 6162 833f
000000f0: 9e6b cf3f e288 d83f 35d6 fa3f 516a 1340

weight f4 [15, 64, 3, 3]
-0.068758376 0.03873639 -0.039083984 -0.14828396 -0.03818309 -0.12644704 -0.11014893 -0.04133523
-0.1260365 0.091289446 0.09936478 0.1067638 -0.010933859 0.040677175 0.07877776 0.1286579
0.049474176 0.15359679 -0.012563442 -0.02458473 -0.008200162 -0.2034185 -0.13309725 -0.12792587
-0.13916959 -0.12887996 -0.12588514 0.037208308 -0.06415952 -0.014836225 -0.16681787 -0.12389679
-0.024537247 -0.14425531 -0.04749988 -0.010937344 0.025709433 -0.07645822 0.0034245078 -0.022194244
-0.01726633 0.0070378864 -0.021850716 0.022993617 -0.014752886 0.10702532 -0.020008758 0.06621066
0.08625428 0.034674414 0.03390242 0.06924042 0.012990588 0.047022346 -0.0047947653 -0.003814558
-0.01243057 0.094665386 0.04011716 -0.02261351 0.07872387 0.06619073 0.08289655 0.017157745
-0.047783546 -0.14495677 -0.06919728 -0.07231332 0.0110839205 -0.13051277 -0.058913507 -0.10877328
0.06489654 -0.08008756 0.041115217 -0.038544886 0.10976571 0.03150933 -0.30249017 -0.17481546
-0.25914007 0.081638746 0.095869265 0.07096372 0.01253004 0.032271195 0.051323008 0.11530627
0.078203164 0.027560446 -0.028472446 0.019230131 -0.040027697 0.09264952 0.055271078 0.0519631
-0.12670937 -0.1612652 -0.046766773 0.024717243 -0.00419357 -0.013533976 0.02318132 0.016401226
-0.0068519376 0.10310535 0.05979901 0.08703895 -0.15188955 -0.070762254 -0.10042675 -0.0616477
-0.021119224 0.04207972 -0.16231261 -0.090872616 0.010093041 -0.15596418 -0.0498271 -0.035398934
-0.09730363 -0.009284435 0.05481391 -0.20826879 -0.03390538 0.018080574 -0.18598339 -0.1181336
-0.04417129 -0.22348583 0.022163453 -0.029262668 0.03256919 0.06756034 0.078445725 -0.024807699
-0.021201268 -0.009989826 -0.14426641 -0.03640959 -0.039661158 -0.22765395 -0.13815512 -0.16123728
0.046576563 -0.008311234 0.022349436 -0.09120863 -0.025246682 -0.02796917 -0.064875774 -0.10943255
-0.10136686 -0.027734421 0.012637571 -0.019007077 0.025602192 -0.0136169335 -0.033833496 -0.26379338
-0.18137491 -0.14360714 0.128234 0.030477574 0.10577333 0.10012054 0.004880462 -0.029109802
-0.12570071 0.07008074 0.007332937 0.04464319 -0.0028838823 0.01237012 -0.11408011 -0.01450633
-0.011292852 -0.1849665 -0.019127686 -0.08142874 0.01196756 -0.003361907 0.08945982 -0.099832624
0.043376524 0.09759913 -0.07874886 -0.03512994 -0.034886666 -0.124810725 0.076518424 -0.0981106
-0.12924957 -0.032359954 0.037149064 -0.09518727 -0.0573164 -0.03390177 0.09860945 0.017229492
-0.022483794 0.0774667 0.022992244 -0.018399429 -0.1575321 -0.041923534 -0.07899615 0.09850487
0.02965561 0.06319399 0.07730048 0.034862984 0.068804726 -0.013664882 -0.008519559 -0.02475676
-0.17617226 -0.07929295 -0.021038115 -0.0392157 -0.027405959 -0.06134901 0.090858735 0.025110206
0.12318981 -0.085038126 0.02016597 0.00965316 -0.1513557 -0.0071630403 0.038129143 -0.1156527
-0.018215619 -0.017892582 -0.070097 -0.036094688 -0.020358898 -0.03626506 0.094198585 0.046634443
-0.12331236 -0.07478176 -0.23282836 -0.14405489 -0.076827265 -0.17484559 -0.07459018 -0.11870192
-0.055465054 -0.12139527 -0.120694645 -0.12845202 0.07754436 0.029349728 0.10240958 0.1193937
00000000: 31d1 8cbd 0daa 1e3d 8716 20bd c0d7 17be
00000010: df65 1cbd 557b 01be c395 e1bd 214f 29bd
00000020: b60f 01be f6f5 ba3d c37f cb3d fba6 da3d
00000030: ee23 33bc 1c9d 263d 3c56 a13d e6be 033e
00000040: 6fa5 4a3d 7a48 1d3e e5d6 4dbc ea65 c9bc
00000050: f959 06bc f04c 50be a54a 08be 00ff 02be
00000060: 7982 0ebe 1cf9 03be 09e8 00be bd67 183d
00000070: 1166 83bd a313 73bc 4ed2 2abe 9abd fdbd
00000080: 5602 c9bc aab7 13be 3c8f 42bd 8c32 33bc
00000090: 979c d23c 2196 9cbd b56d 603b b4d0 b5bc
000000a0: 1e72 8dbc 129e e63b 4600 b3bc 1c5d bc3c
000000b0: 17b6 71bc 1730 db3d 68e9 a3bc 7499 873d
000000c0: 15a6 b03d c206 0e3d 44dd 0a3d eccd 8d3d
000000d0: 7ad6 543c 819a 403d 681d 9dbb aafd 79bb
000000e0: 97a9 4bbc eddf c13d e451 243d f83f b9bc
000000f0: fb39 a13d 018f 873d abc5 a93d 668e 8c3c
00000100: aeb8 43bd 8c6f 14be 4eb7 8dbd 0219 94bd
00000110: 5599 353c 24a5 05be 4a4f 71bd 87c4 debd
00000120: 7ae8 843d f204 a4bd 6e68 283d 3ee1 1dbd
00000130: d8cc e03d ed0f 013d fedf 9abe d302 33be
00000140: 02ae 84be 3732 a73d 1b57 c43d 6d55 913d
00000150: cc4a 4d3c cd2e 043d 1338 523d b225 ec3d
00000160: fb28 a03d 72c6 e13c 0c3f e9bc 8288 9d3c
00000170: 15f4 23bd 08bf bd3d ed63 623d 42d7 543d
00000180: 1ac0 01be b422 25be 848e 3fbd d17b ca3c
00000190: 376a 89bb 9cbd 5dbc c0e6 bd3c dd5b 863c
000001a0: 3886 e0bb e628 d33d cfef 743d 7a41 b23d
000001b0: ef88 1bbe cdeb 90bd 8aac cdbd 4c82 7cbd
000001c0: 3902 adbc c95b 2c3d 4735 26be 6c1b babd
000001d0: 485d 253c 13b5 1fbe 8017 4cbd 79fe 10bd
000001e0: 2047 c7bd be1d 18bc 8d84 603d 6a44 55be
000001f0: 5ee0 0abd b61d 943c 6e72 3ebe 07f0 f1bd
00000200: f4ec 34bd 78d9 64be 2190 b53c 43b8 efbc
00000210: 4567 053d 135d 8a3d 27a8 a03d 8439 cbbc
00000220: 48ae adbc 5eac 23bc 93ba 13be 3922 15bd
00000230: bd73 22bd 1e1e 69be 8978 0dbe 631b 25be
00000240: 11c7 3e3d d82b 08bc 2a16 b73c 97cb babd
00000250: 21d2 cebc 9a1f e5bc 97dd 84bd 2c1e e0bd
00000260: 6e99 cfbd 4c33 e3bc d10d 4f3c bbb4 9bbc
00000270: b0bb d13c 8f19 5fbc fe94 0abd ed0f 87be
00000280: 58ba 39be c00d 13be c64f 033e 1bac f93c
00000290: b09f d83d ff0b cd3d 48ec 9f3b ae77 eebc
000002a0: b0b7 00be 7e86 8f3d 2249 f03b c7db 363d
000002b0: 84ff 3cbb 0bac 4a3c d5a2 e9bd f5ab 6dbc
000002c0: a805 39bc dc67 3dbe aab1 9cbc 1cc4 a6bd
000002d0: 9613 443c 7153 5cbb b636 b73d 0c75 ccbd
000002e0: 95ab 313d 0de2 c73d 1547 a1bd 69e4 0fbd
000002f0: 52e5 0ebd c49c ffbd b1b5 9c3d 36ee c8bd
00000300: 005a 04be df8b 04bd 9e29 183d 8bf1 c2bd
00000310: 9ac4 6abd 95dc 0abd c0f3 c93d dd24 8d3c
00000320: ef2f b8bc dca6 9e3d 3b5a bc3c 66ba 96bc
00000330: 1850 21be 03b8 2bbd bcc8 a1bd ecbc c93d
00000340: 52f0 f23c da6b 813d b74f 9e3d 7dcc 0e3d
00000350: 7ee9 8c3d abe2 5fbc 9f95 0bbc b0ce cabc
00000360: 8066 34be 5864 a2bd 2058 acbc a4a0 20bd
00000370: 7682 e0bc 1949 7bbd 2514 ba3d ebb3 cd3c
00000380: f04a fc3d 7828 aebd 1b33 a53c 4a28 1e3c
00000390: fdfc 1abe f0b7 eabb 4e2d 1c3d 53db ecbd
000003a0: ec38 95bc 7793 92bc 048f 8fbd 06d8 13bd
000003b0: b4c7 a6bc ac8a 14bd 30eb c03d c203 3f3d
000003c0: 318b fcbd 2e27 99bd 8f6a 6ebe 2083 13be
000003d0: 9d57 9dbd b90a 33be bcc2 98bd fe19 f3bd
000003e0: 532f 63bd 159e f8bd c12e f7bd ed88 03be
000003f0: 94cf 9e3d d76e f03c 1dbc d13d af84 f43d

bias f4 [15]
-0.021302495 0.08187269 -0.028242098 -0.051996086 -0.058514327 -0.050676037 -0.02983303 0.021911032
0.009482696 -0.04130633 -0.07527932 -0.0056759804 -0.056152888 -0.03657371 -0.072181836
00000000: 9282 aebc deac a73d f95b e7bc d9f9 54bd
00000010: b8ac 6fbd ad91 4fbd 6664 f4bc c47e b33c
00000020: 4f5d 1b3c d430 29bd 0b2c 9abd 93fd b9bb
00000030: 9200 66bd 51ce 15bd 12d4 93bd

weight f4 [64, 15, 3, 3]
-0.096710116 -0.045012042 -0.01601383 -0.054983556 0.015120234 0.014004852 0.0246711 -7.6822034e-05
-0.054496817 -0.006333221 -0.00046407044 -0.0062528634 0.038170375 0.022446187 -0.024247801 0.078669645
0.008644765 -0.042110547 -0.011200271 -0.005389573 0.011629786 -0.0005890586 0.02591203 0.009223575
0.009872436 0.00017076769 0.0016307043 0.04419187 0.01034298 0.037654884 0.02116815 -0.03432756
0.0039065625 -0.020496303 -0.016007224 0.036406297 -0.0025045404 0.0037689689 0.007016816 -0.00021057801
0.004676052 0.004729346 0.010770244 0.004320768 0.00042563654 0.020784007 0.020797385 0.020289974
0.016375745 -0.004323281 0.015368848 -0.009346565 0.015877776 0.006663669 -0.030531945 0.0012186235
-0.0006037976 -0.04142018 -0.015406432 -0.013787989 -0.013752396 -0.04051006 -0.0110535165 -0.035869554
0.024495365 0.0020862853 -0.08415052 0.025782743 0.01546187 -0.08662171 0.027602077 0.079161465
-0.02115264 -0.03609725 0.01364237 -0.03404265 -0.050540622 0.016712368 -0.0062357676 0.03721087
-0.0038420572 0.022557855 -0.036810424 0.03587198 -0.030307733 -0.095481455 -0.008057858 0.010264529
-0.0006445724 0.0048747063 -0.0035169444 0.007865906 -0.00060796796 0.0440776 -0.014545598 0.00017887726
0.050393935 0.017342007 0.028553713 0.028910816 -0.06912929 -0.07059732 0.04096627 -0.03770572
-0.011148525 -0.010416174 -0.017458653 0.046345215 -0.017942842 0.029327188 0.027846236 0.00017203177
-0.08283941 -0.021314234 -0.00084998127 -0.024143485 -0.021848513 -0.044640828 0.0038124595 0.1071047
-0.051665902 -0.021896496 0.05548041 -0.019670224 0.0014309358 -4.9579096e-05 -0.047227826 0.025210297
-0.023509925 -0.009247864 -0.014394486 -0.015131128 0.01278222 -0.022721471 -0.026765227 -0.0071120304
-0.01508119 -0.029183628 0.024001181 0.033839922 -0.0048264707 0.035973515 0.015098915 -0.03658007
-0.012293923 0.01795451 0.0069801235 0.015641754 -0.004694228 -0.007553447 0.05699379 0.029074885
0.05278679 -0.011641579 -0.0032442308 -0.010836124 -0.002308556 -0.008804406 0.02298099 0.017152663
0.016505262 -0.0020777253 0.046625502 0.059389092 0.11300956 -0.007892048 0.0127798105 0.06949177
-0.0639752 -0.021993173 -0.03167801 -0.0042404025 0.014747649 -0.01759895 -0.011929097 0.008725784
0.010485871 -0.003527947 -0.0003311282 0.013309904 -0.015021294 0.032523915 0.010620343 -0.021533987
0.00603099 -0.043459866 -0.0055890786 0.030824276 -0.003071367 -0.039100517 -0.036392715 -0.017449811
0.019919315 -0.029171191 -0.018825406 0.016946826 0.03180884 0.018913312 0.02739947 0.03948564
-0.012379449 0.01958121 0.036321647 0.016785968 -0.05984443 -0.09001953 -0.020292614 -0.0154358875
-0.027664443 -0.046087407 0.04729172 0.004391601 0.011488873 0.014455229 0.010755421 0.025359767
0.024292173 -0.0027130803 0.047247242 -0.005674628 -0.06374654 0.08969182 -0.02494232 -0.013948936
0.10058999 -0.08002842 -0.03691346 -0.063378215 0.019104756 -0.0098225735 -0.04143583 0.040855438
0.021809042 0.016213555 0.0016074318 0.0528999 0.015681915 -0.030485746 0.0015662321 -0.03991494
0.03270948 0.03470225 -0.009426272 -0.09123405 -0.010019093 0.024513716 -0.022068568 0.030153006
0.046078313 0.022235917 -0.03110008 -0.031208342 0.012841586 0.025560947 0.070781596 0.014294206
00000000: f40f c6bd 8c5e 38bd 702f 83bc 7036 61bd
00000010: dcba 773c 9b74 653c 0c1b ca3c 841b a1b8
00000020: 0e38 5fbd e986 cfbb 7b4e f3b9 d2e4 ccbb
00000030: 8a58 1c3d 11e1 b73c 53a3 c6bc 8d1d a13d
00000040: c6a2 0d3c 1c7c 2cbd 5781 37bc 049b b0bb
00000050: dc8a 3e3c 0e6b 1aba 7745 d43c 7a1e 173c
00000060: ffbf 213c 1a10 3339 5bbd d53a 8902 353d
00000070: 9a75 293c 023c 1a3d d468 ad3c 0e9b 0cbd
00000080: 9f02 803b dde7 a7bc 9521 83bc c51e 153d
00000090: 3723 24bb ce00 773b 52ed e53b 9bce 5cb9
000000a0: 9139 993b a1f8 9a3b ad75 303c 3b95 8d3b
000000b0: f827 df39 3943 aa3c 475f aa3c 2937 a63c
000000c0: 6d26 863c 4faa 8dbb 9fcd 7b3c 5622 19bc
000000d0: 1c12 823c e85a da3b 211e fabc 38ba 9f3a
000000e0: 2c48 1eba 35a8 29bd 426b 7cbc 04e7 61bc
000000f0: bb51 61bc e0ed 25bd cf19 35bc f4eb 12bd
00000100: 81aa c83c 0fba 083b 1c57 acbd 5536 d33c
00000110: c853 7d3c b966 b1bd c01d e23c 681f a23d
00000120: 4d48 adbc b6da 13bd 3f84 5f3c 4e70 0bbd
00000130: af03 4fbd 60e8 883c 6955 ccbb 6d6a 183d
00000140: 06cb 7bbb 40cb b83c 87c6 16bd 7fee 123d
00000150: ec47 f8bc c88b c3bd 1b05 04bc 8e2c 283c
00000160: 86f8 28ba 00bc 9f3b 897c 66bb 00e0 003c
00000170: 0a60 1fba b78a 343d a950 6ebc 0091 3b39
00000180: df69 4e3d d310 8e3c 7ae9 e93c 60d6 ec3c
00000190: a893 8dbd 5495 90bd 3fcc 273d 5071 1abd
000001a0: 4ea8 36bc 9aa8 2abc 7305 8fbc 7bd4 3d3d
000001b0: defc 92bc 923f f03c ca1d e43c 6d63 3439
000001c0: b5a7 a9bd 309b aebc 47d1 5eba 8fc8 c5bc
000001d0: a7fb b2bc 4dd9 36bd 75da 793b b559 db3d
000001e0: a09f 53bd 4860 b3bc 6d3f 633d 7323 a1bc
000001f0: 3d8e bb3a 26f3 4fb8 f771 41bd d385 ce3c
00000200: e397 c0bc 5a84 17bc dad6 6bbc 8de8 77bc
00000210: 846c 513c 6122 babc c042 dbbc 090c e9bb
00000220: 1817 77bc 8112 efbc 209e c43c bb9b 0a3d
00000230: 5f27 9ebb f758 133d 7161 773c fcd4 15bd
00000240: 736c 49bc 5615 933c 85b9 e43b 2323 803c
00000250: 0ad2 99bb e882 f7bb 5272 693d 742e ee3c
00000260: f636 583d 52bc 3ebc 299d 54bb 008a 31bc
00000270: 254b 17bb 5b40 10bc a142 bc3c be83 8c3c
00000280: 0b36 873c 722a 08bb 62fa 3e3d fa41 733d
00000290: 8e71 e73d a64d 01bc 6962 513c b351 8e3d
000002a0: 6e05 83bd 072b b4bc cdc0 01bd 13f3 8abb
000002b0: 20a0 713c ac2b 90bc 4272 43bc 97f6 0e3c
000002c0: eecc 2b3c 2135 67bb 469b adb9 c911 5a3c
000002d0: e01b 76bc cc37 053d f200 2e3c 0b68 b0bc
000002e0: 9c9f c53b f902 32bd 9724 b7bb 3183 fc3c
000002f0: fd48 49bb dd27 20bd 8710 15bd e8f2 8ebc
00000300: d52d a33c 6cf8 eebc bd37 9abc 12d4 8a3c
00000310: fc49 023d 17f0 9a3c da74 e03c b2bb 213d
00000320: 2cd3 4abc c668 a03c 02c6 143d ba82 893c
00000330: 6f1f 75bd 295c b8bd b23c a6bc cee6 7cbc
00000340: 8ba0 e2bc 26c6 3cbd f6b4 413d 6be7 8f3b
00000350: d33b 3c3c a0d5 6c3c 8137 303c 49bf cf3c
00000360: 6100 c73c efcd 31bb 5386 413d 3bf2 b9bb
00000370: 8c8d 82bd 58b0 b73d d653 ccbc 148a 64bc
00000380: 2002 ce3d f1e5 a3bd 9132 17bd 70cc 81bd
00000390: 9481 9c3c dcee 20bc 9eb8 29bd 0858 273d
000003a0: e0a8 b23c 4ad2 843c 76b0 d23a 91ad 583d
000003b0: 5c77 803c 3ebd f9bc 074a cd3a d97d 23bd
000003c0: 60fa 053d f223 0e3d a670 1abc ebd8 babd
000003d0: 1f27 24bc fdd0 c83c 24c9 b4bc 7003 f73c
000003e0: 9dbc 3c3d 1928 b63c 98c5 febc a3a8 ffbc
000003f0: 8465 523c 3165 d13c f1f5 903d 3f32 6a3c

bias f4 [64]
-0.039548818 -0.01435718 -0.049032703 0.037149716 0.019206017 -0.079710245 0.06956904 -0.1285297
0.0011947158 0.019837372 0.1261456 -0.02135094 0.01589918 0.05450727 0.031670194 0.52363837
-0.011836675 -0.31056798 0.25890592 -0.10479463 0.039112605 0.54778796 0.035282087 -0.059558447
0.083040394 -0.020512654 0.22707525 -0.48939127 -0.32000306 0.154006 -0.08362656 0.00019323737
-0.06415665 0.39524448 -0.05153807 -0.24823298 -0.07003589 -0.2369293 0.052595735 -0.052088514
0.045362417 -0.014170325 0.042619333 -0.03099447 -0.5681059 0.027466562 0.20181718 -0.07725297
-0.03367601 0.0036897142 -0.021923933 -0.23742191 0.21864988 -0.0894575 -0.053169925 -0.014627252
-0.06839562 0.0016308193 0.04237571 -0.055974346 -0.38840264 -0.033173397 -0.038567323 -0.18588431
00000000: f1fd 21bd 613a 6bbc 84d6 48bd 4d2a 183d
00000010: f055 9d3c 203f a3bd 367a 8e3d 4a9d 03be
00000020: 0398 9c3a fc81 a23c 502c 013e 2be8 aebc
00000030: ff3e 823c 0443 5f3d 9bb8 013d 2a0d 063f
00000040: 9dee 41bc c402 9fbe 518f 843e 919e d6bd
00000050: 8a34 203d d53b 0c3f f383 103d 8ff3 73bd
00000060: 1511 aa3d 270a a8bc 6a86 683e 7e91 fabe
00000070: 71d7 a3be c0b3 1d3e 6744 abbd c39f 4a39
00000080: 9064 83bd 7c5d ca3e 9519 53bd c930 7ebe
00000090: fa6e 8fbd 989d 72be a06e 573d c45a 55bd
000000a0: f1cd 393d a72a 68bc 9c91 2e3d 1de8 fdbc
000000b0: 636f 11bf 8e01 e13c 2aa9 4e3e ce36 9ebd
000000c0: dbef 09bd 22cf 713b d299 b3bc bb1e 73be
000000d0: c1e5 5f3e 7e35 b7bd b5c8 59bd 24a7 6fbc
000000e0: 0113 8cbd 37c1 d53a 2792 2d3d 5b45 65bd
000000f0: b6dc c6be d4e0 07bd c5f8 1dbd 7558 3ebe

weight f4 [64]
0.8574054 0.9791878 1.0310804 1.0537318 0.9775374 1.0170391 1.0183539 0.91402435
0.9497113 0.9615564 0.9848163 0.9847705 0.9712402 1.0497454 0.9688024 1.0682763
0.9210328 0.94511795 0.9690123 1.1521056 1.0104347 0.96207845 0.9944041 0.99928874
0.94995457 0.92688775 0.9868585 1.0275573 0.9820441 0.96790546 0.8900659 0.9608931
0.9096245 0.97675943 0.97586066 1.0677787 0.96287936 1.0037073 1.0023867 0.8738065
1.149158 1.0298946 0.9733778 0.99398464 1.0046694 0.9900698 0.94526476 1.0048866
1.051501 1.0112886 0.9291182 0.9683953 0.9938795 0.977696 1.1068794 0.86645424
0.8510292 0.7790325 0.94671893 0.9439498 0.9703539 0.93012774 0.90083385 1.0113723
00000000: ec7e 5b3f 0dac 7a3f 71fa 833f afe0 863f
00000010: e43f 7a3f 562e 823f 6c59 823f 80fd 693f
00000020: 4820 733f 8f28 763f ec1c 7c3f eb19 7c3f
00000030: 33a3 783f 0f5e 863f 6f03 783f 47bd 883f
00000040: cec8 6b3f 40f3 713f 3111 783f 3278 933f
00000050: ed55 813f c64a 763f 4491 7e3f 63d1 7f3f
00000060: 3930 733f 8448 6d3f c2a2 7c3f ff86 833f
00000070: 3e67 7b3f a7c8 773f 5cdb 633f 17fd 753f
00000080: 27dd 683f e80c 7a3f 01d2 793f f9ac 883f
00000090: 437f 763f 7b79 803f 354e 803f c8b1 5f3f
000000a0: 9c17 933f 96d3 833f 4a2f 793f c775 7e3f
000000b0: 0299 803f 3775 7d3f dffc 713f 20a0 803f
000000c0: 9697 863f e871 813f b1da 6d3f c1e8 773f
000000d0: e36e 7e3f 494a 7a3f 39ae 8d3f f2cf 5d3f
000000e0: 0ddd 593f ad6e 473f 2c5c 723f b2a6 713f
000000f0: 1d69 783f da1c 6e3f 0c9d 663f a674 813f

bias f4 [64]
-0.08897941 -0.039962348 -0.09268329 -0.1924015 -0.11158684 -0.19724134 -0.07246612 -0.2932216
-0.28998086 -0.087222 -0.3112626 -0.17988311 -0.09155119 -0.119764894 -0.58912545 -0.24897635
-0.061670586 -0.19780968 -0.16733381 -0.35744256 -0.14436194 -0.15628755 -0.1618694 -0.08996199
-0.22898735 -0.06461394 -0.3824505 -0.28784895 -0.25386024 -0.29911634 -0.23697647 -0.07381387
-0.091227464 -0.3905432 -0.07180786 -0.34471557 -0.14281066 -0.44167352 -0.11973673 -0.18226698
-0.49023473 -0.030342204 -0.06653909 -0.05456346 -0.20848607 -0.22510715 -0.24209286 -0.2808977
-0.14534661 -0.037076145 -0.16122395 -0.284127 -0.2619164 -0.19306199 -0.41576788 -0.2745376
-0.19771874 -0.13594265 -0.1275148 -0.07218268 -0.033205472 -0.097779445 -0.10908331 -0.44439983
00000000: d63a b6bd 8faf 23bd bdd0 bdbd e604 45be
00000010: a487 e4bd a2f9 49be 1e69 94bd 2421 96be
00000020: 5f78 94be 73a1 b2bd d05d 9fbe 4733 38be
00000030: 317f bbbd 4c47 f5bd edd0 16bf a8f3 7ebe
00000040: 4c9a 7cbd 9f8e 4abe 8e59 2bbe b602 b7be
00000050: 9ed3 13be d809 20be 18c1 25be fe3d b8bd
00000060: a97b 6abe 5054 84bd 8dd0 c3be f060 93be
00000070: f8f9 81be c725 99be f6a9 72be ba2b 97bd
00000080: 77d5 babd 47f5 c7be 0010 93bd 8f7e b0be
00000090: f53c 12be 0823 e2be 8838 f5bd 32a4 3abe
000000a0: 0c00 fbbe 3790 f8bc a545 88bd ef7d 5fbd
000000b0: 5f7d 55be 7d82 66be 31e7 77be d3d1 8fbe
000000c0: bed5 14be 28dd 17bd e417 25be 1879 91be
000000d0: e819 86be 0bb2 45be 87df d4be 3190 8cbe
000000e0: c876 4abe 8d34 0bbe 3d93 02be 83d4 93bd
000000f0: 7602 08bd 9740 c8bd 1267 dfbd 6088 e3be

running_mean f4 [64]
-0.007135406 0.045598913 -0.10671708 -0.13791247 0.09943739 -0.21135293 -0.054088343 -0.15809251
-0.09841572 -0.10306734 0.099839054 -0.07399419 -0.05714448 -0.03651838 0.0014155908 0.5118511
-0.03757274 -0.30498958 0.25216958 -0.13706203 -0.012765365 0.5837609 -0.036455926 0.02340846
-0.0444492 -0.046098534 0.15205577 -0.5477042 -0.35074168 0.11241695 -0.10992554 0.047089588
-0.09557373 0.36983946 0.09891324 -0.3039035 -0.11815755 -0.31264347 -0.022124326 0.013835057
0.009714949 -0.052812066 0.011513406 0.03318663 -0.60303986 -0.062987596 0.17153859 -0.15000181
-0.15659048 -0.13798092 -0.053257562 -0.28406003 0.17063609 -0.14158027 -0.10157779 0.004799271
-0.0006635174 -0.003102135 0.03173709 0.038397517 -0.34063688 0.07327309 -0.004779507 -0.22960213
00000000: 20d0 e9bb edc5 3a3d 7c8e dabd ed38 0dbe
00000010: d5a5 cb3d e76c 58be bd8b 5dbd 01e3 21be
00000020: 2e8e c9bd f814 d3bd 6b78 cc3d 448a 97bd
00000030: 5510 6abd 4c94 15bd 588b b93a ac08 033f
00000040: e0e5 19bd 9827 9cbe 5f1c 813e fd59 0cbe
00000050: d225 51bc 5b71 153f cf52 15bd 19c3 bf3c
00000060: 5d10 36bd d1d1 3cbd 82b4 1b3e 5836 0cbf
00000070: 6a94 b3be dc3a e63d a420 e1bd 03e1 403d
00000080: 29bc c3bd 995b bd3e 0693 ca3d 3d99 9bbe
00000090: 96fc f1bd ce12 a0be 133e b5bc 6fac 623c
000000a0: 732b 1f3c 7751 58bd baa2 3c3c b4ee 073d
000000b0: d260 1abf a4ff 80bd d0a7 2f3e 139a 19be
000000c0: 4159 20be df4a 0dbe 9a24 5abd 5170 91be
000000d0: 3abb 2e3e 6bfa 10be 0408 d0bd 3443 9d3b
000000e0: e6ef 2dba 304d 4bbb c0fe 013d b746 1d3d
000000f0: f567 aebe 3410 963d 699d 9cbb d21c 6bbe

running_var f4 [64]
0.002571967 0.009596331 0.004012239 0.012177024 0.0023183965 0.013155686 0.0082589565 0.0026438998
0.007304408 0.0046280534 0.0035494894 0.0027976173 0.0056733834 0.0023624622 0.0011015402 0.0037693614
0.014082068 0.0042528203 0.0028016695 0.003507003 0.00371236 0.003908498 0.004062095 0.0042918622
0.014941769 0.0057725776 0.0028926318 0.0065413914 0.0009839062 0.0036278588 0.0032538588 0.008213839
0.004315546 0.001822874 0.010542847 0.004536923 0.005939086 0.0032248872 0.0075992825 0.0012012374
0.0033092261 0.005422583 0.0058456804 0.0068504335 0.006661444 0.0029452725 0.0037785727 0.0032519184
0.0047117164 0.010150602 0.005367516 0.0033603038 0.0029467351 0.004729898 0.0026963404 0.0008945699
0.0013222412 0.0017821747 0.0049205055 0.008946917 0.008007366 0.004397644 0.010405163 0.0006470475
00000000: 728e 283b ee39 1d3c 1a79 833b 2482 473c
00000010: 3df0 173b f28a 573c 9350 073c 4745 2d3b
00000020: d159 ef3b eda6 973b 8d9e 683b 3b58 373b
00000030: cae7 b93b 8ad3 1a3b 8e61 903a 6407 773b
00000040: 79b8 663c 3e5b 8b3b 379c 373b bfd5 653b
00000050: 114b 733b dc12 803b 531b 853b c0a2 8c3b
00000060: 52ce 743c e427 bd3b 4f92 3d3b 2b59 d63b
00000070: 6af6 803a 5fc1 6d3b b13e 553b 5693 063c
00000080: 6c69 8d3b 80ed ee3a e8bb 2c3c 78aa 943b
00000090: aa9c c23b a158 533b 6703 f93b d772 9d3a
000000a0: 9adf 583b ecaf b13b 1f8d bf3b 9a79 e03b
000000b0: 3e48 da3b 7905 413b eea1 773b 231e 553b
000000c0: be64 9a3b b64e 263c fde1 af3b 8b38 5c3b
000000d0: 031e 413b 43fd 9a3b 16b5 303b 9281 6a3a
000000e0: 0d4f ad3a dc97 e93a 313c a13b 1796 123c
000000f0: 5431 033c 1d1a 903b 6b7a 2a3c 9f9e 293a
