carl/envs/mario/pcg_smb_env/toadgan/generators/v2/TOAD_GAN_3-1/generators.pth (torch, 652069 bytes, 42 tensors)

weight f4 [64, 13, 3, 3]
-0.0063555427 0.10139225 -0.1648715 0.04310658 -0.010762188 -0.054658342 0.091599524 -0.036706213
-0.004946336 -0.016901195 -0.070805386 0.0792118 -0.007658826 -0.0043231156 0.010035255 0.102483265
-0.07125728 -0.00063926354 0.08648654 -0.06467153 0.08134245 0.006566868 -0.0074619562 -0.0070633693
0.024988614 0.00858796 0.084621646 0.041834608 -0.03645421 -0.03973563 0.04035349 0.034257803
-0.049931146 -0.0055699893 -0.057156965 -0.035345715 0.050433673 -0.050680336 0.048905652 0.06236449
-0.006400594 0.024830073 -0.028483551 0.033887994 0.0029797205 0.14478964 -0.0547479 -0.01906982
-0.0037649574 0.025148574 -0.01674499 0.08369245 -0.010850933 -0.007142205 0.08186875 0.007150499
0.0009094955 0.011838525 -0.009602052 0.013560576 0.027941128 -0.0648603 -0.029139536 -0.02277516
-0.013780297 0.016663924 0.017101618 0.0008483588 -0.0432228 -0.013575946 0.0034621854 -0.0036611215
-0.0061010835 0.008690989 -0.025866393 0.049528837 0.02406879 -0.017517 0.025255358 -0.08906075
-0.021597648 0.00014859033 -0.018909434 0.019618079 0.008050418 0.019444738 -0.0011413308 0.019172922
0.0377213 0.0072964584 0.09820936 -0.022188783 -0.01966598 0.009971079 0.033486795 -0.049898937
-0.08216346 -0.019073121 0.013307231 -0.10544361 -0.03538982 0.025026849 0.016375687 -0.017339895
-0.0064720004 0.031615216 -0.035933945 0.060517587 0.097554654 -0.056028895 -0.13818577 0.0066757584
-0.0049167145 -0.038922224 0.037209846 -0.04064256 0.017009389 -0.012560045 0.025467372 -0.036265627
0.013606336 0.008022556 0.017871091 -0.03574018 -0.058751676 -0.06143704 0.051685542 -0.021250097
-0.0383949 0.025524175 0.012618056 0.046369612 -0.06755114 0.045837197 -0.10120833 -0.030596815
0.02144419 -0.043064043 -0.014640931 -0.027949 -0.029189514 -0.018405056 0.024744486 -0.1143009
0.06103258 0.023208505 -0.057611838 0.000657201 -0.005212682 0.00030893888 -0.03810856 -0.052363794
-0.027522648 0.0014407919 0.022581216 0.003907808 -0.0016840659 0.00078495446 -0.017243832 -0.03937062
0.0024335117 -0.026391327 -0.018997813 0.034364935 -0.0020080374 -0.002017637 -0.006742789 0.01740888
0.011987662 -0.016956488 -0.04261374 0.029013233 -0.031197915 0.024279876 0.05556763 0.044261962
-0.0064307475 -0.02379803 -0.036574427 0.110635124 -0.030484429 0.045030527 0.028829811 -0.008109897
-0.011359072 0.03865502 -0.037083525 -0.010779337 -0.07384824 0.0044559417 -0.048026387 0.03652644
0.039116755 -0.03644715 -0.0076707187 -0.07011774 0.0048983176 0.0506463 0.012261152 0.034697082
-0.023110732 -0.014550902 -0.0110962335 0.013351374 0.032790065 -0.17056899 -0.03994268 0.015945233
-0.014050316 -0.04771897 -0.004921782 0.022065455 -0.0027469741 0.054006964 0.106837235 -0.25983092
-0.009406622 0.070903696 -0.04244785 0.009039185 0.018199101 -0.0041152304 0.1499619 0.055105556
0.032681845 0.034532372 -0.036437105 -0.034646977 0.040098563 0.04164494 -0.008234222 -0.004458837
-0.04047213 -0.013175058 -0.090413004 0.05099303 0.040865667 0.033892307 -0.0031593202 -0.004749329
-0.04453767 -0.07052994 0.03300559 -0.045123126 0.027556874 -0.08897557 0.04023136 0.0054860585
0.016591491 -0.09254553 0.085826755 -0.06966062 -0.032673374 -0.018027375 0.09120233 -0.06478535
00000000: 2842 d0bb bda6 cf3d 13d4 28be 8690 303d
00000010: e353 30bc 6de1 5fbd 8898 bb3d 4159 16bd
00000020: e014 a2bb 6074 8abc 6a02 91bd cc39 a23d
00000030: e4f6 fabb eca8 8dbb e96a 243c bfe2 d13d
00000040: 56ef 91bd 4094 27ba db1f b13d 8272 84bd
00000050: df96 a63d e22e d73b 6d83 f4bb d673 e7bb
00000060: ecb4 cc3c 84b4 0c3c 1d4e ad3d c45a 2b3d
00000070: 0251 15bd d4c1 22bd b349 253d e951 0c3d
00000080: 9a84 4cbd 7584 b6bb 6c1d 6abd abc6 10bd
00000090: 8a93 4e3d 2f96 4fbd 4b51 483d e871 7f3d
000000a0: 13bc d1bb 7068 cb3c 5656 e9bc 23ce 0a3d
000000b0: 6a47 433b bc43 143e 563f 60bd 5038 9cbc
000000c0: 81bd 76bb 6204 ce3c ca2c 89bc f266 ab3d
000000d0: 1dc8 31bc 2809 eabb ceaa a73d bc4e ea3b
000000e0: 366b 6e3a 5ff6 413c ed51 1dbc 2e2d 5e3c
000000f0: cbe4 e43c 7ad5 84bd 09b6 eebc f992 babc
00000100: c1c6 61bc c882 883c b118 8c3c 6564 5e3a
00000110: 640a 31bd a56d 5ebc d5e5 623b 6def 6fbb
00000120: 99eb c7bb a664 0e3c c2e5 d3bc c0de 4a3d
00000130: e92b c53c d07f 8fbc 53e4 ce3c 7c65 b6bd
00000140: 8ded b0bc eace 1b39 f5e7 9abc 18b6 a03c
00000150: e7e5 033c 924a 9f3c b598 95ba 8810 9d3c
00000160: a681 1a3d 2117 ef3b fd21 c93d 40c5 b5bc
00000170: 8d1a a1bc bd5d 233c 7329 093d d462 4cbd
00000180: 5145 a8bd 3c3f 9cbc 9206 5a3c d2f2 d7bd
00000190: eaf4 10bd 1b05 cd3c 4e26 863c 650c 8ebc
000001a0: 1313 d4bb f57e 013d 792f 13bd 4ae1 773d
000001b0: bcca c73d 8e7e 65bd 9280 0dbe 52c0 da3b
000001c0: 641c a1bb e96c 1fbd 5a69 183d d078 26bd
000001d0: 4657 8b3c a6c8 4dbc f3a0 d03c 448b 14bd
000001e0: 1ced 5e3c 0a71 033c 6566 923c 4c64 12bd
000001f0: 99a5 70bd 68a5 7bbd 38b4 533d af14 aebc
00000200: f843 1dbd 1318 d13c f6bb 4e3c 10ee 3d3d
00000210: 4158 8abd c9bf 3b3d 5046 cfbd 2ca6 fabc
00000220: baab af3c ec63 30bd 84e0 6fbc 4df5 e4bc
00000230: d91e efbc 33c6 96bc f3b4 ca3c 9716 eabd
00000240: 4cfd 793d c31f be3c 64fa 6bbd 0348 2c3a
00000250: 25cf aabb 13f9 a139 b917 1cbd 6b7b 56bd
00000260: 2d77 e1bc f4d8 bc3a 3efc b83c 120d 803b
00000270: e0bb dcba 67c5 4d3a f042 8dbc 1643 21bd
00000280: 8d7b 1f3b a032 d8bc 4da1 9bbc 3fc2 0c3d
00000290: 4799 03bb 553a 04bb 9df2 dcbb 119d 8e3c
000002a0: e667 443c 55e8 8abc bf8b 2ebd 29ad ed3c
000002b0: c592 ffbc 97e6 c63c e29a 633d 084c 353d
000002c0: 05b9 d2bb 16f4 c2bc 11cf 15bd ab94 e23d
000002d0: 7bba f9bc ee71 383d 7f2c ec3c 60df 04bc
000002e0: 671b 3abc ba54 1e3d e5e4 17bd d19b 30bc
000002f0: bf3d 97bd 2603 923b 51b7 44bd c09c 153d
00000300: e438 203d 9b49 15bd a75a fbbb e499 8fbd
00000310: 1182 a03b 7f72 4f3d 00e3 483c 871e 0e3d
00000320: b852 bdbc e866 6ebc facc 35bc b9bf 5a3c
00000330: e04e 063d a3a9 2ebe f09a 23bd 949f 823c
00000340: 4c33 66bc f774 43bd e646 a1bb 9dc2 b43c
00000350: 9406 34bb 6836 5d3d 7bcd da3d 8f08 85be
00000360: 3b1e 1abc f535 913d ccdd 2dbd 1719 143c
00000370: 4816 953c 0ed9 86bb 9d8f 193e 5db6 613d
00000380: 66dd 053d d171 0d3d 133f 15bd fde9 0dbd
00000390: 643e 243d e293 2a3d d5e8 06bc 701b 92bb
000003a0: 1bc6 25bd 33dc 57bc 742a b9bd 11de 503d
000003b0: c262 273d a9d2 0a3d 990c 4fbb 42a0 9bbb
000003c0: 226d 36bd 0072 90bd df30 073d 07d3 38bd
000003d0: f4be e13c d338 b6bd a3c9 243d 65c4 b33b
000003e0: e1ea 873c 8388 bdbd f0c5 af3d 3aaa 8ebd
000003f0: 84d4 05bd 25ae 93bc 4ac8 ba3d 2eae 84bd

bias f4 [64]
0.09250888 0.10376898 0.027033433 -0.06891273 0.096854866 0.053150374 0.0025016908 -0.035646643
-0.05409317 0.036185477 -0.0360844 0.105673246 -0.06337408 0.027332475 0.007837925 -0.020885225
0.01722431 0.028286196 -0.058482412 -0.039580494 -0.081159584 0.028747024 -0.016917214 0.0012463612
0.053976588 -0.025148178 -0.06599211 0.008407104 0.073254585 -0.052454416 0.05945997 -0.016660603
0.019292757 0.093240604 -0.010123111 -0.07008837 0.038190845 0.048144408 0.054409605 -0.016995138
0.027561238 0.012445183 0.0521501 -0.013018645 0.058599137 -0.017496802 -0.007082402 -0.018470254
-0.029303743 -0.009562048 -0.09738206 0.042131916 0.10216961 -0.060983434 0.15362614 -0.041465685
0.04979172 0.13294968 -0.01570774 -0.022147935 0.015016053 -0.04896293 -0.01230123 -0.101876095
00000000: 4c75 bd3d d584 d43d 3875 dd3c 1e22 8dbd
00000010: d85b c63d 35b4 593d 68f3 233b 3702 12bd
00000020: cd90 5dbd 3937 143d 3ccd 13bd 376b d83d
00000030: 45ca 81bd 5be8 df3c a46a 003c 7e17 abbc
00000040: ff19 8d3c 74b8 e73c 418b 6fbd 281f 22bd
00000050: ff36 a6bd e17e eb3c f895 8abc f15c a33a
00000060: 8e16 5d3d 8d03 cebc df26 87bd f3bd 093c
00000070: 8006 963d 71da 56bd 4c8c 733d d17b 88bc
00000080: d80b 9e3c eef4 be3d 68db 25bc 7e8a 8fbd
00000090: 016e 1c3d 1233 453d 9bdc 5e3d 6339 8bbc
000000a0: 1bc8 e13c e1e6 4b3c 589b 553d 284c 55bc
000000b0: a605 703d 7455 8fbc 7e13 e8bb ee4e 97bc
000000c0: 670e f0bc 23aa 1cbc 3f70 c7bd 8492 2c3d
000000d0: 4d3e d13d c4c9 79bd 2c50 1d3e ecd7 29bd
000000e0: 67f2 4b3d f623 083e 85ad 80bc 966f b5bc
000000f0: e405 763c 5a8d 48bd 198b 49bc 6aa4 d0bd

weight f4 [64]
0.9750468 0.9584065 0.90615654 0.8117967 0.9759797 1.2275012 0.98759186 0.9661606
0.97946584 1.104346 0.87341076 1.0448409 0.8923573 0.9317496 0.9235422 0.9624471
0.91107196 1.0102763 0.8416354 1.0241376 1.0002372 0.98132145 1.0901209 1.0260562
0.9143797 0.9908752 1.0797523 0.9079499 0.9180216 1.006584 1.0475688 0.8574168
1.0599871 0.9781037 1.0893828 1.0193892 0.88667136 0.9682547 0.97751653 0.9397251
1.186283 0.88261116 0.82000005 0.88550013 0.9621194 1.027585 0.8350659 0.9317825
1.0876222 1.0193229 1.0934207 1.003278 1.0115222 0.98794466 1.0935307 0.8407205
1.0418702 1.0186478 0.95324767 0.96350443 1.0154835 1.0007287 1.0626386 0.96327436
00000000: ab9c 793f 215a 753f e0f9 673f e9d1 4f3f
00000010: ced9 793f c21e 9d3f d2d2 7c3f 4d56 773f
00000020: 46be 7a3f 365b 8d3f d997 5f3f 59bd 853f
00000030: 8771 643f 2487 6e3f 436d 6c3f ef62 763f
00000040: 033c 693f bc50 813f 6b75 573f f116 833f
00000050: c607 803f e237 7b3f 1589 8b3f cf55 833f
00000060: ca14 6a3f ffa9 7d3f 5335 8a3f 686f 683f
00000070: 7703 6b3f bfd7 803f bc16 863f ab7f 5b3f
00000080: a8ad 873f 0165 7a3f e570 8b3f 587b 823f
00000090: e5fc 623f 8adf 773f 863e 7a3f d391 703f
000000a0: 1fd8 973f cef2 613f 86eb 513f 23b0 623f
000000b0: 754d 763f e887 833f e1c6 553f 4c89 6e3f
000000c0: 3437 8b3f 2c79 823f 36f5 8b3f 6a6b 803f
000000d0: 8f79 813f f1e9 7c3f d0f8 8b3f 7539 573f
000000e0: 015c 853f 0d63 823f 0a08 743f 3aa8 763f
000000f0: 5dfb 813f e117 803f 8b04 883f 2699 763f

bias f4 [64]
-0.21137297 -0.22234434 -0.28754848 -0.23333627 -0.21909313 -0.3122165 -0.07911877 -0.111974165
-0.23124628 -0.2863865 -0.24410331 -0.17605534 -0.26854122 -0.25441742 -0.24022089 -0.19242099
-0.12743919 -0.14697352 -0.30908987 -0.18804555 -0.3318185 -0.23571421 -0.22902831 -0.16556785
-0.2807734 -0.28869832 -0.12665884 -0.24485491 -0.2341555 -0.15805629 -0.1953597 -0.2957624
-0.27201667 -0.18964942 -0.3021495 -0.14780791 -0.24629894 -0.25731868 -0.24602124 -0.13903752
-0.23185854 -0.17658749 -0.16742206 -0.20142399 -0.30381247 -0.19006477 -0.3487766 -0.2527039
-0.24183604 -0.19149323 -0.16482605 -0.266215 -0.12110493 -0.1696028 -0.29242086 -0.22388357
-0.1758287 -0.31620327 -0.19182016 -0.23547472 -0.12659365 -0.25339723 -0.138936 -0.1128757
00000000: 2872 58be 3cae 63be 8e39 93be b4ef 6ebe
00000010: f359 60be d7da 9fbe 0609 a2bd b652 e5bd
00000020: d3cb 6cbe 40a1 92be 38f6 79be da47 34be
00000030: 3c7e 89be 0043 82be 77fc 75be 020a 45be
00000040: 6b7f 02be 3a80 16be 0741 9ebe 038f 40be
00000050: 1de4 a9be 115f 71be 6686 6abe 9e8a 29be
00000060: 88c1 8fbe 44d0 93be dbb2 01be 3fbb 7abe
00000070: 76c6 6fbe 82d9 21be 600c 48be 2b6e 97be
00000080: c545 8bbe 7533 42be 57b3 9abe f55a 17be
00000090: ca35 7cbe 46bf 83be feec 7bbe da5f 0ebe
000000a0: 536c 6dbe 5ad3 34be b070 2bbe 1742 4ebe
000000b0: 4f8d 9bbe 57a0 42be d992 b2be 6862 81be
000000c0: dea3 77be cd16 44be 29c8 28be 554d 88be
000000d0: dd05 f8bd 5bac 2dbe 30b8 95be bc41 65be
000000e0: 700c 34be 65e5 a1be 816c 44be 4920 71be
000000f0: c4a1 01be 48bd 81be 3d45 0ebe 602b e7bd

running_mean f4 [64]
0.09304169 0.10131421 0.015885852 -0.06867756 0.0977392 0.049440622 -0.0018663382 -0.040680192
-0.060855035 0.041111533 -0.034480672 0.10689995 -0.069169596 0.02720594 0.0050612926 -0.03219102
0.023648119 0.033585656 -0.057885516 -0.03592856 -0.07798673 0.02828878 -0.0150787225 0.004484898
0.06205773 -0.024022134 -0.07682055 0.009589233 0.07985939 -0.05217571 0.0589825 -0.00553299
0.01759243 0.09565488 -0.0018738697 -0.06429858 0.029214973 0.049396794 0.046400927 -0.013320975
0.02879397 0.01165292 0.061377075 0.00067459035 0.05263021 -0.016513947 -0.013944171 -0.023101034
-0.031030746 -0.016858999 -0.101859145 0.050733518 0.09831294 -0.060543075 0.15377523 -0.028525148
0.04802687 0.14800134 -0.0058638514 -0.02836552 0.009407132 -0.052067198 0.0010989603 -0.10311783
00000000: a48c be3d d37d cf3d 0c23 823c d2a6 8cbd
00000010: 7d2b c83d 4082 4a3d eb9f f4ba 46a0 26bd
00000020: 2143 79bd 9164 283d 9b3b 0dbd 5cee da3d
00000030: caa8 8dbd fede de3c 33d9 a53b bbda 03bd
00000040: b3b9 c13c 1d91 093d 5d19 6dbd d329 13bd
00000050: 82b7 9fbd dfbd e73c bf0c 77bc 0df6 923b
00000060: 3f30 7e3d 11ca c4bc 1854 9dbd 291c 1d3c
00000070: 528d a33d 33b6 55bd a297 713d 164e b5bb
00000080: 001e 903c b5e6 c33d a29c f5ba f9ae 83bd
00000090: 3d54 ef3c 4b54 4a3d e60e 3e3d 3840 5abc
000000a0: 55e1 eb3c e4eb 3e3c 8766 7b3d fed6 303a
000000b0: c692 573d 4248 87bc 1876 64bc 613e bdbc
000000c0: 3134 febc e21b 8abc 879b d0bd f3cd 4f3d
000000d0: 4b58 c93d 04fc 77bd 4177 1d3e 92ad e9bc
000000e0: d3b7 443d aa8d 173e 8d25 c0bb cf5e e8bc
000000f0: 5f20 1a3c 6a44 55bd fd0a 903a 712f d3bd

running_var f4 [64]
0.17303884 0.17242157 0.17514056 0.17784318 0.19967611 0.21128297 0.17742567 0.19064203
0.18825133 0.21143197 0.17839424 0.20196985 0.17900111 0.19822197 0.17134844 0.17411432
0.17914852 0.17561446 0.1653622 0.1948358 0.1852962 0.1952857 0.20458996 0.1886375
0.19595493 0.20533945 0.18503408 0.18163916 0.1745195 0.17568748 0.17258362 0.17127997
0.20910454 0.19519876 0.21110635 0.16812316 0.18621305 0.19070236 0.19158317 0.17577416
0.21093096 0.19247021 0.17169426 0.18392625 0.17666212 0.1819043 0.17856361 0.17316347
0.22664268 0.21838252 0.1980541 0.18322928 0.20311601 0.1928972 0.19483593 0.16465066
0.2124228 0.18521808 0.19572067 0.19291693 0.18080305 0.19230504 0.18612781 0.18363021
00000000: 1831 313e 488f 303e 0c58 333e 861c 363e
00000010: e577 4c3e 905a 583e 13af 353e aa37 433e
00000020: f5c4 403e 9f81 583e fbac 363e 2fd1 4e3e
00000030: 114c 373e b3fa 4a3e f775 2f3e 064b 323e
00000040: b672 373e 47d4 333e b554 293e 0983 473e
00000050: 49be 3d3e f9f8 473e 0880 513e 302a 413e
00000060: 69a8 483e 8144 523e 9379 3d3e 9eff 393e
00000070: 3db5 323e 6be7 333e c3b9 303e 0464 2f3e
00000080: 801f 563e 2fe2 473e 432c 583e 7a28 2c3e
00000090: a2ae 3e3e 7b47 433e 612e 443e 24fe 333e
000000a0: 49fe 573e e916 453e 9fd0 2f3e 2a57 3c3e
000000b0: eae6 343e 1f45 3a3e 61d9 363e c451 313e
000000c0: 0515 683e ab9f 5f3e b2ce 4a3e 75a0 3b3e
000000d0: a5fd 4f3e d886 453e 1283 473e 2f9a 283e
000000e0: 5d85 593e cfa9 3d3e 006b 483e 048c 453e
000000f0: 6f24 393e 9deb 443e 4a98 3e3e 8f09 3c3e

weight f4 [64, 64, 3, 3]
0.00094495853 -0.051444992 0.024307977 -0.06013718 -0.022292644 0.071109354 -0.017582955 0.012086287
-0.04802831 -0.0061141453 -0.0028926989 0.0011215047 -0.0707092 -0.04421632 0.031935405 -0.12215865
-0.061323863 -0.026474651 -0.101995215 0.014359013 0.024969798 -0.08677103 -0.035376918 0.030333024
-0.047897283 -0.061372507 0.045235224 -0.050729357 -0.06853711 -0.05338769 0.0076808184 0.047518518
0.057463888 -0.064922184 -0.031176534 0.018948305 -0.031774994 0.033766016 -0.044814862 0.014215669
0.0106753465 -0.026967304 -0.0037333919 -0.01180618 -0.012074295 -0.041312158 0.046174277 0.0036366233
-0.060504828 0.056714103 -0.026978029 -0.06924335 -0.032953847 -0.034996703 -0.07983532 -0.034465764
-0.0027328692 0.0027060842 0.013628307 -0.026069881 -0.06947264 -0.044476412 -0.08137677 -0.046623282
-0.049936768 0.03039728 -0.043837607 -0.011168001 -0.07467947 -0.10309811 -0.049434993 -0.063057214
-0.07065355 -0.015820269 -0.1147641 0.015606815 -0.0037146301 -0.05343636 0.00081743044 -0.05952325
0.04925294 -0.04853093 0.0013054088 0.04912295 0.05891074 0.07493551 -0.02141224 -0.07122255
-0.06304676 -0.10610772 -0.006279194 0.021411233 0.0068030264 0.052682895 0.08351909 0.025016107
-0.049639776 0.029429067 -0.0024487707 -0.10195098 -0.08003673 -0.0427064 -0.08076277 -0.026775174
0.07478464 -0.112591244 -0.03077172 -0.10483039 -0.009333282 -0.025137976 0.0046583554 -0.14375411
-0.07700989 -0.062394295 -0.061318748 -0.048595596 0.02040754 -0.025683874 0.039402016 -0.039439965
-0.02485084 -0.032668278 0.029072816 0.0026798742 -0.018453784 -0.08134201 0.015360312 0.0278423
-0.04170165 -0.023872832 -0.07195017 0.035720885 -0.05613224 -0.07167221 -0.057376493 -0.10604347
0.023947995 0.05637868 -0.056464076 0.0121540595 -0.093317345 -0.07943729 0.039654694 -0.097738385
-0.03666211 0.046582274 0.060363673 -0.029684506 0.059127912 -0.0005671226 -0.031285554 0.008493373
-0.0421404 -0.05331085 0.015297298 0.0036170473 -0.004303473 0.04151036 0.047598496 -0.08802442
0.031153934 -0.038834963 -0.036690943 0.09810173 0.00876095 -0.013848674 0.035449643 0.019353295
-0.00878557 0.011743372 -0.0021967501 -0.048370376 0.0017161977 -0.07847393 -0.0016675565 0.0047184285
-0.044912495 -0.05111524 -0.06170236 -0.025000295 -0.052069575 -0.00041647453 -0.052185223 -0.08838924
-0.0128109185 -0.11322467 -0.012534017 -0.07899362 -0.09134724 -0.0059430115 -0.005808113 -0.042380065
-0.0473537 0.040660232 0.0067419 -0.11852217 -0.0035146629 -0.007971603 -0.07155557 0.011659294
-0.036981482 0.011270286 -0.0371345 -0.042917565 -0.0828222 -0.094482586 -0.04963463 -0.031056983
-0.04254787 0.0679644 -0.04468968 0.051828563 0.006513174 -0.055547543 -0.11462292 -0.06719282
0.034593727 0.028166357 0.0627917 -0.00615648 0.013659265 0.03091955 -0.0021256704 -0.043641564
-0.003866435 -0.028099023 -0.024342984 0.029467683 0.049554665 0.05788115 0.018580828 -0.08151877
-0.013576951 -0.050517138 -0.057969287 -0.038117073 0.03506428 -0.037217185 0.019609187 0.09992668
-0.0570337 0.019377708 -0.08063339 -0.040589802 0.08103454 -0.06851082 0.05355876 0.041131444
-0.014898699 -0.01369627 -0.0007532349 -0.013082675 0.022606011 0.011330948 0.049209148 -0.052435607
00000000: 18b7 773a fcb7 52bd 8621 c73c 6752 76bd
00000010: 109f b6bc c8a1 913d 210a 90bc 9005 463c
00000020: 55b9 44bd 2b59 c8bb 6f93 3dbb 74ff 923a
00000030: fccf 90bd 2c1c 35bd b3ce 023d 502e fabd
00000040: bb2e 7bbd 5ee1 d8bc dee2 d0bd 1142 6b3c
00000050: 768d cc3c 03b5 b1bd 63e7 10bd f67c f83c
00000060: f12f 44bd bd61 7bbd 9248 393d 96c9 4fbd
00000070: 2f5d 8cbd 0dad 5abd 60af fb3b c7a2 423d
00000080: 415f 6b3d ecf5 84bd ee65 ffbc 7a39 9b3c
00000090: 7f26 02bd 3c4e 0a3d ca8f 37bd d6e8 683c
000000a0: a6e7 2e3c 89ea dcbc ecab 74bb b56e 41bc
000000b0: 44d3 45bc f036 29bd 3d21 3d3d 6a54 6e3b
000000c0: e9d3 77bd 0c4d 683d 0701 ddbc 75cf 8dbd
000000d0: 9dfa 06bd b458 0fbd b380 a3bd f92b 0dbd
000000e0: f019 33bb 8f58 313b 4349 5f3c 8190 d5bc
000000f0: ac47 8ebd e62c 36bd dda8 a6bd 0ef8 3ebd
00000100: 7f8a 4cbd b703 f93c 108f 33bd fef9 36bc
00000110: 8df1 98bd 1a25 d3bd 597c 4abd 2424 81bd
00000120: cfb2 90bd 8299 81bc 7109 ebbd bab3 7f3c
00000130: 2771 73bb 16e0 5abd d448 563a a7ce 73bd
00000140: 73bd 493d 5ec8 46bd 401a ab3a 2535 493d
00000150: 634c 713d ca77 993d b968 afbc 21dd 91bd
00000160: a91e 81bd 014f d9bd b2c1 cdbb 9c66 af3c
00000170: eceb de3b 05ca 573d 0f0c ab3d 94ee cc3c
00000180: 1453 4bbd 3a15 f13c 8e7b 20bb adcb d0bd
00000190: 4cea a3bd e8ec 2ebd f366 a5bd 9c57 dbbc
000001a0: b028 993d 3d96 e6bd f914 fcbc 51b1 d6bd
000001b0: 9fea 18bc 28ee cdbc 1ea5 983b 4734 13be
000001c0: 5cb7 9dbd 2991 7fbd 5e29 7bbd 2d0c 47bd
000001d0: b72d a73c fd66 d2bc 0264 213d cd8b 21bd
000001e0: fd93 cbbc 2ccf 05bd 1d2a ee3c d4a0 2f3b
000001f0: 642c 97bc a496 a6bd d1a9 7b3c 8915 e43c
00000200: 59cf 2abd f590 c3bc 9c5a 93bd 1050 123d
00000210: ebea 65bd e1c8 92bd 9d03 6bbd 522d d9bd
00000220: 962e c43c 55ed 663d e046 67bd d221 473c
00000230: 2a1d bfbd 05b0 a2bd f66c 223d 102b c8bd
00000240: 022b 16bd 0ecd 3e3d e63f 773d ec2c f3bc
00000250: 1c30 723d f4aa 14ba 4825 00bd ca27 0b3c
00000260: 699b 2cbd 7a5c 5abd 85a1 7a3c fc0b 6d3b
00000270: 2604 8dbb c406 2a3d a4f6 423d 2646 b4bd
00000280: 8936 ff3c 6911 1fbd 3e49 16bd 8fe9 c83d
00000290: 168a 0f3c 8ce5 62bc a533 113d cd8a 9e3c
000002a0: 5af1 0fbc 4667 403c 5af7 0fbb 0420 46bd
000002b0: 0af2 e03a f1b6 a0bd e991 daba 0c9d 9a3b
000002c0: 2af6 37bd 375e 51bd 9dbb 7cbd 6bcd ccbc
000002d0: e846 55bd 445a dab9 2cc0 55bd 6b05 b5bd
000002e0: e3e4 51bc 56e2 e7bd 7a5b 4dbc 68c7 a1bd
000002f0: 4314 bbbd 98bd c2bb fc51 bebb b896 2dbd
00000300: f4f5 41bd 588b 263d 28eb dc3b c0bb f2bd
00000310: 4256 66bb 549b 02bc ba8b 92bd a006 3f3c
00000320: e579 17bd 01a7 383c 581a 18bd 54ca 2fbd
00000330: b09e a9bd 1680 c1bd af4d 4bbd 376b febc
00000340: ad46 2ebd eb30 8b3d 870c 37bd 304a 543d
00000350: 776c d53b d285 63bd 6cbf eabd 649c 89bd
00000360: 27b2 0d3d 22bd e63c ef98 803d 4cbc c9bb
00000370: 1ccb 5f3c ff4a fd3c d54e 0bbb 7fc1 32bd
00000380: 0464 7dbb ec2f e6bc f06a c7bc 3666 f13c
00000390: d5f9 4a3d c914 6d3d d236 983c 50f3 a6bd
000003a0: dc71 5ebc 0feb 4ebd 3471 6dbd a620 1cbd
000003b0: 909f 0f3d 0c71 18bd 72a3 a03c 5ca6 cc3d
000003c0: 2b9c 69bd 00be 9e3c 1e23 a5bd 7e41 26bd
000003d0: 70f5 a53d 674f 8cbd 6e60 5b3d 7279 283d
000003e0: ac19 74bc 5266 60bc bd74 45ba b758 56bc
000003f0: 3e30 b93c 71a5 393c 888f 493d b8c6 56bd

bias f4 [64]
-0.07905806 0.082575895 -0.09353451 0.009101453 -0.048689984 -0.051421314 -0.064052165 -0.09610237
-0.012045766 -0.03937833 -0.0114486 -0.076103814 0.08246139 -0.0012691012 0.01425948 0.023761027
-0.06476884 -0.13365713 0.12915729 0.062420297 0.08463432 -0.07448234 0.055533998 0.024982125
-0.12316029 -0.06163535 0.04759735 -0.06374843 -0.051660445 -0.042038 -0.06733831 0.01070559
0.049536955 0.046160474 0.006580712 0.036455058 -0.07719323 0.033912167 0.043216188 0.010242912
-0.12592484 -0.014853621 -0.084888056 0.08094032 -0.023260042 -0.013338957 -0.037561107 -0.0722195
-0.014070321 -0.0012825483 0.016554728 -0.03793487 0.09024419 0.024365028 0.043003384 0.096422136
0.07321032 -0.0063976557 0.058746647 0.08242607 -0.09184608 -0.02129111 -0.05366588 -0.043510925
00000000: 31e9 a1bd 8d1d a93d 058f bfbd 431e 153c
00000010: 266f 47bd 289f 52bd c82d 83bd 52d1 c4bd
00000020: 9b5b 45bc 2c4b 21bd e992 3bbc 51dc 9bbd
00000030: 84e1 a83d f857 a6ba 98a0 693c 7ca6 c23c
00000040: 87a5 84bd 6add 08be cf41 043e 6dac 7f3d
00000050: c254 ad3d 328a 98bd 9e77 633d 50a7 cc3c
00000060: 763b fcbd 5975 7cbd 70f5 423d 898e 82bd
00000070: e799 53bd 0a30 2cbd abe8 89bd 8066 2f3c
00000080: 43e7 4a3d c412 3d3d 03a3 d73b e651 153d
00000090: 7c17 9ebd 7ce7 0a3d 7503 313d e3d1 273c
000000a0: 71f2 00be 9a5c 73bc cad9 adbd 0ac4 a53d
000000b0: d88b bebc a48b 5abc add9 19bd d1e7 93bd
000000c0: 3487 66bc 2e1b a8ba c89d 873c 9861 1bbd
000000d0: f2d1 b83d 2b99 c73c 5124 303d f878 c53d
000000e0: 4bef 953d 6da3 d1bb 53a0 703d 00cf a83d
000000f0: cc19 bcbd b26a aebc c1d0 5bbd 8338 32bd

weight f4 [64]
1.3850739 1.1487507 1.3519655 1.205103 1.3410529 1.2020423 1.4005055 1.2819194
1.3690219 1.1585224 1.2108861 1.4076349 1.3693299 1.3700776 1.1850123 1.3013506
1.3247908 1.425201 1.3297019 1.1775278 1.271738 1.2954749 1.1006395 1.2942134
1.2384012 1.3082458 1.1627672 1.314828 1.4919497 1.2377234 1.2793485 1.2444562
1.299451 1.1994909 1.2360679 1.262744 1.4056339 1.2779368 1.1592473 1.2345337
1.4374744 1.2717563 1.3288294 1.2156036 1.2923892 1.132832 1.2495105 1.2412366
1.1959295 1.243832 1.2631086 1.3572422 1.3545482 1.1519727 1.3143126 1.2739114
1.2504162 1.1789753 1.2828829 1.3983612 1.2800816 1.3008655 1.3277798 1.2748883
00000000: 1a4a b13f 430a 933f 350d ad3f d140 9a3f
00000010: 9fa7 ab3f 86dc 993f c443 b33f ef15 a43f
00000020: 1c3c af3f 764a 943f 51fe 9a3f 612d b43f
00000030: 3446 af3f b45e af3f 7cae 973f a892 a63f
00000040: bf92 a93f fd6c b63f ac33 aa3f 3bb9 963f
00000050: 50c8 a23f 1fd2 a53f c1e1 8c3f c9a8 a53f
00000060: ee83 9e3f 9974 a73f 8ed5 943f 494c a83f
00000070: 35f8 be3f b86d 9e3f b1c1 a33f 574a 9f3f
00000080: 6954 a63f eb88 993f 7937 9e3f 98a1 a13f
00000090: d0eb b33f 6f93 a33f 3762 943f 3305 9e3f
000000a0: 29ff b73f e9c8 a23f 1517 aa3f e698 9b3f
000000b0: 026d a53f a400 913f f6ef 9f3f d7e0 9e3f
000000c0: 3814 993f e335 9f3f 8bad a13f 1dba ad3f
000000d0: d661 ad3f d773 933f 653b a83f 870f a33f
000000e0: a30d a03f aae8 963f 8235 a43f 80fd b23f
000000f0: b7d9 a33f c382 a63f b0f4 a93f 8a2f a33f

bias f4 [64]
-0.005282158 -0.049687084 0.06219466 0.099923395 0.092695035 0.03042528 0.08248663 0.036220353
0.08139807 0.06435193 -0.029421603 0.058456745 0.1100437 0.11898494 0.029133765 0.12401835
0.11678609 0.029829089 0.014812426 0.03855184 0.035455894 0.08110433 -0.018580586 0.15044564
0.05369712 0.07674963 0.03023162 0.08852361 -0.10266428 -0.012117426 -0.04502588 0.09714564
0.024723873 0.06021468 0.061123423 0.0886 -0.012347545 0.07357854 0.031393882 0.074168645
0.10500548 -0.06366663 0.03337436 0.028062148 0.07829208 0.02217651 -0.0030862845 0.010269747
-0.0041045966 0.06584283 0.05500809 0.09031737 0.09999793 0.064031504 0.111889645 0.03714296
0.04572388 0.108605705 0.013280475 0.09968721 0.014946543 0.063651614 0.1336552 0.09137847
00000000: f415 adbb af84 4bbd d4bf 7e3d a3a4 cc3d
00000010: e5d6 bd3d 703e f93c c0ee a83d cb5b 143d
00000020: 08b4 a63d f2ca 833d 9305 f1bc 5770 6f3d
00000030: 975e e13d 60ae f33d efa9 ee3c 55fd fd3d
00000040: 8c2d ef3d 225c f43c d1af 723c 89e8 1d3d
00000050: 333a 113d 071a a63d 5036 98bc 6c0e 1a3e
00000060: 83f1 5b3d e92e 9d3d 4da8 f73c de4b b53d
00000070: a641 d2bd 2b88 46bc 0f6d 38bd 4bf4 c63d
00000080: b889 ca3c aba3 763d 8e5c 7a3d eb73 b53d
00000090: 5b4d 4abc 58b0 963d df96 003d bbe5 973d
000000a0: 1d0d d73d a663 82bd 8eb3 083d 97e2 e53c
000000b0: 9957 a03d 83ab b53c 4343 4abb 7142 283c
000000c0: da7f 86bb 9bd8 863d 2a50 613d 50f8 b83d
000000d0: b7cb cc3d f322 833d 6626 e53d 3723 183d
000000e0: f748 3b3d ab6c de3d 5996 593c cf28 cc3d
000000f0: 58e2 743c c75b 823d e9dc 083e a324 bb3d

running_mean f4 [64]
-2.3536062 0.25677618 -0.5759914 -0.65757173 -1.4421815 -0.45075786 -1.6425356 -2.4885604
0.6758841 -0.36939836 -0.79713374 -2.792487 0.033757508 0.28115186 1.4221157 1.1825308
0.2777179 -2.048631 0.547224 0.41722414 1.0344808 -1.6791548 1.0443937 1.1885278
-2.066643 -1.1704067 -0.24816121 1.2895664 -1.0940745 -0.9937714 -1.5367771 0.12171201
1.0164794 0.7278931 0.06945551 1.1639131 -1.7553744 1.0739062 0.056972783 0.73857754
-2.694362 -1.3526844 -2.0306568 0.68078655 -2.073498 0.608361 -0.11846256 -0.46233281
-1.4647712 0.59933966 0.64445615 -1.8534093 1.0663024 0.73260814 1.0288997 -0.05049195
0.60871285 0.7621195 0.50427306 0.7292307 -1.8235329 -1.8359302 0.15140173 0.79712355
00000000: 7ca1 16c0 2b78 833e 2c74 13bf 9f56 28bf
00000010: 6799 b8bf bcc9 e6be 9b3e d2bf 9344 1fc0
00000020: be06 2d3f c821 bdbe f510 4cbf 1bb8 32c0
00000030: 5045 0a3d 23f3 8f3e e307 b63f 2b5d 973f
00000040: 0a31 8e3e c51c 03c0 df16 0c3f 679e d53e
00000050: de69 843f 8bee d6bf b1ae 853f ae21 983f
00000060: e143 04c0 e3cf 95bf f91d 7ebe 8310 a53f
00000070: a20a 8cbf cd67 7ebf 1db5 c4bf 2544 f93d
00000080: ff1b 823f 3457 3a3f b13e 8e3d 1bfb 943f
00000090: 1cb0 e0bf c275 893f 4b5c 693d 6b13 3d3f
000000a0: 6d70 2cc0 c324 adbf 48f6 01c0 0748 2e3f
000000b0: 31b4 04c0 8cbd 1b3f 809c f2bd e3b6 ecbe
000000c0: 9f7d bbbf 536e 193f 14fb 243f 843c edbf
000000d0: 997c 883f 358c 3b3f fcb2 833f a6d0 4ebd
000000e0: 9bd4 1b3f 431a 433f 0a18 013f ddae 3a3f
000000f0: 8769 e9bf c3ff eabf 0e09 1b3e 4a10 4c3f

running_var f4 [64]
2.3240306 2.0548332 1.6957064 1.4192593 1.5951682 1.7400359 1.0363274 2.521881
1.5405838 1.0467331 1.5562388 2.034964 1.0450938 1.2348922 1.7102416 1.7786278
1.6611712 1.4987004 1.6032113 1.1050701 1.3808633 1.5294578 1.3502734 2.1107779
1.7958585 1.3904324 1.7335876 2.052396 1.926444 1.2063426 1.6910368 1.4438603
2.073385 1.8249116 2.0196126 1.4670904 1.9865999 1.55347 1.3410122 1.4401972
1.997406 1.4193856 1.4479344 1.2471265 1.5298485 1.0481491 1.6968578 1.5963099
1.3459485 1.8448184 1.6862756 1.326192 1.928607 1.7134517 1.5500762 0.9605626
1.1232892 2.1177993 1.1227103 1.2003901 1.5988878 1.3889183 1.0692527 1.7590257
00000000: ebbc 1440 6382 0340 e80c d93f 4aaa b53f
00000010: 792e cc3f 7fb9 de3f 60a6 843f 8066 2140
00000020: da31 c53f 5afb 853f d532 c73f da3c 0240
00000030: a2c5 853f f310 9e3f 32e9 da3f 13aa e33f
00000040: 42a1 d43f 6ad5 bf3f 0736 cd3f f072 8d3f
00000050: 21c0 b03f 46c5 c33f c2d5 ac3f fc16 0740
00000060: b1de e53f b0f9 b13f 33e6 dd3f 755a 0340
00000070: b895 f63f 6f69 9a3f e573 d83f 6ad0 b83f
00000080: 57b2 0440 b496 e93f 5541 0140 9ec9 bb3f
00000090: e848 fe3f 1bd8 c63f 4aa6 ab3f 6258 b83f
000000a0: 00ab ff3f 6dae b53f ea55 b93f d7a1 9f3f
000000b0: 13d2 c33f c029 863f a332 d93f e253 cc3f
000000c0: 0a48 ac3f 0223 ec3f e1d7 d73f a9c0 a93f
000000d0: 98dc f63f 6352 db3f e668 c63f 6ee7 753f
000000e0: f1c7 8f3f 068a 0740 f9b4 8f3f 62a6 993f
000000f0: 5ba8 cc3f 13c8 b13f 46dd 883f c127 e13f

weight f4 [13, 64, 3, 3]
-0.056169257 0.000410302 -0.057290982 -0.19572513 -0.07926789 -0.19458625 -0.0071477485 0.0004599955
-0.04215851 0.21684106 0.08377176 0.08640522 0.04524168 -0.0022820742 0.11111655 0.0964227
0.03751355 0.1321911 -0.01237425 0.0934306 0.16068476 -0.04744354 0.053682767 -0.0901153
0.08018761 0.015046045 -0.017234933 -0.012803456 -0.008638851 -0.0134328 -0.02894964 -0.055012316
-0.024435481 -0.055511035 -0.16155818 -0.020923564 -0.06299009 -0.11305654 -0.15541923 -0.013226422
-0.058213703 -0.060186736 -0.123533316 -0.15152405 -0.1462862 0.13798936 0.08030246 0.09587869
0.10983196 0.0526279 0.0068937885 0.019779276 -0.047427334 0.034406327 -0.074592106 -0.09474363
0.030419013 -0.11122132 0.032648113 -0.0074013076 0.011259561 0.05224735 0.13548633 -0.10222224
0.03697374 -0.06427375 -0.16381891 0.031294998 -0.068642974 -0.18058255 -0.057741817 -0.10976127
0.021532744 -0.045993317 0.0029059944 0.009532337 0.035622586 0.048121702 -0.24581507 -0.20680133
-0.22365005 0.012106352 0.033099238 0.02006713 -0.014392158 0.004579592 0.045904167 0.08517631
0.056317225 0.051393997 0.016822701 -0.049589876 -0.20293202 0.06730017 -0.042831022 -0.052948527
-0.02730122 -0.06805637 -0.043335125 -0.058889743 -0.019205539 0.06896068 -0.03663018 -0.018143669
-0.108238444 -0.198707 -0.047958687 -0.08083394 -0.04160392 0.005766145 -0.074332796 0.0066149896
-0.010837744 -0.0041817594 0.105390035 -0.008432642 0.07271365 0.010121287 -0.018319381 0.014201382
-0.019457832 0.016033154 0.11803876 0.020042809 0.048348695 0.022282492 -0.044941213 -0.06271565
-0.14291719 -0.023359062 -0.13270788 -0.1832409 0.014166322 -0.038863566 -0.03580894 0.004458745
0.09651224 0.002813887 -0.1460329 0.057172228 -0.029577788 -0.16818638 -0.055736065 0.06012309
-0.02569028 -0.036384873 -0.035318367 -0.007874204 0.054481078 0.048243154 -0.18907245 -0.11833019
-0.12844841 -0.11976391 -0.109446906 -0.019092392 -0.07232581 -0.040453766 -0.10209671 -0.2706862
-0.19721071 -0.19457166 0.022721352 0.0016133919 0.171786 0.108041994 0.08790027 0.1544954
0.071429886 -0.066454224 -0.10535171 0.055339467 -0.022069756 0.04991619 0.028762523 -0.004038091
0.0012163518 0.012910552 0.016117323 0.012779487 0.07242376 0.04536665 0.004681832 0.12887527
-0.020808784 0.009374352 0.019442985 -0.0075619896 0.06273483 -0.0040575797 -0.07051755 -0.11742498
-0.106271386 -0.12485432 -0.07737753 -0.0444199 -0.021255672 0.0021673124 0.094759546 0.05477725
0.019077651 0.07151594 0.04229556 -0.007291112 0.07027436 0.01039613 0.038797986 0.054778248
0.011345788 -0.055095796 -0.09586333 -0.07846381 -0.04498185 -0.20858996 -0.090457655 -0.045906156
-0.118876964 -0.09972627 -0.01395714 -0.10836861 0.009081335 -0.044875406 -0.12403495 -0.09700222
-0.04474514 -0.08122617 -0.0143208075 -0.03105868 -0.0529548 -0.07829882 0.04735703 -0.06768062
-0.16016585 -0.015828917 0.04327541 0.086874954 0.11284258 0.0986473 0.049918156 0.047438126
-0.047984093 0.05014382 0.00623774 -0.043786064 -0.07425995 -0.2120037 -0.09037353 -0.09920667
-0.17129794 -0.11497891 -0.015160181 -0.031461716 -0.13902888 0.12871343 0.1137285 -0.038437597
00000000: bc11 66bd cd1d d739 f3a9 6abd 2b6c 48be
00000010: 3457 a2bd 9e41 47be a937 eabb 8d2b f139
00000020: 67ae 2cbd 950b 5e3e 8790 ab3d 38f5 b03d
00000030: 574f 393d da8e 15bb 1391 e33d 4479 c53d
00000040: cfa7 193d 1b5d 073e 5ebd 4abc 8b58 bf3d
00000050: 8c8a 243e 2854 42bd 76e2 5b3d 5f8e b8bd
00000060: 6739 a43d b083 763c 4630 8dbc 96c5 51bc
00000070: f889 0dbc 3f15 5cbc cc27 edbc 9854 61bd
00000080: eb2c c8bc 8a5f 63bd 826f 25be e567 abbc
00000090: f300 81bd 308a e7bd 3826 1fbe a2b3 58bc
000000a0: 7e71 6ebd 5e86 76bd 09ff fcbd 1f29 1bbe
000000b0: 0dcc 15be 154d 0d3e 9e75 a43d 0c5c c43d
000000c0: 94ef e03d 5a90 573d 4ae5 e13b 2608 a23c
000000d0: 2a43 42bd a6ed 0c3d bfc3 98bd f308 c2bd
000000e0: 4b31 f93c 01c8 e3bd 07ba 053d ab86 f2bb
000000f0: 067a 383c 5101 563d eebc 0a3e e559 d1bd
00000100: c771 173d f5a1 83bd 25c0 27be 2f2f 003d
00000110: b094 8cbd a2ea 38be af82 6cbd 84ca e0bd
00000120: 7065 b03c 7d63 3cbd 7f72 3e3b 852d 1c3c
00000130: fde8 113d 431b 453d f2b6 7bbe bac3 53be
00000140: 8504 65be b859 463c 1193 073d d263 a43c
00000150: 16cd 6bbc 6710 963b 0206 3c3d eb70 ae3d
00000160: e4ac 663d 8382 523d c3cf 893c c11e 4bbd
00000170: 69cd 4fbe acd4 893d 956f 2fbd 8ee0 58bd
00000180: cfa6 dfbc 2361 8bbd 2c80 31bd 5f36 71bd
00000190: ef54 9dbc 423b 8d3d 8709 16bd 08a2 94bc
000001a0: 1eac ddbd d979 4bbe 5470 44bd 448c a5bd
000001b0: df68 2abd eef1 bc3b cb3b 98bd 8ec2 d83b
000001c0: cb90 31bc 2407 89bb bbd6 d73d 1029 0abc
000001d0: e5ea 943d c1d3 253c 8712 96bc eaac 683c
000001e0: 0866 9fbc f657 833c 4ebe f13d d130 a43c
000001f0: 4809 463d c689 b63c 4714 38bd 1071 80bd
00000200: e258 12be 815b bfbc 93e4 07be 81a3 3bbe
00000210: dc19 683c 672f 1fbd 65ac 12bd aa1a 923b
00000220: 36a8 c53d 3169 383b a689 15be 6d2d 6a3d
00000230: 1e4d f2bc 0d39 2cbe 804b 64bd a143 763d
00000240: 6c74 d2bc 4e08 15bd fea9 10bd ce02 01bc
00000250: 8d27 5f3d 9d9a 453d 359c 41be 1957 f2bd
00000260: fb87 03be c846 f5bd b325 e0bd a667 9cbc
00000270: 8e1f 94bd d9b2 25bd 1418 d1bd 6297 8abe
00000280: 9bf1 49be cb3d 47be 2122 ba3c 7378 d33a
00000290: abe8 2f3e 1f45 dd3d 0f05 b43d 0b34 1e3e
000002a0: d549 923d 2719 88bd a3c2 d7bd a3ab 623d
000002b0: a2cb b4bc eb74 4c3d 629f eb3c f651 84bb
000002c0: fe6d 9f3a c886 533c 7a08 843c 0e61 513c
000002d0: e952 943d 61d2 393d 0e6a 993b e1f7 033e
000002e0: 2f77 aabc e296 193c e546 9f3c 91ca f7bb
000002f0: 1e7b 803d 72f5 84bb 816b 90bd 827c f0bd
00000300: d0a4 d9bd 9fb3 ffbd 1c78 9ebd a4f1 35bd
00000310: 6020 aebc 7809 0e3b 4b11 c23d 1c5e 603d
00000320: bc48 9c3c f376 923d 1c3e 2d3d 48ea eebb
00000330: 01ec 8f3d 8854 2a3c a3ea 1e3d 285f 603d
00000340: afe3 393c 21ac 61bd fe53 c4bd a2b1 a0bd
00000350: e33e 38bd 9b98 55be dd41 b9bd 1808 3cbd
00000360: c475 f3bd 493d ccbd 7dac 64bc 5df0 ddbd
00000370: e1c9 143c 46cf 37bd 0906 febd 1aa9 c6bd
00000380: ae46 37bd e859 a6bd d2a1 6abc c66e febc
00000390: 22e7 58bd 225b a0bd 72f9 413d 239c 8abd
000003a0: 8402 24be a5ab 81bc 8e41 313d 7feb b13d
000003b0: 031a e73d 9807 ca3d fb76 4c3d 7b4e 423d
000003c0: f88a 44bd 9b63 4d3d f565 cc3b 0459 33bd
000003d0: 9a15 98bd 7f17 59be c215 b9bd de2c cbbd
000003e0: ba68 2fbe 107a ebbd 6862 78bc 00de 00bd
000003f0: 965d 0ebe 74cd 033e 7dea e83d be70 1dbd

bias f4 [13]
0.048089977 0.020837026 0.0040452625 -0.046207283 -0.019006358 -4.0351864e-05 -0.0011164101 0.04318427
-0.056146875 -0.0032061539 -0.07585636 -0.029235756 -0.08453618
00000000: fff9 443d 69b2 aa3c 1f8e 843b d943 3dbd
00000010: 39b3 9bbc 7c3f 29b8 8254 92ba fde1 303d
00000020: 44fa 65bd 561e 52bb 945a 9bbd d37f efbc
00000030: 4e21 adbd

weight f4 [64, 13, 3, 3]
-0.0037378874 0.020028835 0.019820232 -0.01836033 0.012631087 -0.023165282 0.09466935 0.039327666
-0.044579502 -0.025581177 -0.010586814 -0.033856902 -0.024952807 -0.01857691 0.021621555 0.011482898
-0.016756734 0.019246876 0.20874168 0.1821056 -0.099088155 0.11299632 0.043910135 -0.14974779
-0.012669663 -0.034197293 -0.13508677 0.09377445 -0.04179322 -0.050434086 0.0588217 0.01038213
-0.016471112 -0.016619634 -0.011122707 -0.0037376722 -0.18581992 -0.12831496 0.21427804 -0.07550169
-0.07740982 0.14096904 -0.0070342747 -0.023426795 -0.03397422 -0.059474334 -0.012184861 -0.008410828
-0.019592995 -0.038933225 -0.06547596 0.018746806 0.028351448 -0.033758372 -0.016107086 -0.021311661
-0.0088258665 -0.03563272 0.003989842 0.020744955 0.013827125 0.009971166 0.017534388 -0.019373938
0.030226352 -0.09383456 0.016383264 0.037664045 -0.03782106 -0.0447338 -0.013841727 -0.026424667
0.04427149 -0.04272774 0.03933613 -0.0141995335 -0.048622046 0.01710028 -0.0012314623 -0.025987659
-0.06585512 0.009700911 -0.016548764 -0.017989356 -0.018353747 0.0066233524 0.014044154 -0.002960765
0.03597373 -0.009155911 -0.016076256 0.0042567016 0.0045336206 0.019038258 -0.022059275 -0.0049232156
0.04492649 0.02622117 0.029348249 -0.00093042094 -0.010642826 -0.08476854 0.08630847 0.012622543
-0.025755549 0.03047978 0.082318306 0.08522943 -0.022856971 0.057286527 0.020741254 0.049610265
-0.012481331 -0.09275763 -0.01836684 -0.107004285 -0.13787629 -0.009646323 0.016465787 0.09423837
0.0052358513 0.010208489 0.03481615 -0.05212098 0.008972183 0.006015759 -0.010515267 0.05508558
-0.0036571634 0.053756006 0.02967646 -0.010491959 -0.025913738 -0.010668979 -0.034385648 -0.106261715
-0.0498488 -0.024685219 -0.098203376 -0.057210714 0.08025208 0.0134224435 0.05532298 0.0787053
-0.047329027 -0.10392626 0.07775623 0.067901716 -0.0923227 0.048135143 0.061875764 -0.04988076
0.036527175 0.016314581 -0.105247565 0.0130506195 0.020725347 -0.06491975 0.012428716 0.09163511
0.032759815 0.056780145 0.0045324927 -0.008617293 0.04644911 -0.08847741 0.031135997 0.05614057
-0.09127049 -0.018587176 0.022530947 0.03292784 -0.004218024 -0.0044137286 0.04602543 -0.06377268
0.0050379755 -0.050938427 -0.03519059 0.051889747 -0.049195565 0.01150122 -0.010715119 -0.049616937
-0.008657233 0.011934202 -0.023594372 -0.0015393791 0.040060394 0.036208987 0.010646561 0.031940088
0.036400516 -0.018330144 0.021474091 0.032208264 -0.0032647795 0.019816475 -0.004285352 -0.00816486
-0.004643765 0.008088009 0.0002904657 0.009517173 0.029429615 -0.019195788 0.014389153 -0.053583257
-0.07769349 -0.024860147 0.023267498 -0.035764106 -0.027767329 0.016627572 0.016279899 0.0039422847
-0.03946214 -0.050156217 0.04304331 -0.093430534 -0.015636042 0.10071961 -0.051624708 -0.030260453
-0.06545508 0.00900824 0.10247456 0.09604994 0.04256119 0.05742301 0.04787587 0.029076431
0.045783143 -0.027227845 0.03276174 0.035433255 -0.03746827 -0.042503003 -0.026251214 -0.047252625
0.05039536 0.042430777 -0.032673277 -0.013701618 0.009570569 0.0020319992 -0.035741054 -0.023632238
0.015591125 -0.010760195 -0.0012757579 0.014548931 -0.020727439 -0.0125129875 0.0031415373 0.033220503
00000000: 58f7 74bb 8313 a43c 0a5e a23c 6768 96bc
00000010: 9ef2 4e3c 1ec5 bdbc 01e2 c13d 0c16 213d
00000020: ff98 36bd 9e8f d1bc 5174 2dbc 89ad 0abd
00000030: d469 ccbc 9b2e 98bc b01f b13c c422 3c3c
00000040: 6b45 89bc a0ab 9d3c 61c0 553e e479 3a3e
00000050: bbee cabd 9d6a e73d 1ddb 333d 7c57 19be
00000060: 6b94 4fbc 7612 0cbd 3054 0abe d20c c03d
00000070: 5e2f 2bbd f993 4ebd 06ef 703d cf19 2a3c
00000080: 6dee 86bc e625 88bc 043c 36bc bcf3 74bb
00000090: 9447 3ebe ff64 03be b46b 5b3e a1a0 9abd
000000a0: 0a89 9ebd 305a 103e c67f e6bb 8de9 bfbc
000000b0: 8d28 0bbd 5c9b 73bd 03a3 47bc 92cd 09bc
000000c0: 7d81 a0bc 7278 1fbd 4318 86bd e792 993c
000000d0: 4c41 e83c 3846 0abd 02f3 83bc cb95 aebc
000000e0: 5e9a 10bc 9df3 11bd 38bd 823b 53f1 a93c
000000f0: 2a8b 623c 1a5e 233c 47a4 8f3c 18b6 9ebc
00000100: 419d f73c 552c c0bd 3236 863c 9d45 1a3d
00000110: 41ea 1abd ca3a 37bd 69c8 62bc 8b78 d8bc
00000120: 0656 353d 4803 2fbd ec1e 213d 29a5 68bc
00000130: e927 47bd e315 8c3c 0569 a1ba 12e4 d4bc
00000140: 0ddf 86bd 92f0 1e3c 4691 87bc 6a5e 93bc
00000150: 995a 96bc b508 d93b 7419 663c 6509 42bb
00000160: 3159 133d ad02 16bc 5ab2 83bc cd7b 8b3b
00000170: c48e 943b 1ff6 9b3c a7b5 b4bc ed52 a1bb
00000180: d704 383d c7cd d63c bd6b f03c 7ee7 73ba
00000190: 3f5f 2ebc 219b adbd 7fc2 b03d c8ce 4e3c
000001a0: 4dfd d2bc bbb0 f93c 8096 a83d c48c ae3d
000001b0: 8b3e bbbc 47a5 6a3d 90e9 a93c 2234 4b3d
000001c0: 7f7e 4cbc b6f7 bdbd 0e76 96bc 1025 dbbd
000001d0: 712f 0dbe 9c0b 1ebc 42e3 863c 0c00 c13d
000001e0: 8191 ab3b 8241 273c 619b 0e3d cf7c 55bd
000001f0: 1000 133c d81f c53b 3a48 2cbc 6ba1 613d
00000200: 05ad 6fbb 422f 5c3d 0c1c f33c 77e6 2bbc
00000210: 0c49 d4bc f1cc 2ebc f7d7 0cbd be9f d9bd
00000220: 412e 4cbd a838 cabc da1e c9bd c855 6abd
00000230: 345b a43d cfe9 5b3c 599a 623d 3f30 a13d
00000240: 15dc 41bd 4ad7 d4bd a93e 9f3d 0e10 8b3d
00000250: af13 bdbd 5b29 453d 7171 7d3d c54f 4cbd
00000260: 859d 153d 28a6 853c 098c d7bd 44d2 553c
00000270: 34c8 a93c a5f4 84bd d0a1 4b3c 30ab bb3d
00000280: 282f 063d 4c92 683d 4e85 943b 8c2f 0dbc
00000290: 6c41 3e3d a533 b5bd eb10 ff3c a8f3 653d
000002a0: 06ec babd 2244 98bc d292 b83c 58df 063d
000002b0: 5a37 8abb 0aa1 90bb 2985 3c3d 409b 82bd
000002c0: 9a15 a53b d0a4 50bd 0224 10bd 588a 543d
000002d0: 4a81 49bd 9d6f 3c3c 778e 2fbc 213b 4bbd
000002e0: 11d7 0dbc ac87 433c fc48 c1bc fec4 c9ba
000002f0: 5e16 243d e04f 143d ea6e 2e3c 9cd3 023d
00000300: b518 153d 1929 96bc 6fea af3c d0ec 033d
00000310: e9f5 55bb 2956 a23c 236c 8cbb e8c5 05bc
00000320: b92a 98bb 9283 043c a549 9839 ebed 1b3c
00000330: 6016 f13c 7c40 9dbc 7bc0 6b3c 1e7a 5bbd
00000340: c41d 9fbd 82a7 cbbc 7b9b be3c 627d 12bd
00000350: 4f78 e3bc 8c36 883c 6c5d 853c 482e 813b
00000360: 0ea3 21bd 9b70 4dbd 2f4e 303d 8258 bfbd
00000370: 2817 80bc 1546 ce3d 6e74 53bd c5e4 f7bc
00000380: 500d 86bd 4c97 133c 2fde d13d d5b5 c43d
00000390: a454 2e3d 6434 6b3d 7d19 443d b231 ee3c
000003a0: 1b87 3b3d ee0c dfbc 2d31 063d 7622 113d
000003b0: 5478 19bd a117 2ebd c90c d7bc f88b 41bd
000003c0: 5d6b 4e3d e5cb 2d3d 6ad4 05bd c07c 60bc
000003d0: e0cd 1c3c 4a2b 053b 3665 12bd 6598 c1bc
000003e0: eb71 7f3c 874b 30bc 5537 a7ba a45e 6e3c
000003f0: 97cc a9bc 4603 4dbc 40e2 4d3b 3912 083d

bias f4 [64]
0.2481959 -0.0669122 0.064662814 0.022239871 0.030971885 0.10358235 -0.04314512 0.0012413516
0.26218155 0.1606183 -0.026924703 -0.3383724 0.13477328 0.31451762 -0.01275836 0.082182676
-0.06930287 -0.11946684 -0.015089569 0.020811247 -0.2523415 0.07493587 0.3327983 0.018087475
0.049108837 0.08388086 -0.13031666 -0.027016677 0.14129895 -0.005571403 -0.38977155 -0.25397983
-0.28766012 -0.2967284 0.028088467 -0.43386412 0.047236357 0.07173651 0.068335675 0.046442162
0.056705117 0.11076743 -0.010495044 0.0015303567 -0.00062792515 -0.021821003 -0.058400426 0.035424728
-0.3370323 0.19303247 -0.08165071 -0.16082206 -0.5383574 -0.2582574 -0.011921711 0.04356551
-0.047253024 -0.12280236 0.10136307 -0.30749917 -0.064226024 -0.07428618 -0.011703908 0.030094625
00000000: 1127 7e3e 4309 89bd f06d 843d 6430 b63c
00000010: c0b8 fd3c fc22 d43d f0b8 30bd d9b4 a23a
00000020: a93c 863e 2079 243e 3291 dcbc 263f adbe
00000030: 0202 0a3e 7408 a13e 7108 51bc 644f a83d
00000040: aaee 8dbd 08ab f4bd 3d3a 77bc 597c aa3c
00000050: e832 81be fa77 993d 8a64 aa3e 2f2c 943c
00000060: 5926 493d bac9 ab3d bb71 05be 1452 ddbc
00000070: acb0 103e 5190 b6bb 2390 c7be a509 82be
00000080: 3048 93be c9ec 97be c919 e63c 7023 debe
00000090: e97a 413d 97ea 923d 93f3 8b3d 233a 3e3d
000000a0: a043 683d 09da e23d 68f3 2bbc 4096 c83a
000000b0: 589b 24ba f6c1 b2bc 4935 6fbd 8519 113d
000000c0: 7f8f acbe 4eaa 453e 7d38 a7bd 8aae 24be
000000d0: cad1 09bf 503a 84be 4853 43bc c071 323d
000000e0: 638c 41bd ce7f fbbd 7197 cf3d 8870 9dbe
000000f0: ef88 83bd 5a23 98bd c0c1 3fbc 0189 f63c

weight f4 [64]
0.9394923 1.017826 0.98089594 0.98191816 0.96220374 1.0007524 0.9322027 0.93903184
1.0336882 0.95827854 0.9537386 1.0923193 0.88746667 0.97558963 0.91506004 1.0089246
0.9604557 0.9473242 0.87455976 0.99081343 1.0940241 0.99182296 0.95913035 0.97329396
0.8704925 1.0262836 0.99509037 0.9151154 0.9660278 0.8615356 0.9965084 1.0234104
0.92957646 0.9368046 0.8144044 0.92561823 0.88988376 0.99624014 0.970551 0.9235198
1.0134706 1.059847 0.9213946 1.0403657 0.99457663 0.92815673 1.080713 0.9590188
0.97330654 0.9167365 0.92709696 1.0293555 1.0814835 0.9019385 0.9019127 0.955279
1.016377 0.9480081 0.9465803 1.0159779 0.9384335 0.9231229 0.9258371 1.0348507
00000000: 9182 703f 1f48 823f ff1b 7b3f fd5e 7b3f
00000010: fc52 763f a818 803f d6a4 6e3f 6464 703f
00000020: e54f 843f be51 753f 3628 743f 1ed1 8b3f
00000030: 0431 633f 3ec0 793f 6041 6a3f 7124 813f
00000040: 6de0 753f d783 723f 26e3 5f3f f3a5 7d3f
00000050: fb08 8c3f 1ce8 7d3f 9189 753f cb29 793f
00000060: 99d8 5e3f 435d 833f 3ebe 7e3f 0145 6a3f
00000070: 994d 773f 998d 5c3f 2d1b 7f3f 1dff 823f
00000080: b9f8 6d3f 6dd2 6f3f cf7c 503f 51f5 6c3f
00000090: 6ccf 633f 9809 7f3f 0876 783f cb6b 6c3f
000000a0: 68b9 813f 11a9 873f 84e0 6b3f b42a 853f
000000b0: 939c 7e3f ae9b 6d3f ce54 8a3f 4282 753f
000000c0: 9e2a 793f 3eaf 6a3f 3a56 6d3f ecc1 833f
000000d0: 0d6e 8a3f 71e5 663f c0e3 663f 2a8d 743f
000000e0: a418 823f a9b0 723f 1653 723f 900b 823f
000000f0: 2e3d 703f c851 6c3f a903 6d3f fd75 843f

bias f4 [64]
-0.5233682 -0.10156334 -0.50412387 -0.1521032 -0.043228116 0.103932954 -0.025858201 -0.21936394
-0.64763224 -0.10988605 -0.12537861 -0.46090308 -0.1284518 -0.40152222 -0.18424611 -0.29235503
-0.07988986 -0.39934185 -0.26772788 -0.09105305 -0.44298187 -0.044196155 -0.35514793 -0.15230374
-0.40552887 -0.3881446 -0.23329997 -0.1610907 -0.09412665 -0.22341539 -0.3692464 -0.45168433
-0.36829975 -0.44796363 -0.14834493 -0.3407569 -0.29569724 -0.15543313 -0.15010731 -0.24958259
-0.37843937 -0.2260323 -0.07677138 -0.074401274 -0.022953253 -0.10713299 -0.55473834 -0.05998423
-0.4530617 -0.15954956 -0.18789437 -0.24038748 -0.51926804 -0.4637689 -0.22505122 -0.065006346
-0.58434165 0.0012644759 -0.32328454 -0.67136574 -0.093046285 -0.26975074 -0.22598374 -0.47012857
00000000: 75fb 05bf 7100 d0bd 430e 01bf f1c0 1bbe
00000010: f70f 31bd cdda d43d 94d4 d3bc f1a0 60be
00000020: 3acb 25bf f00b e1bd 4063 00be 7dfb ebbe
00000030: de88 03be 5294 cdbe 03ab 3cbe 8faf 95be
00000040: 4b9d a3bd 8976 ccbe a113 89be 057a babd
00000050: 85ce e2be 0707 35bd f3d5 b5be 83f5 1bbe
00000060: 7ba1 cfbe e4ba c6be 30e6 6ebe f6f4 24be
00000070: 79c5 c0bd 01c7 64be dd0d bdbe 2b43 e7be
00000080: c991 bcbe 7d5b e5be bce7 17be b077 aebe
00000090: a165 97be dd29 1fbe bbb5 19be 9492 7fbe
000000a0: cec2 c1be 0375 67be 503a 9dbd b25f 98bd
000000b0: 7608 bcbc 8b68 dbbd 5503 0ebf 06b2 75bd
000000c0: b4f7 e7be f660 23be 6267 40be 2328 76be
000000d0: c0ee 04bf 1e73 edbe d473 66be 0c22 85bd
000000e0: 6a97 15bf c5bc a53a 8d85 a5be a0de 2bbf
000000f0: 0d8f bebd c51c 8abe 4868 67be b1b4 f0be

running_mean f4 [64]
0.20897952 -0.05123489 0.029608862 -0.17564373 0.03733806 0.13693285 0.013349095 -0.005521977
0.24208228 0.20031992 0.06704922 -0.37629884 0.16549623 0.31745404 0.009749147 -0.030689085
-0.009192551 -0.1561382 0.00834197 0.08478818 -0.23552577 -0.056428563 0.3273047 0.12039778
0.0049223 0.022903705 -0.12867464 0.042174805 0.18168697 0.04655997 -0.44407713 -0.29299742
-0.3049047 -0.33383778 0.10082047 -0.4316403 0.018062312 -0.07162793 -0.08996886 -0.0025175768
0.073029965 -0.08818893 -0.023462437 -0.16047719 0.029360516 0.03424788 -0.1477012 0.09186632
-0.36915398 0.2571153 -0.054609705 -0.18010306 -0.58476305 -0.2998161 0.023077223 0.0032180236
-0.09297662 -0.058975875 0.033093266 -0.32776287 0.055896547 0.028573165 0.048071038 0.0056053274
00000000: bafe 553e addb 51bd 498e f23c f3db 33be
00000010: cbef 183d 2038 0c3e 2ab6 5a3c b3f1 b4bb
00000020: 6be4 773e aa20 4d3e 1a51 893d 3eaa c0be
00000030: d877 293e 5689 a23e e3ba 1f3c ad67 fbbc
00000040: 5a9c 16bc b1e2 1fbe c2ac 083c 6da5 ad3d
00000050: ab2d 71be a321 67bd 7b94 a73e 1c93 f63d
00000060: 3f4b a13b 8da0 bb3c 49c3 03be 7dbf 2c3d
00000070: 260c 3a3e abb5 3e3d 145e e3be c203 96be
00000080: 781c 9cbe c9ec aabe f67a ce3d f5ff dcbe
00000090: 6af7 933c aab1 92bd 9841 b8bd eefd 24bb
000000a0: bc90 953d 669c b4bd 4c34 c0bc 2254 24be
000000b0: 7785 f03c 8147 0c3d fc3e 17be 6924 bc3d
000000c0: c001 bdbe 9ea4 833e 6dae 5fbd f06c 38be
000000d0: 08b3 15bf 7f81 99be 720c bd3c 7ae5 523b
000000e0: 876a bebd b090 71bd ce8c 073d 89d0 a7be
000000f0: c7f3 643d 4512 ea3c 23e6 443d e5ac b73b

running_var f4 [64]
0.0029635318 0.004655524 0.0012330256 0.013462036 0.0061920183 0.002390832 0.0066432706 0.0021464252
0.0007099483 0.0022076326 0.0028259174 0.0019169388 0.002211586 0.0072036274 0.0018528234 0.0058581955
0.008768314 0.0008807554 0.0010302078 0.0075954343 0.0016652701 0.0041163564 0.0020468875 0.0038283647
0.0011283782 0.0012506064 0.0020095587 0.0019781026 0.0033192192 0.0017282139 0.0016785216 0.0009884977
0.0009595616 0.0011084677 0.0018667522 0.0015810872 0.0018638932 0.005270366 0.00803923 0.003984843
0.0013103036 0.0150056975 0.0041758367 0.017837936 0.002363995 0.0016548419 0.002258308 0.003388163
0.0009977125 0.002110073 0.002313816 0.0028908036 0.0028602355 0.0027104553 0.0016921471 0.0027765739
0.002067879 0.008879945 0.0029678247 0.00079746486 0.0039556855 0.0032603326 0.0030520675 0.0017555731
00000000: d037 423b 5e8d 983b 799d a13a df8f 5c3c
00000010: 6ae6 ca3b 81af 1c3b cbaf d93b 0aab 0c3b
00000020: d31b 3a3a eead 103b 0733 393b cb41 fb3a
00000030: 42f0 103b 680c ec3b 70da f23a 1bf6 bf3b
00000040: f9a8 0f3c 7fe2 663a 0a08 873a 1fe3 f83b
00000050: 3145 da3a 80e2 863b 1325 063b 4de5 7a3b
00000060: 17e6 933a 63eb a33a cdb2 033b 0ea3 013b
00000070: 4287 593b 3c85 e23a d701 dc3a 7b90 813a
00000080: 178b 7b3a 014a 913a cfad f43a 7c3c cf3a
00000090: e14d f43a 09b3 ac3b f9b6 033c 4993 823b
000000a0: 7ebe ab3a 75da 753c 75d5 883b dd20 923c
000000b0: 41ed 1a3b 48e7 d83a 1f00 143b f10b 5e3b
000000c0: adc5 823a 2749 0a3b 64a3 173b a373 3d3b
000000d0: ca72 3b3b e5a1 313b 09cb dd3a 2ef7 353b
000000e0: 4185 073b 307d 113c d67f 423b f60c 513a
000000f0: b29e 813b 4eab 553b 3205 483b 421b e63a
