carl/envs/mario/pcg_smb_env/toadgan/generators/v2/TOAD_GAN_2-1/generators.pth (torch, 693541 bytes, 42 tensors)

weight f4 [64, 16, 3, 3]
000000 ab 09 8a bd 1e f7 a6 bd 81 04 bd bd cd c3 d7 3b
       -0.06740125 -0.081526026 -0.09229375 0.0065846206
000010 63 54 0d bd de 00 5a 3d c3 f9 1e 3d 52 8c cf 3c
       -0.034504306 0.053223483 0.03881241 0.025335465
000020 04 44 92 bb ce c7 00 3c d0 59 83 bd 7a ea fa 3c
       -0.0044636745 0.007860137 -0.06413615 0.030629385
000030 2b f4 4f 38 91 fb 6c 3c 5a 34 e2 3c 97 53 09 3c
       4.9580045e-05 0.014464275 0.027612854 0.008381746
000040 6e 9a 19 3b 48 d2 35 3d d4 65 08 3e bd f8 ad 3c
       0.0023437995 0.044389993 0.13320094 0.021236772
000050 ce 2d 71 bd dc d8 d0 bc 05 50 38 3d 9b a4 28 bd
       -0.058881573 -0.025494032 0.044998188 -0.041172605
000060 a9 0a 3d bc 7b 6e 87 bc 00 e8 f8 3d 21 db 10 3a
       -0.011538186 -0.016532173 0.121536255 0.0005525817
000070 07 1a aa bd 11 25 e7 bb 42 61 60 3d 47 57 30 bc
       -0.083057456 -0.007053979 0.054780252 -0.010762996
000080 41 35 45 3a 4a 0d 8b bd 92 86 85 bc b4 e7 74 bd
       0.0007522889 -0.06789644 -0.01629952 -0.05979128
000090 ee e6 59 bd 5e 42 2e bc d0 c5 b7 3d d2 e5 8b bc
       -0.053198747 -0.01063594 0.089732766 -0.01707736
0000a0 76 0d 74 bd 05 26 6a bd af 7c 67 3c 0e e3 5e 3b
       -0.05958315 -0.057165165 0.014128848 0.0034009847
0000b0 5a fe dd bc 85 e3 21 3d 69 8c c7 bc ea d5 39 bd
       -0.027098823 0.03952362 -0.024358945 -0.04537002
0000c0 bd ec 38 bd 8f ae 83 bc bc 3f 7d 3c dd 55 8e bd
       -0.045147646 -0.016074447 0.01545709 -0.06949971
0000d0 b7 46 14 3d 7d 03 96 3b e9 ba 9b bd 7d ec 91 3c
       0.03620025 0.0045780526 -0.0760401 0.017812962
0000e0 e3 48 7e bd 86 43 76 3d c0 5f 03 bd ed fc 31 3d
       -0.06208123 0.06012299 -0.032073736 0.0434541
0000f0 96 1a b2 bc 42 0c 55 bd 7d 1f db 3c 1d e6 32 bc
       -0.021741193 -0.052013643 0.026748413 -0.010919121
000100 ba a5 af bc 89 fc 50 bd 2b d1 ca 3c 56 22 b7 bc
       -0.02144133 -0.051022086 0.024757942 -0.02235524
000110 19 66 ff bc 6b db bd bd fc 88 0a 3c 0a aa 2d 3d
       -0.031176614 -0.09270366 0.008455511 0.04239849
000120 9f ba 73 3d 28 77 27 3d c9 30 f7 3c ce f6 35 3c
       0.059504148 0.04088512 0.03017463 0.011106206
000130 f3 e4 01 bd 53 f7 4c 3d 27 de 74 bb db 13 e6 bc
       -0.031712484 0.050040554 -0.0037363858 -0.02808564
000140 66 fa 64 3d 9c d9 94 3d 66 b2 ee bd 6b 2c b8 bc
       0.05590286 0.07268068 -0.116551206 -0.022482118
000150 f8 9e 27 3d 0e 58 8c bc 7c 58 50 bc 37 e8 6c bd
       0.04092309 -0.017131831 -0.012716409 -0.057838645
000160 ba 9e 23 bd 7b 29 b1 bc 54 fc f0 3c b9 11 1c 3d
       -0.039946295 -0.021626225 0.029417194 0.03810284
000170 aa 48 1d ba 3e 1b 5b bd 76 91 28 3c 68 d9 47 bc
       -0.00059999025 -0.053492777 0.010288587 -0.01219783
000180 c3 87 09 3b 48 36 2f 3d 59 b9 2c 3c 1b 0b cc 3b
       0.0020985461 0.042776376 0.010542237 0.00622691
000190 de 4f 33 3d c1 d5 2e 3d c6 65 fa 3d 41 27 ef 3c
       0.04377734 0.04268432 0.12226443 0.029193522
0001a0 0f 80 47 bc 94 da 03 3d 1a 70 d7 bc 99 b6 7f bd
       -0.012176528 0.032190874 -0.026298571 -0.062429998
0001b0 0e 41 4f 39 13 50 48 bd b4 a7 db bd 98 78 ed bc
       0.00019765293 -0.04890449 -0.10725346 -0.028988168
0001c0 b5 ad 4c 3d da 6f 14 bd 81 5f 1a bd ea be f8 bb
       0.049970347 -0.036239482 -0.037688736 -0.007591118
0001d0 7f 02 a2 bd 32 d6 02 be be 6c 42 b9 62 b6 11 be
       -0.07910632 -0.12777022 -0.00018541791 -0.1422973
0001e0 6b 41 ec 3c ba fd fa bc c2 db 77 bd 07 e6 ec 3b
       0.028839787 -0.030638564 -0.06051231 0.00722957
0001f0 ca 85 0d 3a 36 14 2a 3b e8 f7 15 be ac 5f 84 bc
       0.0005398659 0.0025951988 -0.1464535 -0.016158901
000200 c8 9d a9 ba 1a 98 fb bc f8 a8 a8 bc 80 35 f9 3c
       -0.0012940699 -0.030712176 -0.020588383 0.030421019
000210 ce f9 97 bd d8 0d 87 bb ba 52 30 3c 86 27 8b bb
       -0.07420693 -0.0041215234 0.010761911 -0.004246655
000220 22 f6 e7 3c 64 7b 65 bd 0f a8 0e 3d 1e 08 fa 3c
       0.028315607 -0.056025878 0.034828242 0.030521449
000230 81 95 b7 3c a5 33 55 bd e4 0a 20 bb 4a de 30 3d
       0.022410156 -0.052051205 -0.0024420554 0.04318074
000240 45 30 aa 3c 28 65 84 bc 31 c9 7c bd 85 70 a1 3c
       0.02077497 -0.016161516 -0.06171531 0.019706974
000250 14 ee b0 bd 08 e1 82 bc ac b5 2c 3c 45 a0 92 3c
       -0.0863916 -0.015976444 0.010541361 0.017898688
000260 1a 7b c2 bc d1 d1 c4 bc 00 95 35 3d 5c 39 5b bd
       -0.02374034 -0.02402583 0.04433155 -0.0535215
000270 c9 90 68 bc 9d 21 15 bc a7 89 e2 3c 48 67 1f bd
       -0.014194676 -0.009102252 0.027653528 -0.038916856
000280 24 7f 06 bd 91 33 8d bc e9 80 27 bd 92 79 b3 bc
       -0.032836094 -0.017236503 -0.040894423 -0.021908555
000290 00 23 af 3d 72 72 cb bc 30 df 1b bd 2f 23 41 3d
       0.085515976 -0.024834845 -0.038054645 0.047152694
0002a0 82 cf df 3d 55 d0 f7 ba b2 b4 97 bd 34 74 df 3c
       0.10928251 -0.0018906692 -0.07407512 0.02727709
0002b0 42 fc cc bb a1 82 e7 bc 02 6b 7a bc c4 88 ba 3c
       -0.0062556574 -0.02826053 -0.015284302 0.022770293
0002c0 be 62 97 bd 0c a3 48 bd f1 1b e3 bc 46 97 46 bd
       -0.073918805 -0.04898362 -0.027723284 -0.04848411
0002d0 86 84 80 bc 35 51 ba 3d 2e 93 b9 ba 39 ea 14 3d
       -0.015688192 0.0909752 -0.0014158243 0.036356185
0002e0 cc ff 82 3c 8b ad 78 bb e2 52 60 3c 49 cc c0 bc
       0.015991114 -0.0037945237 0.013691636 -0.02353491
0002f0 d8 fe 01 3d fc 81 15 3c a0 8d a0 bd fc 87 40 bc
       0.03173718 0.009125229 -0.07839513 -0.011751171
000300 74 8d 28 3c 91 7a ca bc 79 d5 fb 3a c9 55 b4 bc
       0.010287631 -0.024716647 0.00192134 -0.022013562
000310 1b db 99 3b 17 39 34 bc 32 d3 de bb 31 ed 43 bd
       0.004695309 -0.010999939 -0.006800079 -0.047833625
000320 d8 82 3e 3d 69 b3 a2 bc 14 53 81 3b 31 f3 a1 3c
       0.0465115 -0.01986094 0.0039466713 0.019769283
000330 5e 79 68 bd ba 3f 74 bd e0 c5 1a bd ca 57 1d bd
       -0.05675637 -0.059631087 -0.037786365 -0.0384138
000340 00 c9 a2 3d 4c c1 ac 3c 00 5e ce 3b 47 f9 0c 3d
       0.07948494 0.021088265 0.0062978268 0.034417417
000350 5b db 42 bd aa 3e 63 3d 71 55 d3 bc 38 68 ca bd
       -0.047572475 0.055479683 -0.025797578 -0.098831594
000360 8f f2 b8 3b f7 b7 32 3d 7a 1d 74 3d 36 d0 35 3d
       0.0056441496 0.043632474 0.059598424 0.04438802
000370 48 d6 bd bc ae 8c 7d bd 8a e4 7c 3d 9c 05 b8 3d
       -0.023173466 -0.06190174 0.06174139 0.08985445
000380 c0 1b 0d 3d dc bf a3 3d 1c c4 ba bd 0b d8 4f bd
       0.034450293 0.07995579 -0.09119436 -0.050743144
000390 1a 9b 50 3c 42 85 2e 3d 84 71 74 3c 96 e5 b5 3d
       0.012732292 0.042607553 0.014919642 0.08881681
0003a0 f3 d9 9f bc 64 18 f7 bd a5 cf 2f bd 24 e0 31 3d
       -0.019513106 -0.12065199 -0.042922635 0.043426648
0003b0 4d cc 37 3d c2 d8 1b 3d 9a df 18 bd f7 3f 63 3c
       0.04487257 0.038048513 -0.037322618 0.013870231
0003c0 ca 48 46 bd 32 41 d1 3d 1f b4 1e 3d c9 24 ca bc
       -0.04840926 0.10217513 0.038745996 -0.024675744
0003d0 23 bc b8 3a 68 37 45 bd a8 59 4d b9 cc 13 f4 bc
       0.0014094155 -0.048148543 -0.00019583723 -0.029794596
0003e0 94 37 a4 bc 0b f1 81 3d 94 3b cd 3d d5 29 cf bd
       -0.020046033 0.063448034 0.10021129 -0.10115401
0003f0 aa b5 8d bc 0d 31 fd 3c 1e 07 da 3c bf 16 63 bd
       -0.017298538 0.030907178 0.026614722 -0.055441614

bias f4 [64]
000000 a9 ae b8 bc b2 cb 1e 3d b1 76 a6 bc e4 a4 78 3d
       -0.022544222 0.038768478 -0.020320268 0.060704127
000010 82 98 45 bc 3b 93 fb bc 90 25 30 3c 0b 69 65 3d
       -0.0120602865 -0.030709853 0.010751143 0.05600838
000020 a0 a9 67 bc 6b 7e c1 3c 77 de c0 bd e4 f2 0a bb
       -0.014139563 0.023619851 -0.09417432 -0.0021201903
000030 16 c2 78 bd cf 0e 8e 3d f7 11 91 3d 9d 75 2e bd
       -0.06073197 0.06936418 0.07083505 -0.042592634
000040 ea e2 aa bd 7c 66 8a bd 1e 25 2f 3d bb 43 95 3d
       -0.08344062 -0.067578286 0.042760007 0.07288309
000050 0d 7f d3 bd 12 03 fd bc 0b 38 6d 3d b4 4f b6 bb
       -0.103269674 -0.030885253 0.057914775 -0.0055637006
000060 a6 c3 1a bd 84 96 3c 3d 48 db 76 3d 72 22 6a 3d
       -0.03778424 0.04604198 0.060267717 0.057161756
000070 0c 02 a9 bc f3 f9 99 bc 07 d8 ff 3c ed eb c5 3d
       -0.020630859 -0.018795943 0.03123094 0.0966414
000080 e6 90 d0 3c bb 40 4a bd 0e 25 b1 3c c5 e3 97 3c
       0.025459718 -0.049378138 0.021624114 0.018541226
000090 8d 08 dc bd 6f 3b bf bd 87 ad be 3d 55 57 60 3d
       -0.107438184 -0.09337508 0.093104415 0.054770786
0000a0 6f 84 36 bd 5e d6 88 3d c2 21 0d 3d 8d 68 25 3d
       -0.044559892 0.06681512 0.034456022 0.04038291
0000b0 df 0b 1e 3d 0f 25 ed 3c 62 ae f1 bb 8a 6e 58 3d
       0.03858554 0.028948335 -0.0073755244 0.052839793
0000c0 32 bd 8b bd 63 a4 47 bc 0a 0f a2 3a 12 90 8b bb
       -0.068231955 -0.012185189 0.0012364101 -0.004259118
0000d0 4b 4a e8 3c 01 7e 42 bc 71 46 ad bb 45 4a 8c 3d
       0.028355738 -0.011870862 -0.0052879383 0.06850103
0000e0 82 94 2a 3d 9b a6 9f 3d 23 7f cf bc 0c 0a 89 bc
       0.041645534 0.07795449 -0.025329178 -0.016728424
0000f0 4e 37 cb 3d 0b 00 74 bd b1 c2 4a 3d cc c1 a5 3d
       0.09922658 -0.059570353 0.04950208 0.080936044

weight f4 [64]
000000 cf 96 6a 3f 30 73 74 3f cd 82 83 3f 7d 99 65 3f
       0.91636366 0.9548826 1.0274292 0.8968733
000010 3f a3 79 3f 81 7e 7e 3f 80 a9 67 3f b3 16 88 3f
       0.9751472 0.9941178 0.9049301 1.0631927
000020 9f 1b 73 3f bb a3 8a 3f 36 8f 84 3f bf 41 8b 3f
       0.9496402 1.0831217 1.0356205 1.0879439
000030 b7 24 86 3f d7 14 64 3f bf 8d 87 3f f5 72 7c 3f
       1.0479954 0.890943 1.0590132 0.9861291
000040 e0 f4 6c 3f 5e 57 80 3f ba 40 7b 3f 5d c9 77 3f
       0.9256115 1.0026662 0.9814564 0.9679163
000050 62 58 8e 3f ec a8 62 3f 64 05 82 3f 3a 60 80 3f
       1.1120722 0.88539004 1.0157895 1.0029366
000060 e4 f8 70 3f 74 c9 94 3f ce 8a 71 3f 3e 52 72 3f
       0.94129777 1.1623979 0.94352424 0.9465674
000070 18 b5 86 3f 27 d9 73 3f 4d b3 71 3f 29 db 7f 3f
       1.0524015 0.95253223 0.94414216 0.99943787
000080 0c c2 8f 3f f0 e9 5e 3f 52 91 81 3f 70 6b 7c 3f
       1.1231093 0.8707571 1.0122473 0.98601437
000090 16 da 8d 3f 30 36 8b 3f 6d a1 84 3f 4b f1 90 3f
       1.108218 1.0875912 1.0361763 1.1323637
0000a0 2a c1 8b 3f 1e 22 82 3f 86 9a 6a 3f 0d d8 84 3f
       1.0918324 1.0166662 0.91642034 1.0378433
0000b0 57 ff 73 3f 0b 78 82 3f e5 c6 7b 3f 92 b4 76 3f
       0.9531149 1.0192884 0.98350364 0.9636928
0000c0 9f d3 64 3f 0a 80 6d 3f 3f 71 84 3f 0a 3e 7c 3f
       0.8938541 0.927735 1.034706 0.98532164
0000d0 1f 75 87 3f f2 ba 6c 3f 83 8f 72 3f 06 90 61 3f
       1.0582618 0.92472756 0.9475023 0.8811039
0000e0 4f 97 6d 3f 76 3d 81 3f d3 a0 7f 3f c6 16 75 3f
       0.92809004 1.0096881 0.99854773 0.95737875
0000f0 9f fa 78 3f 83 4b 73 3f d2 2a 79 3f 95 a1 6d 3f
       0.9725742 0.95037097 0.97330964 0.9282468

bias f4 [64]
000000 42 b9 6c be 33 b1 2e be 4c 4e 59 be 65 e9 1e be
       -0.23117545 -0.17059784 -0.21221274 -0.1551872
000010 e8 c0 59 be ef 10 9e be b5 d5 5c be 55 37 2e be
       -0.21264994 -0.30872294 -0.21565898 -0.17013295
000020 c3 4d 58 be 31 d7 67 be ab 35 31 be 94 8e 82 bd
       -0.21123414 -0.22640683 -0.17305629 -0.06374851
000030 88 94 40 be 41 f6 46 be 97 58 20 be a7 9f 21 be
       -0.1880666 -0.19429876 -0.15658794 -0.15783559
000040 3e 1f 51 be 39 72 70 be c0 c1 3c be 66 25 45 be
       -0.20422074 -0.23481072 -0.18433285 -0.19252548
000050 7f 81 56 be fb 25 65 be 6c fc 32 be 48 8c 04 be
       -0.20947836 -0.2237777 -0.17479104 -0.12944138
000060 55 ad ff bd ea 30 77 be 52 fd 54 be f0 4f 6b be
       -0.12484232 -0.24139753 -0.20799759 -0.22979712
000070 dc 20 28 be e1 be 31 be 03 4e 32 be cf a6 40 be
       -0.16418785 -0.17357971 -0.17412572 -0.18813632
000080 8f c8 7e be ef 72 34 be b2 49 14 be 3b 1c 5a be
       -0.24881195 -0.17621969 -0.14481238 -0.21299832
000090 81 1d 61 be b5 a9 6d be 3b 5b 79 be 1f f9 8c be
       -0.21983911 -0.2320927 -0.24351208 -0.27533814
0000a0 2b a1 33 be 00 0b 40 be f1 4c 4f be 5d 06 31 be
       -0.1754195 -0.18754196 -0.20244195 -0.17287584
0000b0 66 30 73 be b0 f9 6a be 5c 6f 38 be 68 b2 a5 bd
       -0.23748931 -0.2294681 -0.1801123 -0.08090669
0000c0 a2 d9 87 be f3 b3 58 be 01 e9 65 be 5f e0 46 be
       -0.26533228 -0.21162395 -0.22452165 -0.19421528
0000d0 4f 98 41 be 8a b0 67 be a9 aa 68 be 5e e8 46 be
       -0.18905757 -0.22625938 -0.22721352 -0.19424579
0000e0 92 ad 2d be 7c 34 a2 bd 5e 16 28 be 6f 44 88 be
       -0.16960743 -0.07920167 -0.16414782 -0.2661471
0000f0 bd 91 85 be ed f3 37 be 54 1a 55 be 37 65 67 be
       -0.26087752 -0.17964144 -0.20810825 -0.22597204

running_mean f4 [64]
000000 95 17 82 bc b9 d9 4a 3d 9b 4a ed bc 1e be 3a 3d
       -0.015880385 0.049524043 -0.028966239 0.045591466
000010 8e b8 9e bb 41 b4 04 bd a4 76 d3 3b 29 c2 6b 3d
       -0.004843778 -0.032398466 0.006453352 0.057558212
000020 02 3e 10 bc 28 28 94 3c 1b 95 d9 bd 75 53 15 3b
       -0.008803846 0.018085554 -0.10624143 0.002278534
000030 1d c8 89 bd 14 76 8a 3d c8 2e a1 3d cd 46 33 bd
       -0.06727622 0.06760803 0.07870251 -0.043768693
000040 46 30 a5 bd 3d ab 79 bd 79 09 21 3d 5e 6b ae 3d
       -0.08065848 -0.06095432 0.039315674 0.085165724
000050 4a 40 e6 bd 24 9c 1d bd 0f 0b 6b 3d d2 45 9f bb
       -0.11242731 -0.038478985 0.057383593 -0.004860618
000060 5e 43 24 bd c8 c6 56 3d 15 9e 3c 3d 4d 4f 67 3d
       -0.04010331 0.052435666 0.046049196 0.05647211
000070 38 78 dc bc cb 99 a8 bc 18 40 25 3d b9 26 b2 3d
       -0.026912794 -0.020581147 0.040344328 0.08698792
000080 fb 67 b6 3c cb 7f 51 bd a8 ac 44 3c d0 5b bd 3c
       0.022266379 -0.051147263 0.012004055 0.023115069
000090 ef 80 ef bd 4b 76 bc bd 73 97 c3 3d b1 dd 3b 3d
       -0.11694514 -0.0920225 0.09550371 0.04586572
0000a0 4c 29 30 bd b5 c7 85 3d 52 f8 12 3d de bd 2a 3d
       -0.043008134 0.06532232 0.035881348 0.041684978
0000b0 c4 ba a0 3c 59 49 52 3c 0f 52 4a bc b1 bc 59 3d
       0.019620307 0.01283487 -0.012348666 0.053158466
0000c0 f3 ea 83 bd 59 4d 4c bb 55 33 8b bb 98 df f2 bb
       -0.064412974 -0.0031174032 -0.0042480626 -0.0074119084
0000d0 76 4b 1b 3d ed 34 db bb 60 f7 c2 bc 52 35 88 3d
       0.037913762 -0.006689659 -0.023799598 0.06650795
0000e0 e8 07 2d 3d 9f 2d 8a 3d dc 5d b9 bc b9 91 22 3c
       0.042243868 0.06746983 -0.022627763 0.009922438
0000f0 b2 23 c2 3d f1 fa 48 bd 0e e5 16 3d 07 6c a9 3d
       0.094794646 -0.04906744 0.036839537 0.08272558

running_var f4 [64]
000000 b6 04 5f 3e 87 f2 50 3e ad 53 68 3e 47 9a 61 3e
       0.21779141 0.20405017 0.2268817 0.22031508
000010 b1 fc 6b 3e 1d a2 6a 3e fd 18 6f 3e c0 b2 87 3e
       0.23045613 0.22913404 0.23349376 0.26503563
000020 56 dd 5c 3e b3 91 83 3e 60 20 7e 3e 38 44 74 3e
       0.21568808 0.25697097 0.24817038 0.23854148
000030 93 aa 73 3e e1 4f 6a 3e 92 cc 74 3e 52 bc 71 3e
       0.23795538 0.22882034 0.23906162 0.23606995
000040 56 95 5f 3e f8 ef 61 3e 12 93 6e 3e 03 47 80 3e
       0.21834311 0.22064197 0.2329829 0.25054178
000050 92 ea 7b 3e b1 15 5b 3e 7e 8d 6f 3e 84 22 5e 3e
       0.246012 0.21394993 0.23393819 0.21692854
000060 d8 5e 65 3e a9 90 8e 3e 60 05 5b 3e 97 cc 6c 3e
       0.22399461 0.27844742 0.21388769 0.2312492
000070 34 38 68 3e f4 b6 6f 3e 4e 87 5a 3e 9f 67 7d 3e
       0.2267769 0.23409635 0.21340677 0.2474656
000080 89 e0 8a 3e 10 3e 5f 3e 23 bc 69 3e 6c 62 6e 3e
       0.27124432 0.21801019 0.22825675 0.23279732
000090 5d c9 7b 3e 4b 9c 8c 3e 04 76 75 3e 9f 8f 8e 3e
       0.24588533 0.27462992 0.239708 0.2784395
0000a0 0f f7 83 3e f7 6b 61 3e 45 21 58 3e 2a e9 82 3e
       0.25774428 0.22013842 0.21106441 0.25568515
0000b0 27 9f 51 3e a3 fb 77 3e 46 48 77 3e 43 f5 61 3e
       0.20470868 0.24217086 0.24148664 0.22066216
0000c0 15 89 59 3e 90 1a 59 3e c4 8e 73 3e 7a 1c 5e 3e
       0.21243699 0.21201539 0.2378493 0.2169055
0000d0 fd e2 81 3e 8e 0a 65 3e d1 75 7e 3e c5 4e 5d 3e
       0.2536849 0.22367308 0.24849631 0.2161208
0000e0 b9 c6 5b 3e 1f d6 65 3e 7d c6 5a 3e 92 1b 84 3e
       0.21462525 0.22444962 0.2136478 0.25802284
0000f0 da 3d 6e 3e 68 1d 66 3e 9e 62 60 3e d3 52 51 3e
       0.23265782 0.22472155 0.2191262 0.20441751

weight f4 [64, 64, 3, 3]
000000 78 63 06 bd 94 4e 8a bd a8 87 b7 3c d5 8b a6 bd
       -0.032809705 -0.06753269 0.022403553 -0.081321396
000010 9f ef a1 3c 17 fc a3 3c b7 19 80 bd ab 9c 87 bc
       0.01976758 0.020017667 -0.06254905 -0.016554197
000020 08 df 0d 3b 98 d6 bd 3c 19 69 78 3c 88 7a c0 3b
       0.002164783 0.023173615 0.015161776 0.005873982
000030 b0 2c 03 bc d3 5b 9b ba a9 e0 b4 3d 1d 5d ce bd
       -0.00800626 -0.0011852927 0.08831913 -0.10076354
000040 e7 25 bd bc a1 1c 9a 3c ed 03 46 bd 9b 8e dc 3b
       -0.023089362 0.01881248 -0.048343588 0.006730867
000050 e2 11 38 bd f9 ea 10 bb 4d ef 8c bc 9b e6 82 bd
       -0.04493893 -0.002211271 -0.017203951 -0.06391641
000060 33 34 87 bd f6 86 8d bd ed d7 8c bd b4 72 cd bc
       -0.06601753 -0.069105074 -0.06877122 -0.025079109
000070 a1 c2 40 bd a6 17 ec ba 15 d8 27 bd a2 20 9b 3c
       -0.047060613 -0.0018012419 -0.040977556 0.018936459
000080 6a c2 3b 3d f3 54 bc bd bd 9a 71 bd 9c 94 3b bc
       0.045839705 -0.0919589 -0.05898546 -0.011449005
000090 fd 7f a2 bd f1 b7 02 bc 8b eb 3a 3b 27 14 99 bd
       -0.07934568 -0.007978425 0.0028521742 -0.07474547
0000a0 df a3 35 3d 0b fb 7e 3d 20 f4 ec bc 58 07 41 3c
       0.044345733 0.062251132 -0.028925002 0.011781536
0000b0 de 49 72 3d d9 9b bc bd 73 40 fc bc 1f 25 38 bd
       0.059152476 -0.09209413 -0.03079245 -0.044957276
0000c0 93 b5 85 bd 66 dd 1b 3d 68 b9 5b bd fe a1 3c bd
       -0.06528773 0.03805294 -0.053643614 -0.046052925
0000d0 9c a0 be bc 32 a8 4e 3c f6 78 bc bd ea 88 bc 3c
       -0.023269944 0.012613343 -0.09202759 0.023014504
0000e0 ce 8c 72 bd f1 a4 88 bd e5 c4 23 3b e8 2b 9b bd
       -0.059216313 -0.06672085 0.0024989184 -0.07576734
0000f0 1c 3d 73 bd 56 6b f5 bc e8 7b 90 bd 78 c5 d5 3c
       -0.05938445 -0.029958408 -0.07054883 0.026095137
000100 71 9c a4 bc 32 71 0b bd 36 10 b4 bc 03 bb 2f bd
       -0.020094128 -0.0340435 -0.021980386 -0.042902958
000110 31 33 84 3d 98 ee a3 bd a7 8a a4 bd f5 e5 a0 bd
       0.064550765 -0.080044925 -0.08034258 -0.07856361
000120 98 ec 12 bd 47 61 8f 3c 0b f6 fb 3c b3 ce e8 3c
       -0.035870165 0.01750244 0.03075697 0.028418874
000130 da 41 dd 3c a1 a8 c2 3d 4b e8 c3 bc da 49 a5 3c
       0.02700894 0.0950482 -0.023914477 0.020176817
000140 f7 81 36 3d b3 35 c8 3c 47 da 4b 3c fc 8a 85 3d
       0.044557538 0.024439668 0.012442178 0.0652065
000150 08 bd d0 bd 3e bf 76 3c 39 66 25 3d c5 65 64 bd
       -0.10192305 0.015060244 0.04038069 -0.055761117
000160 4f 5a 00 bd a5 00 e6 bd d2 0b 21 bd 70 95 8d bc
       -0.031336125 -0.11230592 -0.039317913 -0.017283171
000170 07 39 4a 3d f4 4a a0 bd 34 dc 83 3c eb 97 ad bc
       0.04937079 -0.07826796 0.016096212 -0.021190604
000180 71 ca 22 bd d0 54 47 3d a2 21 27 bd 7c be d0 bd
       -0.039743844 0.048664868 -0.04080356 -0.10192582
000190 aa ee 3e bc 8c 54 4f 3b 1d 25 39 bc 93 8a 2b 3d
       -0.011653582 0.0031636087 -0.011300352 0.0418802
0001a0 cb c8 86 3d cc 39 92 bd c7 8e e0 bc cc 7b 48 bc
       0.06581267 -0.0713993 -0.027411832 -0.012236547
0001b0 8d c7 73 3d fc d5 2b 3d b8 a1 6d bd 51 f4 06 3e
       0.05951648 0.04195212 -0.058015555 0.13179137
0001c0 1c 4c 55 3d 74 ef 36 3d 55 4d c4 bc bf 0d 20 bd
       0.052074537 0.044661954 -0.023962656 -0.03907561
0001d0 65 1a a8 bd c4 b8 1c bd 20 d8 95 3c e7 63 0c bd
       -0.08208159 -0.038262144 0.018291533 -0.03427496
0001e0 06 47 3e bd 94 3f 9b bb f6 6b 3d bd 06 9d 37 3d
       -0.046454452 -0.0047378037 -0.046245538 0.044827484
0001f0 1f b7 1a 3d 43 7d 77 bd 82 f0 07 3d c6 88 97 3c
       0.037772294 -0.060422193 0.03318835 0.018497836
000200 fd 1a f6 bc cc d6 f0 3c bd d7 24 3e 96 c7 31 3d
       -0.030042166 0.029399298 0.16097923 0.04340323
000210 2f 1f fa bc 7d 5a 85 bd e5 bc 0e bd e3 6d 3d 3c
       -0.030532448 -0.065114 -0.034848113 0.011561844
000220 f1 fd b0 bc 88 6d 5d bc 22 b8 86 3d 2a 25 b3 3d
       -0.021605464 -0.013514884 0.06578089 0.08747323
000230 f1 99 59 bd 2a b2 74 bd 49 5a 55 3d ff 9e 80 bd
       -0.053125326 -0.059740223 0.052088056 -0.06280326
000240 a2 b7 02 bc 93 38 84 3c df f0 7a bd 42 58 25 bb
       -0.007978352 0.016140258 -0.06126487 -0.0025229608
000250 83 c6 0f 3d e0 cf 84 3c e0 cd e9 bc 90 85 70 bd
       0.035101425 0.016212404 -0.028540552 -0.058721125
000260 48 72 e9 bd c7 45 94 bd 0d 4b e2 3b 9c 1b a1 3c
       -0.113987505 -0.072398715 0.0069059194 0.019666485
000270 7d 07 2c bd 0b 1b bf 3c bf 49 62 3d 65 41 56 bd
       -0.04199933 0.023328325 0.05524611 -0.05230846
000280 73 f6 c5 bc cf e1 bb bc 15 0d 9f 3c 6f 9b 93 3c
       -0.024165368 -0.022934822 0.019415418 0.018018452
000290 f0 7d 0a be 14 5c 8e bc 40 df 98 3c 9f cd 26 bd
       -0.13524604 -0.01737789 0.018661141 -0.04072344
0002a0 a4 c3 db bc 48 f3 94 bc 1a 00 73 bd 68 e7 30 3d
       -0.026826687 -0.018182412 -0.05932627 0.043189436
0002b0 4a 88 ea bc a8 67 72 bd 84 4f 89 bc 71 cb 66 3d
       -0.02862944 -0.059180886 -0.016761549 0.05634636
0002c0 49 1d 6a bc f7 3b f2 3b b2 b7 8d bd b8 13 15 bc
       -0.014289209 0.0073924023 -0.06919803 -0.00909894
0002d0 25 50 11 bc 36 79 31 3d 36 47 e7 3c 91 8b 80 bd
       -0.008869206 0.043328486 0.028232198 -0.0627662
0002e0 43 33 22 3c cd b7 c0 bc 2c 39 bf bd 21 6f 15 bd
       0.009899917 -0.023525143 -0.093370765 -0.036482934
0002f0 28 52 df bc 23 4d 05 bd ee 82 70 bd 12 80 b5 3a
       -0.027260855 -0.032544266 -0.058718614 0.0013847372
000300 d0 59 35 bd 59 fa c9 bc 69 f6 6b 3d da 39 30 bd
       -0.044275105 -0.024655508 0.057608042 -0.04302392
000310 a8 9b b0 bc 83 b4 d0 3c 92 72 ce bd 28 f4 60 bd
       -0.021558598 0.0254767 -0.10080446 -0.054920346
000320 6d 7e c7 bd dc 11 07 3d f5 60 96 3d 86 5d 0a 3c
       -0.09740911 0.032976016 0.07342712 0.008445149
000330 19 26 07 3d 51 34 3f 3c 00 d9 84 3d ef d8 5f bb
       0.032995317 0.011670188 0.06486702 -0.0034156402
000340 53 c4 db 3b fd 25 71 3d 24 c5 4e bd eb d5 b7 bc
       0.0067067533 0.05887412 -0.050480977 -0.022440871
000350 1f 77 0f 3d 40 ae c5 bd a1 4e 34 bd d1 a7 0b bd
       0.035025712 -0.09652376 -0.0440203 -0.03409559
000360 85 b3 8e 3d 68 c2 d3 bc da 27 07 3d be c5 8a 3c
       0.069678344 -0.025849536 0.03299699 0.016939994
000370 e9 a2 c0 ba 71 e3 8c 3c d1 4e 78 bd 5d e2 a0 3c
       -0.0014696989 0.017198296 -0.06062204 0.019639188
000380 a5 6e be bc ba 83 84 bd f5 6e 03 3c 6e a9 b6 3d
       -0.023246119 -0.06470437 0.00802206 0.08919035
000390 dc 31 6d 3c 76 4a ae bc aa 81 ee 3d c6 56 94 bd
       0.014477219 -0.02127574 0.11645825 -0.07243113
0003a0 0d 8b 8f bd c6 ad 75 bd 16 76 87 3b 7f 3b e9 3c
       -0.07008944 -0.059980176 0.00413395 0.028470753
0003b0 73 96 cd bc 41 67 82 bd 1c ef 24 bc e1 6e 79 3d
       -0.025096154 -0.0636735 -0.010066774 0.060896758
0003c0 3e 0b ce bc 0e ed 96 3c 0b 37 03 bd 34 6e 1a 3d
       -0.025151845 0.018423583 -0.032034915 0.037702754
0003d0 49 a5 9e 3c be 2e 2f bd 19 16 17 bd 9d 22 f0 3c
       0.019365923 -0.042769186 -0.03688631 0.02931338
0003e0 58 2c 42 bc c6 25 45 bd 1f da 5b 3c c6 f8 9d bd
       -0.011851393 -0.048131727 0.013418703 -0.077134654
0003f0 d1 1e 29 bc 33 f8 07 bd 6a f7 ff bd 4b 51 5b 3d
       -0.010322289 -0.033195686 -0.12498362 0.053544324

bias f4 [64]
000000 dc f7 d6 bd a4 04 67 3c 7c 23 84 bd f6 06 96 bd
       -0.10496494 0.0141002275 -0.064520806 -0.073255464
000010 e9 d8 b9 bc 0a 99 79 bd 23 20 b1 bd 04 cf 80 3c
       -0.022686439 -0.060936965 -0.08648708 0.015723713
000020 9d f3 b4 3b 72 80 fb bd 26 9b 52 bd d3 e0 b5 bc
       0.005522205 -0.122803584 -0.051417492 -0.022201931
000030 ab 95 67 bd 7e 12 39 3d b5 5e 14 bd 7b b9 86 bb
       -0.05653922 0.04518365 -0.036223132 -0.0041114665
000040 bf 8b 5c bd a3 42 3c bd e2 22 a9 3d a6 d4 88 3d
       -0.05384421 -0.045961987 0.082586065 0.066811845
000050 1e 0f 54 3d 3a 49 9e bd 7d 07 51 3d 42 4a a9 bd
       0.05177223 -0.077288106 0.051032532 -0.08266117
000060 70 82 83 bc c5 58 0c 3d ed 55 39 bd 16 eb 82 bd
       -0.016053408 0.034264345 -0.04524796 -0.06392495
000070 86 4f 8a bc 8e fc f0 3c 4d 7e 87 bc c2 1a c4 bd
       -0.016883623 0.029417302 -0.016539717 -0.09575416
000080 02 00 3c 3b 10 88 13 3d f7 12 66 bb f9 33 95 ba
       0.0028686528 0.03601843 -0.0035106519 -0.0011383287
000090 86 aa 78 bd 2b 0d ea bd 32 08 9a 3d b1 eb 3a 3c
       -0.0607095 -0.11428293 0.075210944 0.011408732
0000a0 f1 0e 97 bd cf 96 07 3d 11 8a da bd 8f 2a 53 3c
       -0.07375897 0.033102807 -0.10670865 0.012888565
0000b0 54 0f bd bd 9e 69 aa 3c 68 81 31 bd 9f 41 a2 3c
       -0.09231439 0.020802315 -0.043336302 0.019806681
0000c0 9d 69 56 3d a4 e0 69 3d 1a 7a c7 3b 19 ca e7 bd
       0.052346814 0.057099 0.0060875537 -0.11317844
0000d0 bc af 6b 3c ae 1e 5a bc ad 32 72 bd 3f 48 c8 bc
       0.01438516 -0.013312979 -0.05913036 -0.024448512
0000e0 01 2a dd 3d 3a 1f 81 bd c4 58 9f bc 85 c0 cc 3b
       0.10799027 -0.06304784 -0.019451506 0.006248536
0000f0 10 a8 e4 bc f2 13 02 bc f4 fe 92 3c 67 e2 38 bd
       -0.02791217 -0.007939326 0.017943837 -0.04513779

weight f4 [64]
000000 4e d1 ad 3f 5e 0e 8e 3f 86 c6 a4 3f b0 d4 9f 3f
       1.35795 1.1098135 1.2873085 1.2486782
000010 97 eb 9f 3f 58 be 92 3f 43 9b a5 3f 12 96 9c 3f
       1.2493771 1.1464338 1.2938007 1.2233298
000020 cc 63 9c 3f 39 ca a7 3f 2a b8 9c 3f 63 41 a4 3f
       1.2217956 1.3108588 1.2243702 1.2832454
000030 03 b3 a0 3f 29 f0 a2 3f e6 ad 89 3f 93 61 95 3f
       1.255463 1.2729541 1.0756195 1.1670402
000040 c0 b7 a0 3f 48 b9 99 3f 9a 44 9f 3f 74 47 97 3f
       1.2556076 1.2009668 1.244281 1.1818681
000050 dd 90 91 3f a2 42 aa 3f 60 49 96 3f 60 83 a9 3f
       1.1372334 1.3301585 1.1741142 1.3243217
000060 27 9d 99 3f 90 11 93 3f 7d f8 9f 3f a6 84 9b 3f
       1.2001084 1.1489735 1.2497708 1.2149856
000070 3c 94 a9 3f 13 e1 9b 3f 72 ce 93 3f d6 1e a3 3f
       1.3248363 1.2178062 1.1547377 1.2743785
000080 50 16 9e 3f bd cd 97 3f 17 88 8e 3f 36 e7 95 3f
       1.2350559 1.1859661 1.1135281 1.1711185
000090 c5 cb a8 3f 12 7b a6 3f 37 6d 92 3f 63 6f 8d 3f
       1.3187186 1.3006308 1.143958 1.1049618
0000a0 23 c5 a3 3f 4b 1f 8c 3f be 83 ac 3f 16 1a 8d 3f
       1.2794536 1.094705 1.3477705 1.1023586
0000b0 5c 77 a0 3f 22 83 97 3f 89 a0 99 3f d7 45 93 3f
       1.2536426 1.1836894 1.2002116 1.1505688
0000c0 fa 78 98 3f c6 b9 9b 3f 00 64 8f 3f cf 87 aa 3f
       1.1911919 1.2166069 1.1202393 1.3322695
0000d0 2a 88 9e 3f 5e e3 8c 3f 34 79 9a 3f 3e 91 8a 3f
       1.2385304 1.1006887 1.2068238 1.0825574
0000e0 7a 1b a9 3f 89 9a 94 3f fa 47 8f 3f 6e e9 a1 3f
       1.321151 1.160966 1.119384 1.2649362
0000f0 b9 db 94 3f 19 04 a1 3f ad 3c 89 3f e6 54 9e 3f
       1.1629554 1.2579376 1.0721642 1.2369659

bias f4 [64]
000000 c4 34 0e 3e ea 1e 61 bd 4a ad 8c 3d b2 cc e4 3d
       0.13887316 -0.054961123 0.0686899 0.11171855
000010 b2 15 ea 3d b9 e2 e5 3b 07 5b ad 3d 9f d6 db 3d
       0.11429919 0.007015553 0.08464628 0.10734295
000020 a6 8e 5f 3d a6 2c 0b 3e 51 a5 05 3d 85 02 ea 3d
       0.0545794 0.13591251 0.03262836 0.11426262
000030 10 18 99 3c 4b 92 b7 3d 56 5c 97 3b 81 3c c2 3d
       0.018688232 0.0896345 0.0046191616 0.094841965
000040 d9 10 f7 3d 4f 5f c3 3d 6d 98 9b 3d e9 f1 9d 3d
       0.1206376 0.09539663 0.07597432 0.07712156
000050 a1 d6 33 3d 92 c6 d1 3d 7d a6 d7 bb b9 9d cd 3d
       0.043905858 0.102429524 -0.0065811262 0.10039849
000060 2d aa 98 3d f7 18 aa 3d a5 93 c7 3c 6c ae c3 3d
       0.074543335 0.08305543 0.024362395 0.09554753
000070 52 c8 c4 3d da 99 a2 bc c2 84 3c 3d 79 b5 d9 3d
       0.096085206 -0.019848753 0.046025045 0.10630316
000080 19 fd 8e 3d a8 01 d3 3d 91 46 cd 3c 85 45 df 3d
       0.06981868 0.1030305 0.025058063 0.10901932
000090 92 ea a7 3d 50 28 b4 3d 65 6b e5 3d b5 12 35 3d
       0.081990376 0.087967515 0.112021245 0.044207294
0000a0 ee 00 3e 3e 9f 44 e7 bd b5 2c 40 3e 2b 6f 72 3c
       0.18555042 -0.11292385 0.18767054 0.014797012
0000b0 b9 68 01 3e c0 dc 2c 3d fa cc 50 3d 4a 65 cb 3d
       0.12637605 0.04220271 0.05097673 0.09931429
0000c0 be 69 8f 3d d5 3a 89 3d 48 f1 15 3d 70 c5 cb 3d
       0.070025906 0.067006744 0.036607057 0.099497676
0000d0 9f b2 85 3d 85 9c 97 3d 6b de c7 3d 5d 48 87 bd
       0.0652821 0.074029006 0.0975922 -0.06605599
0000e0 af ac 20 3e 39 c3 df 3d 7e 53 18 bc e7 66 1c 3d
       0.15690874 0.10925908 -0.00929725 0.038184073
0000f0 dc 44 f9 3a 0a 4c e9 3d fd e2 93 bc da 70 fd 3c
       0.0019017714 0.113914564 -0.018052572 0.0309376

running_mean f4 [64]
000000 ff 42 ca bf 87 ce 31 bf d6 82 b3 bf ba 58 a7 bf
       -1.5801696 -0.6945576 -1.4024303 -1.3073952
000010 ca b7 cd bf cd 9f 18 be 61 b7 03 c0 79 57 5a 3e
       -1.6071713 -0.14904709 -2.0580676 0.2132243
000020 5b 7c 3e bf 8d a6 21 c0 b3 13 4d bf 64 40 7f 3f
       -0.744085 -2.5257905 -0.80108184 0.9970763
000030 fd f5 cf bf 14 13 7e 3d dc 66 86 bf 5c aa 1d 3f
       -1.6246945 0.062029913 -1.050014 0.6158807
000040 ae 6e 87 bf 00 68 5d 3e 6a 5e 8d 3f 52 e9 96 3f
       -1.0580652 0.21621704 1.1044438 1.1789954
000050 e4 56 c0 3f a4 39 1b c0 1e 62 a4 3e 4c a5 c3 bf
       1.5026517 -2.425393 0.32106107 -1.528482
000060 73 97 44 bf 92 d3 9d be 55 e5 a4 be fc a1 ee bf
       -0.76793593 -0.30825478 -0.32206216 -1.8643184
000070 50 32 ef bf 02 3c d5 3e 6e de 7d bf f3 31 0c c0
       -1.8687229 0.41647345 -0.99167526 -2.1905487
000080 b7 bc 58 3f be f7 62 3f fe 88 64 bf fa 07 39 bf
       0.84662956 0.88659275 -0.89271533 -0.72277796
000090 28 fa 2d c0 f8 f5 fa bf 0d 9f 87 3f a5 c9 1a 3e
       -2.7183933 -1.9606314 1.0595413 0.15115984
0000a0 40 43 03 c0 90 6d b5 3f 09 96 e6 bf ce 88 d2 3f
       -2.0509796 1.4174061 -1.8014537 1.6448
0000b0 70 7c 1f c0 3d 25 3b bf 6c ba a2 bf 97 bd d3 3f
       -2.49197 -0.73103696 -1.2713141 1.6542233
0000c0 62 12 04 40 23 43 f7 be e5 32 a5 3e a9 77 1e c0
       2.063622 -0.4829341 0.32265392 -2.4760535
0000d0 0f 64 5c 3f ef 1b 2d 3f 27 64 9f bf 96 88 a9 3f
       0.8609018 0.6762075 -1.2452439 1.3244808
0000e0 97 84 a7 3f d7 a2 70 bf e3 42 90 3f 97 db 89 3f
       1.3087338 -0.93998474 1.1270412 1.0770139
0000f0 ed ff 7b bf 00 34 62 3f 6d ab 8d 3f a5 0b 01 bf
       -0.98437387 0.88360596 1.106794 -0.50408393

running_var f4 [64]
000000 02 01 d9 3f 59 6f c3 3f 1f f8 ee 3f 5d 6d e3 3f
       1.6953433 1.5268356 1.866947 1.776775
000010 50 01 fb 3f c4 59 c9 3f e2 00 d2 3f ca b9 a3 3f
       1.9609776 1.5730519 1.640652 1.2791073
000020 82 e6 d7 3f 38 5c d6 3f 04 d1 c6 3f ad 8b c5 3f
       1.686722 1.6746893 1.5532537 1.5433251
000030 a2 c4 b9 3f c0 75 b5 3f 86 69 94 3f a9 5d c8 3f
       1.4513133 1.417656 1.1594703 1.5653583
000040 b5 d3 bb 3f 93 55 9d 3f 98 b7 91 3f 0f 80 a7 3f
       1.4673983 1.229174 1.1384153 1.3085955
000050 ba 09 ac 3f 9f ca e2 3f 22 a9 a7 3f bb c7 b9 3f
       1.3440468 1.7718085 1.309849 1.4514078
000060 a3 4d 8d 3f fc 53 c9 3f 18 61 a7 3f b0 41 a7 3f
       1.1039318 1.5728755 1.3076506 1.3066921
000070 56 e1 ef 3f f7 1c b3 3f 1b 6d a1 3f 89 a2 d8 3f
       1.8740642 1.3993214 1.2611421 1.6924602
000080 1a 93 ac 3f 10 b8 bc 3f 97 1b 96 3f 6d e0 de 3f
       1.3482392 1.4743671 1.172717 1.7412239
000090 62 6e 06 40 1d d6 ae 3f db 8f 9c 3f c1 e9 92 3f
       2.1004872 1.3659092 1.2231401 1.1477586
0000a0 1c 7b d7 3f 88 91 ce 3f 42 6b ff 3f 69 33 c5 3f
       1.6834445 1.6138163 1.9954607 1.5406314
0000b0 93 e5 f0 3f 0a f5 9b 3f 4c 81 fe 3f 5e bf d9 3f
       1.882006 1.2184155 1.9883208 1.7011526
0000c0 4c 72 9d 3f cd 90 9d 3f fe 11 ad 3f 5f 41 e4 3f
       1.2300506 1.2309815 1.3521116 1.783245
0000d0 e4 15 bc 3f 11 aa 9b 3f 05 e8 cd 3f 08 e5 ab 3f
       1.469418 1.2161275 1.6086432 1.342927
0000e0 31 ce 99 3f df fd ca 3f b8 25 ae 3f 5a 8e a5 3f
       1.201605 1.5858725 1.3605261 1.2934067
0000f0 0f 4b b1 3f 34 e8 d1 3f 85 36 ae 3f c3 32 af 3f
       1.3851031 1.6398988 1.3610388 1.3687366

weight f4 [16, 64, 3, 3]
000000 70 43 8c bd dd 02 8b bd 60 4c 79 bc 6f e6 cc bd
       -0.068488 -0.067876555 -0.015215963 -0.10004889
000010 d3 60 0c bc bb 69 ea bb a8 c7 2e bc d8 c7 88 bd
       -0.008568007 -0.0071537173 -0.010667719 -0.06678742
000020 25 b1 08 bd 32 15 70 bd 96 f9 94 bd 16 a1 c0 3b
       -0.033372063 -0.058613963 -0.07274167 0.005878578
000030 b1 1a 61 bd 9d e1 1f 3d a0 c2 35 3c d7 65 d9 bc
       -0.054957096 0.03903352 0.0110937655 -0.026537819
000040 c9 04 8f 3c ac aa 23 bc f1 91 93 bc d4 c8 7e bc
       0.017458336 -0.009989422 -0.018013926 -0.015550811
000050 cf 06 db 3d e3 11 86 be 50 d7 f9 bd 33 b2 86 bb
       0.10694658 -0.2618552 -0.12199271 -0.0041105985
000060 b5 41 4c be 0a 51 ca bd d3 f3 a8 bd 4e 8b c1 bc
       -0.1994694 -0.09878738 -0.08249631 -0.023625996
000070 bd 66 39 3c 44 c8 98 bc aa 58 08 bd cf 21 c3 bc
       0.011315999 -0.018650182 -0.03328768 -0.023819832
000080 41 21 2f 3d 9a 20 af 3b bb b0 8c 3c b6 62 62 3d
       0.042756323 0.0053444626 0.017174115 0.05526992
000090 34 7c 2d bd 11 dc 11 bd 86 6f 70 39 98 c1 09 be
       -0.042354777 -0.035610262 0.0002292973 -0.13452756
0000a0 a4 ab 93 bd c8 f4 20 bc 04 d4 73 bd e5 d5 86 bd
       -0.07210472 -0.009823985 -0.059528366 -0.06583766
0000b0 bc a7 21 3d f0 e9 ea 3d 1a bb 33 3d 00 9f 8d 3d
       0.039466605 0.11470401 0.043879606 0.069150925
0000c0 ba 1a 32 3d d5 a4 c4 3d 01 4a 5a 3d 98 e2 81 3d
       0.04348252 0.09601752 0.053293232 0.063420475
0000d0 4b b9 7e 3d da 54 be 3d 4e bc f3 bc f0 7b 35 bb
       0.062188428 0.09293528 -0.029752877 -0.002769228
0000e0 f0 b4 28 bd 13 a9 d8 3c 19 ba 5f bd d8 84 0f bc
       -0.04118818 0.026447808 -0.054620836 -0.0087597
0000f0 13 37 84 bd ea 65 5a bc 61 61 ef 3d 98 12 a8 bd
       -0.06455817 -0.013329962 0.116884954 -0.082066715
000100 f8 0f 5c bd 0e 15 5c 3d 16 a5 6f bd f7 10 68 bd
       -0.053726166 0.053731017 -0.058507048 -0.056656804
000110 b5 c9 d5 3c 61 3f 19 be 18 d4 8c bd 39 d5 ba bd
       0.026097158 -0.14965583 -0.06876391 -0.091227
000120 21 f4 01 3e 6f 9d ad 3d da c7 ff 3c 5a 79 c9 bc
       0.12690784 0.08477294 0.031223226 -0.024593998
000130 46 87 aa 3d 84 31 de 3d 22 69 17 be 45 4a 08 3e
       0.083265826 0.10849288 -0.14786199 0.13309582
000140 67 f4 5b bd c9 e8 79 bc b4 08 05 3d d7 55 a7 3c
       -0.053699877 -0.015253254 0.032479003 0.020426674
000150 17 33 d3 bd 6c 1e f2 bd 63 5c 83 3c 00 e5 43 3d
       -0.10312479 -0.11822209 0.016035264 0.047825813
000160 f6 ee 90 3d 2d 0e dd bd 83 ef d0 bd 4a 06 cb bd
       0.07076828 -0.107937194 -0.10201933 -0.09913309
000170 4e c6 cd bd bd d9 f2 bd 08 c0 1a be ed 8e e3 bd
       -0.10047589 -0.118579365 -0.15112317 -0.11111245
000180 f4 c1 8d bd 60 76 0f be 19 0b b5 bd 6f 58 84 3b
       -0.06921759 -0.1401 -0.08840007 0.0040388624
000190 ef 91 e8 3c 08 4b 82 3d da b2 58 bd 2a df a0 3c
       0.028389899 0.06361967 -0.05290494 0.019637663
0001a0 14 45 07 be f1 64 1e bd 1b 37 af 3d b7 35 6d bd
       -0.13209945 -0.038670484 0.085554324 -0.057912555
0001b0 38 15 43 3d 9a a0 ef bc fb 1c 6f bd 9a cf c0 3c
       0.047627658 -0.029251385 -0.058377247 0.023536492
0001c0 ec 6b 3e bc 0d 2e 5a bd ff 9f ca 3c b1 e4 dd bd
       -0.01162241 -0.053266574 0.024734495 -0.10834635
0001d0 aa cf 82 bc df 93 d1 bd a3 d0 74 bd 18 f7 0f bc
       -0.015968163 -0.10233282 -0.059769284 -0.008786939
0001e0 5b 77 67 bd 53 13 3a bd 41 60 bd 3d cd a9 2c be
       -0.05651031 -0.045428585 0.092468746 -0.16861649
0001f0 90 9d c9 bd 79 94 b5 bd 6a c7 a3 bd 7a 68 f1 3c
       -0.09844506 -0.088662095 -0.079970196 0.029468764
000200 42 f7 69 bc b5 e8 06 be 17 b9 03 bd b1 bf f9 bd
       -0.014280142 -0.13174708 -0.032158937 -0.12194765
000210 d8 6b 8e 3c 1c 38 bb 3d 17 e2 8e bd fd 25 1a bc
       0.017385408 0.091415614 -0.06976717 -0.009408471
000220 e3 58 58 3d ab 64 b2 3d 5e 66 b7 bc c1 45 ab 3c
       0.052819144 0.08710607 -0.02238768 0.020907285
000230 59 c4 1b bc 1c 74 31 be 6c 89 59 3c 73 d5 94 bd
       -0.009507262 -0.17329448 0.013277393 -0.07267275
000240 0f c6 bb 3d e9 df c2 3d c1 59 9e 3d be 48 fa bd
       0.09168636 0.09515364 0.07731963 -0.12220906
000250 03 c7 a4 3c 2b 36 e8 3c 6b c5 bd bd 78 ac 16 3e
       0.020114427 0.028346142 -0.0926617 0.14714229
000260 91 7e 18 bd fa 31 66 bc bc 20 42 bd cc 49 71 bd
       -0.037230078 -0.014050001 -0.0473945 -0.05890827
000270 03 81 b4 bc 38 45 64 bc 45 9a b0 bd 83 47 c3 bd
       -0.022034174 -0.013932519 -0.086231746 -0.09535124
000280 b1 0d 8d bb a9 51 7c bd 1f a2 16 bc 6d 76 d8 bb
       -0.0043046107 -0.061601315 -0.009193926 -0.0066059143
000290 27 b2 b5 3d 9b 68 e3 bd 2e 3b 50 bd fe ea df bc
       0.088718705 -0.11103936 -0.05083769 -0.027333733
0002a0 1e 6a 54 be 61 5b 8d 3d cb 8e 11 be f0 4b 3b 3b
       -0.20743605 0.06902195 -0.14214627 0.0028579198
0002b0 80 98 85 3a dc c7 9f 3c f9 bd 2c 3c bb e9 f1 3c
       0.0010192543 0.01950448 0.01054334 0.029530397
0002c0 1e 64 b4 3d 2d 4f b0 bd 21 e6 3d bd 03 c9 84 3b
       0.08808158 -0.086088516 -0.046362046 0.004052283
0002d0 39 e2 92 3d 45 f2 04 bd 4c 53 4f 3d 39 53 f8 3d
       0.07172055 -0.03245761 0.050616547 0.121252485
0002e0 73 10 d8 bc 33 c3 6d 3d b3 f7 80 3b 20 47 cc 3c
       -0.026375031 0.058047485 0.003935778 0.024936259
0002f0 96 d1 02 3e 2d 81 86 3d 47 c9 8e bc d1 05 13 be
       0.12775263 0.06567607 -0.01742996 -0.14357688
000300 49 0f 15 bd ae 75 07 be 08 a0 a7 bd aa 8c 8c bd
       -0.03639153 -0.13228485 -0.081848204 -0.06862767
000310 1d 0b ec bd 32 f2 e1 bd 18 fe 0c 3e e3 a5 94 3d
       -0.11525557 -0.11032523 0.13768804 0.07258203
000320 ef 57 d2 3d 2e c3 f7 3d 18 8f a3 3d 98 b7 be 3c
       0.10270678 0.120977744 0.07986277 0.023280904
000330 52 51 0f 3e a7 bf ec 3c ce 82 06 3d 69 9f 21 3d
       0.13995865 0.02889998 0.03283959 0.039458666
000340 6e 3e 67 3d 60 b0 a6 bd 69 8a 01 bd 96 62 bd bd
       0.056456022 -0.081391096 -0.03162614 -0.092473194
000350 cc e9 eb bd e2 dc 8b bd a5 68 ed bd ae d8 03 be
       -0.115192026 -0.068292394 -0.11592225 -0.12875625
000360 7d f1 c0 bd b6 d3 61 bd f1 4b 1f bd 22 21 01 3a
       -0.0942106 -0.055133544 -0.038890783 0.00049258966
000370 53 52 ad bb 4a 4c b8 bc aa 19 67 3d ec 4c af 3d
       -0.005289355 -0.022497315 0.05642096 0.085595936
000380 ab ab ac 3c db 4c 06 bd 7a 29 5f 3d 8b 96 8f 3d
       0.021077951 -0.03278814 0.054482915 0.07011136
000390 64 9e 0f bd 86 a9 5b bd 01 dd 8f 3d 56 6b 0f bd
       -0.035063162 -0.053628467 0.07024575 -0.035014473
0003a0 02 c7 f8 bd bb ee 44 3d 91 d5 bb bc af da b4 3d
       -0.12147333 0.048079234 -0.022928985 0.08830773
0003b0 65 fa db 3d 52 0c 5f bd 95 53 80 3d e4 85 ef 3d
       0.10741118 -0.05445511 0.06265942 0.116954595
0003c0 db a7 da 3d 95 9c ac 3d fa 47 d6 3d 40 9e 4c bd
       0.10676547 0.08428303 0.10462947 -0.049955606
0003d0 46 70 0f bc 29 e5 cc bd a5 39 53 be 66 80 a7 bc
       -0.008754795 -0.10004646 -0.20627458 -0.020446967
0003e0 fd 3e f7 bd 2c c3 0d bd 1e b4 96 3d de 6e f8 bc
       -0.12072561 -0.03460996 0.073585734 -0.030326303
0003f0 8b da a7 bd 91 9d bd bc ad 04 5d 3d c2 23 82 bd
       -0.08195981 -0.023146423 0.053959537 -0.063544765

bias f4 [16]
000000 3a db 82 3b 42 3c c0 3d 84 7b 91 bd cf 31 41 bd
       0.003993419 0.09386493 -0.07103637 -0.04716664
000010 5a 42 20 bd 65 bd ea bc 7c a4 ab bd f3 45 b5 bc
       -0.039125778 -0.028654763 -0.08380982 -0.022128081
000020 1e 59 a0 bc 83 1b 14 3b 61 3a b6 bc 3e 13 f1 bc
       -0.019573744 0.0022599406 -0.022244634 -0.02942812
000030 8c 75 78 bd af e5 67 bd b8 19 56 bd ef e8 61 bb
       -0.060658976 -0.056615528 -0.05227062 -0.0034471115

weight f4 [64, 16, 3, 3]
000000 51 70 0a bd 9b 6b d9 bc 33 95 51 3c b9 6a 42 bd
       -0.03379852 -0.026540568 0.0127919195 -0.04746506
000010 64 8d 41 bd ed dd d4 3c 80 88 00 3d 40 d0 4a bc
       -0.04725398 0.025984729 0.031380177 -0.012378752
000020 eb 99 11 3d 3d 0e cd bc 7a 30 09 bd e6 54 0f bc
       0.03554718 -0.025031203 -0.033493496 -0.008748269
000030 62 c6 52 bc 6e 84 2a bc a1 db bb bb 15 d2 8b 3d
       -0.012864681 -0.01040755 -0.005732969 0.06827179
000040 bb a6 b5 3c b3 61 80 3b 65 b6 a1 bc e4 d9 ed 3b
       0.02217423 0.0039178967 -0.019740293 0.0072586406
000050 80 49 a2 3c 94 76 ad ba a0 6b e9 ba ad 54 13 bd
       0.019810438 -0.0013234192 -0.0017808564 -0.035969425
000060 d3 f3 06 3d c5 09 8f 3c 9f 93 a5 3b 62 89 13 3e
       0.032947373 0.017460713 0.005052998 0.14407876
000070 2d b9 2a bd c0 df 8a 3b 98 51 a0 bd 37 44 6e bd
       -0.041680504 0.004238099 -0.07828063 -0.058170523
000080 eb 1c 83 bd b5 8e 82 bd 66 da 85 3c 6f 61 8b 3b
       -0.06402 -0.063748755 0.016339492 0.0042535583
000090 ee 9f 41 bd 7d 6d 10 3b bb 42 4c 3d d7 22 fc 3c
       -0.04727166 0.0022037916 0.049868327 0.030778332
0000a0 ba 60 75 bd 25 e0 c2 bd af be 25 3d 22 c9 d8 3c
       -0.0599067 -0.095154084 0.040465053 0.026463095
0000b0 3d 0b 00 3c f2 b8 07 bd 1d 6e 76 3c d2 7a 61 bc
       0.007815179 -0.033135362 0.0150409015 -0.013762193
0000c0 03 96 83 bd ad e2 7f bd 9e 9b ca bd b9 4a 34 bd
       -0.06425097 -0.062472034 -0.09892963 -0.044016574
0000d0 bd 36 c0 bd af 29 9c bd 92 d6 f1 3c 8a 46 1f 3d
       -0.093854405 -0.07625138 0.02952126 0.03888563
0000e0 b1 65 24 bd 7c 0c df bd 2a b8 44 bd 62 06 f3 3a
       -0.040136043 -0.10891053 -0.048027195 0.0018541331
0000f0 79 36 8b bd c0 a9 32 bd 50 78 2b ba 8a 3a 73 bc
       -0.06797499 -0.043618917 -0.000654106 -0.0148455
000100 cd 14 20 bd f1 48 0e bd 62 33 4e bd 5b 1a a6 3c
       -0.039082337 -0.03473753 -0.05034197 0.02027624
000110 a5 48 1f 3c d0 b9 9d bd 26 6d 3f 3d fb e6 81 3d
       0.00972191 -0.077014565 0.04673495 0.06342884
000120 95 51 ec bd 22 70 d7 bd 30 e3 ac bd 05 72 db bd
       -0.11538998 -0.105194345 -0.0844177 -0.10715107
000130 d1 07 ca bd 74 74 96 bd 43 cf 42 bc 5a 4b 1c bd
       -0.09864772 -0.073464304 -0.011890235 -0.0381578
000140 27 d1 84 bd 91 16 86 bd 0c 6a 3e bd 4b 6d b6 3b
       -0.06485205 -0.06547273 -0.046487853 0.005567228
000150 e9 af e3 3c 95 09 b1 bc 84 5c 83 3c 24 2a af 3c
       0.027793841 -0.021611014 0.016035326 0.021382399
000160 e3 b7 6d 3d 3e cf 76 3d 20 71 33 3d 76 63 24 3d
       0.058036696 0.060256235 0.043809056 0.040133916
000170 5c c5 01 3d 68 67 91 3d 00 af 53 3b a5 c3 a6 3c
       0.031682357 0.07099801 0.0032300353 0.020356962
000180 56 2d 82 3d e3 28 0e 3d 32 7c 75 3d e9 63 23 bd
       0.063563034 0.03470696 0.059932895 -0.039890204
000190 14 2b 39 bd 18 a4 25 bc bb 3f a8 3d 32 e7 65 bd
       -0.045207098 -0.010109924 0.082152806 -0.05612869
0001a0 7d 77 2b bd e0 98 8e 3d e3 8c 10 ba f4 47 35 bd
       -0.041862 0.06962752 -0.0005514158 -0.044258073
0001b0 77 d4 e9 3c 45 73 82 3c a6 ad 16 3c 5b 5f 40 3d
       0.028543694 0.015924105 0.009196674 0.046965938
0001c0 2a 44 6a bc 09 96 ca ba 2a 93 66 3c 04 b6 60 bc
       -0.014298478 -0.0015456091 0.014073173 -0.013715271
0001d0 96 5d cc 3c b5 34 a4 bd 43 64 be ba c8 74 21 3d
       0.024946969 -0.080178656 -0.001452573 0.039418012
0001e0 5d a2 9d bb 87 66 f2 bc d4 60 08 bc 18 d8 be bc
       -0.004810615 -0.029589904 -0.008323867 -0.0232964
0001f0 57 e1 d0 bc 60 25 0a bd 47 77 cb bd 41 a4 17 3e
       -0.025498075 -0.03372705 -0.0993486 0.14808752
000200 b2 d3 3e 3c 4a 00 89 bd 52 f7 bf 3b 9b 69 3d bd
       0.011647152 -0.06689508 0.0058583403 -0.04624329
000210 e4 a0 84 bd a3 8d c4 bd 29 d3 09 be 77 d4 59 3d
       -0.06476 -0.095973276 -0.13459457 0.053181138
000220 e9 84 c6 3d a9 e9 4f bb fc 6e 16 bd 94 5c 5a ba
       0.09693319 -0.0031724966 -0.036726937 -0.0008329835
000230 d2 ab c9 bc 71 90 47 3d 52 6f a3 b9 47 b0 04 bd
       -0.024618063 0.048721734 -0.00031172723 -0.032394674
000240 f2 54 8c 3c cf 48 26 3c 88 a7 1e 3d 0d eb 84 3c
       0.017130349 0.010149195 0.03873399 0.016225362
000250 14 d4 b9 bc 03 86 b9 bc a9 05 ad 3c e8 c8 a3 bc
       -0.022684135 -0.02264691 0.021120863 -0.01999326
000260 c4 f2 a9 3b e4 55 16 bd fc 8d e9 3a 43 c5 bb 3c
       0.0051864106 -0.036703005 0.0017818804 0.02292121
000270 11 13 bf bc 56 5a 1d ba 1d db cd 3c 64 5d c2 bc
       -0.023324521 -0.0006002536 0.025128895 -0.023726173
000280 8f 00 aa bc e8 e8 2b 3c b3 35 07 bc a3 1d 1f bd
       -0.02075222 0.010492541 -0.008252549 -0.038846623
000290 db 82 ee 3b f8 99 ca ba 42 4f e5 3b 5a 79 0f 3d
       0.007278783 -0.0015457263 0.0069979737 0.03502784
0002a0 03 17 49 bc 2b 95 a7 bc d8 f2 64 bb 41 35 fd bc
       -0.012273553 -0.020456871 -0.0034934785 -0.030909183
0002b0 32 f2 f9 bc ad 6a 11 3c 96 97 74 39 e8 22 00 bc
       -0.030510996 0.008875531 0.00023326123 -0.007820822
0002c0 60 46 d6 3c 18 5f c1 ba 00 09 b9 bc da b2 a1 3c
       0.026156604 -0.0014753072 -0.0225873 0.019738603
0002d0 da 06 5c bd bf b0 ab 3c 58 4d e6 bc 50 3d b7 bc
       -0.05371747 0.020958303 -0.028113052 -0.022368103
0002e0 d7 1e be 3c 85 3d b4 3c e0 57 41 3c a7 e9 29 bc
       0.023208065 0.022001991 0.011800736 -0.0103706485
0002f0 cc f5 9d 3c ca 76 80 bd cc 78 73 bb 60 17 95 3c
       0.019282244 -0.06272657 -0.0037150858 0.018199623
000300 1e 9a c2 bc 50 78 00 3d ca 3b 0d 3d 84 a7 35 bd
       -0.02375513 0.03136474 0.034480847 -0.04434921
000310 27 89 93 3b f3 90 a2 3c 88 12 a1 3d 3d 75 65 3d
       0.004502434 0.019844508 0.07864863 0.05602001
000320 e6 e5 19 bb fe c3 c3 3c 88 5c 37 3d 87 9a 4e bb
       -0.0023482977 0.023897167 0.04476598 -0.003152521
000330 c0 5a 53 bd ef 66 d8 bc 96 21 9d 3c 70 ba da 38
       -0.051600218 -0.02641627 0.019181054 0.00010429777
000340 1c 5f 28 bb 3a 05 88 3a 22 96 f4 bb a1 ed 0f 3c
       -0.0025691455 0.0010377534 -0.0074641863 0.0087846825
000350 e5 7f e1 3c 4c be 9d bd 90 4a 8d bc a6 4a 61 3a
       0.027526805 -0.07702312 -0.017247468 0.00085941923
000360 03 f1 7f bd ab ba 80 bc 0f 64 b4 bc c9 8d e7 bc
       -0.062485706 -0.01571401 -0.022020368 -0.02826585
000370 de f1 98 bc dc 31 53 3d 71 a1 b5 3c fc 48 1e 3d
       -0.018670019 0.05156122 0.022171708 0.038643822
000380 e5 fc 3a 3d a0 c3 b7 bd 13 db 39 3c ac 05 09 bd
       0.045651335 -0.089728594 0.011343735 -0.033452675
000390 cf ab cc 3c b4 89 fb 3c 22 a4 20 bd c5 16 49 3d
       0.024984268 0.03070531 -0.03921903 0.04909398
0003a0 5f f8 50 3d 18 76 04 bd 56 44 19 3e 18 20 98 3d
       0.051018115 -0.032339185 0.14967474 0.074279964
0003b0 cd 7e 06 be e3 ec 84 3d 4a 3d 2a 3b e0 f5 f7 bd
       -0.13134308 0.06490495 0.0025976473 -0.12107444
0003c0 a3 d0 e1 3d 90 e7 4d 3d 4e 4e bf bd 9a 9a c2 bc
       0.110261224 0.050269663 -0.09341107 -0.02375536
0003d0 2d 34 3c 3d ff da b3 bc cb 4c 72 bc 64 a6 46 3c
       0.045948196 -0.021955011 -0.014788817 0.012124632
0003e0 bf b9 60 3c 49 94 b8 bc 06 a1 a5 bc e5 78 d7 3c
       0.01371616 -0.022531645 -0.020218384 0.026302764
0003f0 2e 74 9d 3b 51 25 a9 3b 7d ea 21 bc 93 e1 e1 3c
       0.0048051095 0.005161919 -0.0098825665 0.027573382

bias f4 [64]
000000 3d f9 38 3d 02 d8 01 3f a6 e3 82 3e 31 5e 47 3e
       0.045159567 0.50720227 0.25564307 0.19469525
000010 cb 0f cf 3d aa 4f c3 3d fe 15 cc 3d 5c 5e 1e bc
       0.10110434 0.09536679 0.09965132 -0.009666052
000020 68 c1 b8 3d ef 41 2b 3d 4e fa 35 bd 77 c9 58 bd
       0.09021264 0.041810926 -0.044428162 -0.052926507
000030 cc ba 94 3c 71 e1 b6 3e d1 65 a9 3e ef e8 0f bd
       0.018155478 0.35718873 0.33085492 -0.035134252
000040 4f ed 0a bd 75 f9 83 3d e4 bf 1a 3d 9d ed d8 bc
       -0.03391772 0.064440645 0.037780657 -0.02648049
000050 d3 54 46 3f f9 e3 e6 3c 01 56 45 3d bf 84 c2 be
       0.7747318 0.028184878 0.048177723 -0.37991902
000060 c6 aa 48 3d 1a 66 b1 3b c9 79 84 be eb 45 2b 3d
       0.048990987 0.005413783 -0.25874165 0.041814726
000070 00 d2 e9 3d 48 11 0c 3d 45 93 22 bf 74 be 0b be
       0.114170074 0.03419617 -0.63505965 -0.13646871
000080 1a 28 0c 3f 51 87 a5 be 85 8c 9d 3a 3b a2 4f 3c
       0.5474869 -0.323298 0.0012020027 0.012672956
000090 48 87 76 bd 61 f8 39 3b 1f e3 68 3d ac 9f e5 3e
       -0.060187608 0.0028376805 0.056857225 0.44848382
0000a0 90 f6 e3 bc 24 6d 9c 3d 66 b8 a2 3c 4d 18 2e 3d
       -0.027827531 0.076380044 0.019863319 0.042503644
0000b0 ba 0d 07 3f f5 9a 7e 3d 47 09 0f 3f 9b 96 b5 be
       0.5275532 0.062159497 0.5587353 -0.35466465
0000c0 65 ad a5 3d 24 ef e6 3e e1 07 a5 3d 2a c0 30 3d
       0.08089713 0.45104325 0.080581434 0.043152012
0000d0 00 94 81 3c f6 34 3d be 88 93 b2 3b 90 f6 18 3d
       0.015817642 -0.18477234 0.005449716 0.037344515
0000e0 0a 14 2f bd f2 13 75 3d 3b 1b f1 3e bb 05 62 bd
       -0.04274372 0.059833474 0.47091088 -0.055181246
0000f0 1d 51 22 bd b5 27 8c 3b 5d 09 2e 3d 12 87 98 bd
       -0.039628137 0.0042771944 0.0424894 -0.074476376

weight f4 [64]
000000 db 8a 71 3f 19 dd 7b 3f e3 a8 84 3f 4a 48 7f 3f
       0.943525 0.98384243 1.036404 0.9971968
000010 1e 10 73 3f 24 85 6f 3f 2d 0e 6c 3f c3 ba 63 3f
       0.9494647 0.9356253 0.9220913 0.8895685
000020 bf d5 5d 3f f8 39 79 3f 93 4f 7e 3f 41 69 7c 3f
       0.86654276 0.9735408 0.9934017 0.98598105
000030 d8 3e 70 3f 51 0d 8c 3f 81 98 72 3f 33 b4 74 3f
       0.9384589 1.0941564 0.9476395 0.9558746
000040 f5 30 6c 3f 43 31 61 3f 46 56 79 3f 99 e9 70 3f
       0.922622 0.8796579 0.9739727 0.9410644
000050 3a 0d 99 3f a2 b2 80 3f e0 c7 6d 3f 22 61 73 3f
       1.1957161 1.0054514 0.9288311 0.9507009
000060 36 d7 6c 3f 5d e2 78 3f 59 8a 66 3f 6a 2a 6f 3f
       0.92515886 0.972204 0.9005485 0.93424094
000070 70 71 73 3f 5f 6d 7d 3f 31 b5 82 3f e3 14 68 3f
       0.95094967 0.9899501 1.0211545 0.9065687
000080 2f 2c 7b 3f bf e8 63 3f 0b 2a 73 3f e8 ac 78 3f
       0.98114294 0.8902702 0.9498603 0.97138834
000090 d8 87 7a 3f 59 bc 6b 3f ab aa 7e 3f 75 93 83 3f
       0.9786353 0.9208427 0.9947917 1.0279375
0000a0 cc ca 6e 3f 74 2e 6c 3f 0f 6a 77 3f bd ef 76 3f
       0.93278193 0.9225838 0.9664621 0.9645956
0000b0 a1 80 7a 3f c1 14 6b 3f b9 e9 81 3f c4 79 7f 3f
       0.9785252 0.9182854 1.0149451 0.99795175
0000c0 01 3e 75 3f 29 78 81 3f 92 df 6a 3f 91 74 79 3f
       0.95797735 1.0114795 0.9174739 0.9744349
0000d0 08 3a 6a 3f cc 0c 67 3f 9c 66 77 3f b8 44 74 3f
       0.914948 0.902539 0.96640944 0.95417356
0000e0 29 0c 6e 3f c7 7d 54 3f a2 57 74 3f 20 3b 86 3f
       0.92987305 0.8300442 0.9544622 1.0486794
0000f0 70 17 7a 3f fd 5b 72 3f ca d2 77 3f 93 dc 61 3f
       0.9769201 0.9467161 0.96806014 0.88227195
